…
 bidirectional_655 (Bidirection  (None, None, 10)    280         ['masking_655[0][0]']            
 al)                                                                                              
                                                                                                  
 bidirectional_656 (Bidirection  (None, None, 10)    280         ['masking_656[0][0]']            
 al)                                                                                              
                                                                                                  
 conv1d_92 (Conv1D)             (None, 25, 5)        1885        ['masking_657[0][0]']            
                                                                                                  
 lstm_803 (LSTM)                (None, 5)            320         ['bidirectional_654[0][0]']      
                                                                                                  
 lstm_805 (LSTM)                (None, 5)            320         ['bidirectional_655[0][0]']      
                                                                                                  
 lstm_807 (LSTM)                (None, 5)            320         ['bidirectional_656[0][0]']      
                                                                                                  
 conv1d_93 (Conv1D)             (None, 25, 5)        105         ['conv1d_92[0][0]']              
                                                                                                  
 dense_504 (Dense)              (None, 64)           384         ['lstm_803[0][0]']               
                                                                                                  
 dense_505 (Dense)              (None, 64)           384         ['lstm_805[0][0]']               
                                                                                                  
 dense_506 (Dense)              (None, 64)           384         ['lstm_807[0][0]']               
                                                                                                  
 bidirectional_657 (Bidirection  (None, 64)          9728        ['conv1d_93[0][0]']              
 al)                                                                                              
                                                                                                  
 dropout_424 (Dropout)          (None, 64)           0           ['dense_504[0][0]']              
                                                                                                  
 dropout_425 (Dropout)          (None, 64)           0           ['dense_505[0][0]']              
                                                                                                  
 dropout_426 (Dropout)          (None, 64)           0           ['dense_506[0][0]']              
                                                                                                  
 dropout_427 (Dropout)          (None, 64)           0           ['bidirectional_657[0][0]']      
                                                                                                  
 concatenate_126 (Concatenate)  (None, 256)          0           ['dropout_424[0][0]',            
                                                                  'dropout_425[0][0]',            
                                                                  'dropout_426[0][0]',            
                                                                  'dropout_427[0][0]']            
                                                                                                  
 dense_507 (Dense)              (None, 1)            257         ['concatenate_126[0][0]']        
                                                                                                  
==================================================================================================
Total params: 14,927
Trainable params: 14,927
Non-trainable params: 0
__________________________________________________________________________________________________
…
 bidirectional_675 (Bidirection  (None, None, 10)    280         ['masking_675[0][0]']            
 al)                                                                                              
                                                                                                  
 bidirectional_676 (Bidirection  (None, None, 10)    280         ['masking_676[0][0]']            
 al)                                                                                              
                                                                                                  
 conv1d_102 (Conv1D)            (None, 25, 5)        2825        ['masking_677[0][0]']            
                                                                                                  
 lstm_838 (LSTM)                (None, 5)            320         ['bidirectional_674[0][0]']      
                                                                                                  
 lstm_840 (LSTM)                (None, 5)            320         ['bidirectional_675[0][0]']      
                                                                                                  
 lstm_842 (LSTM)                (None, 5)            320         ['bidirectional_676[0][0]']      
                                                                                                  
 conv1d_103 (Conv1D)            (None, 25, 5)        155         ['conv1d_102[0][0]']             
                                                                                                  
 dense_524 (Dense)              (None, 64)           384         ['lstm_838[0][0]']               
                                                                                                  
 dense_525 (Dense)              (None, 64)           384         ['lstm_840[0][0]']               
                                                                                                  
 dense_526 (Dense)              (None, 64)           384         ['lstm_842[0][0]']               
                                                                                                  
 bidirectional_677 (Bidirection  (None, 64)          9728        ['conv1d_103[0][0]']             
 al)                                                                                              
                                                                                                  
 dropout_444 (Dropout)          (None, 64)           0           ['dense_524[0][0]']              
                                                                                                  
 dropout_445 (Dropout)          (None, 64)           0           ['dense_525[0][0]']              
                                                                                                  
 dropout_446 (Dropout)          (None, 64)           0           ['dense_526[0][0]']              
                                                                                                  
 dropout_447 (Dropout)          (None, 64)           0           ['bidirectional_677[0][0]']      
                                                                                                  
 concatenate_131 (Concatenate)  (None, 256)          0           ['dropout_444[0][0]',            
                                                                  'dropout_445[0][0]',            
                                                                  'dropout_446[0][0]',            
                                                                  'dropout_447[0][0]']            
                                                                                                  
 dense_527 (Dense)              (None, 1)            257         ['concatenate_131[0][0]']        
                                                                                                  
==================================================================================================
Total params: 15,917
Trainable params: 15,917
Non-trainable params: 0
__________________________________________________________________________________________________
…
 bidirectional_695 (Bidirection  (None, None, 10)    280         ['masking_695[0][0]']            
 al)                                                                                              
                                                                                                  
 bidirectional_696 (Bidirection  (None, None, 10)    280         ['masking_696[0][0]']            
 al)                                                                                              
                                                                                                  
 conv1d_112 (Conv1D)            (None, 25, 5)        3765        ['masking_697[0][0]']            
                                                                                                  
 lstm_873 (LSTM)                (None, 5)            320         ['bidirectional_694[0][0]']      
                                                                                                  
 lstm_875 (LSTM)                (None, 5)            320         ['bidirectional_695[0][0]']      
                                                                                                  
 lstm_877 (LSTM)                (None, 5)            320         ['bidirectional_696[0][0]']      
                                                                                                  
 conv1d_113 (Conv1D)            (None, 25, 5)        205         ['conv1d_112[0][0]']             
                                                                                                  
 dense_544 (Dense)              (None, 64)           384         ['lstm_873[0][0]']               
                                                                                                  
 dense_545 (Dense)              (None, 64)           384         ['lstm_875[0][0]']               
                                                                                                  
 dense_546 (Dense)              (None, 64)           384         ['lstm_877[0][0]']               
                                                                                                  
 bidirectional_697 (Bidirection  (None, 64)          9728        ['conv1d_113[0][0]']             
 al)                                                                                              
                                                                                                  
 dropout_464 (Dropout)          (None, 64)           0           ['dense_544[0][0]']              
                                                                                                  
 dropout_465 (Dropout)          (None, 64)           0           ['dense_545[0][0]']              
                                                                                                  
 dropout_466 (Dropout)          (None, 64)           0           ['dense_546[0][0]']              
                                                                                                  
 dropout_467 (Dropout)          (None, 64)           0           ['bidirectional_697[0][0]']      
                                                                                                  
 concatenate_136 (Concatenate)  (None, 256)          0           ['dropout_464[0][0]',            
                                                                  'dropout_465[0][0]',            
                                                                  'dropout_466[0][0]',            
                                                                  'dropout_467[0][0]']            
                                                                                                  
 dense_547 (Dense)              (None, 1)            257         ['concatenate_136[0][0]']        
                                                                                                  
==================================================================================================
Total params: 16,907
Trainable params: 16,907
Non-trainable params: 0
__________________________________________________________________________________________________
…
 bidirectional_715 (Bidirection  (None, None, 10)    280         ['masking_715[0][0]']            
 al)                                                                                              
                                                                                                  
 bidirectional_716 (Bidirection  (None, None, 10)    280         ['masking_716[0][0]']            
 al)                                                                                              
                                                                                                  
 conv1d_122 (Conv1D)            (None, 25, 5)        1885        ['masking_717[0][0]']            
                                                                                                  
 lstm_908 (LSTM)                (None, 5)            320         ['bidirectional_714[0][0]']      
                                                                                                  
 lstm_910 (LSTM)                (None, 5)            320         ['bidirectional_715[0][0]']      
                                                                                                  
 lstm_912 (LSTM)                (None, 5)            320         ['bidirectional_716[0][0]']      
                                                                                                  
 conv1d_123 (Conv1D)            (None, 25, 5)        105         ['conv1d_122[0][0]']             
                                                                                                  
 dense_564 (Dense)              (None, 96)           576         ['lstm_908[0][0]']               
                                                                                                  
 dense_565 (Dense)              (None, 96)           576         ['lstm_910[0][0]']               
                                                                                                  
 dense_566 (Dense)              (None, 96)           576         ['lstm_912[0][0]']               
                                                                                                  
 bidirectional_717 (Bidirection  (None, 96)          20736       ['conv1d_123[0][0]']             
 al)                                                                                              
                                                                                                  
 dropout_484 (Dropout)          (None, 96)           0           ['dense_564[0][0]']              
                                                                                                  
 dropout_485 (Dropout)          (None, 96)           0           ['dense_565[0][0]']              
                                                                                                  
 dropout_486 (Dropout)          (None, 96)           0           ['dense_566[0][0]']              
                                                                                                  
 dropout_487 (Dropout)          (None, 96)           0           ['bidirectional_717[0][0]']      
                                                                                                  
 concatenate_141 (Concatenate)  (None, 384)          0           ['dropout_484[0][0]',            
                                                                  'dropout_485[0][0]',            
                                                                  'dropout_486[0][0]',            
                                                                  'dropout_487[0][0]']            
                                                                                                  
 dense_567 (Dense)              (None, 1)            385         ['concatenate_141[0][0]']        
                                                                                                  
==================================================================================================
Total params: 26,639
Trainable params: 26,639
Non-trainable params: 0
__________________________________________________________________________________________________
…
 bidirectional_735 (Bidirection  (None, None, 10)    280         ['masking_735[0][0]']            
 al)                                                                                              
                                                                                                  
 bidirectional_736 (Bidirection  (None, None, 10)    280         ['masking_736[0][0]']            
 al)                                                                                              
                                                                                                  
 conv1d_132 (Conv1D)            (None, 25, 5)        2825        ['masking_737[0][0]']            
                                                                                                  
 lstm_943 (LSTM)                (None, 5)            320         ['bidirectional_734[0][0]']      
                                                                                                  
 lstm_945 (LSTM)                (None, 5)            320         ['bidirectional_735[0][0]']      
                                                                                                  
 lstm_947 (LSTM)                (None, 5)            320         ['bidirectional_736[0][0]']      
                                                                                                  
 conv1d_133 (Conv1D)            (None, 25, 5)        155         ['conv1d_132[0][0]']             
                                                                                                  
 dense_584 (Dense)              (None, 96)           576         ['lstm_943[0][0]']               
                                                                                                  
 dense_585 (Dense)              (None, 96)           576         ['lstm_945[0][0]']               
                                                                                                  
 dense_586 (Dense)              (None, 96)           576         ['lstm_947[0][0]']               
                                                                                                  
 bidirectional_737 (Bidirection  (None, 96)          20736       ['conv1d_133[0][0]']             
 al)                                                                                              
                                                                                                  
 dropout_504 (Dropout)          (None, 96)           0           ['dense_584[0][0]']              
                                                                                                  
 dropout_505 (Dropout)          (None, 96)           0           ['dense_585[0][0]']              
                                                                                                  
 dropout_506 (Dropout)          (None, 96)           0           ['dense_586[0][0]']              
                                                                                                  
 dropout_507 (Dropout)          (None, 96)           0           ['bidirectional_737[0][0]']      
                                                                                                  
 concatenate_146 (Concatenate)  (None, 384)          0           ['dropout_504[0][0]',            
                                                                  'dropout_505[0][0]',            
                                                                  'dropout_506[0][0]',            
                                                                  'dropout_507[0][0]']            
                                                                                                  
 dense_587 (Dense)              (None, 1)            385         ['concatenate_146[0][0]']        
                                                                                                  
==================================================================================================
Total params: 27,629
Trainable params: 27,629
Non-trainable params: 0
__________________________________________________________________________________________________
…
 bidirectional_755 (Bidirection  (None, None, 10)    280         ['masking_755[0][0]']            
 al)                                                                                              
                                                                                                  
 bidirectional_756 (Bidirection  (None, None, 10)    280         ['masking_756[0][0]']            
 al)                                                                                              
                                                                                                  
 conv1d_142 (Conv1D)            (None, 25, 5)        3765        ['masking_757[0][0]']            
                                                                                                  
 lstm_978 (LSTM)                (None, 5)            320         ['bidirectional_754[0][0]']      
                                                                                                  
 lstm_980 (LSTM)                (None, 5)            320         ['bidirectional_755[0][0]']      
                                                                                                  
 lstm_982 (LSTM)                (None, 5)            320         ['bidirectional_756[0][0]']      
                                                                                                  
 conv1d_143 (Conv1D)            (None, 25, 5)        205         ['conv1d_142[0][0]']             
                                                                                                  
 dense_604 (Dense)              (None, 96)           576         ['lstm_978[0][0]']               
                                                                                                  
 dense_605 (Dense)              (None, 96)           576         ['lstm_980[0][0]']               
                                                                                                  
 dense_606 (Dense)              (None, 96)           576         ['lstm_982[0][0]']               
                                                                                                  
 bidirectional_757 (Bidirection  (None, 96)          20736       ['conv1d_143[0][0]']             
 al)                                                                                              
                                                                                                  
 dropout_524 (Dropout)          (None, 96)           0           ['dense_604[0][0]']              
                                                                                                  
 dropout_525 (Dropout)          (None, 96)           0           ['dense_605[0][0]']              
                                                                                                  
 dropout_526 (Dropout)          (None, 96)           0           ['dense_606[0][0]']              
                                                                                                  
 dropout_527 (Dropout)          (None, 96)           0           ['bidirectional_757[0][0]']      
                                                                                                  
 concatenate_151 (Concatenate)  (None, 384)          0           ['dropout_524[0][0]',            
                                                                  'dropout_525[0][0]',            
                                                                  'dropout_526[0][0]',            
                                                                  'dropout_527[0][0]']            
                                                                                                  
 dense_607 (Dense)              (None, 1)            385         ['concatenate_151[0][0]']        
                                                                                                  
==================================================================================================
Total params: 28,619
Trainable params: 28,619
Non-trainable params: 0
__________________________________________________________________________________________________
…
 bidirectional_775 (Bidirection  (None, None, 10)    280         ['masking_775[0][0]']            
 al)                                                                                              
                                                                                                  
 bidirectional_776 (Bidirection  (None, None, 10)    280         ['masking_776[0][0]']            
 al)                                                                                              
                                                                                                  
 conv1d_152 (Conv1D)            (None, 25, 5)        1885        ['masking_777[0][0]']            
                                                                                                  
 lstm_1013 (LSTM)               (None, 5)            320         ['bidirectional_774[0][0]']      
                                                                                                  
 lstm_1015 (LSTM)               (None, 5)            320         ['bidirectional_775[0][0]']      
                                                                                                  
 lstm_1017 (LSTM)               (None, 5)            320         ['bidirectional_776[0][0]']      
                                                                                                  
 conv1d_153 (Conv1D)            (None, 25, 5)        105         ['conv1d_152[0][0]']             
                                                                                                  
 dense_624 (Dense)              (None, 128)          768         ['lstm_1013[0][0]']              
                                                                                                  
 dense_625 (Dense)              (None, 128)          768         ['lstm_1015[0][0]']              
                                                                                                  
 dense_626 (Dense)              (None, 128)          768         ['lstm_1017[0][0]']              
                                                                                                  
 bidirectional_777 (Bidirection  (None, 128)         35840       ['conv1d_153[0][0]']             
 al)                                                                                              
                                                                                                  
 dropout_544 (Dropout)          (None, 128)          0           ['dense_624[0][0]']              
                                                                                                  
 dropout_545 (Dropout)          (None, 128)          0           ['dense_625[0][0]']              
                                                                                                  
 dropout_546 (Dropout)          (None, 128)          0           ['dense_626[0][0]']              
                                                                                                  
 dropout_547 (Dropout)          (None, 128)          0           ['bidirectional_777[0][0]']      
                                                                                                  
 concatenate_156 (Concatenate)  (None, 512)          0           ['dropout_544[0][0]',            
                                                                  'dropout_545[0][0]',            
                                                                  'dropout_546[0][0]',            
                                                                  'dropout_547[0][0]']            
                                                                                                  
 dense_627 (Dense)              (None, 1)            513         ['concatenate_156[0][0]']        
                                                                                                  
==================================================================================================
Total params: 42,447
Trainable params: 42,447
Non-trainable params: 0
__________________________________________________________________________________________________
…
 bidirectional_795 (Bidirection  (None, None, 10)    280         ['masking_795[0][0]']            
 al)                                                                                              
                                                                                                  
 bidirectional_796 (Bidirection  (None, None, 10)    280         ['masking_796[0][0]']            
 al)                                                                                              
                                                                                                  
 conv1d_162 (Conv1D)            (None, 25, 5)        2825        ['masking_797[0][0]']            
                                                                                                  
 lstm_1048 (LSTM)               (None, 5)            320         ['bidirectional_794[0][0]']      
                                                                                                  
 lstm_1050 (LSTM)               (None, 5)            320         ['bidirectional_795[0][0]']      
                                                                                                  
 lstm_1052 (LSTM)               (None, 5)            320         ['bidirectional_796[0][0]']      
                                                                                                  
 conv1d_163 (Conv1D)            (None, 25, 5)        155         ['conv1d_162[0][0]']             
                                                                                                  
 dense_644 (Dense)              (None, 128)          768         ['lstm_1048[0][0]']              
                                                                                                  
 dense_645 (Dense)              (None, 128)          768         ['lstm_1050[0][0]']              
                                                                                                  
 dense_646 (Dense)              (None, 128)          768         ['lstm_1052[0][0]']              
                                                                                                  
 bidirectional_797 (Bidirection  (None, 128)         35840       ['conv1d_163[0][0]']             
 al)                                                                                              
                                                                                                  
 dropout_564 (Dropout)          (None, 128)          0           ['dense_644[0][0]']              
                                                                                                  
 dropout_565 (Dropout)          (None, 128)          0           ['dense_645[0][0]']              
                                                                                                  
 dropout_566 (Dropout)          (None, 128)          0           ['dense_646[0][0]']              
                                                                                                  
 dropout_567 (Dropout)          (None, 128)          0           ['bidirectional_797[0][0]']      
                                                                                                  
 concatenate_161 (Concatenate)  (None, 512)          0           ['dropout_564[0][0]',            
                                                                  'dropout_565[0][0]',            
                                                                  'dropout_566[0][0]',            
                                                                  'dropout_567[0][0]']            
                                                                                                  
 dense_647 (Dense)              (None, 1)            513         ['concatenate_161[0][0]']        
                                                                                                  
==================================================================================================
Total params: 43,437
Trainable params: 43,437
Non-trainable params: 0
__________________________________________________________________________________________________
…
 bidirectional_815 (Bidirection  (None, None, 10)    280         ['masking_815[0][0]']            
 al)                                                                                              
                                                                                                  
 bidirectional_816 (Bidirection  (None, None, 10)    280         ['masking_816[0][0]']            
 al)                                                                                              
                                                                                                  
 conv1d_172 (Conv1D)            (None, 25, 5)        3765        ['masking_817[0][0]']            
                                                                                                  
 lstm_1083 (LSTM)               (None, 5)            320         ['bidirectional_814[0][0]']      
                                                                                                  
 lstm_1085 (LSTM)               (None, 5)            320         ['bidirectional_815[0][0]']      
                                                                                                  
 lstm_1087 (LSTM)               (None, 5)            320         ['bidirectional_816[0][0]']      
                                                                                                  
 conv1d_173 (Conv1D)            (None, 25, 5)        205         ['conv1d_172[0][0]']             
                                                                                                  
 dense_664 (Dense)              (None, 128)          768         ['lstm_1083[0][0]']              
                                                                                                  
 dense_665 (Dense)              (None, 128)          768         ['lstm_1085[0][0]']              
                                                                                                  
 dense_666 (Dense)              (None, 128)          768         ['lstm_1087[0][0]']              
                                                                                                  
 bidirectional_817 (Bidirection  (None, 128)         35840       ['conv1d_173[0][0]']             
 al)                                                                                              
                                                                                                  
 dropout_584 (Dropout)          (None, 128)          0           ['dense_664[0][0]']              
                                                                                                  
 dropout_585 (Dropout)          (None, 128)          0           ['dense_665[0][0]']              
                                                                                                  
 dropout_586 (Dropout)          (None, 128)          0           ['dense_666[0][0]']              
                                                                                                  
 dropout_587 (Dropout)          (None, 128)          0           ['bidirectional_817[0][0]']      
                                                                                                  
 concatenate_166 (Concatenate)  (None, 512)          0           ['dropout_584[0][0]',            
                                                                  'dropout_585[0][0]',            
                                                                  'dropout_586[0][0]',            
                                                                  'dropout_587[0][0]']            
                                                                                                  
 dense_667 (Dense)              (None, 1)            513         ['concatenate_166[0][0]']        
                                                                                                  
==================================================================================================
Total params: 44,427
Trainable params: 44,427
Non-trainable params: 0
__________________________________________________________________________________________________
…
