…
 bidirectional_10631 (Bidirecti  (None, None, 10)    280         ['masking_10631[0][0]']          
 onal)                                                                                            
                                                                                                  
 bidirectional_10632 (Bidirecti  (None, None, 10)    280         ['masking_10632[0][0]']          
 onal)                                                                                            
                                                                                                  
 conv1d_3680 (Conv1D)           (None, 25, 5)        1885        ['masking_10633[0][0]']          
                                                                                                  
 lstm_15281 (LSTM)              (None, 5)            320         ['bidirectional_10630[0][0]']    
                                                                                                  
 lstm_15283 (LSTM)              (None, 5)            320         ['bidirectional_10631[0][0]']    
                                                                                                  
 lstm_15285 (LSTM)              (None, 5)            320         ['bidirectional_10632[0][0]']    
                                                                                                  
 conv1d_3681 (Conv1D)           (None, 25, 5)        105         ['conv1d_3680[0][0]']            
                                                                                                  
 dense_8960 (Dense)             (None, 64)           384         ['lstm_15281[0][0]']             
                                                                                                  
 dense_8961 (Dense)             (None, 64)           384         ['lstm_15283[0][0]']             
                                                                                                  
 dense_8962 (Dense)             (None, 64)           384         ['lstm_15285[0][0]']             
                                                                                                  
 bidirectional_10633 (Bidirecti  (None, 64)          9728        ['conv1d_3681[0][0]']            
 onal)                                                                                            
                                                                                                  
 dropout_8560 (Dropout)         (None, 64)           0           ['dense_8960[0][0]']             
                                                                                                  
 dropout_8561 (Dropout)         (None, 64)           0           ['dense_8961[0][0]']             
                                                                                                  
 dropout_8562 (Dropout)         (None, 64)           0           ['dense_8962[0][0]']             
                                                                                                  
 dropout_8563 (Dropout)         (None, 64)           0           ['bidirectional_10633[0][0]']    
                                                                                                  
 concatenate_2240 (Concatenate)  (None, 256)         0           ['dropout_8560[0][0]',           
                                                                  'dropout_8561[0][0]',           
                                                                  'dropout_8562[0][0]',           
                                                                  'dropout_8563[0][0]']           
                                                                                                  
 dense_8963 (Dense)             (None, 1)            257         ['concatenate_2240[0][0]']       
                                                                                                  
==================================================================================================
Total params: 14,927
Trainable params: 14,927
Non-trainable params: 0
__________________________________________________________________________________________________
…
 bidirectional_10651 (Bidirecti  (None, None, 10)    280         ['masking_10651[0][0]']          
 onal)                                                                                            
                                                                                                  
 bidirectional_10652 (Bidirecti  (None, None, 10)    280         ['masking_10652[0][0]']          
 onal)                                                                                            
                                                                                                  
 conv1d_3690 (Conv1D)           (None, 25, 5)        2825        ['masking_10653[0][0]']          
                                                                                                  
 lstm_15316 (LSTM)              (None, 5)            320         ['bidirectional_10650[0][0]']    
                                                                                                  
 lstm_15318 (LSTM)              (None, 5)            320         ['bidirectional_10651[0][0]']    
                                                                                                  
 lstm_15320 (LSTM)              (None, 5)            320         ['bidirectional_10652[0][0]']    
                                                                                                  
 conv1d_3691 (Conv1D)           (None, 25, 5)        155         ['conv1d_3690[0][0]']            
                                                                                                  
 dense_8980 (Dense)             (None, 64)           384         ['lstm_15316[0][0]']             
                                                                                                  
 dense_8981 (Dense)             (None, 64)           384         ['lstm_15318[0][0]']             
                                                                                                  
 dense_8982 (Dense)             (None, 64)           384         ['lstm_15320[0][0]']             
                                                                                                  
 bidirectional_10653 (Bidirecti  (None, 64)          9728        ['conv1d_3691[0][0]']            
 onal)                                                                                            
                                                                                                  
 dropout_8580 (Dropout)         (None, 64)           0           ['dense_8980[0][0]']             
                                                                                                  
 dropout_8581 (Dropout)         (None, 64)           0           ['dense_8981[0][0]']             
                                                                                                  
 dropout_8582 (Dropout)         (None, 64)           0           ['dense_8982[0][0]']             
                                                                                                  
 dropout_8583 (Dropout)         (None, 64)           0           ['bidirectional_10653[0][0]']    
                                                                                                  
 concatenate_2245 (Concatenate)  (None, 256)         0           ['dropout_8580[0][0]',           
                                                                  'dropout_8581[0][0]',           
                                                                  'dropout_8582[0][0]',           
                                                                  'dropout_8583[0][0]']           
                                                                                                  
 dense_8983 (Dense)             (None, 1)            257         ['concatenate_2245[0][0]']       
                                                                                                  
==================================================================================================
Total params: 15,917
Trainable params: 15,917
Non-trainable params: 0
__________________________________________________________________________________________________
…
 bidirectional_10671 (Bidirecti  (None, None, 10)    280         ['masking_10671[0][0]']          
 onal)                                                                                            
                                                                                                  
 bidirectional_10672 (Bidirecti  (None, None, 10)    280         ['masking_10672[0][0]']          
 onal)                                                                                            
                                                                                                  
 conv1d_3700 (Conv1D)           (None, 25, 5)        3765        ['masking_10673[0][0]']          
                                                                                                  
 lstm_15351 (LSTM)              (None, 5)            320         ['bidirectional_10670[0][0]']    
                                                                                                  
 lstm_15353 (LSTM)              (None, 5)            320         ['bidirectional_10671[0][0]']    
                                                                                                  
 lstm_15355 (LSTM)              (None, 5)            320         ['bidirectional_10672[0][0]']    
                                                                                                  
 conv1d_3701 (Conv1D)           (None, 25, 5)        205         ['conv1d_3700[0][0]']            
                                                                                                  
 dense_9000 (Dense)             (None, 64)           384         ['lstm_15351[0][0]']             
                                                                                                  
 dense_9001 (Dense)             (None, 64)           384         ['lstm_15353[0][0]']             
                                                                                                  
 dense_9002 (Dense)             (None, 64)           384         ['lstm_15355[0][0]']             
                                                                                                  
 bidirectional_10673 (Bidirecti  (None, 64)          9728        ['conv1d_3701[0][0]']            
 onal)                                                                                            
                                                                                                  
 dropout_8600 (Dropout)         (None, 64)           0           ['dense_9000[0][0]']             
                                                                                                  
 dropout_8601 (Dropout)         (None, 64)           0           ['dense_9001[0][0]']             
                                                                                                  
 dropout_8602 (Dropout)         (None, 64)           0           ['dense_9002[0][0]']             
                                                                                                  
 dropout_8603 (Dropout)         (None, 64)           0           ['bidirectional_10673[0][0]']    
                                                                                                  
 concatenate_2250 (Concatenate)  (None, 256)         0           ['dropout_8600[0][0]',           
                                                                  'dropout_8601[0][0]',           
                                                                  'dropout_8602[0][0]',           
                                                                  'dropout_8603[0][0]']           
                                                                                                  
 dense_9003 (Dense)             (None, 1)            257         ['concatenate_2250[0][0]']       
                                                                                                  
==================================================================================================
Total params: 16,907
Trainable params: 16,907
Non-trainable params: 0
__________________________________________________________________________________________________
…
 bidirectional_10691 (Bidirecti  (None, None, 10)    280         ['masking_10691[0][0]']          
 onal)                                                                                            
                                                                                                  
 bidirectional_10692 (Bidirecti  (None, None, 10)    280         ['masking_10692[0][0]']          
 onal)                                                                                            
                                                                                                  
 conv1d_3710 (Conv1D)           (None, 25, 5)        1885        ['masking_10693[0][0]']          
                                                                                                  
 lstm_15386 (LSTM)              (None, 5)            320         ['bidirectional_10690[0][0]']    
                                                                                                  
 lstm_15388 (LSTM)              (None, 5)            320         ['bidirectional_10691[0][0]']    
                                                                                                  
 lstm_15390 (LSTM)              (None, 5)            320         ['bidirectional_10692[0][0]']    
                                                                                                  
 conv1d_3711 (Conv1D)           (None, 25, 5)        105         ['conv1d_3710[0][0]']            
                                                                                                  
 dense_9020 (Dense)             (None, 96)           576         ['lstm_15386[0][0]']             
                                                                                                  
 dense_9021 (Dense)             (None, 96)           576         ['lstm_15388[0][0]']             
                                                                                                  
 dense_9022 (Dense)             (None, 96)           576         ['lstm_15390[0][0]']             
                                                                                                  
 bidirectional_10693 (Bidirecti  (None, 96)          20736       ['conv1d_3711[0][0]']            
 onal)                                                                                            
                                                                                                  
 dropout_8620 (Dropout)         (None, 96)           0           ['dense_9020[0][0]']             
                                                                                                  
 dropout_8621 (Dropout)         (None, 96)           0           ['dense_9021[0][0]']             
                                                                                                  
 dropout_8622 (Dropout)         (None, 96)           0           ['dense_9022[0][0]']             
                                                                                                  
 dropout_8623 (Dropout)         (None, 96)           0           ['bidirectional_10693[0][0]']    
                                                                                                  
 concatenate_2255 (Concatenate)  (None, 384)         0           ['dropout_8620[0][0]',           
                                                                  'dropout_8621[0][0]',           
                                                                  'dropout_8622[0][0]',           
                                                                  'dropout_8623[0][0]']           
                                                                                                  
 dense_9023 (Dense)             (None, 1)            385         ['concatenate_2255[0][0]']       
                                                                                                  
==================================================================================================
Total params: 26,639
Trainable params: 26,639
Non-trainable params: 0
__________________________________________________________________________________________________
…
 bidirectional_10711 (Bidirecti  (None, None, 10)    280         ['masking_10711[0][0]']          
 onal)                                                                                            
                                                                                                  
 bidirectional_10712 (Bidirecti  (None, None, 10)    280         ['masking_10712[0][0]']          
 onal)                                                                                            
                                                                                                  
 conv1d_3720 (Conv1D)           (None, 25, 5)        2825        ['masking_10713[0][0]']          
                                                                                                  
 lstm_15421 (LSTM)              (None, 5)            320         ['bidirectional_10710[0][0]']    
                                                                                                  
 lstm_15423 (LSTM)              (None, 5)            320         ['bidirectional_10711[0][0]']    
                                                                                                  
 lstm_15425 (LSTM)              (None, 5)            320         ['bidirectional_10712[0][0]']    
                                                                                                  
 conv1d_3721 (Conv1D)           (None, 25, 5)        155         ['conv1d_3720[0][0]']            
                                                                                                  
 dense_9040 (Dense)             (None, 96)           576         ['lstm_15421[0][0]']             
                                                                                                  
 dense_9041 (Dense)             (None, 96)           576         ['lstm_15423[0][0]']             
                                                                                                  
 dense_9042 (Dense)             (None, 96)           576         ['lstm_15425[0][0]']             
                                                                                                  
 bidirectional_10713 (Bidirecti  (None, 96)          20736       ['conv1d_3721[0][0]']            
 onal)                                                                                            
                                                                                                  
 dropout_8640 (Dropout)         (None, 96)           0           ['dense_9040[0][0]']             
                                                                                                  
 dropout_8641 (Dropout)         (None, 96)           0           ['dense_9041[0][0]']             
                                                                                                  
 dropout_8642 (Dropout)         (None, 96)           0           ['dense_9042[0][0]']             
                                                                                                  
 dropout_8643 (Dropout)         (None, 96)           0           ['bidirectional_10713[0][0]']    
                                                                                                  
 concatenate_2260 (Concatenate)  (None, 384)         0           ['dropout_8640[0][0]',           
                                                                  'dropout_8641[0][0]',           
                                                                  'dropout_8642[0][0]',           
                                                                  'dropout_8643[0][0]']           
                                                                                                  
 dense_9043 (Dense)             (None, 1)            385         ['concatenate_2260[0][0]']       
                                                                                                  
==================================================================================================
Total params: 27,629
Trainable params: 27,629
Non-trainable params: 0
__________________________________________________________________________________________________
…
 bidirectional_10731 (Bidirecti  (None, None, 10)    280         ['masking_10731[0][0]']          
 onal)                                                                                            
                                                                                                  
 bidirectional_10732 (Bidirecti  (None, None, 10)    280         ['masking_10732[0][0]']          
 onal)                                                                                            
                                                                                                  
 conv1d_3730 (Conv1D)           (None, 25, 5)        3765        ['masking_10733[0][0]']          
                                                                                                  
 lstm_15456 (LSTM)              (None, 5)            320         ['bidirectional_10730[0][0]']    
                                                                                                  
 lstm_15458 (LSTM)              (None, 5)            320         ['bidirectional_10731[0][0]']    
                                                                                                  
 lstm_15460 (LSTM)              (None, 5)            320         ['bidirectional_10732[0][0]']    
                                                                                                  
 conv1d_3731 (Conv1D)           (None, 25, 5)        205         ['conv1d_3730[0][0]']            
                                                                                                  
 dense_9060 (Dense)             (None, 96)           576         ['lstm_15456[0][0]']             
                                                                                                  
 dense_9061 (Dense)             (None, 96)           576         ['lstm_15458[0][0]']             
                                                                                                  
 dense_9062 (Dense)             (None, 96)           576         ['lstm_15460[0][0]']             
                                                                                                  
 bidirectional_10733 (Bidirecti  (None, 96)          20736       ['conv1d_3731[0][0]']            
 onal)                                                                                            
                                                                                                  
 dropout_8660 (Dropout)         (None, 96)           0           ['dense_9060[0][0]']             
                                                                                                  
 dropout_8661 (Dropout)         (None, 96)           0           ['dense_9061[0][0]']             
                                                                                                  
 dropout_8662 (Dropout)         (None, 96)           0           ['dense_9062[0][0]']             
                                                                                                  
 dropout_8663 (Dropout)         (None, 96)           0           ['bidirectional_10733[0][0]']    
                                                                                                  
 concatenate_2265 (Concatenate)  (None, 384)         0           ['dropout_8660[0][0]',           
                                                                  'dropout_8661[0][0]',           
                                                                  'dropout_8662[0][0]',           
                                                                  'dropout_8663[0][0]']           
                                                                                                  
 dense_9063 (Dense)             (None, 1)            385         ['concatenate_2265[0][0]']       
                                                                                                  
==================================================================================================
Total params: 28,619
Trainable params: 28,619
Non-trainable params: 0
__________________________________________________________________________________________________
…
 bidirectional_10751 (Bidirecti  (None, None, 10)    280         ['masking_10751[0][0]']          
 onal)                                                                                            
                                                                                                  
 bidirectional_10752 (Bidirecti  (None, None, 10)    280         ['masking_10752[0][0]']          
 onal)                                                                                            
                                                                                                  
 conv1d_3740 (Conv1D)           (None, 25, 5)        1885        ['masking_10753[0][0]']          
                                                                                                  
 lstm_15491 (LSTM)              (None, 5)            320         ['bidirectional_10750[0][0]']    
                                                                                                  
 lstm_15493 (LSTM)              (None, 5)            320         ['bidirectional_10751[0][0]']    
                                                                                                  
 lstm_15495 (LSTM)              (None, 5)            320         ['bidirectional_10752[0][0]']    
                                                                                                  
 conv1d_3741 (Conv1D)           (None, 25, 5)        105         ['conv1d_3740[0][0]']            
                                                                                                  
 dense_9080 (Dense)             (None, 128)          768         ['lstm_15491[0][0]']             
                                                                                                  
 dense_9081 (Dense)             (None, 128)          768         ['lstm_15493[0][0]']             
                                                                                                  
 dense_9082 (Dense)             (None, 128)          768         ['lstm_15495[0][0]']             
                                                                                                  
 bidirectional_10753 (Bidirecti  (None, 128)         35840       ['conv1d_3741[0][0]']            
 onal)                                                                                            
                                                                                                  
 dropout_8680 (Dropout)         (None, 128)          0           ['dense_9080[0][0]']             
                                                                                                  
 dropout_8681 (Dropout)         (None, 128)          0           ['dense_9081[0][0]']             
                                                                                                  
 dropout_8682 (Dropout)         (None, 128)          0           ['dense_9082[0][0]']             
                                                                                                  
 dropout_8683 (Dropout)         (None, 128)          0           ['bidirectional_10753[0][0]']    
                                                                                                  
 concatenate_2270 (Concatenate)  (None, 512)         0           ['dropout_8680[0][0]',           
                                                                  'dropout_8681[0][0]',           
                                                                  'dropout_8682[0][0]',           
                                                                  'dropout_8683[0][0]']           
                                                                                                  
 dense_9083 (Dense)             (None, 1)            513         ['concatenate_2270[0][0]']       
                                                                                                  
==================================================================================================
Total params: 42,447
Trainable params: 42,447
Non-trainable params: 0
__________________________________________________________________________________________________
…
 bidirectional_10771 (Bidirecti  (None, None, 10)    280         ['masking_10771[0][0]']          
 onal)                                                                                            
                                                                                                  
 bidirectional_10772 (Bidirecti  (None, None, 10)    280         ['masking_10772[0][0]']          
 onal)                                                                                            
                                                                                                  
 conv1d_3750 (Conv1D)           (None, 25, 5)        2825        ['masking_10773[0][0]']          
                                                                                                  
 lstm_15526 (LSTM)              (None, 5)            320         ['bidirectional_10770[0][0]']    
                                                                                                  
 lstm_15528 (LSTM)              (None, 5)            320         ['bidirectional_10771[0][0]']    
                                                                                                  
 lstm_15530 (LSTM)              (None, 5)            320         ['bidirectional_10772[0][0]']    
                                                                                                  
 conv1d_3751 (Conv1D)           (None, 25, 5)        155         ['conv1d_3750[0][0]']            
                                                                                                  
 dense_9100 (Dense)             (None, 128)          768         ['lstm_15526[0][0]']             
                                                                                                  
 dense_9101 (Dense)             (None, 128)          768         ['lstm_15528[0][0]']             
                                                                                                  
 dense_9102 (Dense)             (None, 128)          768         ['lstm_15530[0][0]']             
                                                                                                  
 bidirectional_10773 (Bidirecti  (None, 128)         35840       ['conv1d_3751[0][0]']            
 onal)                                                                                            
                                                                                                  
 dropout_8700 (Dropout)         (None, 128)          0           ['dense_9100[0][0]']             
                                                                                                  
 dropout_8701 (Dropout)         (None, 128)          0           ['dense_9101[0][0]']             
                                                                                                  
 dropout_8702 (Dropout)         (None, 128)          0           ['dense_9102[0][0]']             
                                                                                                  
 dropout_8703 (Dropout)         (None, 128)          0           ['bidirectional_10773[0][0]']    
                                                                                                  
 concatenate_2275 (Concatenate)  (None, 512)         0           ['dropout_8700[0][0]',           
                                                                  'dropout_8701[0][0]',           
                                                                  'dropout_8702[0][0]',           
                                                                  'dropout_8703[0][0]']           
                                                                                                  
 dense_9103 (Dense)             (None, 1)            513         ['concatenate_2275[0][0]']       
                                                                                                  
==================================================================================================
Total params: 43,437
Trainable params: 43,437
Non-trainable params: 0
__________________________________________________________________________________________________
…
 bidirectional_10791 (Bidirecti  (None, None, 10)    280         ['masking_10791[0][0]']          
 onal)                                                                                            
                                                                                                  
 bidirectional_10792 (Bidirecti  (None, None, 10)    280         ['masking_10792[0][0]']          
 onal)                                                                                            
                                                                                                  
 conv1d_3760 (Conv1D)           (None, 25, 5)        3765        ['masking_10793[0][0]']          
                                                                                                  
 lstm_15561 (LSTM)              (None, 5)            320         ['bidirectional_10790[0][0]']    
                                                                                                  
 lstm_15563 (LSTM)              (None, 5)            320         ['bidirectional_10791[0][0]']    
                                                                                                  
 lstm_15565 (LSTM)              (None, 5)            320         ['bidirectional_10792[0][0]']    
                                                                                                  
 conv1d_3761 (Conv1D)           (None, 25, 5)        205         ['conv1d_3760[0][0]']            
                                                                                                  
 dense_9120 (Dense)             (None, 128)          768         ['lstm_15561[0][0]']             
                                                                                                  
 dense_9121 (Dense)             (None, 128)          768         ['lstm_15563[0][0]']             
                                                                                                  
 dense_9122 (Dense)             (None, 128)          768         ['lstm_15565[0][0]']             
                                                                                                  
 bidirectional_10793 (Bidirecti  (None, 128)         35840       ['conv1d_3761[0][0]']            
 onal)                                                                                            
                                                                                                  
 dropout_8720 (Dropout)         (None, 128)          0           ['dense_9120[0][0]']             
                                                                                                  
 dropout_8721 (Dropout)         (None, 128)          0           ['dense_9121[0][0]']             
                                                                                                  
 dropout_8722 (Dropout)         (None, 128)          0           ['dense_9122[0][0]']             
                                                                                                  
 dropout_8723 (Dropout)         (None, 128)          0           ['bidirectional_10793[0][0]']    
                                                                                                  
 concatenate_2280 (Concatenate)  (None, 512)         0           ['dropout_8720[0][0]',           
                                                                  'dropout_8721[0][0]',           
                                                                  'dropout_8722[0][0]',           
                                                                  'dropout_8723[0][0]']           
                                                                                                  
 dense_9123 (Dense)             (None, 1)            513         ['concatenate_2280[0][0]']       
                                                                                                  
==================================================================================================
Total params: 44,427
Trainable params: 44,427
Non-trainable params: 0
__________________________________________________________________________________________________
…
