…
 bidirectional_8459 (Bidirectio  (None, None, 10)    280         ['masking_8459[0][0]']           
 nal)                                                                                             
                                                                                                  
 bidirectional_8460 (Bidirectio  (None, None, 10)    280         ['masking_8460[0][0]']           
 nal)                                                                                             
                                                                                                  
 conv1d_2944 (Conv1D)           (None, 25, 5)        1885        ['masking_8461[0][0]']           
                                                                                                  
 lstm_12225 (LSTM)              (None, 5)            320         ['bidirectional_8458[0][0]']     
                                                                                                  
 lstm_12227 (LSTM)              (None, 5)            320         ['bidirectional_8459[0][0]']     
                                                                                                  
 lstm_12229 (LSTM)              (None, 5)            320         ['bidirectional_8460[0][0]']     
                                                                                                  
 conv1d_2945 (Conv1D)           (None, 25, 5)        105         ['conv1d_2944[0][0]']            
                                                                                                  
 dense_7168 (Dense)             (None, 64)           384         ['lstm_12225[0][0]']             
                                                                                                  
 dense_7169 (Dense)             (None, 64)           384         ['lstm_12227[0][0]']             
                                                                                                  
 dense_7170 (Dense)             (None, 64)           384         ['lstm_12229[0][0]']             
                                                                                                  
 bidirectional_8461 (Bidirectio  (None, 64)          9728        ['conv1d_2945[0][0]']            
 nal)                                                                                             
                                                                                                  
 dropout_6848 (Dropout)         (None, 64)           0           ['dense_7168[0][0]']             
                                                                                                  
 dropout_6849 (Dropout)         (None, 64)           0           ['dense_7169[0][0]']             
                                                                                                  
 dropout_6850 (Dropout)         (None, 64)           0           ['dense_7170[0][0]']             
                                                                                                  
 dropout_6851 (Dropout)         (None, 64)           0           ['bidirectional_8461[0][0]']     
                                                                                                  
 concatenate_1792 (Concatenate)  (None, 256)         0           ['dropout_6848[0][0]',           
                                                                  'dropout_6849[0][0]',           
                                                                  'dropout_6850[0][0]',           
                                                                  'dropout_6851[0][0]']           
                                                                                                  
 dense_7171 (Dense)             (None, 1)            257         ['concatenate_1792[0][0]']       
                                                                                                  
==================================================================================================
Total params: 14,927
Trainable params: 14,927
Non-trainable params: 0
__________________________________________________________________________________________________
…
 bidirectional_8479 (Bidirectio  (None, None, 10)    280         ['masking_8479[0][0]']           
 nal)                                                                                             
                                                                                                  
 bidirectional_8480 (Bidirectio  (None, None, 10)    280         ['masking_8480[0][0]']           
 nal)                                                                                             
                                                                                                  
 conv1d_2954 (Conv1D)           (None, 25, 5)        2825        ['masking_8481[0][0]']           
                                                                                                  
 lstm_12260 (LSTM)              (None, 5)            320         ['bidirectional_8478[0][0]']     
                                                                                                  
 lstm_12262 (LSTM)              (None, 5)            320         ['bidirectional_8479[0][0]']     
                                                                                                  
 lstm_12264 (LSTM)              (None, 5)            320         ['bidirectional_8480[0][0]']     
                                                                                                  
 conv1d_2955 (Conv1D)           (None, 25, 5)        155         ['conv1d_2954[0][0]']            
                                                                                                  
 dense_7188 (Dense)             (None, 64)           384         ['lstm_12260[0][0]']             
                                                                                                  
 dense_7189 (Dense)             (None, 64)           384         ['lstm_12262[0][0]']             
                                                                                                  
 dense_7190 (Dense)             (None, 64)           384         ['lstm_12264[0][0]']             
                                                                                                  
 bidirectional_8481 (Bidirectio  (None, 64)          9728        ['conv1d_2955[0][0]']            
 nal)                                                                                             
                                                                                                  
 dropout_6868 (Dropout)         (None, 64)           0           ['dense_7188[0][0]']             
                                                                                                  
 dropout_6869 (Dropout)         (None, 64)           0           ['dense_7189[0][0]']             
                                                                                                  
 dropout_6870 (Dropout)         (None, 64)           0           ['dense_7190[0][0]']             
                                                                                                  
 dropout_6871 (Dropout)         (None, 64)           0           ['bidirectional_8481[0][0]']     
                                                                                                  
 concatenate_1797 (Concatenate)  (None, 256)         0           ['dropout_6868[0][0]',           
                                                                  'dropout_6869[0][0]',           
                                                                  'dropout_6870[0][0]',           
                                                                  'dropout_6871[0][0]']           
                                                                                                  
 dense_7191 (Dense)             (None, 1)            257         ['concatenate_1797[0][0]']       
                                                                                                  
==================================================================================================
Total params: 15,917
Trainable params: 15,917
Non-trainable params: 0
__________________________________________________________________________________________________
…
 bidirectional_8499 (Bidirectio  (None, None, 10)    280         ['masking_8499[0][0]']           
 nal)                                                                                             
                                                                                                  
 bidirectional_8500 (Bidirectio  (None, None, 10)    280         ['masking_8500[0][0]']           
 nal)                                                                                             
                                                                                                  
 conv1d_2964 (Conv1D)           (None, 25, 5)        3765        ['masking_8501[0][0]']           
                                                                                                  
 lstm_12295 (LSTM)              (None, 5)            320         ['bidirectional_8498[0][0]']     
                                                                                                  
 lstm_12297 (LSTM)              (None, 5)            320         ['bidirectional_8499[0][0]']     
                                                                                                  
 lstm_12299 (LSTM)              (None, 5)            320         ['bidirectional_8500[0][0]']     
                                                                                                  
 conv1d_2965 (Conv1D)           (None, 25, 5)        205         ['conv1d_2964[0][0]']            
                                                                                                  
 dense_7208 (Dense)             (None, 64)           384         ['lstm_12295[0][0]']             
                                                                                                  
 dense_7209 (Dense)             (None, 64)           384         ['lstm_12297[0][0]']             
                                                                                                  
 dense_7210 (Dense)             (None, 64)           384         ['lstm_12299[0][0]']             
                                                                                                  
 bidirectional_8501 (Bidirectio  (None, 64)          9728        ['conv1d_2965[0][0]']            
 nal)                                                                                             
                                                                                                  
 dropout_6888 (Dropout)         (None, 64)           0           ['dense_7208[0][0]']             
                                                                                                  
 dropout_6889 (Dropout)         (None, 64)           0           ['dense_7209[0][0]']             
                                                                                                  
 dropout_6890 (Dropout)         (None, 64)           0           ['dense_7210[0][0]']             
                                                                                                  
 dropout_6891 (Dropout)         (None, 64)           0           ['bidirectional_8501[0][0]']     
                                                                                                  
 concatenate_1802 (Concatenate)  (None, 256)         0           ['dropout_6888[0][0]',           
                                                                  'dropout_6889[0][0]',           
                                                                  'dropout_6890[0][0]',           
                                                                  'dropout_6891[0][0]']           
                                                                                                  
 dense_7211 (Dense)             (None, 1)            257         ['concatenate_1802[0][0]']       
                                                                                                  
==================================================================================================
Total params: 16,907
Trainable params: 16,907
Non-trainable params: 0
__________________________________________________________________________________________________
…
 bidirectional_8519 (Bidirectio  (None, None, 10)    280         ['masking_8519[0][0]']           
 nal)                                                                                             
                                                                                                  
 bidirectional_8520 (Bidirectio  (None, None, 10)    280         ['masking_8520[0][0]']           
 nal)                                                                                             
                                                                                                  
 conv1d_2974 (Conv1D)           (None, 25, 5)        1885        ['masking_8521[0][0]']           
                                                                                                  
 lstm_12330 (LSTM)              (None, 5)            320         ['bidirectional_8518[0][0]']     
                                                                                                  
 lstm_12332 (LSTM)              (None, 5)            320         ['bidirectional_8519[0][0]']     
                                                                                                  
 lstm_12334 (LSTM)              (None, 5)            320         ['bidirectional_8520[0][0]']     
                                                                                                  
 conv1d_2975 (Conv1D)           (None, 25, 5)        105         ['conv1d_2974[0][0]']            
                                                                                                  
 dense_7228 (Dense)             (None, 96)           576         ['lstm_12330[0][0]']             
                                                                                                  
 dense_7229 (Dense)             (None, 96)           576         ['lstm_12332[0][0]']             
                                                                                                  
 dense_7230 (Dense)             (None, 96)           576         ['lstm_12334[0][0]']             
                                                                                                  
 bidirectional_8521 (Bidirectio  (None, 96)          20736       ['conv1d_2975[0][0]']            
 nal)                                                                                             
                                                                                                  
 dropout_6908 (Dropout)         (None, 96)           0           ['dense_7228[0][0]']             
                                                                                                  
 dropout_6909 (Dropout)         (None, 96)           0           ['dense_7229[0][0]']             
                                                                                                  
 dropout_6910 (Dropout)         (None, 96)           0           ['dense_7230[0][0]']             
                                                                                                  
 dropout_6911 (Dropout)         (None, 96)           0           ['bidirectional_8521[0][0]']     
                                                                                                  
 concatenate_1807 (Concatenate)  (None, 384)         0           ['dropout_6908[0][0]',           
                                                                  'dropout_6909[0][0]',           
                                                                  'dropout_6910[0][0]',           
                                                                  'dropout_6911[0][0]']           
                                                                                                  
 dense_7231 (Dense)             (None, 1)            385         ['concatenate_1807[0][0]']       
                                                                                                  
==================================================================================================
Total params: 26,639
Trainable params: 26,639
Non-trainable params: 0
__________________________________________________________________________________________________
…
 bidirectional_8539 (Bidirectio  (None, None, 10)    280         ['masking_8539[0][0]']           
 nal)                                                                                             
                                                                                                  
 bidirectional_8540 (Bidirectio  (None, None, 10)    280         ['masking_8540[0][0]']           
 nal)                                                                                             
                                                                                                  
 conv1d_2984 (Conv1D)           (None, 25, 5)        2825        ['masking_8541[0][0]']           
                                                                                                  
 lstm_12365 (LSTM)              (None, 5)            320         ['bidirectional_8538[0][0]']     
                                                                                                  
 lstm_12367 (LSTM)              (None, 5)            320         ['bidirectional_8539[0][0]']     
                                                                                                  
 lstm_12369 (LSTM)              (None, 5)            320         ['bidirectional_8540[0][0]']     
                                                                                                  
 conv1d_2985 (Conv1D)           (None, 25, 5)        155         ['conv1d_2984[0][0]']            
                                                                                                  
 dense_7248 (Dense)             (None, 96)           576         ['lstm_12365[0][0]']             
                                                                                                  
 dense_7249 (Dense)             (None, 96)           576         ['lstm_12367[0][0]']             
                                                                                                  
 dense_7250 (Dense)             (None, 96)           576         ['lstm_12369[0][0]']             
                                                                                                  
 bidirectional_8541 (Bidirectio  (None, 96)          20736       ['conv1d_2985[0][0]']            
 nal)                                                                                             
                                                                                                  
 dropout_6928 (Dropout)         (None, 96)           0           ['dense_7248[0][0]']             
                                                                                                  
 dropout_6929 (Dropout)         (None, 96)           0           ['dense_7249[0][0]']             
                                                                                                  
 dropout_6930 (Dropout)         (None, 96)           0           ['dense_7250[0][0]']             
                                                                                                  
 dropout_6931 (Dropout)         (None, 96)           0           ['bidirectional_8541[0][0]']     
                                                                                                  
 concatenate_1812 (Concatenate)  (None, 384)         0           ['dropout_6928[0][0]',           
                                                                  'dropout_6929[0][0]',           
                                                                  'dropout_6930[0][0]',           
                                                                  'dropout_6931[0][0]']           
                                                                                                  
 dense_7251 (Dense)             (None, 1)            385         ['concatenate_1812[0][0]']       
                                                                                                  
==================================================================================================
Total params: 27,629
Trainable params: 27,629
Non-trainable params: 0
__________________________________________________________________________________________________
…
 bidirectional_8559 (Bidirectio  (None, None, 10)    280         ['masking_8559[0][0]']           
 nal)                                                                                             
                                                                                                  
 bidirectional_8560 (Bidirectio  (None, None, 10)    280         ['masking_8560[0][0]']           
 nal)                                                                                             
                                                                                                  
 conv1d_2994 (Conv1D)           (None, 25, 5)        3765        ['masking_8561[0][0]']           
                                                                                                  
 lstm_12400 (LSTM)              (None, 5)            320         ['bidirectional_8558[0][0]']     
                                                                                                  
 lstm_12402 (LSTM)              (None, 5)            320         ['bidirectional_8559[0][0]']     
                                                                                                  
 lstm_12404 (LSTM)              (None, 5)            320         ['bidirectional_8560[0][0]']     
                                                                                                  
 conv1d_2995 (Conv1D)           (None, 25, 5)        205         ['conv1d_2994[0][0]']            
                                                                                                  
 dense_7268 (Dense)             (None, 96)           576         ['lstm_12400[0][0]']             
                                                                                                  
 dense_7269 (Dense)             (None, 96)           576         ['lstm_12402[0][0]']             
                                                                                                  
 dense_7270 (Dense)             (None, 96)           576         ['lstm_12404[0][0]']             
                                                                                                  
 bidirectional_8561 (Bidirectio  (None, 96)          20736       ['conv1d_2995[0][0]']            
 nal)                                                                                             
                                                                                                  
 dropout_6948 (Dropout)         (None, 96)           0           ['dense_7268[0][0]']             
                                                                                                  
 dropout_6949 (Dropout)         (None, 96)           0           ['dense_7269[0][0]']             
                                                                                                  
 dropout_6950 (Dropout)         (None, 96)           0           ['dense_7270[0][0]']             
                                                                                                  
 dropout_6951 (Dropout)         (None, 96)           0           ['bidirectional_8561[0][0]']     
                                                                                                  
 concatenate_1817 (Concatenate)  (None, 384)         0           ['dropout_6948[0][0]',           
                                                                  'dropout_6949[0][0]',           
                                                                  'dropout_6950[0][0]',           
                                                                  'dropout_6951[0][0]']           
                                                                                                  
 dense_7271 (Dense)             (None, 1)            385         ['concatenate_1817[0][0]']       
                                                                                                  
==================================================================================================
Total params: 28,619
Trainable params: 28,619
Non-trainable params: 0
__________________________________________________________________________________________________
…
 bidirectional_8579 (Bidirectio  (None, None, 10)    280         ['masking_8579[0][0]']           
 nal)                                                                                             
                                                                                                  
 bidirectional_8580 (Bidirectio  (None, None, 10)    280         ['masking_8580[0][0]']           
 nal)                                                                                             
                                                                                                  
 conv1d_3004 (Conv1D)           (None, 25, 5)        1885        ['masking_8581[0][0]']           
                                                                                                  
 lstm_12435 (LSTM)              (None, 5)            320         ['bidirectional_8578[0][0]']     
                                                                                                  
 lstm_12437 (LSTM)              (None, 5)            320         ['bidirectional_8579[0][0]']     
                                                                                                  
 lstm_12439 (LSTM)              (None, 5)            320         ['bidirectional_8580[0][0]']     
                                                                                                  
 conv1d_3005 (Conv1D)           (None, 25, 5)        105         ['conv1d_3004[0][0]']            
                                                                                                  
 dense_7288 (Dense)             (None, 128)          768         ['lstm_12435[0][0]']             
                                                                                                  
 dense_7289 (Dense)             (None, 128)          768         ['lstm_12437[0][0]']             
                                                                                                  
 dense_7290 (Dense)             (None, 128)          768         ['lstm_12439[0][0]']             
                                                                                                  
 bidirectional_8581 (Bidirectio  (None, 128)         35840       ['conv1d_3005[0][0]']            
 nal)                                                                                             
                                                                                                  
 dropout_6968 (Dropout)         (None, 128)          0           ['dense_7288[0][0]']             
                                                                                                  
 dropout_6969 (Dropout)         (None, 128)          0           ['dense_7289[0][0]']             
                                                                                                  
 dropout_6970 (Dropout)         (None, 128)          0           ['dense_7290[0][0]']             
                                                                                                  
 dropout_6971 (Dropout)         (None, 128)          0           ['bidirectional_8581[0][0]']     
                                                                                                  
 concatenate_1822 (Concatenate)  (None, 512)         0           ['dropout_6968[0][0]',           
                                                                  'dropout_6969[0][0]',           
                                                                  'dropout_6970[0][0]',           
                                                                  'dropout_6971[0][0]']           
                                                                                                  
 dense_7291 (Dense)             (None, 1)            513         ['concatenate_1822[0][0]']       
                                                                                                  
==================================================================================================
Total params: 42,447
Trainable params: 42,447
Non-trainable params: 0
__________________________________________________________________________________________________
…
 bidirectional_8599 (Bidirectio  (None, None, 10)    280         ['masking_8599[0][0]']           
 nal)                                                                                             
                                                                                                  
 bidirectional_8600 (Bidirectio  (None, None, 10)    280         ['masking_8600[0][0]']           
 nal)                                                                                             
                                                                                                  
 conv1d_3014 (Conv1D)           (None, 25, 5)        2825        ['masking_8601[0][0]']           
                                                                                                  
 lstm_12470 (LSTM)              (None, 5)            320         ['bidirectional_8598[0][0]']     
                                                                                                  
 lstm_12472 (LSTM)              (None, 5)            320         ['bidirectional_8599[0][0]']     
                                                                                                  
 lstm_12474 (LSTM)              (None, 5)            320         ['bidirectional_8600[0][0]']     
                                                                                                  
 conv1d_3015 (Conv1D)           (None, 25, 5)        155         ['conv1d_3014[0][0]']            
                                                                                                  
 dense_7308 (Dense)             (None, 128)          768         ['lstm_12470[0][0]']             
                                                                                                  
 dense_7309 (Dense)             (None, 128)          768         ['lstm_12472[0][0]']             
                                                                                                  
 dense_7310 (Dense)             (None, 128)          768         ['lstm_12474[0][0]']             
                                                                                                  
 bidirectional_8601 (Bidirectio  (None, 128)         35840       ['conv1d_3015[0][0]']            
 nal)                                                                                             
                                                                                                  
 dropout_6988 (Dropout)         (None, 128)          0           ['dense_7308[0][0]']             
                                                                                                  
 dropout_6989 (Dropout)         (None, 128)          0           ['dense_7309[0][0]']             
                                                                                                  
 dropout_6990 (Dropout)         (None, 128)          0           ['dense_7310[0][0]']             
                                                                                                  
 dropout_6991 (Dropout)         (None, 128)          0           ['bidirectional_8601[0][0]']     
                                                                                                  
 concatenate_1827 (Concatenate)  (None, 512)         0           ['dropout_6988[0][0]',           
                                                                  'dropout_6989[0][0]',           
                                                                  'dropout_6990[0][0]',           
                                                                  'dropout_6991[0][0]']           
                                                                                                  
 dense_7311 (Dense)             (None, 1)            513         ['concatenate_1827[0][0]']       
                                                                                                  
==================================================================================================
Total params: 43,437
Trainable params: 43,437
Non-trainable params: 0
__________________________________________________________________________________________________
…
 bidirectional_8619 (Bidirectio  (None, None, 10)    280         ['masking_8619[0][0]']           
 nal)                                                                                             
                                                                                                  
 bidirectional_8620 (Bidirectio  (None, None, 10)    280         ['masking_8620[0][0]']           
 nal)                                                                                             
                                                                                                  
 conv1d_3024 (Conv1D)           (None, 25, 5)        3765        ['masking_8621[0][0]']           
                                                                                                  
 lstm_12505 (LSTM)              (None, 5)            320         ['bidirectional_8618[0][0]']     
                                                                                                  
 lstm_12507 (LSTM)              (None, 5)            320         ['bidirectional_8619[0][0]']     
                                                                                                  
 lstm_12509 (LSTM)              (None, 5)            320         ['bidirectional_8620[0][0]']     
                                                                                                  
 conv1d_3025 (Conv1D)           (None, 25, 5)        205         ['conv1d_3024[0][0]']            
                                                                                                  
 dense_7328 (Dense)             (None, 128)          768         ['lstm_12505[0][0]']             
                                                                                                  
 dense_7329 (Dense)             (None, 128)          768         ['lstm_12507[0][0]']             
                                                                                                  
 dense_7330 (Dense)             (None, 128)          768         ['lstm_12509[0][0]']             
                                                                                                  
 bidirectional_8621 (Bidirectio  (None, 128)         35840       ['conv1d_3025[0][0]']            
 nal)                                                                                             
                                                                                                  
 dropout_7008 (Dropout)         (None, 128)          0           ['dense_7328[0][0]']             
                                                                                                  
 dropout_7009 (Dropout)         (None, 128)          0           ['dense_7329[0][0]']             
                                                                                                  
 dropout_7010 (Dropout)         (None, 128)          0           ['dense_7330[0][0]']             
                                                                                                  
 dropout_7011 (Dropout)         (None, 128)          0           ['bidirectional_8621[0][0]']     
                                                                                                  
 concatenate_1832 (Concatenate)  (None, 512)         0           ['dropout_7008[0][0]',           
                                                                  'dropout_7009[0][0]',           
                                                                  'dropout_7010[0][0]',           
                                                                  'dropout_7011[0][0]']           
                                                                                                  
 dense_7331 (Dense)             (None, 1)            513         ['concatenate_1832[0][0]']       
                                                                                                  
==================================================================================================
Total params: 44,427
Trainable params: 44,427
Non-trainable params: 0
__________________________________________________________________________________________________
…
