…
 bidirectional_4713 (Bidirectio  (None, None, 10)    280         ['masking_4713[0][0]']           
 nal)                                                                                             
                                                                                                  
 bidirectional_4714 (Bidirectio  (None, None, 10)    280         ['masking_4714[0][0]']           
 nal)                                                                                             
                                                                                                  
 conv1d_1656 (Conv1D)           (None, 24, 5)        65          ['masking_4715[0][0]']           
                                                                                                  
 lstm_6757 (LSTM)               (None, 5)            320         ['bidirectional_4712[0][0]']     
                                                                                                  
 lstm_6759 (LSTM)               (None, 5)            320         ['bidirectional_4713[0][0]']     
                                                                                                  
 lstm_6761 (LSTM)               (None, 5)            320         ['bidirectional_4714[0][0]']     
                                                                                                  
 conv1d_1657 (Conv1D)           (None, 24, 5)        105         ['conv1d_1656[0][0]']            
                                                                                                  
 dense_3952 (Dense)             (None, 64)           384         ['lstm_6757[0][0]']              
                                                                                                  
 dense_3953 (Dense)             (None, 64)           384         ['lstm_6759[0][0]']              
                                                                                                  
 dense_3954 (Dense)             (None, 64)           384         ['lstm_6761[0][0]']              
                                                                                                  
 bidirectional_4715 (Bidirectio  (None, 64)          9728        ['conv1d_1657[0][0]']            
 nal)                                                                                             
                                                                                                  
 dropout_3792 (Dropout)         (None, 64)           0           ['dense_3952[0][0]']             
                                                                                                  
 dropout_3793 (Dropout)         (None, 64)           0           ['dense_3953[0][0]']             
                                                                                                  
 dropout_3794 (Dropout)         (None, 64)           0           ['dense_3954[0][0]']             
                                                                                                  
 dropout_3795 (Dropout)         (None, 64)           0           ['bidirectional_4715[0][0]']     
                                                                                                  
 concatenate_988 (Concatenate)  (None, 256)          0           ['dropout_3792[0][0]',           
                                                                  'dropout_3793[0][0]',           
                                                                  'dropout_3794[0][0]',           
                                                                  'dropout_3795[0][0]']           
                                                                                                  
 dense_3955 (Dense)             (None, 1)            257         ['concatenate_988[0][0]']        
                                                                                                  
==================================================================================================
Total params: 13,107
Trainable params: 13,107
Non-trainable params: 0
__________________________________________________________________________________________________
…
 bidirectional_4733 (Bidirectio  (None, None, 10)    280         ['masking_4733[0][0]']           
 nal)                                                                                             
                                                                                                  
 bidirectional_4734 (Bidirectio  (None, None, 10)    280         ['masking_4734[0][0]']           
 nal)                                                                                             
                                                                                                  
 conv1d_1666 (Conv1D)           (None, 24, 5)        95          ['masking_4735[0][0]']           
                                                                                                  
 lstm_6792 (LSTM)               (None, 5)            320         ['bidirectional_4732[0][0]']     
                                                                                                  
 lstm_6794 (LSTM)               (None, 5)            320         ['bidirectional_4733[0][0]']     
                                                                                                  
 lstm_6796 (LSTM)               (None, 5)            320         ['bidirectional_4734[0][0]']     
                                                                                                  
 conv1d_1667 (Conv1D)           (None, 24, 5)        155         ['conv1d_1666[0][0]']            
                                                                                                  
 dense_3972 (Dense)             (None, 64)           384         ['lstm_6792[0][0]']              
                                                                                                  
 dense_3973 (Dense)             (None, 64)           384         ['lstm_6794[0][0]']              
                                                                                                  
 dense_3974 (Dense)             (None, 64)           384         ['lstm_6796[0][0]']              
                                                                                                  
 bidirectional_4735 (Bidirectio  (None, 64)          9728        ['conv1d_1667[0][0]']            
 nal)                                                                                             
                                                                                                  
 dropout_3812 (Dropout)         (None, 64)           0           ['dense_3972[0][0]']             
                                                                                                  
 dropout_3813 (Dropout)         (None, 64)           0           ['dense_3973[0][0]']             
                                                                                                  
 dropout_3814 (Dropout)         (None, 64)           0           ['dense_3974[0][0]']             
                                                                                                  
 dropout_3815 (Dropout)         (None, 64)           0           ['bidirectional_4735[0][0]']     
                                                                                                  
 concatenate_993 (Concatenate)  (None, 256)          0           ['dropout_3812[0][0]',           
                                                                  'dropout_3813[0][0]',           
                                                                  'dropout_3814[0][0]',           
                                                                  'dropout_3815[0][0]']           
                                                                                                  
 dense_3975 (Dense)             (None, 1)            257         ['concatenate_993[0][0]']        
                                                                                                  
==================================================================================================
Total params: 13,187
Trainable params: 13,187
Non-trainable params: 0
__________________________________________________________________________________________________
…
 bidirectional_4753 (Bidirectio  (None, None, 10)    280         ['masking_4753[0][0]']           
 nal)                                                                                             
                                                                                                  
 bidirectional_4754 (Bidirectio  (None, None, 10)    280         ['masking_4754[0][0]']           
 nal)                                                                                             
                                                                                                  
 conv1d_1676 (Conv1D)           (None, 24, 5)        125         ['masking_4755[0][0]']           
                                                                                                  
 lstm_6827 (LSTM)               (None, 5)            320         ['bidirectional_4752[0][0]']     
                                                                                                  
 lstm_6829 (LSTM)               (None, 5)            320         ['bidirectional_4753[0][0]']     
                                                                                                  
 lstm_6831 (LSTM)               (None, 5)            320         ['bidirectional_4754[0][0]']     
                                                                                                  
 conv1d_1677 (Conv1D)           (None, 24, 5)        205         ['conv1d_1676[0][0]']            
                                                                                                  
 dense_3992 (Dense)             (None, 64)           384         ['lstm_6827[0][0]']              
                                                                                                  
 dense_3993 (Dense)             (None, 64)           384         ['lstm_6829[0][0]']              
                                                                                                  
 dense_3994 (Dense)             (None, 64)           384         ['lstm_6831[0][0]']              
                                                                                                  
 bidirectional_4755 (Bidirectio  (None, 64)          9728        ['conv1d_1677[0][0]']            
 nal)                                                                                             
                                                                                                  
 dropout_3832 (Dropout)         (None, 64)           0           ['dense_3992[0][0]']             
                                                                                                  
 dropout_3833 (Dropout)         (None, 64)           0           ['dense_3993[0][0]']             
                                                                                                  
 dropout_3834 (Dropout)         (None, 64)           0           ['dense_3994[0][0]']             
                                                                                                  
 dropout_3835 (Dropout)         (None, 64)           0           ['bidirectional_4755[0][0]']     
                                                                                                  
 concatenate_998 (Concatenate)  (None, 256)          0           ['dropout_3832[0][0]',           
                                                                  'dropout_3833[0][0]',           
                                                                  'dropout_3834[0][0]',           
                                                                  'dropout_3835[0][0]']           
                                                                                                  
 dense_3995 (Dense)             (None, 1)            257         ['concatenate_998[0][0]']        
                                                                                                  
==================================================================================================
Total params: 13,267
Trainable params: 13,267
Non-trainable params: 0
__________________________________________________________________________________________________
…
 bidirectional_4761 (Bidirectio  (None, None, 10)    280         ['masking_4761[0][0]']           
 nal)                                                                                             
                                                                                                  
 bidirectional_4762 (Bidirectio  (None, None, 10)    280         ['masking_4762[0][0]']           
 nal)                                                                                             
                                                                                                  
 conv1d_1680 (Conv1D)           (None, 24, 5)        125         ['masking_4763[0][0]']           
                                                                                                  
 lstm_6841 (LSTM)               (None, 5)            320         ['bidirectional_4760[0][0]']     
                                                                                                  
 lstm_6843 (LSTM)               (None, 5)            320         ['bidirectional_4761[0][0]']     
                                                                                                  
 lstm_6845 (LSTM)               (None, 5)            320         ['bidirectional_4762[0][0]']     
                                                                                                  
 conv1d_1681 (Conv1D)           (None, 24, 5)        205         ['conv1d_1680[0][0]']            
                                                                                                  
 dense_4000 (Dense)             (None, 64)           384         ['lstm_6841[0][0]']              
                                                                                                  
 dense_4001 (Dense)             (None, 64)           384         ['lstm_6843[0][0]']              
                                                                                                  
 dense_4002 (Dense)             (None, 64)           384         ['lstm_6845[0][0]']              
                                                                                                  
 bidirectional_4763 (Bidirectio  (None, 64)          9728        ['conv1d_1681[0][0]']            
 nal)                                                                                             
                                                                                                  
 dropout_3840 (Dropout)         (None, 64)           0           ['dense_4000[0][0]']             
                                                                                                  
 dropout_3841 (Dropout)         (None, 64)           0           ['dense_4001[0][0]']             
                                                                                                  
 dropout_3842 (Dropout)         (None, 64)           0           ['dense_4002[0][0]']             
                                                                                                  
 dropout_3843 (Dropout)         (None, 64)           0           ['bidirectional_4763[0][0]']     
                                                                                                  
 concatenate_1000 (Concatenate)  (None, 256)         0           ['dropout_3840[0][0]',           
                                                                  'dropout_3841[0][0]',           
                                                                  'dropout_3842[0][0]',           
                                                                  'dropout_3843[0][0]']           
                                                                                                  
 dense_4003 (Dense)             (None, 1)            257         ['concatenate_1000[0][0]']       
                                                                                                  
==================================================================================================
Total params: 13,267
Trainable params: 13,267
Non-trainable params: 0
__________________________________________________________________________________________________
…
 bidirectional_4773 (Bidirectio  (None, None, 10)    280         ['masking_4773[0][0]']           
 nal)                                                                                             
                                                                                                  
 bidirectional_4774 (Bidirectio  (None, None, 10)    280         ['masking_4774[0][0]']           
 nal)                                                                                             
                                                                                                  
 conv1d_1686 (Conv1D)           (None, 24, 5)        65          ['masking_4775[0][0]']           
                                                                                                  
 lstm_6862 (LSTM)               (None, 5)            320         ['bidirectional_4772[0][0]']     
                                                                                                  
 lstm_6864 (LSTM)               (None, 5)            320         ['bidirectional_4773[0][0]']     
                                                                                                  
 lstm_6866 (LSTM)               (None, 5)            320         ['bidirectional_4774[0][0]']     
                                                                                                  
 conv1d_1687 (Conv1D)           (None, 24, 5)        105         ['conv1d_1686[0][0]']            
                                                                                                  
 dense_4012 (Dense)             (None, 96)           576         ['lstm_6862[0][0]']              
                                                                                                  
 dense_4013 (Dense)             (None, 96)           576         ['lstm_6864[0][0]']              
                                                                                                  
 dense_4014 (Dense)             (None, 96)           576         ['lstm_6866[0][0]']              
                                                                                                  
 bidirectional_4775 (Bidirectio  (None, 96)          20736       ['conv1d_1687[0][0]']            
 nal)                                                                                             
                                                                                                  
 dropout_3852 (Dropout)         (None, 96)           0           ['dense_4012[0][0]']             
                                                                                                  
 dropout_3853 (Dropout)         (None, 96)           0           ['dense_4013[0][0]']             
                                                                                                  
 dropout_3854 (Dropout)         (None, 96)           0           ['dense_4014[0][0]']             
                                                                                                  
 dropout_3855 (Dropout)         (None, 96)           0           ['bidirectional_4775[0][0]']     
                                                                                                  
 concatenate_1003 (Concatenate)  (None, 384)         0           ['dropout_3852[0][0]',           
                                                                  'dropout_3853[0][0]',           
                                                                  'dropout_3854[0][0]',           
                                                                  'dropout_3855[0][0]']           
                                                                                                  
 dense_4015 (Dense)             (None, 1)            385         ['concatenate_1003[0][0]']       
                                                                                                  
==================================================================================================
Total params: 24,819
Trainable params: 24,819
Non-trainable params: 0
__________________________________________________________________________________________________
…
 bidirectional_4793 (Bidirectio  (None, None, 10)    280         ['masking_4793[0][0]']           
 nal)                                                                                             
                                                                                                  
 bidirectional_4794 (Bidirectio  (None, None, 10)    280         ['masking_4794[0][0]']           
 nal)                                                                                             
                                                                                                  
 conv1d_1696 (Conv1D)           (None, 24, 5)        95          ['masking_4795[0][0]']           
                                                                                                  
 lstm_6897 (LSTM)               (None, 5)            320         ['bidirectional_4792[0][0]']     
                                                                                                  
 lstm_6899 (LSTM)               (None, 5)            320         ['bidirectional_4793[0][0]']     
                                                                                                  
 lstm_6901 (LSTM)               (None, 5)            320         ['bidirectional_4794[0][0]']     
                                                                                                  
 conv1d_1697 (Conv1D)           (None, 24, 5)        155         ['conv1d_1696[0][0]']            
                                                                                                  
 dense_4032 (Dense)             (None, 96)           576         ['lstm_6897[0][0]']              
                                                                                                  
 dense_4033 (Dense)             (None, 96)           576         ['lstm_6899[0][0]']              
                                                                                                  
 dense_4034 (Dense)             (None, 96)           576         ['lstm_6901[0][0]']              
                                                                                                  
 bidirectional_4795 (Bidirectio  (None, 96)          20736       ['conv1d_1697[0][0]']            
 nal)                                                                                             
                                                                                                  
 dropout_3872 (Dropout)         (None, 96)           0           ['dense_4032[0][0]']             
                                                                                                  
 dropout_3873 (Dropout)         (None, 96)           0           ['dense_4033[0][0]']             
                                                                                                  
 dropout_3874 (Dropout)         (None, 96)           0           ['dense_4034[0][0]']             
                                                                                                  
 dropout_3875 (Dropout)         (None, 96)           0           ['bidirectional_4795[0][0]']     
                                                                                                  
 concatenate_1008 (Concatenate)  (None, 384)         0           ['dropout_3872[0][0]',           
                                                                  'dropout_3873[0][0]',           
                                                                  'dropout_3874[0][0]',           
                                                                  'dropout_3875[0][0]']           
                                                                                                  
 dense_4035 (Dense)             (None, 1)            385         ['concatenate_1008[0][0]']       
                                                                                                  
==================================================================================================
Total params: 24,899
Trainable params: 24,899
Non-trainable params: 0
__________________________________________________________________________________________________
…
 bidirectional_4813 (Bidirectio  (None, None, 10)    280         ['masking_4813[0][0]']           
 nal)                                                                                             
                                                                                                  
 bidirectional_4814 (Bidirectio  (None, None, 10)    280         ['masking_4814[0][0]']           
 nal)                                                                                             
                                                                                                  
 conv1d_1706 (Conv1D)           (None, 24, 5)        125         ['masking_4815[0][0]']           
                                                                                                  
 lstm_6932 (LSTM)               (None, 5)            320         ['bidirectional_4812[0][0]']     
                                                                                                  
 lstm_6934 (LSTM)               (None, 5)            320         ['bidirectional_4813[0][0]']     
                                                                                                  
 lstm_6936 (LSTM)               (None, 5)            320         ['bidirectional_4814[0][0]']     
                                                                                                  
 conv1d_1707 (Conv1D)           (None, 24, 5)        205         ['conv1d_1706[0][0]']            
                                                                                                  
 dense_4052 (Dense)             (None, 96)           576         ['lstm_6932[0][0]']              
                                                                                                  
 dense_4053 (Dense)             (None, 96)           576         ['lstm_6934[0][0]']              
                                                                                                  
 dense_4054 (Dense)             (None, 96)           576         ['lstm_6936[0][0]']              
                                                                                                  
 bidirectional_4815 (Bidirectio  (None, 96)          20736       ['conv1d_1707[0][0]']            
 nal)                                                                                             
                                                                                                  
 dropout_3892 (Dropout)         (None, 96)           0           ['dense_4052[0][0]']             
                                                                                                  
 dropout_3893 (Dropout)         (None, 96)           0           ['dense_4053[0][0]']             
                                                                                                  
 dropout_3894 (Dropout)         (None, 96)           0           ['dense_4054[0][0]']             
                                                                                                  
 dropout_3895 (Dropout)         (None, 96)           0           ['bidirectional_4815[0][0]']     
                                                                                                  
 concatenate_1013 (Concatenate)  (None, 384)         0           ['dropout_3892[0][0]',           
                                                                  'dropout_3893[0][0]',           
                                                                  'dropout_3894[0][0]',           
                                                                  'dropout_3895[0][0]']           
                                                                                                  
 dense_4055 (Dense)             (None, 1)            385         ['concatenate_1013[0][0]']       
                                                                                                  
==================================================================================================
Total params: 24,979
Trainable params: 24,979
Non-trainable params: 0
__________________________________________________________________________________________________
…
 bidirectional_4833 (Bidirectio  (None, None, 10)    280         ['masking_4833[0][0]']           
 nal)                                                                                             
                                                                                                  
 bidirectional_4834 (Bidirectio  (None, None, 10)    280         ['masking_4834[0][0]']           
 nal)                                                                                             
                                                                                                  
 conv1d_1716 (Conv1D)           (None, 24, 5)        65          ['masking_4835[0][0]']           
                                                                                                  
 lstm_6967 (LSTM)               (None, 5)            320         ['bidirectional_4832[0][0]']     
                                                                                                  
 lstm_6969 (LSTM)               (None, 5)            320         ['bidirectional_4833[0][0]']     
                                                                                                  
 lstm_6971 (LSTM)               (None, 5)            320         ['bidirectional_4834[0][0]']     
                                                                                                  
 conv1d_1717 (Conv1D)           (None, 24, 5)        105         ['conv1d_1716[0][0]']            
                                                                                                  
 dense_4072 (Dense)             (None, 128)          768         ['lstm_6967[0][0]']              
                                                                                                  
 dense_4073 (Dense)             (None, 128)          768         ['lstm_6969[0][0]']              
                                                                                                  
 dense_4074 (Dense)             (None, 128)          768         ['lstm_6971[0][0]']              
                                                                                                  
 bidirectional_4835 (Bidirectio  (None, 128)         35840       ['conv1d_1717[0][0]']            
 nal)                                                                                             
                                                                                                  
 dropout_3912 (Dropout)         (None, 128)          0           ['dense_4072[0][0]']             
                                                                                                  
 dropout_3913 (Dropout)         (None, 128)          0           ['dense_4073[0][0]']             
                                                                                                  
 dropout_3914 (Dropout)         (None, 128)          0           ['dense_4074[0][0]']             
                                                                                                  
 dropout_3915 (Dropout)         (None, 128)          0           ['bidirectional_4835[0][0]']     
                                                                                                  
 concatenate_1018 (Concatenate)  (None, 512)         0           ['dropout_3912[0][0]',           
                                                                  'dropout_3913[0][0]',           
                                                                  'dropout_3914[0][0]',           
                                                                  'dropout_3915[0][0]']           
                                                                                                  
 dense_4075 (Dense)             (None, 1)            513         ['concatenate_1018[0][0]']       
                                                                                                  
==================================================================================================
Total params: 40,627
Trainable params: 40,627
Non-trainable params: 0
__________________________________________________________________________________________________
…
 bidirectional_4853 (Bidirectio  (None, None, 10)    280         ['masking_4853[0][0]']           
 nal)                                                                                             
                                                                                                  
 bidirectional_4854 (Bidirectio  (None, None, 10)    280         ['masking_4854[0][0]']           
 nal)                                                                                             
                                                                                                  
 conv1d_1726 (Conv1D)           (None, 24, 5)        95          ['masking_4855[0][0]']           
                                                                                                  
 lstm_7002 (LSTM)               (None, 5)            320         ['bidirectional_4852[0][0]']     
                                                                                                  
 lstm_7004 (LSTM)               (None, 5)            320         ['bidirectional_4853[0][0]']     
                                                                                                  
 lstm_7006 (LSTM)               (None, 5)            320         ['bidirectional_4854[0][0]']     
                                                                                                  
 conv1d_1727 (Conv1D)           (None, 24, 5)        155         ['conv1d_1726[0][0]']            
                                                                                                  
 dense_4092 (Dense)             (None, 128)          768         ['lstm_7002[0][0]']              
                                                                                                  
 dense_4093 (Dense)             (None, 128)          768         ['lstm_7004[0][0]']              
                                                                                                  
 dense_4094 (Dense)             (None, 128)          768         ['lstm_7006[0][0]']              
                                                                                                  
 bidirectional_4855 (Bidirectio  (None, 128)         35840       ['conv1d_1727[0][0]']            
 nal)                                                                                             
                                                                                                  
 dropout_3932 (Dropout)         (None, 128)          0           ['dense_4092[0][0]']             
                                                                                                  
 dropout_3933 (Dropout)         (None, 128)          0           ['dense_4093[0][0]']             
                                                                                                  
 dropout_3934 (Dropout)         (None, 128)          0           ['dense_4094[0][0]']             
                                                                                                  
 dropout_3935 (Dropout)         (None, 128)          0           ['bidirectional_4855[0][0]']     
                                                                                                  
 concatenate_1023 (Concatenate)  (None, 512)         0           ['dropout_3932[0][0]',           
                                                                  'dropout_3933[0][0]',           
                                                                  'dropout_3934[0][0]',           
                                                                  'dropout_3935[0][0]']           
                                                                                                  
 dense_4095 (Dense)             (None, 1)            513         ['concatenate_1023[0][0]']       
                                                                                                  
==================================================================================================
Total params: 40,707
Trainable params: 40,707
Non-trainable params: 0
__________________________________________________________________________________________________
…
 bidirectional_4873 (Bidirectio  (None, None, 10)    280         ['masking_4873[0][0]']           
 nal)                                                                                             
                                                                                                  
 bidirectional_4874 (Bidirectio  (None, None, 10)    280         ['masking_4874[0][0]']           
 nal)                                                                                             
                                                                                                  
 conv1d_1736 (Conv1D)           (None, 24, 5)        125         ['masking_4875[0][0]']           
                                                                                                  
 lstm_7037 (LSTM)               (None, 5)            320         ['bidirectional_4872[0][0]']     
                                                                                                  
 lstm_7039 (LSTM)               (None, 5)            320         ['bidirectional_4873[0][0]']     
                                                                                                  
 lstm_7041 (LSTM)               (None, 5)            320         ['bidirectional_4874[0][0]']     
                                                                                                  
 conv1d_1737 (Conv1D)           (None, 24, 5)        205         ['conv1d_1736[0][0]']            
                                                                                                  
 dense_4112 (Dense)             (None, 128)          768         ['lstm_7037[0][0]']              
                                                                                                  
 dense_4113 (Dense)             (None, 128)          768         ['lstm_7039[0][0]']              
                                                                                                  
 dense_4114 (Dense)             (None, 128)          768         ['lstm_7041[0][0]']              
                                                                                                  
 bidirectional_4875 (Bidirectio  (None, 128)         35840       ['conv1d_1737[0][0]']            
 nal)                                                                                             
                                                                                                  
 dropout_3952 (Dropout)         (None, 128)          0           ['dense_4112[0][0]']             
                                                                                                  
 dropout_3953 (Dropout)         (None, 128)          0           ['dense_4113[0][0]']             
                                                                                                  
 dropout_3954 (Dropout)         (None, 128)          0           ['dense_4114[0][0]']             
                                                                                                  
 dropout_3955 (Dropout)         (None, 128)          0           ['bidirectional_4875[0][0]']     
                                                                                                  
 concatenate_1028 (Concatenate)  (None, 512)         0           ['dropout_3952[0][0]',           
                                                                  'dropout_3953[0][0]',           
                                                                  'dropout_3954[0][0]',           
                                                                  'dropout_3955[0][0]']           
                                                                                                  
 dense_4115 (Dense)             (None, 1)            513         ['concatenate_1028[0][0]']       
                                                                                                  
==================================================================================================
Total params: 40,787
Trainable params: 40,787
Non-trainable params: 0
__________________________________________________________________________________________________
…
 bidirectional_4893 (Bidirectio  (None, None, 10)    280         ['masking_4893[0][0]']           
 nal)                                                                                             
                                                                                                  
 bidirectional_4894 (Bidirectio  (None, None, 10)    280         ['masking_4894[0][0]']           
 nal)                                                                                             
                                                                                                  
 conv1d_1746 (Conv1D)           (None, 24, 5)        95          ['masking_4895[0][0]']           
                                                                                                  
 lstm_7072 (LSTM)               (None, 5)            320         ['bidirectional_4892[0][0]']     
                                                                                                  
 lstm_7074 (LSTM)               (None, 5)            320         ['bidirectional_4893[0][0]']     
                                                                                                  
 lstm_7076 (LSTM)               (None, 5)            320         ['bidirectional_4894[0][0]']     
                                                                                                  
 conv1d_1747 (Conv1D)           (None, 24, 5)        155         ['conv1d_1746[0][0]']            
                                                                                                  
 dense_4132 (Dense)             (None, 64)           384         ['lstm_7072[0][0]']              
                                                                                                  
 dense_4133 (Dense)             (None, 64)           384         ['lstm_7074[0][0]']              
                                                                                                  
 dense_4134 (Dense)             (None, 64)           384         ['lstm_7076[0][0]']              
                                                                                                  
 bidirectional_4895 (Bidirectio  (None, 64)          9728        ['conv1d_1747[0][0]']            
 nal)                                                                                             
                                                                                                  
 dropout_3972 (Dropout)         (None, 64)           0           ['dense_4132[0][0]']             
                                                                                                  
 dropout_3973 (Dropout)         (None, 64)           0           ['dense_4133[0][0]']             
                                                                                                  
 dropout_3974 (Dropout)         (None, 64)           0           ['dense_4134[0][0]']             
                                                                                                  
 dropout_3975 (Dropout)         (None, 64)           0           ['bidirectional_4895[0][0]']     
                                                                                                  
 concatenate_1033 (Concatenate)  (None, 256)         0           ['dropout_3972[0][0]',           
                                                                  'dropout_3973[0][0]',           
                                                                  'dropout_3974[0][0]',           
                                                                  'dropout_3975[0][0]']           
                                                                                                  
 dense_4135 (Dense)             (None, 1)            257         ['concatenate_1033[0][0]']       
                                                                                                  
==================================================================================================
Total params: 13,187
Trainable params: 13,187
Non-trainable params: 0
__________________________________________________________________________________________________
…
