…
 bidirectional_471 (Bidirection  (None, None, 10)    280         ['masking_471[0][0]']            
 al)                                                                                              
                                                                                                  
 bidirectional_472 (Bidirection  (None, None, 10)    280         ['masking_472[0][0]']            
 al)                                                                                              
                                                                                                  
 conv1d (Conv1D)                (None, 25, 5)        1885        ['masking_473[0][0]']            
                                                                                                  
 lstm_481 (LSTM)                (None, 5)            320         ['bidirectional_470[0][0]']      
                                                                                                  
 lstm_483 (LSTM)                (None, 5)            320         ['bidirectional_471[0][0]']      
                                                                                                  
 lstm_485 (LSTM)                (None, 5)            320         ['bidirectional_472[0][0]']      
                                                                                                  
 conv1d_1 (Conv1D)              (None, 25, 5)        105         ['conv1d[0][0]']                 
                                                                                                  
 dense_320 (Dense)              (None, 64)           384         ['lstm_481[0][0]']               
                                                                                                  
 dense_321 (Dense)              (None, 64)           384         ['lstm_483[0][0]']               
                                                                                                  
 dense_322 (Dense)              (None, 64)           384         ['lstm_485[0][0]']               
                                                                                                  
 bidirectional_473 (Bidirection  (None, 64)          9728        ['conv1d_1[0][0]']               
 al)                                                                                              
                                                                                                  
 dropout_240 (Dropout)          (None, 64)           0           ['dense_320[0][0]']              
                                                                                                  
 dropout_241 (Dropout)          (None, 64)           0           ['dense_321[0][0]']              
                                                                                                  
 dropout_242 (Dropout)          (None, 64)           0           ['dense_322[0][0]']              
                                                                                                  
 dropout_243 (Dropout)          (None, 64)           0           ['bidirectional_473[0][0]']      
                                                                                                  
 concatenate_80 (Concatenate)   (None, 256)          0           ['dropout_240[0][0]',            
                                                                  'dropout_241[0][0]',            
                                                                  'dropout_242[0][0]',            
                                                                  'dropout_243[0][0]']            
                                                                                                  
 dense_323 (Dense)              (None, 1)            257         ['concatenate_80[0][0]']         
                                                                                                  
==================================================================================================
Total params: 14,927
Trainable params: 14,927
Non-trainable params: 0
__________________________________________________________________________________________________
…
 bidirectional_491 (Bidirection  (None, None, 10)    280         ['masking_491[0][0]']            
 al)                                                                                              
                                                                                                  
 bidirectional_492 (Bidirection  (None, None, 10)    280         ['masking_492[0][0]']            
 al)                                                                                              
                                                                                                  
 conv1d_10 (Conv1D)             (None, 25, 5)        2825        ['masking_493[0][0]']            
                                                                                                  
 lstm_516 (LSTM)                (None, 5)            320         ['bidirectional_490[0][0]']      
                                                                                                  
 lstm_518 (LSTM)                (None, 5)            320         ['bidirectional_491[0][0]']      
                                                                                                  
 lstm_520 (LSTM)                (None, 5)            320         ['bidirectional_492[0][0]']      
                                                                                                  
 conv1d_11 (Conv1D)             (None, 25, 5)        155         ['conv1d_10[0][0]']              
                                                                                                  
 dense_340 (Dense)              (None, 64)           384         ['lstm_516[0][0]']               
                                                                                                  
 dense_341 (Dense)              (None, 64)           384         ['lstm_518[0][0]']               
                                                                                                  
 dense_342 (Dense)              (None, 64)           384         ['lstm_520[0][0]']               
                                                                                                  
 bidirectional_493 (Bidirection  (None, 64)          9728        ['conv1d_11[0][0]']              
 al)                                                                                              
                                                                                                  
 dropout_260 (Dropout)          (None, 64)           0           ['dense_340[0][0]']              
                                                                                                  
 dropout_261 (Dropout)          (None, 64)           0           ['dense_341[0][0]']              
                                                                                                  
 dropout_262 (Dropout)          (None, 64)           0           ['dense_342[0][0]']              
                                                                                                  
 dropout_263 (Dropout)          (None, 64)           0           ['bidirectional_493[0][0]']      
                                                                                                  
 concatenate_85 (Concatenate)   (None, 256)          0           ['dropout_260[0][0]',            
                                                                  'dropout_261[0][0]',            
                                                                  'dropout_262[0][0]',            
                                                                  'dropout_263[0][0]']            
                                                                                                  
 dense_343 (Dense)              (None, 1)            257         ['concatenate_85[0][0]']         
                                                                                                  
==================================================================================================
Total params: 15,917
Trainable params: 15,917
Non-trainable params: 0
__________________________________________________________________________________________________
…
 bidirectional_511 (Bidirection  (None, None, 10)    280         ['masking_511[0][0]']            
 al)                                                                                              
                                                                                                  
 bidirectional_512 (Bidirection  (None, None, 10)    280         ['masking_512[0][0]']            
 al)                                                                                              
                                                                                                  
 conv1d_20 (Conv1D)             (None, 25, 5)        3765        ['masking_513[0][0]']            
                                                                                                  
 lstm_551 (LSTM)                (None, 5)            320         ['bidirectional_510[0][0]']      
                                                                                                  
 lstm_553 (LSTM)                (None, 5)            320         ['bidirectional_511[0][0]']      
                                                                                                  
 lstm_555 (LSTM)                (None, 5)            320         ['bidirectional_512[0][0]']      
                                                                                                  
 conv1d_21 (Conv1D)             (None, 25, 5)        205         ['conv1d_20[0][0]']              
                                                                                                  
 dense_360 (Dense)              (None, 64)           384         ['lstm_551[0][0]']               
                                                                                                  
 dense_361 (Dense)              (None, 64)           384         ['lstm_553[0][0]']               
                                                                                                  
 dense_362 (Dense)              (None, 64)           384         ['lstm_555[0][0]']               
                                                                                                  
 bidirectional_513 (Bidirection  (None, 64)          9728        ['conv1d_21[0][0]']              
 al)                                                                                              
                                                                                                  
 dropout_280 (Dropout)          (None, 64)           0           ['dense_360[0][0]']              
                                                                                                  
 dropout_281 (Dropout)          (None, 64)           0           ['dense_361[0][0]']              
                                                                                                  
 dropout_282 (Dropout)          (None, 64)           0           ['dense_362[0][0]']              
                                                                                                  
 dropout_283 (Dropout)          (None, 64)           0           ['bidirectional_513[0][0]']      
                                                                                                  
 concatenate_90 (Concatenate)   (None, 256)          0           ['dropout_280[0][0]',            
                                                                  'dropout_281[0][0]',            
                                                                  'dropout_282[0][0]',            
                                                                  'dropout_283[0][0]']            
                                                                                                  
 dense_363 (Dense)              (None, 1)            257         ['concatenate_90[0][0]']         
                                                                                                  
==================================================================================================
Total params: 16,907
Trainable params: 16,907
Non-trainable params: 0
__________________________________________________________________________________________________
…
 bidirectional_531 (Bidirection  (None, None, 10)    280         ['masking_531[0][0]']            
 al)                                                                                              
                                                                                                  
 bidirectional_532 (Bidirection  (None, None, 10)    280         ['masking_532[0][0]']            
 al)                                                                                              
                                                                                                  
 conv1d_30 (Conv1D)             (None, 25, 5)        1885        ['masking_533[0][0]']            
                                                                                                  
 lstm_586 (LSTM)                (None, 5)            320         ['bidirectional_530[0][0]']      
                                                                                                  
 lstm_588 (LSTM)                (None, 5)            320         ['bidirectional_531[0][0]']      
                                                                                                  
 lstm_590 (LSTM)                (None, 5)            320         ['bidirectional_532[0][0]']      
                                                                                                  
 conv1d_31 (Conv1D)             (None, 25, 5)        105         ['conv1d_30[0][0]']              
                                                                                                  
 dense_380 (Dense)              (None, 96)           576         ['lstm_586[0][0]']               
                                                                                                  
 dense_381 (Dense)              (None, 96)           576         ['lstm_588[0][0]']               
                                                                                                  
 dense_382 (Dense)              (None, 96)           576         ['lstm_590[0][0]']               
                                                                                                  
 bidirectional_533 (Bidirection  (None, 96)          20736       ['conv1d_31[0][0]']              
 al)                                                                                              
                                                                                                  
 dropout_300 (Dropout)          (None, 96)           0           ['dense_380[0][0]']              
                                                                                                  
 dropout_301 (Dropout)          (None, 96)           0           ['dense_381[0][0]']              
                                                                                                  
 dropout_302 (Dropout)          (None, 96)           0           ['dense_382[0][0]']              
                                                                                                  
 dropout_303 (Dropout)          (None, 96)           0           ['bidirectional_533[0][0]']      
                                                                                                  
 concatenate_95 (Concatenate)   (None, 384)          0           ['dropout_300[0][0]',            
                                                                  'dropout_301[0][0]',            
                                                                  'dropout_302[0][0]',            
                                                                  'dropout_303[0][0]']            
                                                                                                  
 dense_383 (Dense)              (None, 1)            385         ['concatenate_95[0][0]']         
                                                                                                  
==================================================================================================
Total params: 26,639
Trainable params: 26,639
Non-trainable params: 0
__________________________________________________________________________________________________
…
 bidirectional_551 (Bidirection  (None, None, 10)    280         ['masking_551[0][0]']            
 al)                                                                                              
                                                                                                  
 bidirectional_552 (Bidirection  (None, None, 10)    280         ['masking_552[0][0]']            
 al)                                                                                              
                                                                                                  
 conv1d_40 (Conv1D)             (None, 25, 5)        2825        ['masking_553[0][0]']            
                                                                                                  
 lstm_621 (LSTM)                (None, 5)            320         ['bidirectional_550[0][0]']      
                                                                                                  
 lstm_623 (LSTM)                (None, 5)            320         ['bidirectional_551[0][0]']      
                                                                                                  
 lstm_625 (LSTM)                (None, 5)            320         ['bidirectional_552[0][0]']      
                                                                                                  
 conv1d_41 (Conv1D)             (None, 25, 5)        155         ['conv1d_40[0][0]']              
                                                                                                  
 dense_400 (Dense)              (None, 96)           576         ['lstm_621[0][0]']               
                                                                                                  
 dense_401 (Dense)              (None, 96)           576         ['lstm_623[0][0]']               
                                                                                                  
 dense_402 (Dense)              (None, 96)           576         ['lstm_625[0][0]']               
                                                                                                  
 bidirectional_553 (Bidirection  (None, 96)          20736       ['conv1d_41[0][0]']              
 al)                                                                                              
                                                                                                  
 dropout_320 (Dropout)          (None, 96)           0           ['dense_400[0][0]']              
                                                                                                  
 dropout_321 (Dropout)          (None, 96)           0           ['dense_401[0][0]']              
                                                                                                  
 dropout_322 (Dropout)          (None, 96)           0           ['dense_402[0][0]']              
                                                                                                  
 dropout_323 (Dropout)          (None, 96)           0           ['bidirectional_553[0][0]']      
                                                                                                  
 concatenate_100 (Concatenate)  (None, 384)          0           ['dropout_320[0][0]',            
                                                                  'dropout_321[0][0]',            
                                                                  'dropout_322[0][0]',            
                                                                  'dropout_323[0][0]']            
                                                                                                  
 dense_403 (Dense)              (None, 1)            385         ['concatenate_100[0][0]']        
                                                                                                  
==================================================================================================
Total params: 27,629
Trainable params: 27,629
Non-trainable params: 0
__________________________________________________________________________________________________
…
 bidirectional_571 (Bidirection  (None, None, 10)    280         ['masking_571[0][0]']            
 al)                                                                                              
                                                                                                  
 bidirectional_572 (Bidirection  (None, None, 10)    280         ['masking_572[0][0]']            
 al)                                                                                              
                                                                                                  
 conv1d_50 (Conv1D)             (None, 25, 5)        3765        ['masking_573[0][0]']            
                                                                                                  
 lstm_656 (LSTM)                (None, 5)            320         ['bidirectional_570[0][0]']      
                                                                                                  
 lstm_658 (LSTM)                (None, 5)            320         ['bidirectional_571[0][0]']      
                                                                                                  
 lstm_660 (LSTM)                (None, 5)            320         ['bidirectional_572[0][0]']      
                                                                                                  
 conv1d_51 (Conv1D)             (None, 25, 5)        205         ['conv1d_50[0][0]']              
                                                                                                  
 dense_420 (Dense)              (None, 96)           576         ['lstm_656[0][0]']               
                                                                                                  
 dense_421 (Dense)              (None, 96)           576         ['lstm_658[0][0]']               
                                                                                                  
 dense_422 (Dense)              (None, 96)           576         ['lstm_660[0][0]']               
                                                                                                  
 bidirectional_573 (Bidirection  (None, 96)          20736       ['conv1d_51[0][0]']              
 al)                                                                                              
                                                                                                  
 dropout_340 (Dropout)          (None, 96)           0           ['dense_420[0][0]']              
                                                                                                  
 dropout_341 (Dropout)          (None, 96)           0           ['dense_421[0][0]']              
                                                                                                  
 dropout_342 (Dropout)          (None, 96)           0           ['dense_422[0][0]']              
                                                                                                  
 dropout_343 (Dropout)          (None, 96)           0           ['bidirectional_573[0][0]']      
                                                                                                  
 concatenate_105 (Concatenate)  (None, 384)          0           ['dropout_340[0][0]',            
                                                                  'dropout_341[0][0]',            
                                                                  'dropout_342[0][0]',            
                                                                  'dropout_343[0][0]']            
                                                                                                  
 dense_423 (Dense)              (None, 1)            385         ['concatenate_105[0][0]']        
                                                                                                  
==================================================================================================
Total params: 28,619
Trainable params: 28,619
Non-trainable params: 0
__________________________________________________________________________________________________
…
 bidirectional_591 (Bidirection  (None, None, 10)    280         ['masking_591[0][0]']            
 al)                                                                                              
                                                                                                  
 bidirectional_592 (Bidirection  (None, None, 10)    280         ['masking_592[0][0]']            
 al)                                                                                              
                                                                                                  
 conv1d_60 (Conv1D)             (None, 25, 5)        1885        ['masking_593[0][0]']            
                                                                                                  
 lstm_691 (LSTM)                (None, 5)            320         ['bidirectional_590[0][0]']      
                                                                                                  
 lstm_693 (LSTM)                (None, 5)            320         ['bidirectional_591[0][0]']      
                                                                                                  
 lstm_695 (LSTM)                (None, 5)            320         ['bidirectional_592[0][0]']      
                                                                                                  
 conv1d_61 (Conv1D)             (None, 25, 5)        105         ['conv1d_60[0][0]']              
                                                                                                  
 dense_440 (Dense)              (None, 128)          768         ['lstm_691[0][0]']               
                                                                                                  
 dense_441 (Dense)              (None, 128)          768         ['lstm_693[0][0]']               
                                                                                                  
 dense_442 (Dense)              (None, 128)          768         ['lstm_695[0][0]']               
                                                                                                  
 bidirectional_593 (Bidirection  (None, 128)         35840       ['conv1d_61[0][0]']              
 al)                                                                                              
                                                                                                  
 dropout_360 (Dropout)          (None, 128)          0           ['dense_440[0][0]']              
                                                                                                  
 dropout_361 (Dropout)          (None, 128)          0           ['dense_441[0][0]']              
                                                                                                  
 dropout_362 (Dropout)          (None, 128)          0           ['dense_442[0][0]']              
                                                                                                  
 dropout_363 (Dropout)          (None, 128)          0           ['bidirectional_593[0][0]']      
                                                                                                  
 concatenate_110 (Concatenate)  (None, 512)          0           ['dropout_360[0][0]',            
                                                                  'dropout_361[0][0]',            
                                                                  'dropout_362[0][0]',            
                                                                  'dropout_363[0][0]']            
                                                                                                  
 dense_443 (Dense)              (None, 1)            513         ['concatenate_110[0][0]']        
                                                                                                  
==================================================================================================
Total params: 42,447
Trainable params: 42,447
Non-trainable params: 0
__________________________________________________________________________________________________
…
 bidirectional_611 (Bidirection  (None, None, 10)    280         ['masking_611[0][0]']            
 al)                                                                                              
                                                                                                  
 bidirectional_612 (Bidirection  (None, None, 10)    280         ['masking_612[0][0]']            
 al)                                                                                              
                                                                                                  
 conv1d_70 (Conv1D)             (None, 25, 5)        2825        ['masking_613[0][0]']            
                                                                                                  
 lstm_726 (LSTM)                (None, 5)            320         ['bidirectional_610[0][0]']      
                                                                                                  
 lstm_728 (LSTM)                (None, 5)            320         ['bidirectional_611[0][0]']      
                                                                                                  
 lstm_730 (LSTM)                (None, 5)            320         ['bidirectional_612[0][0]']      
                                                                                                  
 conv1d_71 (Conv1D)             (None, 25, 5)        155         ['conv1d_70[0][0]']              
                                                                                                  
 dense_460 (Dense)              (None, 128)          768         ['lstm_726[0][0]']               
                                                                                                  
 dense_461 (Dense)              (None, 128)          768         ['lstm_728[0][0]']               
                                                                                                  
 dense_462 (Dense)              (None, 128)          768         ['lstm_730[0][0]']               
                                                                                                  
 bidirectional_613 (Bidirection  (None, 128)         35840       ['conv1d_71[0][0]']              
 al)                                                                                              
                                                                                                  
 dropout_380 (Dropout)          (None, 128)          0           ['dense_460[0][0]']              
                                                                                                  
 dropout_381 (Dropout)          (None, 128)          0           ['dense_461[0][0]']              
                                                                                                  
 dropout_382 (Dropout)          (None, 128)          0           ['dense_462[0][0]']              
                                                                                                  
 dropout_383 (Dropout)          (None, 128)          0           ['bidirectional_613[0][0]']      
                                                                                                  
 concatenate_115 (Concatenate)  (None, 512)          0           ['dropout_380[0][0]',            
                                                                  'dropout_381[0][0]',            
                                                                  'dropout_382[0][0]',            
                                                                  'dropout_383[0][0]']            
                                                                                                  
 dense_463 (Dense)              (None, 1)            513         ['concatenate_115[0][0]']        
                                                                                                  
==================================================================================================
Total params: 43,437
Trainable params: 43,437
Non-trainable params: 0
__________________________________________________________________________________________________
…
 bidirectional_631 (Bidirection  (None, None, 10)    280         ['masking_631[0][0]']            
 al)                                                                                              
                                                                                                  
 bidirectional_632 (Bidirection  (None, None, 10)    280         ['masking_632[0][0]']            
 al)                                                                                              
                                                                                                  
 conv1d_80 (Conv1D)             (None, 25, 5)        3765        ['masking_633[0][0]']            
                                                                                                  
 lstm_761 (LSTM)                (None, 5)            320         ['bidirectional_630[0][0]']      
                                                                                                  
 lstm_763 (LSTM)                (None, 5)            320         ['bidirectional_631[0][0]']      
                                                                                                  
 lstm_765 (LSTM)                (None, 5)            320         ['bidirectional_632[0][0]']      
                                                                                                  
 conv1d_81 (Conv1D)             (None, 25, 5)        205         ['conv1d_80[0][0]']              
                                                                                                  
 dense_480 (Dense)              (None, 128)          768         ['lstm_761[0][0]']               
                                                                                                  
 dense_481 (Dense)              (None, 128)          768         ['lstm_763[0][0]']               
                                                                                                  
 dense_482 (Dense)              (None, 128)          768         ['lstm_765[0][0]']               
                                                                                                  
 bidirectional_633 (Bidirection  (None, 128)         35840       ['conv1d_81[0][0]']              
 al)                                                                                              
                                                                                                  
 dropout_400 (Dropout)          (None, 128)          0           ['dense_480[0][0]']              
                                                                                                  
 dropout_401 (Dropout)          (None, 128)          0           ['dense_481[0][0]']              
                                                                                                  
 dropout_402 (Dropout)          (None, 128)          0           ['dense_482[0][0]']              
                                                                                                  
 dropout_403 (Dropout)          (None, 128)          0           ['bidirectional_633[0][0]']      
                                                                                                  
 concatenate_120 (Concatenate)  (None, 512)          0           ['dropout_400[0][0]',            
                                                                  'dropout_401[0][0]',            
                                                                  'dropout_402[0][0]',            
                                                                  'dropout_403[0][0]']            
                                                                                                  
 dense_483 (Dense)              (None, 1)            513         ['concatenate_120[0][0]']        
                                                                                                  
==================================================================================================
Total params: 44,427
Trainable params: 44,427
Non-trainable params: 0
__________________________________________________________________________________________________
…
