…
 bidirectional_10 (Bidirectiona  (None, None, 10)    280         ['masking_10[0][0]']             
 l)                                                                                               
                                                                                                  
 bidirectional_11 (Bidirectiona  (None, None, 10)    280         ['masking_11[0][0]']             
 l)                                                                                               
                                                                                                  
 conv1d_2 (Conv1D)              (None, 24, 5)        95          ['masking_12[0][0]']             
                                                                                                  
 lstm_14 (LSTM)                 (None, 5)            320         ['bidirectional_9[0][0]']        
                                                                                                  
 lstm_16 (LSTM)                 (None, 5)            320         ['bidirectional_10[0][0]']       
                                                                                                  
 lstm_18 (LSTM)                 (None, 5)            320         ['bidirectional_11[0][0]']       
                                                                                                  
 conv1d_3 (Conv1D)              (None, 24, 5)        155         ['conv1d_2[0][0]']               
                                                                                                  
 dense_8 (Dense)                (None, 128)          768         ['lstm_14[0][0]']                
                                                                                                  
 dense_9 (Dense)                (None, 128)          768         ['lstm_16[0][0]']                
                                                                                                  
 dense_10 (Dense)               (None, 128)          768         ['lstm_18[0][0]']                
                                                                                                  
 bidirectional_12 (Bidirectiona  (None, 128)         35840       ['conv1d_3[0][0]']               
 l)                                                                                               
                                                                                                  
 dropout_7 (Dropout)            (None, 128)          0           ['dense_8[0][0]']                
                                                                                                  
 dropout_8 (Dropout)            (None, 128)          0           ['dense_9[0][0]']                
                                                                                                  
 dropout_9 (Dropout)            (None, 128)          0           ['dense_10[0][0]']               
                                                                                                  
 dropout_10 (Dropout)           (None, 128)          0           ['bidirectional_12[0][0]']       
                                                                                                  
 concatenate_2 (Concatenate)    (None, 512)          0           ['dropout_7[0][0]',              
                                                                  'dropout_8[0][0]',              
                                                                  'dropout_9[0][0]',              
                                                                  'dropout_10[0][0]']             
                                                                                                  
 dense_11 (Dense)               (None, 1)            513         ['concatenate_2[0][0]']          
                                                                                                  
==================================================================================================
Total params: 40,707
Trainable params: 40,707
Non-trainable params: 0
__________________________________________________________________________________________________
…
