…
 bidirectional_2173 (Bidirectio  (None, None, 10)    280         ['masking_2173[0][0]']           
 nal)                                                                                             
                                                                                                  
 bidirectional_2174 (Bidirectio  (None, None, 10)    280         ['masking_2174[0][0]']           
 nal)                                                                                             
                                                                                                  
 conv1d_736 (Conv1D)            (None, 24, 5)        65          ['masking_2175[0][0]']           
                                                                                                  
 lstm_3057 (LSTM)               (None, 5)            320         ['bidirectional_2172[0][0]']     
                                                                                                  
 lstm_3059 (LSTM)               (None, 5)            320         ['bidirectional_2173[0][0]']     
                                                                                                  
 lstm_3061 (LSTM)               (None, 5)            320         ['bidirectional_2174[0][0]']     
                                                                                                  
 conv1d_737 (Conv1D)            (None, 24, 5)        105         ['conv1d_736[0][0]']             
                                                                                                  
 dense_1792 (Dense)             (None, 64)           384         ['lstm_3057[0][0]']              
                                                                                                  
 dense_1793 (Dense)             (None, 64)           384         ['lstm_3059[0][0]']              
                                                                                                  
 dense_1794 (Dense)             (None, 64)           384         ['lstm_3061[0][0]']              
                                                                                                  
 bidirectional_2175 (Bidirectio  (None, 64)          9728        ['conv1d_737[0][0]']             
 nal)                                                                                             
                                                                                                  
 dropout_1712 (Dropout)         (None, 64)           0           ['dense_1792[0][0]']             
                                                                                                  
 dropout_1713 (Dropout)         (None, 64)           0           ['dense_1793[0][0]']             
                                                                                                  
 dropout_1714 (Dropout)         (None, 64)           0           ['dense_1794[0][0]']             
                                                                                                  
 dropout_1715 (Dropout)         (None, 64)           0           ['bidirectional_2175[0][0]']     
                                                                                                  
 concatenate_448 (Concatenate)  (None, 256)          0           ['dropout_1712[0][0]',           
                                                                  'dropout_1713[0][0]',           
                                                                  'dropout_1714[0][0]',           
                                                                  'dropout_1715[0][0]']           
                                                                                                  
 dense_1795 (Dense)             (None, 1)            257         ['concatenate_448[0][0]']        
                                                                                                  
==================================================================================================
Total params: 13,107
Trainable params: 13,107
Non-trainable params: 0
__________________________________________________________________________________________________
…
 bidirectional_2193 (Bidirectio  (None, None, 10)    280         ['masking_2193[0][0]']           
 nal)                                                                                             
                                                                                                  
 bidirectional_2194 (Bidirectio  (None, None, 10)    280         ['masking_2194[0][0]']           
 nal)                                                                                             
                                                                                                  
 conv1d_746 (Conv1D)            (None, 24, 5)        95          ['masking_2195[0][0]']           
                                                                                                  
 lstm_3092 (LSTM)               (None, 5)            320         ['bidirectional_2192[0][0]']     
                                                                                                  
 lstm_3094 (LSTM)               (None, 5)            320         ['bidirectional_2193[0][0]']     
                                                                                                  
 lstm_3096 (LSTM)               (None, 5)            320         ['bidirectional_2194[0][0]']     
                                                                                                  
 conv1d_747 (Conv1D)            (None, 24, 5)        155         ['conv1d_746[0][0]']             
                                                                                                  
 dense_1812 (Dense)             (None, 64)           384         ['lstm_3092[0][0]']              
                                                                                                  
 dense_1813 (Dense)             (None, 64)           384         ['lstm_3094[0][0]']              
                                                                                                  
 dense_1814 (Dense)             (None, 64)           384         ['lstm_3096[0][0]']              
                                                                                                  
 bidirectional_2195 (Bidirectio  (None, 64)          9728        ['conv1d_747[0][0]']             
 nal)                                                                                             
                                                                                                  
 dropout_1732 (Dropout)         (None, 64)           0           ['dense_1812[0][0]']             
                                                                                                  
 dropout_1733 (Dropout)         (None, 64)           0           ['dense_1813[0][0]']             
                                                                                                  
 dropout_1734 (Dropout)         (None, 64)           0           ['dense_1814[0][0]']             
                                                                                                  
 dropout_1735 (Dropout)         (None, 64)           0           ['bidirectional_2195[0][0]']     
                                                                                                  
 concatenate_453 (Concatenate)  (None, 256)          0           ['dropout_1732[0][0]',           
                                                                  'dropout_1733[0][0]',           
                                                                  'dropout_1734[0][0]',           
                                                                  'dropout_1735[0][0]']           
                                                                                                  
 dense_1815 (Dense)             (None, 1)            257         ['concatenate_453[0][0]']        
                                                                                                  
==================================================================================================
Total params: 13,187
Trainable params: 13,187
Non-trainable params: 0
__________________________________________________________________________________________________
…
 bidirectional_2213 (Bidirectio  (None, None, 10)    280         ['masking_2213[0][0]']           
 nal)                                                                                             
                                                                                                  
 bidirectional_2214 (Bidirectio  (None, None, 10)    280         ['masking_2214[0][0]']           
 nal)                                                                                             
                                                                                                  
 conv1d_756 (Conv1D)            (None, 24, 5)        125         ['masking_2215[0][0]']           
                                                                                                  
 lstm_3127 (LSTM)               (None, 5)            320         ['bidirectional_2212[0][0]']     
                                                                                                  
 lstm_3129 (LSTM)               (None, 5)            320         ['bidirectional_2213[0][0]']     
                                                                                                  
 lstm_3131 (LSTM)               (None, 5)            320         ['bidirectional_2214[0][0]']     
                                                                                                  
 conv1d_757 (Conv1D)            (None, 24, 5)        205         ['conv1d_756[0][0]']             
                                                                                                  
 dense_1832 (Dense)             (None, 64)           384         ['lstm_3127[0][0]']              
                                                                                                  
 dense_1833 (Dense)             (None, 64)           384         ['lstm_3129[0][0]']              
                                                                                                  
 dense_1834 (Dense)             (None, 64)           384         ['lstm_3131[0][0]']              
                                                                                                  
 bidirectional_2215 (Bidirectio  (None, 64)          9728        ['conv1d_757[0][0]']             
 nal)                                                                                             
                                                                                                  
 dropout_1752 (Dropout)         (None, 64)           0           ['dense_1832[0][0]']             
                                                                                                  
 dropout_1753 (Dropout)         (None, 64)           0           ['dense_1833[0][0]']             
                                                                                                  
 dropout_1754 (Dropout)         (None, 64)           0           ['dense_1834[0][0]']             
                                                                                                  
 dropout_1755 (Dropout)         (None, 64)           0           ['bidirectional_2215[0][0]']     
                                                                                                  
 concatenate_458 (Concatenate)  (None, 256)          0           ['dropout_1752[0][0]',           
                                                                  'dropout_1753[0][0]',           
                                                                  'dropout_1754[0][0]',           
                                                                  'dropout_1755[0][0]']           
                                                                                                  
 dense_1835 (Dense)             (None, 1)            257         ['concatenate_458[0][0]']        
                                                                                                  
==================================================================================================
Total params: 13,267
Trainable params: 13,267
Non-trainable params: 0
__________________________________________________________________________________________________
…
 bidirectional_2233 (Bidirectio  (None, None, 10)    280         ['masking_2233[0][0]']           
 nal)                                                                                             
                                                                                                  
 bidirectional_2234 (Bidirectio  (None, None, 10)    280         ['masking_2234[0][0]']           
 nal)                                                                                             
                                                                                                  
 conv1d_766 (Conv1D)            (None, 24, 5)        65          ['masking_2235[0][0]']           
                                                                                                  
 lstm_3162 (LSTM)               (None, 5)            320         ['bidirectional_2232[0][0]']     
                                                                                                  
 lstm_3164 (LSTM)               (None, 5)            320         ['bidirectional_2233[0][0]']     
                                                                                                  
 lstm_3166 (LSTM)               (None, 5)            320         ['bidirectional_2234[0][0]']     
                                                                                                  
 conv1d_767 (Conv1D)            (None, 24, 5)        105         ['conv1d_766[0][0]']             
                                                                                                  
 dense_1852 (Dense)             (None, 96)           576         ['lstm_3162[0][0]']              
                                                                                                  
 dense_1853 (Dense)             (None, 96)           576         ['lstm_3164[0][0]']              
                                                                                                  
 dense_1854 (Dense)             (None, 96)           576         ['lstm_3166[0][0]']              
                                                                                                  
 bidirectional_2235 (Bidirectio  (None, 96)          20736       ['conv1d_767[0][0]']             
 nal)                                                                                             
                                                                                                  
 dropout_1772 (Dropout)         (None, 96)           0           ['dense_1852[0][0]']             
                                                                                                  
 dropout_1773 (Dropout)         (None, 96)           0           ['dense_1853[0][0]']             
                                                                                                  
 dropout_1774 (Dropout)         (None, 96)           0           ['dense_1854[0][0]']             
                                                                                                  
 dropout_1775 (Dropout)         (None, 96)           0           ['bidirectional_2235[0][0]']     
                                                                                                  
 concatenate_463 (Concatenate)  (None, 384)          0           ['dropout_1772[0][0]',           
                                                                  'dropout_1773[0][0]',           
                                                                  'dropout_1774[0][0]',           
                                                                  'dropout_1775[0][0]']           
                                                                                                  
 dense_1855 (Dense)             (None, 1)            385         ['concatenate_463[0][0]']        
                                                                                                  
==================================================================================================
Total params: 24,819
Trainable params: 24,819
Non-trainable params: 0
__________________________________________________________________________________________________
…
 bidirectional_2253 (Bidirectio  (None, None, 10)    280         ['masking_2253[0][0]']           
 nal)                                                                                             
                                                                                                  
 bidirectional_2254 (Bidirectio  (None, None, 10)    280         ['masking_2254[0][0]']           
 nal)                                                                                             
                                                                                                  
 conv1d_776 (Conv1D)            (None, 24, 5)        95          ['masking_2255[0][0]']           
                                                                                                  
 lstm_3197 (LSTM)               (None, 5)            320         ['bidirectional_2252[0][0]']     
                                                                                                  
 lstm_3199 (LSTM)               (None, 5)            320         ['bidirectional_2253[0][0]']     
                                                                                                  
 lstm_3201 (LSTM)               (None, 5)            320         ['bidirectional_2254[0][0]']     
                                                                                                  
 conv1d_777 (Conv1D)            (None, 24, 5)        155         ['conv1d_776[0][0]']             
                                                                                                  
 dense_1872 (Dense)             (None, 96)           576         ['lstm_3197[0][0]']              
                                                                                                  
 dense_1873 (Dense)             (None, 96)           576         ['lstm_3199[0][0]']              
                                                                                                  
 dense_1874 (Dense)             (None, 96)           576         ['lstm_3201[0][0]']              
                                                                                                  
 bidirectional_2255 (Bidirectio  (None, 96)          20736       ['conv1d_777[0][0]']             
 nal)                                                                                             
                                                                                                  
 dropout_1792 (Dropout)         (None, 96)           0           ['dense_1872[0][0]']             
                                                                                                  
 dropout_1793 (Dropout)         (None, 96)           0           ['dense_1873[0][0]']             
                                                                                                  
 dropout_1794 (Dropout)         (None, 96)           0           ['dense_1874[0][0]']             
                                                                                                  
 dropout_1795 (Dropout)         (None, 96)           0           ['bidirectional_2255[0][0]']     
                                                                                                  
 concatenate_468 (Concatenate)  (None, 384)          0           ['dropout_1792[0][0]',           
                                                                  'dropout_1793[0][0]',           
                                                                  'dropout_1794[0][0]',           
                                                                  'dropout_1795[0][0]']           
                                                                                                  
 dense_1875 (Dense)             (None, 1)            385         ['concatenate_468[0][0]']        
                                                                                                  
==================================================================================================
Total params: 24,899
Trainable params: 24,899
Non-trainable params: 0
__________________________________________________________________________________________________
…
 bidirectional_2273 (Bidirectio  (None, None, 10)    280         ['masking_2273[0][0]']           
 nal)                                                                                             
                                                                                                  
 bidirectional_2274 (Bidirectio  (None, None, 10)    280         ['masking_2274[0][0]']           
 nal)                                                                                             
                                                                                                  
 conv1d_786 (Conv1D)            (None, 24, 5)        125         ['masking_2275[0][0]']           
                                                                                                  
 lstm_3232 (LSTM)               (None, 5)            320         ['bidirectional_2272[0][0]']     
                                                                                                  
 lstm_3234 (LSTM)               (None, 5)            320         ['bidirectional_2273[0][0]']     
                                                                                                  
 lstm_3236 (LSTM)               (None, 5)            320         ['bidirectional_2274[0][0]']     
                                                                                                  
 conv1d_787 (Conv1D)            (None, 24, 5)        205         ['conv1d_786[0][0]']             
                                                                                                  
 dense_1892 (Dense)             (None, 96)           576         ['lstm_3232[0][0]']              
                                                                                                  
 dense_1893 (Dense)             (None, 96)           576         ['lstm_3234[0][0]']              
                                                                                                  
 dense_1894 (Dense)             (None, 96)           576         ['lstm_3236[0][0]']              
                                                                                                  
 bidirectional_2275 (Bidirectio  (None, 96)          20736       ['conv1d_787[0][0]']             
 nal)                                                                                             
                                                                                                  
 dropout_1812 (Dropout)         (None, 96)           0           ['dense_1892[0][0]']             
                                                                                                  
 dropout_1813 (Dropout)         (None, 96)           0           ['dense_1893[0][0]']             
                                                                                                  
 dropout_1814 (Dropout)         (None, 96)           0           ['dense_1894[0][0]']             
                                                                                                  
 dropout_1815 (Dropout)         (None, 96)           0           ['bidirectional_2275[0][0]']     
                                                                                                  
 concatenate_473 (Concatenate)  (None, 384)          0           ['dropout_1812[0][0]',           
                                                                  'dropout_1813[0][0]',           
                                                                  'dropout_1814[0][0]',           
                                                                  'dropout_1815[0][0]']           
                                                                                                  
 dense_1895 (Dense)             (None, 1)            385         ['concatenate_473[0][0]']        
                                                                                                  
==================================================================================================
Total params: 24,979
Trainable params: 24,979
Non-trainable params: 0
__________________________________________________________________________________________________
…
 bidirectional_2293 (Bidirectio  (None, None, 10)    280         ['masking_2293[0][0]']           
 nal)                                                                                             
                                                                                                  
 bidirectional_2294 (Bidirectio  (None, None, 10)    280         ['masking_2294[0][0]']           
 nal)                                                                                             
                                                                                                  
 conv1d_796 (Conv1D)            (None, 24, 5)        65          ['masking_2295[0][0]']           
                                                                                                  
 lstm_3267 (LSTM)               (None, 5)            320         ['bidirectional_2292[0][0]']     
                                                                                                  
 lstm_3269 (LSTM)               (None, 5)            320         ['bidirectional_2293[0][0]']     
                                                                                                  
 lstm_3271 (LSTM)               (None, 5)            320         ['bidirectional_2294[0][0]']     
                                                                                                  
 conv1d_797 (Conv1D)            (None, 24, 5)        105         ['conv1d_796[0][0]']             
                                                                                                  
 dense_1912 (Dense)             (None, 128)          768         ['lstm_3267[0][0]']              
                                                                                                  
 dense_1913 (Dense)             (None, 128)          768         ['lstm_3269[0][0]']              
                                                                                                  
 dense_1914 (Dense)             (None, 128)          768         ['lstm_3271[0][0]']              
                                                                                                  
 bidirectional_2295 (Bidirectio  (None, 128)         35840       ['conv1d_797[0][0]']             
 nal)                                                                                             
                                                                                                  
 dropout_1832 (Dropout)         (None, 128)          0           ['dense_1912[0][0]']             
                                                                                                  
 dropout_1833 (Dropout)         (None, 128)          0           ['dense_1913[0][0]']             
                                                                                                  
 dropout_1834 (Dropout)         (None, 128)          0           ['dense_1914[0][0]']             
                                                                                                  
 dropout_1835 (Dropout)         (None, 128)          0           ['bidirectional_2295[0][0]']     
                                                                                                  
 concatenate_478 (Concatenate)  (None, 512)          0           ['dropout_1832[0][0]',           
                                                                  'dropout_1833[0][0]',           
                                                                  'dropout_1834[0][0]',           
                                                                  'dropout_1835[0][0]']           
                                                                                                  
 dense_1915 (Dense)             (None, 1)            513         ['concatenate_478[0][0]']        
                                                                                                  
==================================================================================================
Total params: 40,627
Trainable params: 40,627
Non-trainable params: 0
__________________________________________________________________________________________________
…
 bidirectional_2313 (Bidirectio  (None, None, 10)    280         ['masking_2313[0][0]']           
 nal)                                                                                             
                                                                                                  
 bidirectional_2314 (Bidirectio  (None, None, 10)    280         ['masking_2314[0][0]']           
 nal)                                                                                             
                                                                                                  
 conv1d_806 (Conv1D)            (None, 24, 5)        95          ['masking_2315[0][0]']           
                                                                                                  
 lstm_3302 (LSTM)               (None, 5)            320         ['bidirectional_2312[0][0]']     
                                                                                                  
 lstm_3304 (LSTM)               (None, 5)            320         ['bidirectional_2313[0][0]']     
                                                                                                  
 lstm_3306 (LSTM)               (None, 5)            320         ['bidirectional_2314[0][0]']     
                                                                                                  
 conv1d_807 (Conv1D)            (None, 24, 5)        155         ['conv1d_806[0][0]']             
                                                                                                  
 dense_1932 (Dense)             (None, 128)          768         ['lstm_3302[0][0]']              
                                                                                                  
 dense_1933 (Dense)             (None, 128)          768         ['lstm_3304[0][0]']              
                                                                                                  
 dense_1934 (Dense)             (None, 128)          768         ['lstm_3306[0][0]']              
                                                                                                  
 bidirectional_2315 (Bidirectio  (None, 128)         35840       ['conv1d_807[0][0]']             
 nal)                                                                                             
                                                                                                  
 dropout_1852 (Dropout)         (None, 128)          0           ['dense_1932[0][0]']             
                                                                                                  
 dropout_1853 (Dropout)         (None, 128)          0           ['dense_1933[0][0]']             
                                                                                                  
 dropout_1854 (Dropout)         (None, 128)          0           ['dense_1934[0][0]']             
                                                                                                  
 dropout_1855 (Dropout)         (None, 128)          0           ['bidirectional_2315[0][0]']     
                                                                                                  
 concatenate_483 (Concatenate)  (None, 512)          0           ['dropout_1852[0][0]',           
                                                                  'dropout_1853[0][0]',           
                                                                  'dropout_1854[0][0]',           
                                                                  'dropout_1855[0][0]']           
                                                                                                  
 dense_1935 (Dense)             (None, 1)            513         ['concatenate_483[0][0]']        
                                                                                                  
==================================================================================================
Total params: 40,707
Trainable params: 40,707
Non-trainable params: 0
__________________________________________________________________________________________________
…
 bidirectional_2333 (Bidirectio  (None, None, 10)    280         ['masking_2333[0][0]']           
 nal)                                                                                             
                                                                                                  
 bidirectional_2334 (Bidirectio  (None, None, 10)    280         ['masking_2334[0][0]']           
 nal)                                                                                             
                                                                                                  
 conv1d_816 (Conv1D)            (None, 24, 5)        125         ['masking_2335[0][0]']           
                                                                                                  
 lstm_3337 (LSTM)               (None, 5)            320         ['bidirectional_2332[0][0]']     
                                                                                                  
 lstm_3339 (LSTM)               (None, 5)            320         ['bidirectional_2333[0][0]']     
                                                                                                  
 lstm_3341 (LSTM)               (None, 5)            320         ['bidirectional_2334[0][0]']     
                                                                                                  
 conv1d_817 (Conv1D)            (None, 24, 5)        205         ['conv1d_816[0][0]']             
                                                                                                  
 dense_1952 (Dense)             (None, 128)          768         ['lstm_3337[0][0]']              
                                                                                                  
 dense_1953 (Dense)             (None, 128)          768         ['lstm_3339[0][0]']              
                                                                                                  
 dense_1954 (Dense)             (None, 128)          768         ['lstm_3341[0][0]']              
                                                                                                  
 bidirectional_2335 (Bidirectio  (None, 128)         35840       ['conv1d_817[0][0]']             
 nal)                                                                                             
                                                                                                  
 dropout_1872 (Dropout)         (None, 128)          0           ['dense_1952[0][0]']             
                                                                                                  
 dropout_1873 (Dropout)         (None, 128)          0           ['dense_1953[0][0]']             
                                                                                                  
 dropout_1874 (Dropout)         (None, 128)          0           ['dense_1954[0][0]']             
                                                                                                  
 dropout_1875 (Dropout)         (None, 128)          0           ['bidirectional_2335[0][0]']     
                                                                                                  
 concatenate_488 (Concatenate)  (None, 512)          0           ['dropout_1872[0][0]',           
                                                                  'dropout_1873[0][0]',           
                                                                  'dropout_1874[0][0]',           
                                                                  'dropout_1875[0][0]']           
                                                                                                  
 dense_1955 (Dense)             (None, 1)            513         ['concatenate_488[0][0]']        
                                                                                                  
==================================================================================================
Total params: 40,787
Trainable params: 40,787
Non-trainable params: 0
__________________________________________________________________________________________________
…
