…
 bidirectional_9425 (Bidirectio  (None, None, 10)    280         ['masking_9425[0][0]']           
 nal)                                                                                             
                                                                                                  
 bidirectional_9426 (Bidirectio  (None, None, 10)    280         ['masking_9426[0][0]']           
 nal)                                                                                             
                                                                                                  
 conv1d_3312 (Conv1D)           (None, 24, 5)        65          ['masking_9427[0][0]']           
                                                                                                  
 lstm_13513 (LSTM)              (None, 5)            320         ['bidirectional_9424[0][0]']     
                                                                                                  
 lstm_13515 (LSTM)              (None, 5)            320         ['bidirectional_9425[0][0]']     
                                                                                                  
 lstm_13517 (LSTM)              (None, 5)            320         ['bidirectional_9426[0][0]']     
                                                                                                  
 conv1d_3313 (Conv1D)           (None, 24, 5)        105         ['conv1d_3312[0][0]']            
                                                                                                  
 dense_7904 (Dense)             (None, 64)           384         ['lstm_13513[0][0]']             
                                                                                                  
 dense_7905 (Dense)             (None, 64)           384         ['lstm_13515[0][0]']             
                                                                                                  
 dense_7906 (Dense)             (None, 64)           384         ['lstm_13517[0][0]']             
                                                                                                  
 bidirectional_9427 (Bidirectio  (None, 64)          9728        ['conv1d_3313[0][0]']            
 nal)                                                                                             
                                                                                                  
 dropout_7584 (Dropout)         (None, 64)           0           ['dense_7904[0][0]']             
                                                                                                  
 dropout_7585 (Dropout)         (None, 64)           0           ['dense_7905[0][0]']             
                                                                                                  
 dropout_7586 (Dropout)         (None, 64)           0           ['dense_7906[0][0]']             
                                                                                                  
 dropout_7587 (Dropout)         (None, 64)           0           ['bidirectional_9427[0][0]']     
                                                                                                  
 concatenate_1976 (Concatenate)  (None, 256)         0           ['dropout_7584[0][0]',           
                                                                  'dropout_7585[0][0]',           
                                                                  'dropout_7586[0][0]',           
                                                                  'dropout_7587[0][0]']           
                                                                                                  
 dense_7907 (Dense)             (None, 1)            257         ['concatenate_1976[0][0]']       
                                                                                                  
==================================================================================================
Total params: 13,107
Trainable params: 13,107
Non-trainable params: 0
__________________________________________________________________________________________________
…
 bidirectional_9445 (Bidirectio  (None, None, 10)    280         ['masking_9445[0][0]']           
 nal)                                                                                             
                                                                                                  
 bidirectional_9446 (Bidirectio  (None, None, 10)    280         ['masking_9446[0][0]']           
 nal)                                                                                             
                                                                                                  
 conv1d_3322 (Conv1D)           (None, 24, 5)        95          ['masking_9447[0][0]']           
                                                                                                  
 lstm_13548 (LSTM)              (None, 5)            320         ['bidirectional_9444[0][0]']     
                                                                                                  
 lstm_13550 (LSTM)              (None, 5)            320         ['bidirectional_9445[0][0]']     
                                                                                                  
 lstm_13552 (LSTM)              (None, 5)            320         ['bidirectional_9446[0][0]']     
                                                                                                  
 conv1d_3323 (Conv1D)           (None, 24, 5)        155         ['conv1d_3322[0][0]']            
                                                                                                  
 dense_7924 (Dense)             (None, 64)           384         ['lstm_13548[0][0]']             
                                                                                                  
 dense_7925 (Dense)             (None, 64)           384         ['lstm_13550[0][0]']             
                                                                                                  
 dense_7926 (Dense)             (None, 64)           384         ['lstm_13552[0][0]']             
                                                                                                  
 bidirectional_9447 (Bidirectio  (None, 64)          9728        ['conv1d_3323[0][0]']            
 nal)                                                                                             
                                                                                                  
 dropout_7604 (Dropout)         (None, 64)           0           ['dense_7924[0][0]']             
                                                                                                  
 dropout_7605 (Dropout)         (None, 64)           0           ['dense_7925[0][0]']             
                                                                                                  
 dropout_7606 (Dropout)         (None, 64)           0           ['dense_7926[0][0]']             
                                                                                                  
 dropout_7607 (Dropout)         (None, 64)           0           ['bidirectional_9447[0][0]']     
                                                                                                  
 concatenate_1981 (Concatenate)  (None, 256)         0           ['dropout_7604[0][0]',           
                                                                  'dropout_7605[0][0]',           
                                                                  'dropout_7606[0][0]',           
                                                                  'dropout_7607[0][0]']           
                                                                                                  
 dense_7927 (Dense)             (None, 1)            257         ['concatenate_1981[0][0]']       
                                                                                                  
==================================================================================================
Total params: 13,187
Trainable params: 13,187
Non-trainable params: 0
__________________________________________________________________________________________________
…
 bidirectional_9465 (Bidirectio  (None, None, 10)    280         ['masking_9465[0][0]']           
 nal)                                                                                             
                                                                                                  
 bidirectional_9466 (Bidirectio  (None, None, 10)    280         ['masking_9466[0][0]']           
 nal)                                                                                             
                                                                                                  
 conv1d_3332 (Conv1D)           (None, 24, 5)        125         ['masking_9467[0][0]']           
                                                                                                  
 lstm_13583 (LSTM)              (None, 5)            320         ['bidirectional_9464[0][0]']     
                                                                                                  
 lstm_13585 (LSTM)              (None, 5)            320         ['bidirectional_9465[0][0]']     
                                                                                                  
 lstm_13587 (LSTM)              (None, 5)            320         ['bidirectional_9466[0][0]']     
                                                                                                  
 conv1d_3333 (Conv1D)           (None, 24, 5)        205         ['conv1d_3332[0][0]']            
                                                                                                  
 dense_7944 (Dense)             (None, 64)           384         ['lstm_13583[0][0]']             
                                                                                                  
 dense_7945 (Dense)             (None, 64)           384         ['lstm_13585[0][0]']             
                                                                                                  
 dense_7946 (Dense)             (None, 64)           384         ['lstm_13587[0][0]']             
                                                                                                  
 bidirectional_9467 (Bidirectio  (None, 64)          9728        ['conv1d_3333[0][0]']            
 nal)                                                                                             
                                                                                                  
 dropout_7624 (Dropout)         (None, 64)           0           ['dense_7944[0][0]']             
                                                                                                  
 dropout_7625 (Dropout)         (None, 64)           0           ['dense_7945[0][0]']             
                                                                                                  
 dropout_7626 (Dropout)         (None, 64)           0           ['dense_7946[0][0]']             
                                                                                                  
 dropout_7627 (Dropout)         (None, 64)           0           ['bidirectional_9467[0][0]']     
                                                                                                  
 concatenate_1986 (Concatenate)  (None, 256)         0           ['dropout_7624[0][0]',           
                                                                  'dropout_7625[0][0]',           
                                                                  'dropout_7626[0][0]',           
                                                                  'dropout_7627[0][0]']           
                                                                                                  
 dense_7947 (Dense)             (None, 1)            257         ['concatenate_1986[0][0]']       
                                                                                                  
==================================================================================================
Total params: 13,267
Trainable params: 13,267
Non-trainable params: 0
__________________________________________________________________________________________________
…
 bidirectional_9485 (Bidirectio  (None, None, 10)    280         ['masking_9485[0][0]']           
 nal)                                                                                             
                                                                                                  
 bidirectional_9486 (Bidirectio  (None, None, 10)    280         ['masking_9486[0][0]']           
 nal)                                                                                             
                                                                                                  
 conv1d_3342 (Conv1D)           (None, 24, 5)        65          ['masking_9487[0][0]']           
                                                                                                  
 lstm_13618 (LSTM)              (None, 5)            320         ['bidirectional_9484[0][0]']     
                                                                                                  
 lstm_13620 (LSTM)              (None, 5)            320         ['bidirectional_9485[0][0]']     
                                                                                                  
 lstm_13622 (LSTM)              (None, 5)            320         ['bidirectional_9486[0][0]']     
                                                                                                  
 conv1d_3343 (Conv1D)           (None, 24, 5)        105         ['conv1d_3342[0][0]']            
                                                                                                  
 dense_7964 (Dense)             (None, 96)           576         ['lstm_13618[0][0]']             
                                                                                                  
 dense_7965 (Dense)             (None, 96)           576         ['lstm_13620[0][0]']             
                                                                                                  
 dense_7966 (Dense)             (None, 96)           576         ['lstm_13622[0][0]']             
                                                                                                  
 bidirectional_9487 (Bidirectio  (None, 96)          20736       ['conv1d_3343[0][0]']            
 nal)                                                                                             
                                                                                                  
 dropout_7644 (Dropout)         (None, 96)           0           ['dense_7964[0][0]']             
                                                                                                  
 dropout_7645 (Dropout)         (None, 96)           0           ['dense_7965[0][0]']             
                                                                                                  
 dropout_7646 (Dropout)         (None, 96)           0           ['dense_7966[0][0]']             
                                                                                                  
 dropout_7647 (Dropout)         (None, 96)           0           ['bidirectional_9487[0][0]']     
                                                                                                  
 concatenate_1991 (Concatenate)  (None, 384)         0           ['dropout_7644[0][0]',           
                                                                  'dropout_7645[0][0]',           
                                                                  'dropout_7646[0][0]',           
                                                                  'dropout_7647[0][0]']           
                                                                                                  
 dense_7967 (Dense)             (None, 1)            385         ['concatenate_1991[0][0]']       
                                                                                                  
==================================================================================================
Total params: 24,819
Trainable params: 24,819
Non-trainable params: 0
__________________________________________________________________________________________________
…
 bidirectional_9505 (Bidirectio  (None, None, 10)    280         ['masking_9505[0][0]']           
 nal)                                                                                             
                                                                                                  
 bidirectional_9506 (Bidirectio  (None, None, 10)    280         ['masking_9506[0][0]']           
 nal)                                                                                             
                                                                                                  
 conv1d_3352 (Conv1D)           (None, 24, 5)        95          ['masking_9507[0][0]']           
                                                                                                  
 lstm_13653 (LSTM)              (None, 5)            320         ['bidirectional_9504[0][0]']     
                                                                                                  
 lstm_13655 (LSTM)              (None, 5)            320         ['bidirectional_9505[0][0]']     
                                                                                                  
 lstm_13657 (LSTM)              (None, 5)            320         ['bidirectional_9506[0][0]']     
                                                                                                  
 conv1d_3353 (Conv1D)           (None, 24, 5)        155         ['conv1d_3352[0][0]']            
                                                                                                  
 dense_7984 (Dense)             (None, 96)           576         ['lstm_13653[0][0]']             
                                                                                                  
 dense_7985 (Dense)             (None, 96)           576         ['lstm_13655[0][0]']             
                                                                                                  
 dense_7986 (Dense)             (None, 96)           576         ['lstm_13657[0][0]']             
                                                                                                  
 bidirectional_9507 (Bidirectio  (None, 96)          20736       ['conv1d_3353[0][0]']            
 nal)                                                                                             
                                                                                                  
 dropout_7664 (Dropout)         (None, 96)           0           ['dense_7984[0][0]']             
                                                                                                  
 dropout_7665 (Dropout)         (None, 96)           0           ['dense_7985[0][0]']             
                                                                                                  
 dropout_7666 (Dropout)         (None, 96)           0           ['dense_7986[0][0]']             
                                                                                                  
 dropout_7667 (Dropout)         (None, 96)           0           ['bidirectional_9507[0][0]']     
                                                                                                  
 concatenate_1996 (Concatenate)  (None, 384)         0           ['dropout_7664[0][0]',           
                                                                  'dropout_7665[0][0]',           
                                                                  'dropout_7666[0][0]',           
                                                                  'dropout_7667[0][0]']           
                                                                                                  
 dense_7987 (Dense)             (None, 1)            385         ['concatenate_1996[0][0]']       
                                                                                                  
==================================================================================================
Total params: 24,899
Trainable params: 24,899
Non-trainable params: 0
__________________________________________________________________________________________________
…
 bidirectional_9525 (Bidirectio  (None, None, 10)    280         ['masking_9525[0][0]']           
 nal)                                                                                             
                                                                                                  
 bidirectional_9526 (Bidirectio  (None, None, 10)    280         ['masking_9526[0][0]']           
 nal)                                                                                             
                                                                                                  
 conv1d_3362 (Conv1D)           (None, 24, 5)        125         ['masking_9527[0][0]']           
                                                                                                  
 lstm_13688 (LSTM)              (None, 5)            320         ['bidirectional_9524[0][0]']     
                                                                                                  
 lstm_13690 (LSTM)              (None, 5)            320         ['bidirectional_9525[0][0]']     
                                                                                                  
 lstm_13692 (LSTM)              (None, 5)            320         ['bidirectional_9526[0][0]']     
                                                                                                  
 conv1d_3363 (Conv1D)           (None, 24, 5)        205         ['conv1d_3362[0][0]']            
                                                                                                  
 dense_8004 (Dense)             (None, 96)           576         ['lstm_13688[0][0]']             
                                                                                                  
 dense_8005 (Dense)             (None, 96)           576         ['lstm_13690[0][0]']             
                                                                                                  
 dense_8006 (Dense)             (None, 96)           576         ['lstm_13692[0][0]']             
                                                                                                  
 bidirectional_9527 (Bidirectio  (None, 96)          20736       ['conv1d_3363[0][0]']            
 nal)                                                                                             
                                                                                                  
 dropout_7684 (Dropout)         (None, 96)           0           ['dense_8004[0][0]']             
                                                                                                  
 dropout_7685 (Dropout)         (None, 96)           0           ['dense_8005[0][0]']             
                                                                                                  
 dropout_7686 (Dropout)         (None, 96)           0           ['dense_8006[0][0]']             
                                                                                                  
 dropout_7687 (Dropout)         (None, 96)           0           ['bidirectional_9527[0][0]']     
                                                                                                  
 concatenate_2001 (Concatenate)  (None, 384)         0           ['dropout_7684[0][0]',           
                                                                  'dropout_7685[0][0]',           
                                                                  'dropout_7686[0][0]',           
                                                                  'dropout_7687[0][0]']           
                                                                                                  
 dense_8007 (Dense)             (None, 1)            385         ['concatenate_2001[0][0]']       
                                                                                                  
==================================================================================================
Total params: 24,979
Trainable params: 24,979
Non-trainable params: 0
__________________________________________________________________________________________________
…
 bidirectional_9545 (Bidirectio  (None, None, 10)    280         ['masking_9545[0][0]']           
 nal)                                                                                             
                                                                                                  
 bidirectional_9546 (Bidirectio  (None, None, 10)    280         ['masking_9546[0][0]']           
 nal)                                                                                             
                                                                                                  
 conv1d_3372 (Conv1D)           (None, 24, 5)        65          ['masking_9547[0][0]']           
                                                                                                  
 lstm_13723 (LSTM)              (None, 5)            320         ['bidirectional_9544[0][0]']     
                                                                                                  
 lstm_13725 (LSTM)              (None, 5)            320         ['bidirectional_9545[0][0]']     
                                                                                                  
 lstm_13727 (LSTM)              (None, 5)            320         ['bidirectional_9546[0][0]']     
                                                                                                  
 conv1d_3373 (Conv1D)           (None, 24, 5)        105         ['conv1d_3372[0][0]']            
                                                                                                  
 dense_8024 (Dense)             (None, 128)          768         ['lstm_13723[0][0]']             
                                                                                                  
 dense_8025 (Dense)             (None, 128)          768         ['lstm_13725[0][0]']             
                                                                                                  
 dense_8026 (Dense)             (None, 128)          768         ['lstm_13727[0][0]']             
                                                                                                  
 bidirectional_9547 (Bidirectio  (None, 128)         35840       ['conv1d_3373[0][0]']            
 nal)                                                                                             
                                                                                                  
 dropout_7704 (Dropout)         (None, 128)          0           ['dense_8024[0][0]']             
                                                                                                  
 dropout_7705 (Dropout)         (None, 128)          0           ['dense_8025[0][0]']             
                                                                                                  
 dropout_7706 (Dropout)         (None, 128)          0           ['dense_8026[0][0]']             
                                                                                                  
 dropout_7707 (Dropout)         (None, 128)          0           ['bidirectional_9547[0][0]']     
                                                                                                  
 concatenate_2006 (Concatenate)  (None, 512)         0           ['dropout_7704[0][0]',           
                                                                  'dropout_7705[0][0]',           
                                                                  'dropout_7706[0][0]',           
                                                                  'dropout_7707[0][0]']           
                                                                                                  
 dense_8027 (Dense)             (None, 1)            513         ['concatenate_2006[0][0]']       
                                                                                                  
==================================================================================================
Total params: 40,627
Trainable params: 40,627
Non-trainable params: 0
__________________________________________________________________________________________________
…
 bidirectional_9565 (Bidirectio  (None, None, 10)    280         ['masking_9565[0][0]']           
 nal)                                                                                             
                                                                                                  
 bidirectional_9566 (Bidirectio  (None, None, 10)    280         ['masking_9566[0][0]']           
 nal)                                                                                             
                                                                                                  
 conv1d_3382 (Conv1D)           (None, 24, 5)        95          ['masking_9567[0][0]']           
                                                                                                  
 lstm_13758 (LSTM)              (None, 5)            320         ['bidirectional_9564[0][0]']     
                                                                                                  
 lstm_13760 (LSTM)              (None, 5)            320         ['bidirectional_9565[0][0]']     
                                                                                                  
 lstm_13762 (LSTM)              (None, 5)            320         ['bidirectional_9566[0][0]']     
                                                                                                  
 conv1d_3383 (Conv1D)           (None, 24, 5)        155         ['conv1d_3382[0][0]']            
                                                                                                  
 dense_8044 (Dense)             (None, 128)          768         ['lstm_13758[0][0]']             
                                                                                                  
 dense_8045 (Dense)             (None, 128)          768         ['lstm_13760[0][0]']             
                                                                                                  
 dense_8046 (Dense)             (None, 128)          768         ['lstm_13762[0][0]']             
                                                                                                  
 bidirectional_9567 (Bidirectio  (None, 128)         35840       ['conv1d_3383[0][0]']            
 nal)                                                                                             
                                                                                                  
 dropout_7724 (Dropout)         (None, 128)          0           ['dense_8044[0][0]']             
                                                                                                  
 dropout_7725 (Dropout)         (None, 128)          0           ['dense_8045[0][0]']             
                                                                                                  
 dropout_7726 (Dropout)         (None, 128)          0           ['dense_8046[0][0]']             
                                                                                                  
 dropout_7727 (Dropout)         (None, 128)          0           ['bidirectional_9567[0][0]']     
                                                                                                  
 concatenate_2011 (Concatenate)  (None, 512)         0           ['dropout_7724[0][0]',           
                                                                  'dropout_7725[0][0]',           
                                                                  'dropout_7726[0][0]',           
                                                                  'dropout_7727[0][0]']           
                                                                                                  
 dense_8047 (Dense)             (None, 1)            513         ['concatenate_2011[0][0]']       
                                                                                                  
==================================================================================================
Total params: 40,707
Trainable params: 40,707
Non-trainable params: 0
__________________________________________________________________________________________________
…
 bidirectional_9585 (Bidirectio  (None, None, 10)    280         ['masking_9585[0][0]']           
 nal)                                                                                             
                                                                                                  
 bidirectional_9586 (Bidirectio  (None, None, 10)    280         ['masking_9586[0][0]']           
 nal)                                                                                             
                                                                                                  
 conv1d_3392 (Conv1D)           (None, 24, 5)        125         ['masking_9587[0][0]']           
                                                                                                  
 lstm_13793 (LSTM)              (None, 5)            320         ['bidirectional_9584[0][0]']     
                                                                                                  
 lstm_13795 (LSTM)              (None, 5)            320         ['bidirectional_9585[0][0]']     
                                                                                                  
 lstm_13797 (LSTM)              (None, 5)            320         ['bidirectional_9586[0][0]']     
                                                                                                  
 conv1d_3393 (Conv1D)           (None, 24, 5)        205         ['conv1d_3392[0][0]']            
                                                                                                  
 dense_8064 (Dense)             (None, 128)          768         ['lstm_13793[0][0]']             
                                                                                                  
 dense_8065 (Dense)             (None, 128)          768         ['lstm_13795[0][0]']             
                                                                                                  
 dense_8066 (Dense)             (None, 128)          768         ['lstm_13797[0][0]']             
                                                                                                  
 bidirectional_9587 (Bidirectio  (None, 128)         35840       ['conv1d_3393[0][0]']            
 nal)                                                                                             
                                                                                                  
 dropout_7744 (Dropout)         (None, 128)          0           ['dense_8064[0][0]']             
                                                                                                  
 dropout_7745 (Dropout)         (None, 128)          0           ['dense_8065[0][0]']             
                                                                                                  
 dropout_7746 (Dropout)         (None, 128)          0           ['dense_8066[0][0]']             
                                                                                                  
 dropout_7747 (Dropout)         (None, 128)          0           ['bidirectional_9587[0][0]']     
                                                                                                  
 concatenate_2016 (Concatenate)  (None, 512)         0           ['dropout_7744[0][0]',           
                                                                  'dropout_7745[0][0]',           
                                                                  'dropout_7746[0][0]',           
                                                                  'dropout_7747[0][0]']           
                                                                                                  
 dense_8067 (Dense)             (None, 1)            513         ['concatenate_2016[0][0]']       
                                                                                                  
==================================================================================================
Total params: 40,787
Trainable params: 40,787
Non-trainable params: 0
__________________________________________________________________________________________________
…
