…
 bidirectional_6885 (Bidirectio  (None, None, 10)    280         ['masking_6885[0][0]']           
 nal)                                                                                             
                                                                                                  
 bidirectional_6886 (Bidirectio  (None, None, 10)    280         ['masking_6886[0][0]']           
 nal)                                                                                             
                                                                                                  
 conv1d_2392 (Conv1D)           (None, 24, 5)        65          ['masking_6887[0][0]']           
                                                                                                  
 lstm_9813 (LSTM)               (None, 5)            320         ['bidirectional_6884[0][0]']     
                                                                                                  
 lstm_9815 (LSTM)               (None, 5)            320         ['bidirectional_6885[0][0]']     
                                                                                                  
 lstm_9817 (LSTM)               (None, 5)            320         ['bidirectional_6886[0][0]']     
                                                                                                  
 conv1d_2393 (Conv1D)           (None, 24, 5)        105         ['conv1d_2392[0][0]']            
                                                                                                  
 dense_5744 (Dense)             (None, 64)           384         ['lstm_9813[0][0]']              
                                                                                                  
 dense_5745 (Dense)             (None, 64)           384         ['lstm_9815[0][0]']              
                                                                                                  
 dense_5746 (Dense)             (None, 64)           384         ['lstm_9817[0][0]']              
                                                                                                  
 bidirectional_6887 (Bidirectio  (None, 64)          9728        ['conv1d_2393[0][0]']            
 nal)                                                                                             
                                                                                                  
 dropout_5504 (Dropout)         (None, 64)           0           ['dense_5744[0][0]']             
                                                                                                  
 dropout_5505 (Dropout)         (None, 64)           0           ['dense_5745[0][0]']             
                                                                                                  
 dropout_5506 (Dropout)         (None, 64)           0           ['dense_5746[0][0]']             
                                                                                                  
 dropout_5507 (Dropout)         (None, 64)           0           ['bidirectional_6887[0][0]']     
                                                                                                  
 concatenate_1436 (Concatenate)  (None, 256)         0           ['dropout_5504[0][0]',           
                                                                  'dropout_5505[0][0]',           
                                                                  'dropout_5506[0][0]',           
                                                                  'dropout_5507[0][0]']           
                                                                                                  
 dense_5747 (Dense)             (None, 1)            257         ['concatenate_1436[0][0]']       
                                                                                                  
==================================================================================================
Total params: 13,107
Trainable params: 13,107
Non-trainable params: 0
__________________________________________________________________________________________________
…
 bidirectional_6905 (Bidirectio  (None, None, 10)    280         ['masking_6905[0][0]']           
 nal)                                                                                             
                                                                                                  
 bidirectional_6906 (Bidirectio  (None, None, 10)    280         ['masking_6906[0][0]']           
 nal)                                                                                             
                                                                                                  
 conv1d_2402 (Conv1D)           (None, 24, 5)        95          ['masking_6907[0][0]']           
                                                                                                  
 lstm_9848 (LSTM)               (None, 5)            320         ['bidirectional_6904[0][0]']     
                                                                                                  
 lstm_9850 (LSTM)               (None, 5)            320         ['bidirectional_6905[0][0]']     
                                                                                                  
 lstm_9852 (LSTM)               (None, 5)            320         ['bidirectional_6906[0][0]']     
                                                                                                  
 conv1d_2403 (Conv1D)           (None, 24, 5)        155         ['conv1d_2402[0][0]']            
                                                                                                  
 dense_5764 (Dense)             (None, 64)           384         ['lstm_9848[0][0]']              
                                                                                                  
 dense_5765 (Dense)             (None, 64)           384         ['lstm_9850[0][0]']              
                                                                                                  
 dense_5766 (Dense)             (None, 64)           384         ['lstm_9852[0][0]']              
                                                                                                  
 bidirectional_6907 (Bidirectio  (None, 64)          9728        ['conv1d_2403[0][0]']            
 nal)                                                                                             
                                                                                                  
 dropout_5524 (Dropout)         (None, 64)           0           ['dense_5764[0][0]']             
                                                                                                  
 dropout_5525 (Dropout)         (None, 64)           0           ['dense_5765[0][0]']             
                                                                                                  
 dropout_5526 (Dropout)         (None, 64)           0           ['dense_5766[0][0]']             
                                                                                                  
 dropout_5527 (Dropout)         (None, 64)           0           ['bidirectional_6907[0][0]']     
                                                                                                  
 concatenate_1441 (Concatenate)  (None, 256)         0           ['dropout_5524[0][0]',           
                                                                  'dropout_5525[0][0]',           
                                                                  'dropout_5526[0][0]',           
                                                                  'dropout_5527[0][0]']           
                                                                                                  
 dense_5767 (Dense)             (None, 1)            257         ['concatenate_1441[0][0]']       
                                                                                                  
==================================================================================================
Total params: 13,187
Trainable params: 13,187
Non-trainable params: 0
__________________________________________________________________________________________________
…
 bidirectional_6925 (Bidirectio  (None, None, 10)    280         ['masking_6925[0][0]']           
 nal)                                                                                             
                                                                                                  
 bidirectional_6926 (Bidirectio  (None, None, 10)    280         ['masking_6926[0][0]']           
 nal)                                                                                             
                                                                                                  
 conv1d_2412 (Conv1D)           (None, 24, 5)        125         ['masking_6927[0][0]']           
                                                                                                  
 lstm_9883 (LSTM)               (None, 5)            320         ['bidirectional_6924[0][0]']     
                                                                                                  
 lstm_9885 (LSTM)               (None, 5)            320         ['bidirectional_6925[0][0]']     
                                                                                                  
 lstm_9887 (LSTM)               (None, 5)            320         ['bidirectional_6926[0][0]']     
                                                                                                  
 conv1d_2413 (Conv1D)           (None, 24, 5)        205         ['conv1d_2412[0][0]']            
                                                                                                  
 dense_5784 (Dense)             (None, 64)           384         ['lstm_9883[0][0]']              
                                                                                                  
 dense_5785 (Dense)             (None, 64)           384         ['lstm_9885[0][0]']              
                                                                                                  
 dense_5786 (Dense)             (None, 64)           384         ['lstm_9887[0][0]']              
                                                                                                  
 bidirectional_6927 (Bidirectio  (None, 64)          9728        ['conv1d_2413[0][0]']            
 nal)                                                                                             
                                                                                                  
 dropout_5544 (Dropout)         (None, 64)           0           ['dense_5784[0][0]']             
                                                                                                  
 dropout_5545 (Dropout)         (None, 64)           0           ['dense_5785[0][0]']             
                                                                                                  
 dropout_5546 (Dropout)         (None, 64)           0           ['dense_5786[0][0]']             
                                                                                                  
 dropout_5547 (Dropout)         (None, 64)           0           ['bidirectional_6927[0][0]']     
                                                                                                  
 concatenate_1446 (Concatenate)  (None, 256)         0           ['dropout_5544[0][0]',           
                                                                  'dropout_5545[0][0]',           
                                                                  'dropout_5546[0][0]',           
                                                                  'dropout_5547[0][0]']           
                                                                                                  
 dense_5787 (Dense)             (None, 1)            257         ['concatenate_1446[0][0]']       
                                                                                                  
==================================================================================================
Total params: 13,267
Trainable params: 13,267
Non-trainable params: 0
__________________________________________________________________________________________________
…
 bidirectional_6945 (Bidirectio  (None, None, 10)    280         ['masking_6945[0][0]']           
 nal)                                                                                             
                                                                                                  
 bidirectional_6946 (Bidirectio  (None, None, 10)    280         ['masking_6946[0][0]']           
 nal)                                                                                             
                                                                                                  
 conv1d_2422 (Conv1D)           (None, 24, 5)        65          ['masking_6947[0][0]']           
                                                                                                  
 lstm_9918 (LSTM)               (None, 5)            320         ['bidirectional_6944[0][0]']     
                                                                                                  
 lstm_9920 (LSTM)               (None, 5)            320         ['bidirectional_6945[0][0]']     
                                                                                                  
 lstm_9922 (LSTM)               (None, 5)            320         ['bidirectional_6946[0][0]']     
                                                                                                  
 conv1d_2423 (Conv1D)           (None, 24, 5)        105         ['conv1d_2422[0][0]']            
                                                                                                  
 dense_5804 (Dense)             (None, 96)           576         ['lstm_9918[0][0]']              
                                                                                                  
 dense_5805 (Dense)             (None, 96)           576         ['lstm_9920[0][0]']              
                                                                                                  
 dense_5806 (Dense)             (None, 96)           576         ['lstm_9922[0][0]']              
                                                                                                  
 bidirectional_6947 (Bidirectio  (None, 96)          20736       ['conv1d_2423[0][0]']            
 nal)                                                                                             
                                                                                                  
 dropout_5564 (Dropout)         (None, 96)           0           ['dense_5804[0][0]']             
                                                                                                  
 dropout_5565 (Dropout)         (None, 96)           0           ['dense_5805[0][0]']             
                                                                                                  
 dropout_5566 (Dropout)         (None, 96)           0           ['dense_5806[0][0]']             
                                                                                                  
 dropout_5567 (Dropout)         (None, 96)           0           ['bidirectional_6947[0][0]']     
                                                                                                  
 concatenate_1451 (Concatenate)  (None, 384)         0           ['dropout_5564[0][0]',           
                                                                  'dropout_5565[0][0]',           
                                                                  'dropout_5566[0][0]',           
                                                                  'dropout_5567[0][0]']           
                                                                                                  
 dense_5807 (Dense)             (None, 1)            385         ['concatenate_1451[0][0]']       
                                                                                                  
==================================================================================================
Total params: 24,819
Trainable params: 24,819
Non-trainable params: 0
__________________________________________________________________________________________________
…
 bidirectional_6965 (Bidirectio  (None, None, 10)    280         ['masking_6965[0][0]']           
 nal)                                                                                             
                                                                                                  
 bidirectional_6966 (Bidirectio  (None, None, 10)    280         ['masking_6966[0][0]']           
 nal)                                                                                             
                                                                                                  
 conv1d_2432 (Conv1D)           (None, 24, 5)        95          ['masking_6967[0][0]']           
                                                                                                  
 lstm_9953 (LSTM)               (None, 5)            320         ['bidirectional_6964[0][0]']     
                                                                                                  
 lstm_9955 (LSTM)               (None, 5)            320         ['bidirectional_6965[0][0]']     
                                                                                                  
 lstm_9957 (LSTM)               (None, 5)            320         ['bidirectional_6966[0][0]']     
                                                                                                  
 conv1d_2433 (Conv1D)           (None, 24, 5)        155         ['conv1d_2432[0][0]']            
                                                                                                  
 dense_5824 (Dense)             (None, 96)           576         ['lstm_9953[0][0]']              
                                                                                                  
 dense_5825 (Dense)             (None, 96)           576         ['lstm_9955[0][0]']              
                                                                                                  
 dense_5826 (Dense)             (None, 96)           576         ['lstm_9957[0][0]']              
                                                                                                  
 bidirectional_6967 (Bidirectio  (None, 96)          20736       ['conv1d_2433[0][0]']            
 nal)                                                                                             
                                                                                                  
 dropout_5584 (Dropout)         (None, 96)           0           ['dense_5824[0][0]']             
                                                                                                  
 dropout_5585 (Dropout)         (None, 96)           0           ['dense_5825[0][0]']             
                                                                                                  
 dropout_5586 (Dropout)         (None, 96)           0           ['dense_5826[0][0]']             
                                                                                                  
 dropout_5587 (Dropout)         (None, 96)           0           ['bidirectional_6967[0][0]']     
                                                                                                  
 concatenate_1456 (Concatenate)  (None, 384)         0           ['dropout_5584[0][0]',           
                                                                  'dropout_5585[0][0]',           
                                                                  'dropout_5586[0][0]',           
                                                                  'dropout_5587[0][0]']           
                                                                                                  
 dense_5827 (Dense)             (None, 1)            385         ['concatenate_1456[0][0]']       
                                                                                                  
==================================================================================================
Total params: 24,899
Trainable params: 24,899
Non-trainable params: 0
__________________________________________________________________________________________________
…
 bidirectional_6985 (Bidirectio  (None, None, 10)    280         ['masking_6985[0][0]']           
 nal)                                                                                             
                                                                                                  
 bidirectional_6986 (Bidirectio  (None, None, 10)    280         ['masking_6986[0][0]']           
 nal)                                                                                             
                                                                                                  
 conv1d_2442 (Conv1D)           (None, 24, 5)        125         ['masking_6987[0][0]']           
                                                                                                  
 lstm_9988 (LSTM)               (None, 5)            320         ['bidirectional_6984[0][0]']     
                                                                                                  
 lstm_9990 (LSTM)               (None, 5)            320         ['bidirectional_6985[0][0]']     
                                                                                                  
 lstm_9992 (LSTM)               (None, 5)            320         ['bidirectional_6986[0][0]']     
                                                                                                  
 conv1d_2443 (Conv1D)           (None, 24, 5)        205         ['conv1d_2442[0][0]']            
                                                                                                  
 dense_5844 (Dense)             (None, 96)           576         ['lstm_9988[0][0]']              
                                                                                                  
 dense_5845 (Dense)             (None, 96)           576         ['lstm_9990[0][0]']              
                                                                                                  
 dense_5846 (Dense)             (None, 96)           576         ['lstm_9992[0][0]']              
                                                                                                  
 bidirectional_6987 (Bidirectio  (None, 96)          20736       ['conv1d_2443[0][0]']            
 nal)                                                                                             
                                                                                                  
 dropout_5604 (Dropout)         (None, 96)           0           ['dense_5844[0][0]']             
                                                                                                  
 dropout_5605 (Dropout)         (None, 96)           0           ['dense_5845[0][0]']             
                                                                                                  
 dropout_5606 (Dropout)         (None, 96)           0           ['dense_5846[0][0]']             
                                                                                                  
 dropout_5607 (Dropout)         (None, 96)           0           ['bidirectional_6987[0][0]']     
                                                                                                  
 concatenate_1461 (Concatenate)  (None, 384)         0           ['dropout_5604[0][0]',           
                                                                  'dropout_5605[0][0]',           
                                                                  'dropout_5606[0][0]',           
                                                                  'dropout_5607[0][0]']           
                                                                                                  
 dense_5847 (Dense)             (None, 1)            385         ['concatenate_1461[0][0]']       
                                                                                                  
==================================================================================================
Total params: 24,979
Trainable params: 24,979
Non-trainable params: 0
__________________________________________________________________________________________________
…
 bidirectional_7005 (Bidirectio  (None, None, 10)    280         ['masking_7005[0][0]']           
 nal)                                                                                             
                                                                                                  
 bidirectional_7006 (Bidirectio  (None, None, 10)    280         ['masking_7006[0][0]']           
 nal)                                                                                             
                                                                                                  
 conv1d_2452 (Conv1D)           (None, 24, 5)        65          ['masking_7007[0][0]']           
                                                                                                  
 lstm_10023 (LSTM)              (None, 5)            320         ['bidirectional_7004[0][0]']     
                                                                                                  
 lstm_10025 (LSTM)              (None, 5)            320         ['bidirectional_7005[0][0]']     
                                                                                                  
 lstm_10027 (LSTM)              (None, 5)            320         ['bidirectional_7006[0][0]']     
                                                                                                  
 conv1d_2453 (Conv1D)           (None, 24, 5)        105         ['conv1d_2452[0][0]']            
                                                                                                  
 dense_5864 (Dense)             (None, 128)          768         ['lstm_10023[0][0]']             
                                                                                                  
 dense_5865 (Dense)             (None, 128)          768         ['lstm_10025[0][0]']             
                                                                                                  
 dense_5866 (Dense)             (None, 128)          768         ['lstm_10027[0][0]']             
                                                                                                  
 bidirectional_7007 (Bidirectio  (None, 128)         35840       ['conv1d_2453[0][0]']            
 nal)                                                                                             
                                                                                                  
 dropout_5624 (Dropout)         (None, 128)          0           ['dense_5864[0][0]']             
                                                                                                  
 dropout_5625 (Dropout)         (None, 128)          0           ['dense_5865[0][0]']             
                                                                                                  
 dropout_5626 (Dropout)         (None, 128)          0           ['dense_5866[0][0]']             
                                                                                                  
 dropout_5627 (Dropout)         (None, 128)          0           ['bidirectional_7007[0][0]']     
                                                                                                  
 concatenate_1466 (Concatenate)  (None, 512)         0           ['dropout_5624[0][0]',           
                                                                  'dropout_5625[0][0]',           
                                                                  'dropout_5626[0][0]',           
                                                                  'dropout_5627[0][0]']           
                                                                                                  
 dense_5867 (Dense)             (None, 1)            513         ['concatenate_1466[0][0]']       
                                                                                                  
==================================================================================================
Total params: 40,627
Trainable params: 40,627
Non-trainable params: 0
__________________________________________________________________________________________________
…
 bidirectional_7025 (Bidirectio  (None, None, 10)    280         ['masking_7025[0][0]']           
 nal)                                                                                             
                                                                                                  
 bidirectional_7026 (Bidirectio  (None, None, 10)    280         ['masking_7026[0][0]']           
 nal)                                                                                             
                                                                                                  
 conv1d_2462 (Conv1D)           (None, 24, 5)        95          ['masking_7027[0][0]']           
                                                                                                  
 lstm_10058 (LSTM)              (None, 5)            320         ['bidirectional_7024[0][0]']     
                                                                                                  
 lstm_10060 (LSTM)              (None, 5)            320         ['bidirectional_7025[0][0]']     
                                                                                                  
 lstm_10062 (LSTM)              (None, 5)            320         ['bidirectional_7026[0][0]']     
                                                                                                  
 conv1d_2463 (Conv1D)           (None, 24, 5)        155         ['conv1d_2462[0][0]']            
                                                                                                  
 dense_5884 (Dense)             (None, 128)          768         ['lstm_10058[0][0]']             
                                                                                                  
 dense_5885 (Dense)             (None, 128)          768         ['lstm_10060[0][0]']             
                                                                                                  
 dense_5886 (Dense)             (None, 128)          768         ['lstm_10062[0][0]']             
                                                                                                  
 bidirectional_7027 (Bidirectio  (None, 128)         35840       ['conv1d_2463[0][0]']            
 nal)                                                                                             
                                                                                                  
 dropout_5644 (Dropout)         (None, 128)          0           ['dense_5884[0][0]']             
                                                                                                  
 dropout_5645 (Dropout)         (None, 128)          0           ['dense_5885[0][0]']             
                                                                                                  
 dropout_5646 (Dropout)         (None, 128)          0           ['dense_5886[0][0]']             
                                                                                                  
 dropout_5647 (Dropout)         (None, 128)          0           ['bidirectional_7027[0][0]']     
                                                                                                  
 concatenate_1471 (Concatenate)  (None, 512)         0           ['dropout_5644[0][0]',           
                                                                  'dropout_5645[0][0]',           
                                                                  'dropout_5646[0][0]',           
                                                                  'dropout_5647[0][0]']           
                                                                                                  
 dense_5887 (Dense)             (None, 1)            513         ['concatenate_1471[0][0]']       
                                                                                                  
==================================================================================================
Total params: 40,707
Trainable params: 40,707
Non-trainable params: 0
__________________________________________________________________________________________________
…
 bidirectional_7045 (Bidirectio  (None, None, 10)    280         ['masking_7045[0][0]']           
 nal)                                                                                             
                                                                                                  
 bidirectional_7046 (Bidirectio  (None, None, 10)    280         ['masking_7046[0][0]']           
 nal)                                                                                             
                                                                                                  
 conv1d_2472 (Conv1D)           (None, 24, 5)        125         ['masking_7047[0][0]']           
                                                                                                  
 lstm_10093 (LSTM)              (None, 5)            320         ['bidirectional_7044[0][0]']     
                                                                                                  
 lstm_10095 (LSTM)              (None, 5)            320         ['bidirectional_7045[0][0]']     
                                                                                                  
 lstm_10097 (LSTM)              (None, 5)            320         ['bidirectional_7046[0][0]']     
                                                                                                  
 conv1d_2473 (Conv1D)           (None, 24, 5)        205         ['conv1d_2472[0][0]']            
                                                                                                  
 dense_5904 (Dense)             (None, 128)          768         ['lstm_10093[0][0]']             
                                                                                                  
 dense_5905 (Dense)             (None, 128)          768         ['lstm_10095[0][0]']             
                                                                                                  
 dense_5906 (Dense)             (None, 128)          768         ['lstm_10097[0][0]']             
                                                                                                  
 bidirectional_7047 (Bidirectio  (None, 128)         35840       ['conv1d_2473[0][0]']            
 nal)                                                                                             
                                                                                                  
 dropout_5664 (Dropout)         (None, 128)          0           ['dense_5904[0][0]']             
                                                                                                  
 dropout_5665 (Dropout)         (None, 128)          0           ['dense_5905[0][0]']             
                                                                                                  
 dropout_5666 (Dropout)         (None, 128)          0           ['dense_5906[0][0]']             
                                                                                                  
 dropout_5667 (Dropout)         (None, 128)          0           ['bidirectional_7047[0][0]']     
                                                                                                  
 concatenate_1476 (Concatenate)  (None, 512)         0           ['dropout_5664[0][0]',           
                                                                  'dropout_5665[0][0]',           
                                                                  'dropout_5666[0][0]',           
                                                                  'dropout_5667[0][0]']           
                                                                                                  
 dense_5907 (Dense)             (None, 1)            513         ['concatenate_1476[0][0]']       
                                                                                                  
==================================================================================================
Total params: 40,787
Trainable params: 40,787
Non-trainable params: 0
__________________________________________________________________________________________________
…
