…
 bidirectional_4529 (Bidirectio  (None, None, 10)    280         ['masking_4529[0][0]']           
 nal)                                                                                             
                                                                                                  
 bidirectional_4530 (Bidirectio  (None, None, 10)    280         ['masking_4530[0][0]']           
 nal)                                                                                             
                                                                                                  
 conv1d_1564 (Conv1D)           (None, 24, 5)        65          ['masking_4531[0][0]']           
                                                                                                  
 lstm_6435 (LSTM)               (None, 5)            320         ['bidirectional_4528[0][0]']     
                                                                                                  
 lstm_6437 (LSTM)               (None, 5)            320         ['bidirectional_4529[0][0]']     
                                                                                                  
 lstm_6439 (LSTM)               (None, 5)            320         ['bidirectional_4530[0][0]']     
                                                                                                  
 conv1d_1565 (Conv1D)           (None, 24, 5)        105         ['conv1d_1564[0][0]']            
                                                                                                  
 dense_3768 (Dense)             (None, 64)           384         ['lstm_6435[0][0]']              
                                                                                                  
 dense_3769 (Dense)             (None, 64)           384         ['lstm_6437[0][0]']              
                                                                                                  
 dense_3770 (Dense)             (None, 64)           384         ['lstm_6439[0][0]']              
                                                                                                  
 bidirectional_4531 (Bidirectio  (None, 64)          9728        ['conv1d_1565[0][0]']            
 nal)                                                                                             
                                                                                                  
 dropout_3608 (Dropout)         (None, 64)           0           ['dense_3768[0][0]']             
                                                                                                  
 dropout_3609 (Dropout)         (None, 64)           0           ['dense_3769[0][0]']             
                                                                                                  
 dropout_3610 (Dropout)         (None, 64)           0           ['dense_3770[0][0]']             
                                                                                                  
 dropout_3611 (Dropout)         (None, 64)           0           ['bidirectional_4531[0][0]']     
                                                                                                  
 concatenate_942 (Concatenate)  (None, 256)          0           ['dropout_3608[0][0]',           
                                                                  'dropout_3609[0][0]',           
                                                                  'dropout_3610[0][0]',           
                                                                  'dropout_3611[0][0]']           
                                                                                                  
 dense_3771 (Dense)             (None, 1)            257         ['concatenate_942[0][0]']        
                                                                                                  
==================================================================================================
Total params: 13,107
Trainable params: 13,107
Non-trainable params: 0
__________________________________________________________________________________________________
…
 bidirectional_4549 (Bidirectio  (None, None, 10)    280         ['masking_4549[0][0]']           
 nal)                                                                                             
                                                                                                  
 bidirectional_4550 (Bidirectio  (None, None, 10)    280         ['masking_4550[0][0]']           
 nal)                                                                                             
                                                                                                  
 conv1d_1574 (Conv1D)           (None, 24, 5)        95          ['masking_4551[0][0]']           
                                                                                                  
 lstm_6470 (LSTM)               (None, 5)            320         ['bidirectional_4548[0][0]']     
                                                                                                  
 lstm_6472 (LSTM)               (None, 5)            320         ['bidirectional_4549[0][0]']     
                                                                                                  
 lstm_6474 (LSTM)               (None, 5)            320         ['bidirectional_4550[0][0]']     
                                                                                                  
 conv1d_1575 (Conv1D)           (None, 24, 5)        155         ['conv1d_1574[0][0]']            
                                                                                                  
 dense_3788 (Dense)             (None, 64)           384         ['lstm_6470[0][0]']              
                                                                                                  
 dense_3789 (Dense)             (None, 64)           384         ['lstm_6472[0][0]']              
                                                                                                  
 dense_3790 (Dense)             (None, 64)           384         ['lstm_6474[0][0]']              
                                                                                                  
 bidirectional_4551 (Bidirectio  (None, 64)          9728        ['conv1d_1575[0][0]']            
 nal)                                                                                             
                                                                                                  
 dropout_3628 (Dropout)         (None, 64)           0           ['dense_3788[0][0]']             
                                                                                                  
 dropout_3629 (Dropout)         (None, 64)           0           ['dense_3789[0][0]']             
                                                                                                  
 dropout_3630 (Dropout)         (None, 64)           0           ['dense_3790[0][0]']             
                                                                                                  
 dropout_3631 (Dropout)         (None, 64)           0           ['bidirectional_4551[0][0]']     
                                                                                                  
 concatenate_947 (Concatenate)  (None, 256)          0           ['dropout_3628[0][0]',           
                                                                  'dropout_3629[0][0]',           
                                                                  'dropout_3630[0][0]',           
                                                                  'dropout_3631[0][0]']           
                                                                                                  
 dense_3791 (Dense)             (None, 1)            257         ['concatenate_947[0][0]']        
                                                                                                  
==================================================================================================
Total params: 13,187
Trainable params: 13,187
Non-trainable params: 0
__________________________________________________________________________________________________
…
 bidirectional_4569 (Bidirectio  (None, None, 10)    280         ['masking_4569[0][0]']           
 nal)                                                                                             
                                                                                                  
 bidirectional_4570 (Bidirectio  (None, None, 10)    280         ['masking_4570[0][0]']           
 nal)                                                                                             
                                                                                                  
 conv1d_1584 (Conv1D)           (None, 24, 5)        125         ['masking_4571[0][0]']           
                                                                                                  
 lstm_6505 (LSTM)               (None, 5)            320         ['bidirectional_4568[0][0]']     
                                                                                                  
 lstm_6507 (LSTM)               (None, 5)            320         ['bidirectional_4569[0][0]']     
                                                                                                  
 lstm_6509 (LSTM)               (None, 5)            320         ['bidirectional_4570[0][0]']     
                                                                                                  
 conv1d_1585 (Conv1D)           (None, 24, 5)        205         ['conv1d_1584[0][0]']            
                                                                                                  
 dense_3808 (Dense)             (None, 64)           384         ['lstm_6505[0][0]']              
                                                                                                  
 dense_3809 (Dense)             (None, 64)           384         ['lstm_6507[0][0]']              
                                                                                                  
 dense_3810 (Dense)             (None, 64)           384         ['lstm_6509[0][0]']              
                                                                                                  
 bidirectional_4571 (Bidirectio  (None, 64)          9728        ['conv1d_1585[0][0]']            
 nal)                                                                                             
                                                                                                  
 dropout_3648 (Dropout)         (None, 64)           0           ['dense_3808[0][0]']             
                                                                                                  
 dropout_3649 (Dropout)         (None, 64)           0           ['dense_3809[0][0]']             
                                                                                                  
 dropout_3650 (Dropout)         (None, 64)           0           ['dense_3810[0][0]']             
                                                                                                  
 dropout_3651 (Dropout)         (None, 64)           0           ['bidirectional_4571[0][0]']     
                                                                                                  
 concatenate_952 (Concatenate)  (None, 256)          0           ['dropout_3648[0][0]',           
                                                                  'dropout_3649[0][0]',           
                                                                  'dropout_3650[0][0]',           
                                                                  'dropout_3651[0][0]']           
                                                                                                  
 dense_3811 (Dense)             (None, 1)            257         ['concatenate_952[0][0]']        
                                                                                                  
==================================================================================================
Total params: 13,267
Trainable params: 13,267
Non-trainable params: 0
__________________________________________________________________________________________________
…
 bidirectional_4589 (Bidirectio  (None, None, 10)    280         ['masking_4589[0][0]']           
 nal)                                                                                             
                                                                                                  
 bidirectional_4590 (Bidirectio  (None, None, 10)    280         ['masking_4590[0][0]']           
 nal)                                                                                             
                                                                                                  
 conv1d_1594 (Conv1D)           (None, 24, 5)        65          ['masking_4591[0][0]']           
                                                                                                  
 lstm_6540 (LSTM)               (None, 5)            320         ['bidirectional_4588[0][0]']     
                                                                                                  
 lstm_6542 (LSTM)               (None, 5)            320         ['bidirectional_4589[0][0]']     
                                                                                                  
 lstm_6544 (LSTM)               (None, 5)            320         ['bidirectional_4590[0][0]']     
                                                                                                  
 conv1d_1595 (Conv1D)           (None, 24, 5)        105         ['conv1d_1594[0][0]']            
                                                                                                  
 dense_3828 (Dense)             (None, 96)           576         ['lstm_6540[0][0]']              
                                                                                                  
 dense_3829 (Dense)             (None, 96)           576         ['lstm_6542[0][0]']              
                                                                                                  
 dense_3830 (Dense)             (None, 96)           576         ['lstm_6544[0][0]']              
                                                                                                  
 bidirectional_4591 (Bidirectio  (None, 96)          20736       ['conv1d_1595[0][0]']            
 nal)                                                                                             
                                                                                                  
 dropout_3668 (Dropout)         (None, 96)           0           ['dense_3828[0][0]']             
                                                                                                  
 dropout_3669 (Dropout)         (None, 96)           0           ['dense_3829[0][0]']             
                                                                                                  
 dropout_3670 (Dropout)         (None, 96)           0           ['dense_3830[0][0]']             
                                                                                                  
 dropout_3671 (Dropout)         (None, 96)           0           ['bidirectional_4591[0][0]']     
                                                                                                  
 concatenate_957 (Concatenate)  (None, 384)          0           ['dropout_3668[0][0]',           
                                                                  'dropout_3669[0][0]',           
                                                                  'dropout_3670[0][0]',           
                                                                  'dropout_3671[0][0]']           
                                                                                                  
 dense_3831 (Dense)             (None, 1)            385         ['concatenate_957[0][0]']        
                                                                                                  
==================================================================================================
Total params: 24,819
Trainable params: 24,819
Non-trainable params: 0
__________________________________________________________________________________________________
…
 bidirectional_4609 (Bidirectio  (None, None, 10)    280         ['masking_4609[0][0]']           
 nal)                                                                                             
                                                                                                  
 bidirectional_4610 (Bidirectio  (None, None, 10)    280         ['masking_4610[0][0]']           
 nal)                                                                                             
                                                                                                  
 conv1d_1604 (Conv1D)           (None, 24, 5)        95          ['masking_4611[0][0]']           
                                                                                                  
 lstm_6575 (LSTM)               (None, 5)            320         ['bidirectional_4608[0][0]']     
                                                                                                  
 lstm_6577 (LSTM)               (None, 5)            320         ['bidirectional_4609[0][0]']     
                                                                                                  
 lstm_6579 (LSTM)               (None, 5)            320         ['bidirectional_4610[0][0]']     
                                                                                                  
 conv1d_1605 (Conv1D)           (None, 24, 5)        155         ['conv1d_1604[0][0]']            
                                                                                                  
 dense_3848 (Dense)             (None, 96)           576         ['lstm_6575[0][0]']              
                                                                                                  
 dense_3849 (Dense)             (None, 96)           576         ['lstm_6577[0][0]']              
                                                                                                  
 dense_3850 (Dense)             (None, 96)           576         ['lstm_6579[0][0]']              
                                                                                                  
 bidirectional_4611 (Bidirectio  (None, 96)          20736       ['conv1d_1605[0][0]']            
 nal)                                                                                             
                                                                                                  
 dropout_3688 (Dropout)         (None, 96)           0           ['dense_3848[0][0]']             
                                                                                                  
 dropout_3689 (Dropout)         (None, 96)           0           ['dense_3849[0][0]']             
                                                                                                  
 dropout_3690 (Dropout)         (None, 96)           0           ['dense_3850[0][0]']             
                                                                                                  
 dropout_3691 (Dropout)         (None, 96)           0           ['bidirectional_4611[0][0]']     
                                                                                                  
 concatenate_962 (Concatenate)  (None, 384)          0           ['dropout_3688[0][0]',           
                                                                  'dropout_3689[0][0]',           
                                                                  'dropout_3690[0][0]',           
                                                                  'dropout_3691[0][0]']           
                                                                                                  
 dense_3851 (Dense)             (None, 1)            385         ['concatenate_962[0][0]']        
                                                                                                  
==================================================================================================
Total params: 24,899
Trainable params: 24,899
Non-trainable params: 0
__________________________________________________________________________________________________
…
 bidirectional_4629 (Bidirectio  (None, None, 10)    280         ['masking_4629[0][0]']           
 nal)                                                                                             
                                                                                                  
 bidirectional_4630 (Bidirectio  (None, None, 10)    280         ['masking_4630[0][0]']           
 nal)                                                                                             
                                                                                                  
 conv1d_1614 (Conv1D)           (None, 24, 5)        125         ['masking_4631[0][0]']           
                                                                                                  
 lstm_6610 (LSTM)               (None, 5)            320         ['bidirectional_4628[0][0]']     
                                                                                                  
 lstm_6612 (LSTM)               (None, 5)            320         ['bidirectional_4629[0][0]']     
                                                                                                  
 lstm_6614 (LSTM)               (None, 5)            320         ['bidirectional_4630[0][0]']     
                                                                                                  
 conv1d_1615 (Conv1D)           (None, 24, 5)        205         ['conv1d_1614[0][0]']            
                                                                                                  
 dense_3868 (Dense)             (None, 96)           576         ['lstm_6610[0][0]']              
                                                                                                  
 dense_3869 (Dense)             (None, 96)           576         ['lstm_6612[0][0]']              
                                                                                                  
 dense_3870 (Dense)             (None, 96)           576         ['lstm_6614[0][0]']              
                                                                                                  
 bidirectional_4631 (Bidirectio  (None, 96)          20736       ['conv1d_1615[0][0]']            
 nal)                                                                                             
                                                                                                  
 dropout_3708 (Dropout)         (None, 96)           0           ['dense_3868[0][0]']             
                                                                                                  
 dropout_3709 (Dropout)         (None, 96)           0           ['dense_3869[0][0]']             
                                                                                                  
 dropout_3710 (Dropout)         (None, 96)           0           ['dense_3870[0][0]']             
                                                                                                  
 dropout_3711 (Dropout)         (None, 96)           0           ['bidirectional_4631[0][0]']     
                                                                                                  
 concatenate_967 (Concatenate)  (None, 384)          0           ['dropout_3708[0][0]',           
                                                                  'dropout_3709[0][0]',           
                                                                  'dropout_3710[0][0]',           
                                                                  'dropout_3711[0][0]']           
                                                                                                  
 dense_3871 (Dense)             (None, 1)            385         ['concatenate_967[0][0]']        
                                                                                                  
==================================================================================================
Total params: 24,979
Trainable params: 24,979
Non-trainable params: 0
__________________________________________________________________________________________________
…
 bidirectional_4649 (Bidirectio  (None, None, 10)    280         ['masking_4649[0][0]']           
 nal)                                                                                             
                                                                                                  
 bidirectional_4650 (Bidirectio  (None, None, 10)    280         ['masking_4650[0][0]']           
 nal)                                                                                             
                                                                                                  
 conv1d_1624 (Conv1D)           (None, 24, 5)        65          ['masking_4651[0][0]']           
                                                                                                  
 lstm_6645 (LSTM)               (None, 5)            320         ['bidirectional_4648[0][0]']     
                                                                                                  
 lstm_6647 (LSTM)               (None, 5)            320         ['bidirectional_4649[0][0]']     
                                                                                                  
 lstm_6649 (LSTM)               (None, 5)            320         ['bidirectional_4650[0][0]']     
                                                                                                  
 conv1d_1625 (Conv1D)           (None, 24, 5)        105         ['conv1d_1624[0][0]']            
                                                                                                  
 dense_3888 (Dense)             (None, 128)          768         ['lstm_6645[0][0]']              
                                                                                                  
 dense_3889 (Dense)             (None, 128)          768         ['lstm_6647[0][0]']              
                                                                                                  
 dense_3890 (Dense)             (None, 128)          768         ['lstm_6649[0][0]']              
                                                                                                  
 bidirectional_4651 (Bidirectio  (None, 128)         35840       ['conv1d_1625[0][0]']            
 nal)                                                                                             
                                                                                                  
 dropout_3728 (Dropout)         (None, 128)          0           ['dense_3888[0][0]']             
                                                                                                  
 dropout_3729 (Dropout)         (None, 128)          0           ['dense_3889[0][0]']             
                                                                                                  
 dropout_3730 (Dropout)         (None, 128)          0           ['dense_3890[0][0]']             
                                                                                                  
 dropout_3731 (Dropout)         (None, 128)          0           ['bidirectional_4651[0][0]']     
                                                                                                  
 concatenate_972 (Concatenate)  (None, 512)          0           ['dropout_3728[0][0]',           
                                                                  'dropout_3729[0][0]',           
                                                                  'dropout_3730[0][0]',           
                                                                  'dropout_3731[0][0]']           
                                                                                                  
 dense_3891 (Dense)             (None, 1)            513         ['concatenate_972[0][0]']        
                                                                                                  
==================================================================================================
Total params: 40,627
Trainable params: 40,627
Non-trainable params: 0
__________________________________________________________________________________________________
…
 bidirectional_4669 (Bidirectio  (None, None, 10)    280         ['masking_4669[0][0]']           
 nal)                                                                                             
                                                                                                  
 bidirectional_4670 (Bidirectio  (None, None, 10)    280         ['masking_4670[0][0]']           
 nal)                                                                                             
                                                                                                  
 conv1d_1634 (Conv1D)           (None, 24, 5)        95          ['masking_4671[0][0]']           
                                                                                                  
 lstm_6680 (LSTM)               (None, 5)            320         ['bidirectional_4668[0][0]']     
                                                                                                  
 lstm_6682 (LSTM)               (None, 5)            320         ['bidirectional_4669[0][0]']     
                                                                                                  
 lstm_6684 (LSTM)               (None, 5)            320         ['bidirectional_4670[0][0]']     
                                                                                                  
 conv1d_1635 (Conv1D)           (None, 24, 5)        155         ['conv1d_1634[0][0]']            
                                                                                                  
 dense_3908 (Dense)             (None, 128)          768         ['lstm_6680[0][0]']              
                                                                                                  
 dense_3909 (Dense)             (None, 128)          768         ['lstm_6682[0][0]']              
                                                                                                  
 dense_3910 (Dense)             (None, 128)          768         ['lstm_6684[0][0]']              
                                                                                                  
 bidirectional_4671 (Bidirectio  (None, 128)         35840       ['conv1d_1635[0][0]']            
 nal)                                                                                             
                                                                                                  
 dropout_3748 (Dropout)         (None, 128)          0           ['dense_3908[0][0]']             
                                                                                                  
 dropout_3749 (Dropout)         (None, 128)          0           ['dense_3909[0][0]']             
                                                                                                  
 dropout_3750 (Dropout)         (None, 128)          0           ['dense_3910[0][0]']             
                                                                                                  
 dropout_3751 (Dropout)         (None, 128)          0           ['bidirectional_4671[0][0]']     
                                                                                                  
 concatenate_977 (Concatenate)  (None, 512)          0           ['dropout_3748[0][0]',           
                                                                  'dropout_3749[0][0]',           
                                                                  'dropout_3750[0][0]',           
                                                                  'dropout_3751[0][0]']           
                                                                                                  
 dense_3911 (Dense)             (None, 1)            513         ['concatenate_977[0][0]']        
                                                                                                  
==================================================================================================
Total params: 40,707
Trainable params: 40,707
Non-trainable params: 0
__________________________________________________________________________________________________
…
 bidirectional_4689 (Bidirectio  (None, None, 10)    280         ['masking_4689[0][0]']           
 nal)                                                                                             
                                                                                                  
 bidirectional_4690 (Bidirectio  (None, None, 10)    280         ['masking_4690[0][0]']           
 nal)                                                                                             
                                                                                                  
 conv1d_1644 (Conv1D)           (None, 24, 5)        125         ['masking_4691[0][0]']           
                                                                                                  
 lstm_6715 (LSTM)               (None, 5)            320         ['bidirectional_4688[0][0]']     
                                                                                                  
 lstm_6717 (LSTM)               (None, 5)            320         ['bidirectional_4689[0][0]']     
                                                                                                  
 lstm_6719 (LSTM)               (None, 5)            320         ['bidirectional_4690[0][0]']     
                                                                                                  
 conv1d_1645 (Conv1D)           (None, 24, 5)        205         ['conv1d_1644[0][0]']            
                                                                                                  
 dense_3928 (Dense)             (None, 128)          768         ['lstm_6715[0][0]']              
                                                                                                  
 dense_3929 (Dense)             (None, 128)          768         ['lstm_6717[0][0]']              
                                                                                                  
 dense_3930 (Dense)             (None, 128)          768         ['lstm_6719[0][0]']              
                                                                                                  
 bidirectional_4691 (Bidirectio  (None, 128)         35840       ['conv1d_1645[0][0]']            
 nal)                                                                                             
                                                                                                  
 dropout_3768 (Dropout)         (None, 128)          0           ['dense_3928[0][0]']             
                                                                                                  
 dropout_3769 (Dropout)         (None, 128)          0           ['dense_3929[0][0]']             
                                                                                                  
 dropout_3770 (Dropout)         (None, 128)          0           ['dense_3930[0][0]']             
                                                                                                  
 dropout_3771 (Dropout)         (None, 128)          0           ['bidirectional_4691[0][0]']     
                                                                                                  
 concatenate_982 (Concatenate)  (None, 512)          0           ['dropout_3768[0][0]',           
                                                                  'dropout_3769[0][0]',           
                                                                  'dropout_3770[0][0]',           
                                                                  'dropout_3771[0][0]']           
                                                                                                  
 dense_3931 (Dense)             (None, 1)            513         ['concatenate_982[0][0]']        
                                                                                                  
==================================================================================================
Total params: 40,787
Trainable params: 40,787
Non-trainable params: 0
__________________________________________________________________________________________________
…
