…
 bidirectional_5551 (Bidirectio  (None, None, 10)    280         ['masking_5551[0][0]']           
 nal)                                                                                             
                                                                                                  
 bidirectional_5552 (Bidirectio  (None, None, 10)    280         ['masking_5552[0][0]']           
 nal)                                                                                             
                                                                                                  
 conv1d_1840 (Conv1D)           (None, 25, 5)        1885        ['masking_5553[0][0]']           
                                                                                                  
 lstm_7881 (LSTM)               (None, 5)            320         ['bidirectional_5550[0][0]']     
                                                                                                  
 lstm_7883 (LSTM)               (None, 5)            320         ['bidirectional_5551[0][0]']     
                                                                                                  
 lstm_7885 (LSTM)               (None, 5)            320         ['bidirectional_5552[0][0]']     
                                                                                                  
 conv1d_1841 (Conv1D)           (None, 25, 5)        105         ['conv1d_1840[0][0]']            
                                                                                                  
 dense_4640 (Dense)             (None, 64)           384         ['lstm_7881[0][0]']              
                                                                                                  
 dense_4641 (Dense)             (None, 64)           384         ['lstm_7883[0][0]']              
                                                                                                  
 dense_4642 (Dense)             (None, 64)           384         ['lstm_7885[0][0]']              
                                                                                                  
 bidirectional_5553 (Bidirectio  (None, 64)          9728        ['conv1d_1841[0][0]']            
 nal)                                                                                             
                                                                                                  
 dropout_4400 (Dropout)         (None, 64)           0           ['dense_4640[0][0]']             
                                                                                                  
 dropout_4401 (Dropout)         (None, 64)           0           ['dense_4641[0][0]']             
                                                                                                  
 dropout_4402 (Dropout)         (None, 64)           0           ['dense_4642[0][0]']             
                                                                                                  
 dropout_4403 (Dropout)         (None, 64)           0           ['bidirectional_5553[0][0]']     
                                                                                                  
 concatenate_1160 (Concatenate)  (None, 256)         0           ['dropout_4400[0][0]',           
                                                                  'dropout_4401[0][0]',           
                                                                  'dropout_4402[0][0]',           
                                                                  'dropout_4403[0][0]']           
                                                                                                  
 dense_4643 (Dense)             (None, 1)            257         ['concatenate_1160[0][0]']       
                                                                                                  
==================================================================================================
Total params: 14,927
Trainable params: 14,927
Non-trainable params: 0
__________________________________________________________________________________________________
…
 bidirectional_5571 (Bidirectio  (None, None, 10)    280         ['masking_5571[0][0]']           
 nal)                                                                                             
                                                                                                  
 bidirectional_5572 (Bidirectio  (None, None, 10)    280         ['masking_5572[0][0]']           
 nal)                                                                                             
                                                                                                  
 conv1d_1850 (Conv1D)           (None, 25, 5)        2825        ['masking_5573[0][0]']           
                                                                                                  
 lstm_7916 (LSTM)               (None, 5)            320         ['bidirectional_5570[0][0]']     
                                                                                                  
 lstm_7918 (LSTM)               (None, 5)            320         ['bidirectional_5571[0][0]']     
                                                                                                  
 lstm_7920 (LSTM)               (None, 5)            320         ['bidirectional_5572[0][0]']     
                                                                                                  
 conv1d_1851 (Conv1D)           (None, 25, 5)        155         ['conv1d_1850[0][0]']            
                                                                                                  
 dense_4660 (Dense)             (None, 64)           384         ['lstm_7916[0][0]']              
                                                                                                  
 dense_4661 (Dense)             (None, 64)           384         ['lstm_7918[0][0]']              
                                                                                                  
 dense_4662 (Dense)             (None, 64)           384         ['lstm_7920[0][0]']              
                                                                                                  
 bidirectional_5573 (Bidirectio  (None, 64)          9728        ['conv1d_1851[0][0]']            
 nal)                                                                                             
                                                                                                  
 dropout_4420 (Dropout)         (None, 64)           0           ['dense_4660[0][0]']             
                                                                                                  
 dropout_4421 (Dropout)         (None, 64)           0           ['dense_4661[0][0]']             
                                                                                                  
 dropout_4422 (Dropout)         (None, 64)           0           ['dense_4662[0][0]']             
                                                                                                  
 dropout_4423 (Dropout)         (None, 64)           0           ['bidirectional_5573[0][0]']     
                                                                                                  
 concatenate_1165 (Concatenate)  (None, 256)         0           ['dropout_4420[0][0]',           
                                                                  'dropout_4421[0][0]',           
                                                                  'dropout_4422[0][0]',           
                                                                  'dropout_4423[0][0]']           
                                                                                                  
 dense_4663 (Dense)             (None, 1)            257         ['concatenate_1165[0][0]']       
                                                                                                  
==================================================================================================
Total params: 15,917
Trainable params: 15,917
Non-trainable params: 0
__________________________________________________________________________________________________
…
 bidirectional_5591 (Bidirectio  (None, None, 10)    280         ['masking_5591[0][0]']           
 nal)                                                                                             
                                                                                                  
 bidirectional_5592 (Bidirectio  (None, None, 10)    280         ['masking_5592[0][0]']           
 nal)                                                                                             
                                                                                                  
 conv1d_1860 (Conv1D)           (None, 25, 5)        3765        ['masking_5593[0][0]']           
                                                                                                  
 lstm_7951 (LSTM)               (None, 5)            320         ['bidirectional_5590[0][0]']     
                                                                                                  
 lstm_7953 (LSTM)               (None, 5)            320         ['bidirectional_5591[0][0]']     
                                                                                                  
 lstm_7955 (LSTM)               (None, 5)            320         ['bidirectional_5592[0][0]']     
                                                                                                  
 conv1d_1861 (Conv1D)           (None, 25, 5)        205         ['conv1d_1860[0][0]']            
                                                                                                  
 dense_4680 (Dense)             (None, 64)           384         ['lstm_7951[0][0]']              
                                                                                                  
 dense_4681 (Dense)             (None, 64)           384         ['lstm_7953[0][0]']              
                                                                                                  
 dense_4682 (Dense)             (None, 64)           384         ['lstm_7955[0][0]']              
                                                                                                  
 bidirectional_5593 (Bidirectio  (None, 64)          9728        ['conv1d_1861[0][0]']            
 nal)                                                                                             
                                                                                                  
 dropout_4440 (Dropout)         (None, 64)           0           ['dense_4680[0][0]']             
                                                                                                  
 dropout_4441 (Dropout)         (None, 64)           0           ['dense_4681[0][0]']             
                                                                                                  
 dropout_4442 (Dropout)         (None, 64)           0           ['dense_4682[0][0]']             
                                                                                                  
 dropout_4443 (Dropout)         (None, 64)           0           ['bidirectional_5593[0][0]']     
                                                                                                  
 concatenate_1170 (Concatenate)  (None, 256)         0           ['dropout_4440[0][0]',           
                                                                  'dropout_4441[0][0]',           
                                                                  'dropout_4442[0][0]',           
                                                                  'dropout_4443[0][0]']           
                                                                                                  
 dense_4683 (Dense)             (None, 1)            257         ['concatenate_1170[0][0]']       
                                                                                                  
==================================================================================================
Total params: 16,907
Trainable params: 16,907
Non-trainable params: 0
__________________________________________________________________________________________________
…
 bidirectional_5611 (Bidirectio  (None, None, 10)    280         ['masking_5611[0][0]']           
 nal)                                                                                             
                                                                                                  
 bidirectional_5612 (Bidirectio  (None, None, 10)    280         ['masking_5612[0][0]']           
 nal)                                                                                             
                                                                                                  
 conv1d_1870 (Conv1D)           (None, 25, 5)        1885        ['masking_5613[0][0]']           
                                                                                                  
 lstm_7986 (LSTM)               (None, 5)            320         ['bidirectional_5610[0][0]']     
                                                                                                  
 lstm_7988 (LSTM)               (None, 5)            320         ['bidirectional_5611[0][0]']     
                                                                                                  
 lstm_7990 (LSTM)               (None, 5)            320         ['bidirectional_5612[0][0]']     
                                                                                                  
 conv1d_1871 (Conv1D)           (None, 25, 5)        105         ['conv1d_1870[0][0]']            
                                                                                                  
 dense_4700 (Dense)             (None, 96)           576         ['lstm_7986[0][0]']              
                                                                                                  
 dense_4701 (Dense)             (None, 96)           576         ['lstm_7988[0][0]']              
                                                                                                  
 dense_4702 (Dense)             (None, 96)           576         ['lstm_7990[0][0]']              
                                                                                                  
 bidirectional_5613 (Bidirectio  (None, 96)          20736       ['conv1d_1871[0][0]']            
 nal)                                                                                             
                                                                                                  
 dropout_4460 (Dropout)         (None, 96)           0           ['dense_4700[0][0]']             
                                                                                                  
 dropout_4461 (Dropout)         (None, 96)           0           ['dense_4701[0][0]']             
                                                                                                  
 dropout_4462 (Dropout)         (None, 96)           0           ['dense_4702[0][0]']             
                                                                                                  
 dropout_4463 (Dropout)         (None, 96)           0           ['bidirectional_5613[0][0]']     
                                                                                                  
 concatenate_1175 (Concatenate)  (None, 384)         0           ['dropout_4460[0][0]',           
                                                                  'dropout_4461[0][0]',           
                                                                  'dropout_4462[0][0]',           
                                                                  'dropout_4463[0][0]']           
                                                                                                  
 dense_4703 (Dense)             (None, 1)            385         ['concatenate_1175[0][0]']       
                                                                                                  
==================================================================================================
Total params: 26,639
Trainable params: 26,639
Non-trainable params: 0
__________________________________________________________________________________________________
…
 bidirectional_5631 (Bidirectio  (None, None, 10)    280         ['masking_5631[0][0]']           
 nal)                                                                                             
                                                                                                  
 bidirectional_5632 (Bidirectio  (None, None, 10)    280         ['masking_5632[0][0]']           
 nal)                                                                                             
                                                                                                  
 conv1d_1880 (Conv1D)           (None, 25, 5)        2825        ['masking_5633[0][0]']           
                                                                                                  
 lstm_8021 (LSTM)               (None, 5)            320         ['bidirectional_5630[0][0]']     
                                                                                                  
 lstm_8023 (LSTM)               (None, 5)            320         ['bidirectional_5631[0][0]']     
                                                                                                  
 lstm_8025 (LSTM)               (None, 5)            320         ['bidirectional_5632[0][0]']     
                                                                                                  
 conv1d_1881 (Conv1D)           (None, 25, 5)        155         ['conv1d_1880[0][0]']            
                                                                                                  
 dense_4720 (Dense)             (None, 96)           576         ['lstm_8021[0][0]']              
                                                                                                  
 dense_4721 (Dense)             (None, 96)           576         ['lstm_8023[0][0]']              
                                                                                                  
 dense_4722 (Dense)             (None, 96)           576         ['lstm_8025[0][0]']              
                                                                                                  
 bidirectional_5633 (Bidirectio  (None, 96)          20736       ['conv1d_1881[0][0]']            
 nal)                                                                                             
                                                                                                  
 dropout_4480 (Dropout)         (None, 96)           0           ['dense_4720[0][0]']             
                                                                                                  
 dropout_4481 (Dropout)         (None, 96)           0           ['dense_4721[0][0]']             
                                                                                                  
 dropout_4482 (Dropout)         (None, 96)           0           ['dense_4722[0][0]']             
                                                                                                  
 dropout_4483 (Dropout)         (None, 96)           0           ['bidirectional_5633[0][0]']     
                                                                                                  
 concatenate_1180 (Concatenate)  (None, 384)         0           ['dropout_4480[0][0]',           
                                                                  'dropout_4481[0][0]',           
                                                                  'dropout_4482[0][0]',           
                                                                  'dropout_4483[0][0]']           
                                                                                                  
 dense_4723 (Dense)             (None, 1)            385         ['concatenate_1180[0][0]']       
                                                                                                  
==================================================================================================
Total params: 27,629
Trainable params: 27,629
Non-trainable params: 0
__________________________________________________________________________________________________
…
 bidirectional_5651 (Bidirectio  (None, None, 10)    280         ['masking_5651[0][0]']           
 nal)                                                                                             
                                                                                                  
 bidirectional_5652 (Bidirectio  (None, None, 10)    280         ['masking_5652[0][0]']           
 nal)                                                                                             
                                                                                                  
 conv1d_1890 (Conv1D)           (None, 25, 5)        3765        ['masking_5653[0][0]']           
                                                                                                  
 lstm_8056 (LSTM)               (None, 5)            320         ['bidirectional_5650[0][0]']     
                                                                                                  
 lstm_8058 (LSTM)               (None, 5)            320         ['bidirectional_5651[0][0]']     
                                                                                                  
 lstm_8060 (LSTM)               (None, 5)            320         ['bidirectional_5652[0][0]']     
                                                                                                  
 conv1d_1891 (Conv1D)           (None, 25, 5)        205         ['conv1d_1890[0][0]']            
                                                                                                  
 dense_4740 (Dense)             (None, 96)           576         ['lstm_8056[0][0]']              
                                                                                                  
 dense_4741 (Dense)             (None, 96)           576         ['lstm_8058[0][0]']              
                                                                                                  
 dense_4742 (Dense)             (None, 96)           576         ['lstm_8060[0][0]']              
                                                                                                  
 bidirectional_5653 (Bidirectio  (None, 96)          20736       ['conv1d_1891[0][0]']            
 nal)                                                                                             
                                                                                                  
 dropout_4500 (Dropout)         (None, 96)           0           ['dense_4740[0][0]']             
                                                                                                  
 dropout_4501 (Dropout)         (None, 96)           0           ['dense_4741[0][0]']             
                                                                                                  
 dropout_4502 (Dropout)         (None, 96)           0           ['dense_4742[0][0]']             
                                                                                                  
 dropout_4503 (Dropout)         (None, 96)           0           ['bidirectional_5653[0][0]']     
                                                                                                  
 concatenate_1185 (Concatenate)  (None, 384)         0           ['dropout_4500[0][0]',           
                                                                  'dropout_4501[0][0]',           
                                                                  'dropout_4502[0][0]',           
                                                                  'dropout_4503[0][0]']           
                                                                                                  
 dense_4743 (Dense)             (None, 1)            385         ['concatenate_1185[0][0]']       
                                                                                                  
==================================================================================================
Total params: 28,619
Trainable params: 28,619
Non-trainable params: 0
__________________________________________________________________________________________________
…
 bidirectional_5671 (Bidirectio  (None, None, 10)    280         ['masking_5671[0][0]']           
 nal)                                                                                             
                                                                                                  
 bidirectional_5672 (Bidirectio  (None, None, 10)    280         ['masking_5672[0][0]']           
 nal)                                                                                             
                                                                                                  
 conv1d_1900 (Conv1D)           (None, 25, 5)        1885        ['masking_5673[0][0]']           
                                                                                                  
 lstm_8091 (LSTM)               (None, 5)            320         ['bidirectional_5670[0][0]']     
                                                                                                  
 lstm_8093 (LSTM)               (None, 5)            320         ['bidirectional_5671[0][0]']     
                                                                                                  
 lstm_8095 (LSTM)               (None, 5)            320         ['bidirectional_5672[0][0]']     
                                                                                                  
 conv1d_1901 (Conv1D)           (None, 25, 5)        105         ['conv1d_1900[0][0]']            
                                                                                                  
 dense_4760 (Dense)             (None, 128)          768         ['lstm_8091[0][0]']              
                                                                                                  
 dense_4761 (Dense)             (None, 128)          768         ['lstm_8093[0][0]']              
                                                                                                  
 dense_4762 (Dense)             (None, 128)          768         ['lstm_8095[0][0]']              
                                                                                                  
 bidirectional_5673 (Bidirectio  (None, 128)         35840       ['conv1d_1901[0][0]']            
 nal)                                                                                             
                                                                                                  
 dropout_4520 (Dropout)         (None, 128)          0           ['dense_4760[0][0]']             
                                                                                                  
 dropout_4521 (Dropout)         (None, 128)          0           ['dense_4761[0][0]']             
                                                                                                  
 dropout_4522 (Dropout)         (None, 128)          0           ['dense_4762[0][0]']             
                                                                                                  
 dropout_4523 (Dropout)         (None, 128)          0           ['bidirectional_5673[0][0]']     
                                                                                                  
 concatenate_1190 (Concatenate)  (None, 512)         0           ['dropout_4520[0][0]',           
                                                                  'dropout_4521[0][0]',           
                                                                  'dropout_4522[0][0]',           
                                                                  'dropout_4523[0][0]']           
                                                                                                  
 dense_4763 (Dense)             (None, 1)            513         ['concatenate_1190[0][0]']       
                                                                                                  
==================================================================================================
Total params: 42,447
Trainable params: 42,447
Non-trainable params: 0
__________________________________________________________________________________________________
…
 bidirectional_5691 (Bidirectio  (None, None, 10)    280         ['masking_5691[0][0]']           
 nal)                                                                                             
                                                                                                  
 bidirectional_5692 (Bidirectio  (None, None, 10)    280         ['masking_5692[0][0]']           
 nal)                                                                                             
                                                                                                  
 conv1d_1910 (Conv1D)           (None, 25, 5)        2825        ['masking_5693[0][0]']           
                                                                                                  
 lstm_8126 (LSTM)               (None, 5)            320         ['bidirectional_5690[0][0]']     
                                                                                                  
 lstm_8128 (LSTM)               (None, 5)            320         ['bidirectional_5691[0][0]']     
                                                                                                  
 lstm_8130 (LSTM)               (None, 5)            320         ['bidirectional_5692[0][0]']     
                                                                                                  
 conv1d_1911 (Conv1D)           (None, 25, 5)        155         ['conv1d_1910[0][0]']            
                                                                                                  
 dense_4780 (Dense)             (None, 128)          768         ['lstm_8126[0][0]']              
                                                                                                  
 dense_4781 (Dense)             (None, 128)          768         ['lstm_8128[0][0]']              
                                                                                                  
 dense_4782 (Dense)             (None, 128)          768         ['lstm_8130[0][0]']              
                                                                                                  
 bidirectional_5693 (Bidirectio  (None, 128)         35840       ['conv1d_1911[0][0]']            
 nal)                                                                                             
                                                                                                  
 dropout_4540 (Dropout)         (None, 128)          0           ['dense_4780[0][0]']             
                                                                                                  
 dropout_4541 (Dropout)         (None, 128)          0           ['dense_4781[0][0]']             
                                                                                                  
 dropout_4542 (Dropout)         (None, 128)          0           ['dense_4782[0][0]']             
                                                                                                  
 dropout_4543 (Dropout)         (None, 128)          0           ['bidirectional_5693[0][0]']     
                                                                                                  
 concatenate_1195 (Concatenate)  (None, 512)         0           ['dropout_4540[0][0]',           
                                                                  'dropout_4541[0][0]',           
                                                                  'dropout_4542[0][0]',           
                                                                  'dropout_4543[0][0]']           
                                                                                                  
 dense_4783 (Dense)             (None, 1)            513         ['concatenate_1195[0][0]']       
                                                                                                  
==================================================================================================
Total params: 43,437
Trainable params: 43,437
Non-trainable params: 0
__________________________________________________________________________________________________
…
 bidirectional_5711 (Bidirectio  (None, None, 10)    280         ['masking_5711[0][0]']           
 nal)                                                                                             
                                                                                                  
 bidirectional_5712 (Bidirectio  (None, None, 10)    280         ['masking_5712[0][0]']           
 nal)                                                                                             
                                                                                                  
 conv1d_1920 (Conv1D)           (None, 25, 5)        3765        ['masking_5713[0][0]']           
                                                                                                  
 lstm_8161 (LSTM)               (None, 5)            320         ['bidirectional_5710[0][0]']     
                                                                                                  
 lstm_8163 (LSTM)               (None, 5)            320         ['bidirectional_5711[0][0]']     
                                                                                                  
 lstm_8165 (LSTM)               (None, 5)            320         ['bidirectional_5712[0][0]']     
                                                                                                  
 conv1d_1921 (Conv1D)           (None, 25, 5)        205         ['conv1d_1920[0][0]']            
                                                                                                  
 dense_4800 (Dense)             (None, 128)          768         ['lstm_8161[0][0]']              
                                                                                                  
 dense_4801 (Dense)             (None, 128)          768         ['lstm_8163[0][0]']              
                                                                                                  
 dense_4802 (Dense)             (None, 128)          768         ['lstm_8165[0][0]']              
                                                                                                  
 bidirectional_5713 (Bidirectio  (None, 128)         35840       ['conv1d_1921[0][0]']            
 nal)                                                                                             
                                                                                                  
 dropout_4560 (Dropout)         (None, 128)          0           ['dense_4800[0][0]']             
                                                                                                  
 dropout_4561 (Dropout)         (None, 128)          0           ['dense_4801[0][0]']             
                                                                                                  
 dropout_4562 (Dropout)         (None, 128)          0           ['dense_4802[0][0]']             
                                                                                                  
 dropout_4563 (Dropout)         (None, 128)          0           ['bidirectional_5713[0][0]']     
                                                                                                  
 concatenate_1200 (Concatenate)  (None, 512)         0           ['dropout_4560[0][0]',           
                                                                  'dropout_4561[0][0]',           
                                                                  'dropout_4562[0][0]',           
                                                                  'dropout_4563[0][0]']           
                                                                                                  
 dense_4803 (Dense)             (None, 1)            513         ['concatenate_1200[0][0]']       
                                                                                                  
==================================================================================================
Total params: 44,427
Trainable params: 44,427
Non-trainable params: 0
__________________________________________________________________________________________________
…
