…
 bidirectional_2357 (Bidirectio  (None, None, 10)    280         ['masking_2357[0][0]']           
 nal)                                                                                             
                                                                                                  
 bidirectional_2358 (Bidirectio  (None, None, 10)    280         ['masking_2358[0][0]']           
 nal)                                                                                             
                                                                                                  
 conv1d_828 (Conv1D)            (None, 24, 5)        65          ['masking_2359[0][0]']           
                                                                                                  
 lstm_3379 (LSTM)               (None, 5)            320         ['bidirectional_2356[0][0]']     
                                                                                                  
 lstm_3381 (LSTM)               (None, 5)            320         ['bidirectional_2357[0][0]']     
                                                                                                  
 lstm_3383 (LSTM)               (None, 5)            320         ['bidirectional_2358[0][0]']     
                                                                                                  
 conv1d_829 (Conv1D)            (None, 24, 5)        105         ['conv1d_828[0][0]']             
                                                                                                  
 dense_1976 (Dense)             (None, 64)           384         ['lstm_3379[0][0]']              
                                                                                                  
 dense_1977 (Dense)             (None, 64)           384         ['lstm_3381[0][0]']              
                                                                                                  
 dense_1978 (Dense)             (None, 64)           384         ['lstm_3383[0][0]']              
                                                                                                  
 bidirectional_2359 (Bidirectio  (None, 64)          9728        ['conv1d_829[0][0]']             
 nal)                                                                                             
                                                                                                  
 dropout_1896 (Dropout)         (None, 64)           0           ['dense_1976[0][0]']             
                                                                                                  
 dropout_1897 (Dropout)         (None, 64)           0           ['dense_1977[0][0]']             
                                                                                                  
 dropout_1898 (Dropout)         (None, 64)           0           ['dense_1978[0][0]']             
                                                                                                  
 dropout_1899 (Dropout)         (None, 64)           0           ['bidirectional_2359[0][0]']     
                                                                                                  
 concatenate_494 (Concatenate)  (None, 256)          0           ['dropout_1896[0][0]',           
                                                                  'dropout_1897[0][0]',           
                                                                  'dropout_1898[0][0]',           
                                                                  'dropout_1899[0][0]']           
                                                                                                  
 dense_1979 (Dense)             (None, 1)            257         ['concatenate_494[0][0]']        
                                                                                                  
==================================================================================================
Total params: 13,107
Trainable params: 13,107
Non-trainable params: 0
__________________________________________________________________________________________________
…
 bidirectional_2377 (Bidirectio  (None, None, 10)    280         ['masking_2377[0][0]']           
 nal)                                                                                             
                                                                                                  
 bidirectional_2378 (Bidirectio  (None, None, 10)    280         ['masking_2378[0][0]']           
 nal)                                                                                             
                                                                                                  
 conv1d_838 (Conv1D)            (None, 24, 5)        95          ['masking_2379[0][0]']           
                                                                                                  
 lstm_3414 (LSTM)               (None, 5)            320         ['bidirectional_2376[0][0]']     
                                                                                                  
 lstm_3416 (LSTM)               (None, 5)            320         ['bidirectional_2377[0][0]']     
                                                                                                  
 lstm_3418 (LSTM)               (None, 5)            320         ['bidirectional_2378[0][0]']     
                                                                                                  
 conv1d_839 (Conv1D)            (None, 24, 5)        155         ['conv1d_838[0][0]']             
                                                                                                  
 dense_1996 (Dense)             (None, 64)           384         ['lstm_3414[0][0]']              
                                                                                                  
 dense_1997 (Dense)             (None, 64)           384         ['lstm_3416[0][0]']              
                                                                                                  
 dense_1998 (Dense)             (None, 64)           384         ['lstm_3418[0][0]']              
                                                                                                  
 bidirectional_2379 (Bidirectio  (None, 64)          9728        ['conv1d_839[0][0]']             
 nal)                                                                                             
                                                                                                  
 dropout_1916 (Dropout)         (None, 64)           0           ['dense_1996[0][0]']             
                                                                                                  
 dropout_1917 (Dropout)         (None, 64)           0           ['dense_1997[0][0]']             
                                                                                                  
 dropout_1918 (Dropout)         (None, 64)           0           ['dense_1998[0][0]']             
                                                                                                  
 dropout_1919 (Dropout)         (None, 64)           0           ['bidirectional_2379[0][0]']     
                                                                                                  
 concatenate_499 (Concatenate)  (None, 256)          0           ['dropout_1916[0][0]',           
                                                                  'dropout_1917[0][0]',           
                                                                  'dropout_1918[0][0]',           
                                                                  'dropout_1919[0][0]']           
                                                                                                  
 dense_1999 (Dense)             (None, 1)            257         ['concatenate_499[0][0]']        
                                                                                                  
==================================================================================================
Total params: 13,187
Trainable params: 13,187
Non-trainable params: 0
__________________________________________________________________________________________________
…
 bidirectional_2397 (Bidirectio  (None, None, 10)    280         ['masking_2397[0][0]']           
 nal)                                                                                             
                                                                                                  
 bidirectional_2398 (Bidirectio  (None, None, 10)    280         ['masking_2398[0][0]']           
 nal)                                                                                             
                                                                                                  
 conv1d_848 (Conv1D)            (None, 24, 5)        125         ['masking_2399[0][0]']           
                                                                                                  
 lstm_3449 (LSTM)               (None, 5)            320         ['bidirectional_2396[0][0]']     
                                                                                                  
 lstm_3451 (LSTM)               (None, 5)            320         ['bidirectional_2397[0][0]']     
                                                                                                  
 lstm_3453 (LSTM)               (None, 5)            320         ['bidirectional_2398[0][0]']     
                                                                                                  
 conv1d_849 (Conv1D)            (None, 24, 5)        205         ['conv1d_848[0][0]']             
                                                                                                  
 dense_2016 (Dense)             (None, 64)           384         ['lstm_3449[0][0]']              
                                                                                                  
 dense_2017 (Dense)             (None, 64)           384         ['lstm_3451[0][0]']              
                                                                                                  
 dense_2018 (Dense)             (None, 64)           384         ['lstm_3453[0][0]']              
                                                                                                  
 bidirectional_2399 (Bidirectio  (None, 64)          9728        ['conv1d_849[0][0]']             
 nal)                                                                                             
                                                                                                  
 dropout_1936 (Dropout)         (None, 64)           0           ['dense_2016[0][0]']             
                                                                                                  
 dropout_1937 (Dropout)         (None, 64)           0           ['dense_2017[0][0]']             
                                                                                                  
 dropout_1938 (Dropout)         (None, 64)           0           ['dense_2018[0][0]']             
                                                                                                  
 dropout_1939 (Dropout)         (None, 64)           0           ['bidirectional_2399[0][0]']     
                                                                                                  
 concatenate_504 (Concatenate)  (None, 256)          0           ['dropout_1936[0][0]',           
                                                                  'dropout_1937[0][0]',           
                                                                  'dropout_1938[0][0]',           
                                                                  'dropout_1939[0][0]']           
                                                                                                  
 dense_2019 (Dense)             (None, 1)            257         ['concatenate_504[0][0]']        
                                                                                                  
==================================================================================================
Total params: 13,267
Trainable params: 13,267
Non-trainable params: 0
__________________________________________________________________________________________________
…
 bidirectional_2417 (Bidirectio  (None, None, 10)    280         ['masking_2417[0][0]']           
 nal)                                                                                             
                                                                                                  
 bidirectional_2418 (Bidirectio  (None, None, 10)    280         ['masking_2418[0][0]']           
 nal)                                                                                             
                                                                                                  
 conv1d_858 (Conv1D)            (None, 24, 5)        65          ['masking_2419[0][0]']           
                                                                                                  
 lstm_3484 (LSTM)               (None, 5)            320         ['bidirectional_2416[0][0]']     
                                                                                                  
 lstm_3486 (LSTM)               (None, 5)            320         ['bidirectional_2417[0][0]']     
                                                                                                  
 lstm_3488 (LSTM)               (None, 5)            320         ['bidirectional_2418[0][0]']     
                                                                                                  
 conv1d_859 (Conv1D)            (None, 24, 5)        105         ['conv1d_858[0][0]']             
                                                                                                  
 dense_2036 (Dense)             (None, 96)           576         ['lstm_3484[0][0]']              
                                                                                                  
 dense_2037 (Dense)             (None, 96)           576         ['lstm_3486[0][0]']              
                                                                                                  
 dense_2038 (Dense)             (None, 96)           576         ['lstm_3488[0][0]']              
                                                                                                  
 bidirectional_2419 (Bidirectio  (None, 96)          20736       ['conv1d_859[0][0]']             
 nal)                                                                                             
                                                                                                  
 dropout_1956 (Dropout)         (None, 96)           0           ['dense_2036[0][0]']             
                                                                                                  
 dropout_1957 (Dropout)         (None, 96)           0           ['dense_2037[0][0]']             
                                                                                                  
 dropout_1958 (Dropout)         (None, 96)           0           ['dense_2038[0][0]']             
                                                                                                  
 dropout_1959 (Dropout)         (None, 96)           0           ['bidirectional_2419[0][0]']     
                                                                                                  
 concatenate_509 (Concatenate)  (None, 384)          0           ['dropout_1956[0][0]',           
                                                                  'dropout_1957[0][0]',           
                                                                  'dropout_1958[0][0]',           
                                                                  'dropout_1959[0][0]']           
                                                                                                  
 dense_2039 (Dense)             (None, 1)            385         ['concatenate_509[0][0]']        
                                                                                                  
==================================================================================================
Total params: 24,819
Trainable params: 24,819
Non-trainable params: 0
__________________________________________________________________________________________________
…
 bidirectional_2437 (Bidirectio  (None, None, 10)    280         ['masking_2437[0][0]']           
 nal)                                                                                             
                                                                                                  
 bidirectional_2438 (Bidirectio  (None, None, 10)    280         ['masking_2438[0][0]']           
 nal)                                                                                             
                                                                                                  
 conv1d_868 (Conv1D)            (None, 24, 5)        95          ['masking_2439[0][0]']           
                                                                                                  
 lstm_3519 (LSTM)               (None, 5)            320         ['bidirectional_2436[0][0]']     
                                                                                                  
 lstm_3521 (LSTM)               (None, 5)            320         ['bidirectional_2437[0][0]']     
                                                                                                  
 lstm_3523 (LSTM)               (None, 5)            320         ['bidirectional_2438[0][0]']     
                                                                                                  
 conv1d_869 (Conv1D)            (None, 24, 5)        155         ['conv1d_868[0][0]']             
                                                                                                  
 dense_2056 (Dense)             (None, 96)           576         ['lstm_3519[0][0]']              
                                                                                                  
 dense_2057 (Dense)             (None, 96)           576         ['lstm_3521[0][0]']              
                                                                                                  
 dense_2058 (Dense)             (None, 96)           576         ['lstm_3523[0][0]']              
                                                                                                  
 bidirectional_2439 (Bidirectio  (None, 96)          20736       ['conv1d_869[0][0]']             
 nal)                                                                                             
                                                                                                  
 dropout_1976 (Dropout)         (None, 96)           0           ['dense_2056[0][0]']             
                                                                                                  
 dropout_1977 (Dropout)         (None, 96)           0           ['dense_2057[0][0]']             
                                                                                                  
 dropout_1978 (Dropout)         (None, 96)           0           ['dense_2058[0][0]']             
                                                                                                  
 dropout_1979 (Dropout)         (None, 96)           0           ['bidirectional_2439[0][0]']     
                                                                                                  
 concatenate_514 (Concatenate)  (None, 384)          0           ['dropout_1976[0][0]',           
                                                                  'dropout_1977[0][0]',           
                                                                  'dropout_1978[0][0]',           
                                                                  'dropout_1979[0][0]']           
                                                                                                  
 dense_2059 (Dense)             (None, 1)            385         ['concatenate_514[0][0]']        
                                                                                                  
==================================================================================================
Total params: 24,899
Trainable params: 24,899
Non-trainable params: 0
__________________________________________________________________________________________________
…
 bidirectional_2457 (Bidirectio  (None, None, 10)    280         ['masking_2457[0][0]']           
 nal)                                                                                             
                                                                                                  
 bidirectional_2458 (Bidirectio  (None, None, 10)    280         ['masking_2458[0][0]']           
 nal)                                                                                             
                                                                                                  
 conv1d_878 (Conv1D)            (None, 24, 5)        125         ['masking_2459[0][0]']           
                                                                                                  
 lstm_3554 (LSTM)               (None, 5)            320         ['bidirectional_2456[0][0]']     
                                                                                                  
 lstm_3556 (LSTM)               (None, 5)            320         ['bidirectional_2457[0][0]']     
                                                                                                  
 lstm_3558 (LSTM)               (None, 5)            320         ['bidirectional_2458[0][0]']     
                                                                                                  
 conv1d_879 (Conv1D)            (None, 24, 5)        205         ['conv1d_878[0][0]']             
                                                                                                  
 dense_2076 (Dense)             (None, 96)           576         ['lstm_3554[0][0]']              
                                                                                                  
 dense_2077 (Dense)             (None, 96)           576         ['lstm_3556[0][0]']              
                                                                                                  
 dense_2078 (Dense)             (None, 96)           576         ['lstm_3558[0][0]']              
                                                                                                  
 bidirectional_2459 (Bidirectio  (None, 96)          20736       ['conv1d_879[0][0]']             
 nal)                                                                                             
                                                                                                  
 dropout_1996 (Dropout)         (None, 96)           0           ['dense_2076[0][0]']             
                                                                                                  
 dropout_1997 (Dropout)         (None, 96)           0           ['dense_2077[0][0]']             
                                                                                                  
 dropout_1998 (Dropout)         (None, 96)           0           ['dense_2078[0][0]']             
                                                                                                  
 dropout_1999 (Dropout)         (None, 96)           0           ['bidirectional_2459[0][0]']     
                                                                                                  
 concatenate_519 (Concatenate)  (None, 384)          0           ['dropout_1996[0][0]',           
                                                                  'dropout_1997[0][0]',           
                                                                  'dropout_1998[0][0]',           
                                                                  'dropout_1999[0][0]']           
                                                                                                  
 dense_2079 (Dense)             (None, 1)            385         ['concatenate_519[0][0]']        
                                                                                                  
==================================================================================================
Total params: 24,979
Trainable params: 24,979
Non-trainable params: 0
__________________________________________________________________________________________________
…
 bidirectional_2477 (Bidirectio  (None, None, 10)    280         ['masking_2477[0][0]']           
 nal)                                                                                             
                                                                                                  
 bidirectional_2478 (Bidirectio  (None, None, 10)    280         ['masking_2478[0][0]']           
 nal)                                                                                             
                                                                                                  
 conv1d_888 (Conv1D)            (None, 24, 5)        65          ['masking_2479[0][0]']           
                                                                                                  
 lstm_3589 (LSTM)               (None, 5)            320         ['bidirectional_2476[0][0]']     
                                                                                                  
 lstm_3591 (LSTM)               (None, 5)            320         ['bidirectional_2477[0][0]']     
                                                                                                  
 lstm_3593 (LSTM)               (None, 5)            320         ['bidirectional_2478[0][0]']     
                                                                                                  
 conv1d_889 (Conv1D)            (None, 24, 5)        105         ['conv1d_888[0][0]']             
                                                                                                  
 dense_2096 (Dense)             (None, 128)          768         ['lstm_3589[0][0]']              
                                                                                                  
 dense_2097 (Dense)             (None, 128)          768         ['lstm_3591[0][0]']              
                                                                                                  
 dense_2098 (Dense)             (None, 128)          768         ['lstm_3593[0][0]']              
                                                                                                  
 bidirectional_2479 (Bidirectio  (None, 128)         35840       ['conv1d_889[0][0]']             
 nal)                                                                                             
                                                                                                  
 dropout_2016 (Dropout)         (None, 128)          0           ['dense_2096[0][0]']             
                                                                                                  
 dropout_2017 (Dropout)         (None, 128)          0           ['dense_2097[0][0]']             
                                                                                                  
 dropout_2018 (Dropout)         (None, 128)          0           ['dense_2098[0][0]']             
                                                                                                  
 dropout_2019 (Dropout)         (None, 128)          0           ['bidirectional_2479[0][0]']     
                                                                                                  
 concatenate_524 (Concatenate)  (None, 512)          0           ['dropout_2016[0][0]',           
                                                                  'dropout_2017[0][0]',           
                                                                  'dropout_2018[0][0]',           
                                                                  'dropout_2019[0][0]']           
                                                                                                  
 dense_2099 (Dense)             (None, 1)            513         ['concatenate_524[0][0]']        
                                                                                                  
==================================================================================================
Total params: 40,627
Trainable params: 40,627
Non-trainable params: 0
__________________________________________________________________________________________________
…
 bidirectional_2497 (Bidirectio  (None, None, 10)    280         ['masking_2497[0][0]']           
 nal)                                                                                             
                                                                                                  
 bidirectional_2498 (Bidirectio  (None, None, 10)    280         ['masking_2498[0][0]']           
 nal)                                                                                             
                                                                                                  
 conv1d_898 (Conv1D)            (None, 24, 5)        95          ['masking_2499[0][0]']           
                                                                                                  
 lstm_3624 (LSTM)               (None, 5)            320         ['bidirectional_2496[0][0]']     
                                                                                                  
 lstm_3626 (LSTM)               (None, 5)            320         ['bidirectional_2497[0][0]']     
                                                                                                  
 lstm_3628 (LSTM)               (None, 5)            320         ['bidirectional_2498[0][0]']     
                                                                                                  
 conv1d_899 (Conv1D)            (None, 24, 5)        155         ['conv1d_898[0][0]']             
                                                                                                  
 dense_2116 (Dense)             (None, 128)          768         ['lstm_3624[0][0]']              
                                                                                                  
 dense_2117 (Dense)             (None, 128)          768         ['lstm_3626[0][0]']              
                                                                                                  
 dense_2118 (Dense)             (None, 128)          768         ['lstm_3628[0][0]']              
                                                                                                  
 bidirectional_2499 (Bidirectio  (None, 128)         35840       ['conv1d_899[0][0]']             
 nal)                                                                                             
                                                                                                  
 dropout_2036 (Dropout)         (None, 128)          0           ['dense_2116[0][0]']             
                                                                                                  
 dropout_2037 (Dropout)         (None, 128)          0           ['dense_2117[0][0]']             
                                                                                                  
 dropout_2038 (Dropout)         (None, 128)          0           ['dense_2118[0][0]']             
                                                                                                  
 dropout_2039 (Dropout)         (None, 128)          0           ['bidirectional_2499[0][0]']     
                                                                                                  
 concatenate_529 (Concatenate)  (None, 512)          0           ['dropout_2036[0][0]',           
                                                                  'dropout_2037[0][0]',           
                                                                  'dropout_2038[0][0]',           
                                                                  'dropout_2039[0][0]']           
                                                                                                  
 dense_2119 (Dense)             (None, 1)            513         ['concatenate_529[0][0]']        
                                                                                                  
==================================================================================================
Total params: 40,707
Trainable params: 40,707
Non-trainable params: 0
__________________________________________________________________________________________________
…
 bidirectional_2517 (Bidirectio  (None, None, 10)    280         ['masking_2517[0][0]']           
 nal)                                                                                             
                                                                                                  
 bidirectional_2518 (Bidirectio  (None, None, 10)    280         ['masking_2518[0][0]']           
 nal)                                                                                             
                                                                                                  
 conv1d_908 (Conv1D)            (None, 24, 5)        125         ['masking_2519[0][0]']           
                                                                                                  
 lstm_3659 (LSTM)               (None, 5)            320         ['bidirectional_2516[0][0]']     
                                                                                                  
 lstm_3661 (LSTM)               (None, 5)            320         ['bidirectional_2517[0][0]']     
                                                                                                  
 lstm_3663 (LSTM)               (None, 5)            320         ['bidirectional_2518[0][0]']     
                                                                                                  
 conv1d_909 (Conv1D)            (None, 24, 5)        205         ['conv1d_908[0][0]']             
                                                                                                  
 dense_2136 (Dense)             (None, 128)          768         ['lstm_3659[0][0]']              
                                                                                                  
 dense_2137 (Dense)             (None, 128)          768         ['lstm_3661[0][0]']              
                                                                                                  
 dense_2138 (Dense)             (None, 128)          768         ['lstm_3663[0][0]']              
                                                                                                  
 bidirectional_2519 (Bidirectio  (None, 128)         35840       ['conv1d_909[0][0]']             
 nal)                                                                                             
                                                                                                  
 dropout_2056 (Dropout)         (None, 128)          0           ['dense_2136[0][0]']             
                                                                                                  
 dropout_2057 (Dropout)         (None, 128)          0           ['dense_2137[0][0]']             
                                                                                                  
 dropout_2058 (Dropout)         (None, 128)          0           ['dense_2138[0][0]']             
                                                                                                  
 dropout_2059 (Dropout)         (None, 128)          0           ['bidirectional_2519[0][0]']     
                                                                                                  
 concatenate_534 (Concatenate)  (None, 512)          0           ['dropout_2056[0][0]',           
                                                                  'dropout_2057[0][0]',           
                                                                  'dropout_2058[0][0]',           
                                                                  'dropout_2059[0][0]']           
                                                                                                  
 dense_2139 (Dense)             (None, 1)            513         ['concatenate_534[0][0]']        
                                                                                                  
==================================================================================================
Total params: 40,787
Trainable params: 40,787
Non-trainable params: 0
__________________________________________________________________________________________________
…
