…
 bidirectional_5 (Bidirectional  (None, None, 10)    280         ['masking_5[0][0]']              
 )                                                                                                
                                                                                                  
 bidirectional_6 (Bidirectional  (None, None, 10)    280         ['masking_6[0][0]']              
 )                                                                                                
                                                                                                  
 conv1d (Conv1D)                (None, 25, 5)        1885        ['masking_7[0][0]']              
                                                                                                  
 lstm_7 (LSTM)                  (None, 5)            320         ['bidirectional_4[0][0]']        
                                                                                                  
 lstm_9 (LSTM)                  (None, 5)            320         ['bidirectional_5[0][0]']        
                                                                                                  
 lstm_11 (LSTM)                 (None, 5)            320         ['bidirectional_6[0][0]']        
                                                                                                  
 conv1d_1 (Conv1D)              (None, 25, 5)        105         ['conv1d[0][0]']                 
                                                                                                  
 dense_4 (Dense)                (None, 64)           384         ['lstm_7[0][0]']                 
                                                                                                  
 dense_5 (Dense)                (None, 64)           384         ['lstm_9[0][0]']                 
                                                                                                  
 dense_6 (Dense)                (None, 64)           384         ['lstm_11[0][0]']                
                                                                                                  
 bidirectional_7 (Bidirectional  (None, 64)          9728        ['conv1d_1[0][0]']               
 )                                                                                                
                                                                                                  
 dropout_3 (Dropout)            (None, 64)           0           ['dense_4[0][0]']                
                                                                                                  
 dropout_4 (Dropout)            (None, 64)           0           ['dense_5[0][0]']                
                                                                                                  
 dropout_5 (Dropout)            (None, 64)           0           ['dense_6[0][0]']                
                                                                                                  
 dropout_6 (Dropout)            (None, 64)           0           ['bidirectional_7[0][0]']        
                                                                                                  
 concatenate_1 (Concatenate)    (None, 256)          0           ['dropout_3[0][0]',              
                                                                  'dropout_4[0][0]',              
                                                                  'dropout_5[0][0]',              
                                                                  'dropout_6[0][0]']              
                                                                                                  
 dense_7 (Dense)                (None, 1)            257         ['concatenate_1[0][0]']          
                                                                                                  
==================================================================================================
Total params: 14,927
Trainable params: 14,927
Non-trainable params: 0
__________________________________________________________________________________________________
…
