…
 bidirectional_1023 (Bidirectio  (None, None, 10)    280         ['masking_1023[0][0]']           
 nal)                                                                                             
                                                                                                  
 bidirectional_1024 (Bidirectio  (None, None, 10)    280         ['masking_1024[0][0]']           
 nal)                                                                                             
                                                                                                  
 conv1d_276 (Conv1D)            (None, 25, 5)        1885        ['masking_1025[0][0]']           
                                                                                                  
 lstm_1447 (LSTM)               (None, 5)            320         ['bidirectional_1022[0][0]']     
                                                                                                  
 lstm_1449 (LSTM)               (None, 5)            320         ['bidirectional_1023[0][0]']     
                                                                                                  
 lstm_1451 (LSTM)               (None, 5)            320         ['bidirectional_1024[0][0]']     
                                                                                                  
 conv1d_277 (Conv1D)            (None, 25, 5)        105         ['conv1d_276[0][0]']             
                                                                                                  
 dense_872 (Dense)              (None, 64)           384         ['lstm_1447[0][0]']              
                                                                                                  
 dense_873 (Dense)              (None, 64)           384         ['lstm_1449[0][0]']              
                                                                                                  
 dense_874 (Dense)              (None, 64)           384         ['lstm_1451[0][0]']              
                                                                                                  
 bidirectional_1025 (Bidirectio  (None, 64)          9728        ['conv1d_277[0][0]']             
 nal)                                                                                             
                                                                                                  
 dropout_792 (Dropout)          (None, 64)           0           ['dense_872[0][0]']              
                                                                                                  
 dropout_793 (Dropout)          (None, 64)           0           ['dense_873[0][0]']              
                                                                                                  
 dropout_794 (Dropout)          (None, 64)           0           ['dense_874[0][0]']              
                                                                                                  
 dropout_795 (Dropout)          (None, 64)           0           ['bidirectional_1025[0][0]']     
                                                                                                  
 concatenate_218 (Concatenate)  (None, 256)          0           ['dropout_792[0][0]',            
                                                                  'dropout_793[0][0]',            
                                                                  'dropout_794[0][0]',            
                                                                  'dropout_795[0][0]']            
                                                                                                  
 dense_875 (Dense)              (None, 1)            257         ['concatenate_218[0][0]']        
                                                                                                  
==================================================================================================
Total params: 14,927
Trainable params: 14,927
Non-trainable params: 0
__________________________________________________________________________________________________
…
 bidirectional_1043 (Bidirectio  (None, None, 10)    280         ['masking_1043[0][0]']           
 nal)                                                                                             
                                                                                                  
 bidirectional_1044 (Bidirectio  (None, None, 10)    280         ['masking_1044[0][0]']           
 nal)                                                                                             
                                                                                                  
 conv1d_286 (Conv1D)            (None, 25, 5)        2825        ['masking_1045[0][0]']           
                                                                                                  
 lstm_1482 (LSTM)               (None, 5)            320         ['bidirectional_1042[0][0]']     
                                                                                                  
 lstm_1484 (LSTM)               (None, 5)            320         ['bidirectional_1043[0][0]']     
                                                                                                  
 lstm_1486 (LSTM)               (None, 5)            320         ['bidirectional_1044[0][0]']     
                                                                                                  
 conv1d_287 (Conv1D)            (None, 25, 5)        155         ['conv1d_286[0][0]']             
                                                                                                  
 dense_892 (Dense)              (None, 64)           384         ['lstm_1482[0][0]']              
                                                                                                  
 dense_893 (Dense)              (None, 64)           384         ['lstm_1484[0][0]']              
                                                                                                  
 dense_894 (Dense)              (None, 64)           384         ['lstm_1486[0][0]']              
                                                                                                  
 bidirectional_1045 (Bidirectio  (None, 64)          9728        ['conv1d_287[0][0]']             
 nal)                                                                                             
                                                                                                  
 dropout_812 (Dropout)          (None, 64)           0           ['dense_892[0][0]']              
                                                                                                  
 dropout_813 (Dropout)          (None, 64)           0           ['dense_893[0][0]']              
                                                                                                  
 dropout_814 (Dropout)          (None, 64)           0           ['dense_894[0][0]']              
                                                                                                  
 dropout_815 (Dropout)          (None, 64)           0           ['bidirectional_1045[0][0]']     
                                                                                                  
 concatenate_223 (Concatenate)  (None, 256)          0           ['dropout_812[0][0]',            
                                                                  'dropout_813[0][0]',            
                                                                  'dropout_814[0][0]',            
                                                                  'dropout_815[0][0]']            
                                                                                                  
 dense_895 (Dense)              (None, 1)            257         ['concatenate_223[0][0]']        
                                                                                                  
==================================================================================================
Total params: 15,917
Trainable params: 15,917
Non-trainable params: 0
__________________________________________________________________________________________________
…
 bidirectional_1063 (Bidirectio  (None, None, 10)    280         ['masking_1063[0][0]']           
 nal)                                                                                             
                                                                                                  
 bidirectional_1064 (Bidirectio  (None, None, 10)    280         ['masking_1064[0][0]']           
 nal)                                                                                             
                                                                                                  
 conv1d_296 (Conv1D)            (None, 25, 5)        3765        ['masking_1065[0][0]']           
                                                                                                  
 lstm_1517 (LSTM)               (None, 5)            320         ['bidirectional_1062[0][0]']     
                                                                                                  
 lstm_1519 (LSTM)               (None, 5)            320         ['bidirectional_1063[0][0]']     
                                                                                                  
 lstm_1521 (LSTM)               (None, 5)            320         ['bidirectional_1064[0][0]']     
                                                                                                  
 conv1d_297 (Conv1D)            (None, 25, 5)        205         ['conv1d_296[0][0]']             
                                                                                                  
 dense_912 (Dense)              (None, 64)           384         ['lstm_1517[0][0]']              
                                                                                                  
 dense_913 (Dense)              (None, 64)           384         ['lstm_1519[0][0]']              
                                                                                                  
 dense_914 (Dense)              (None, 64)           384         ['lstm_1521[0][0]']              
                                                                                                  
 bidirectional_1065 (Bidirectio  (None, 64)          9728        ['conv1d_297[0][0]']             
 nal)                                                                                             
                                                                                                  
 dropout_832 (Dropout)          (None, 64)           0           ['dense_912[0][0]']              
                                                                                                  
 dropout_833 (Dropout)          (None, 64)           0           ['dense_913[0][0]']              
                                                                                                  
 dropout_834 (Dropout)          (None, 64)           0           ['dense_914[0][0]']              
                                                                                                  
 dropout_835 (Dropout)          (None, 64)           0           ['bidirectional_1065[0][0]']     
                                                                                                  
 concatenate_228 (Concatenate)  (None, 256)          0           ['dropout_832[0][0]',            
                                                                  'dropout_833[0][0]',            
                                                                  'dropout_834[0][0]',            
                                                                  'dropout_835[0][0]']            
                                                                                                  
 dense_915 (Dense)              (None, 1)            257         ['concatenate_228[0][0]']        
                                                                                                  
==================================================================================================
Total params: 16,907
Trainable params: 16,907
Non-trainable params: 0
__________________________________________________________________________________________________
…
 bidirectional_1083 (Bidirectio  (None, None, 10)    280         ['masking_1083[0][0]']           
 nal)                                                                                             
                                                                                                  
 bidirectional_1084 (Bidirectio  (None, None, 10)    280         ['masking_1084[0][0]']           
 nal)                                                                                             
                                                                                                  
 conv1d_306 (Conv1D)            (None, 25, 5)        1885        ['masking_1085[0][0]']           
                                                                                                  
 lstm_1552 (LSTM)               (None, 5)            320         ['bidirectional_1082[0][0]']     
                                                                                                  
 lstm_1554 (LSTM)               (None, 5)            320         ['bidirectional_1083[0][0]']     
                                                                                                  
 lstm_1556 (LSTM)               (None, 5)            320         ['bidirectional_1084[0][0]']     
                                                                                                  
 conv1d_307 (Conv1D)            (None, 25, 5)        105         ['conv1d_306[0][0]']             
                                                                                                  
 dense_932 (Dense)              (None, 96)           576         ['lstm_1552[0][0]']              
                                                                                                  
 dense_933 (Dense)              (None, 96)           576         ['lstm_1554[0][0]']              
                                                                                                  
 dense_934 (Dense)              (None, 96)           576         ['lstm_1556[0][0]']              
                                                                                                  
 bidirectional_1085 (Bidirectio  (None, 96)          20736       ['conv1d_307[0][0]']             
 nal)                                                                                             
                                                                                                  
 dropout_852 (Dropout)          (None, 96)           0           ['dense_932[0][0]']              
                                                                                                  
 dropout_853 (Dropout)          (None, 96)           0           ['dense_933[0][0]']              
                                                                                                  
 dropout_854 (Dropout)          (None, 96)           0           ['dense_934[0][0]']              
                                                                                                  
 dropout_855 (Dropout)          (None, 96)           0           ['bidirectional_1085[0][0]']     
                                                                                                  
 concatenate_233 (Concatenate)  (None, 384)          0           ['dropout_852[0][0]',            
                                                                  'dropout_853[0][0]',            
                                                                  'dropout_854[0][0]',            
                                                                  'dropout_855[0][0]']            
                                                                                                  
 dense_935 (Dense)              (None, 1)            385         ['concatenate_233[0][0]']        
                                                                                                  
==================================================================================================
Total params: 26,639
Trainable params: 26,639
Non-trainable params: 0
__________________________________________________________________________________________________
…
 bidirectional_1103 (Bidirectio  (None, None, 10)    280         ['masking_1103[0][0]']           
 nal)                                                                                             
                                                                                                  
 bidirectional_1104 (Bidirectio  (None, None, 10)    280         ['masking_1104[0][0]']           
 nal)                                                                                             
                                                                                                  
 conv1d_316 (Conv1D)            (None, 25, 5)        2825        ['masking_1105[0][0]']           
                                                                                                  
 lstm_1587 (LSTM)               (None, 5)            320         ['bidirectional_1102[0][0]']     
                                                                                                  
 lstm_1589 (LSTM)               (None, 5)            320         ['bidirectional_1103[0][0]']     
                                                                                                  
 lstm_1591 (LSTM)               (None, 5)            320         ['bidirectional_1104[0][0]']     
                                                                                                  
 conv1d_317 (Conv1D)            (None, 25, 5)        155         ['conv1d_316[0][0]']             
                                                                                                  
 dense_952 (Dense)              (None, 96)           576         ['lstm_1587[0][0]']              
                                                                                                  
 dense_953 (Dense)              (None, 96)           576         ['lstm_1589[0][0]']              
                                                                                                  
 dense_954 (Dense)              (None, 96)           576         ['lstm_1591[0][0]']              
                                                                                                  
 bidirectional_1105 (Bidirectio  (None, 96)          20736       ['conv1d_317[0][0]']             
 nal)                                                                                             
                                                                                                  
 dropout_872 (Dropout)          (None, 96)           0           ['dense_952[0][0]']              
                                                                                                  
 dropout_873 (Dropout)          (None, 96)           0           ['dense_953[0][0]']              
                                                                                                  
 dropout_874 (Dropout)          (None, 96)           0           ['dense_954[0][0]']              
                                                                                                  
 dropout_875 (Dropout)          (None, 96)           0           ['bidirectional_1105[0][0]']     
                                                                                                  
 concatenate_238 (Concatenate)  (None, 384)          0           ['dropout_872[0][0]',            
                                                                  'dropout_873[0][0]',            
                                                                  'dropout_874[0][0]',            
                                                                  'dropout_875[0][0]']            
                                                                                                  
 dense_955 (Dense)              (None, 1)            385         ['concatenate_238[0][0]']        
                                                                                                  
==================================================================================================
Total params: 27,629
Trainable params: 27,629
Non-trainable params: 0
__________________________________________________________________________________________________
…
 bidirectional_1123 (Bidirectio  (None, None, 10)    280         ['masking_1123[0][0]']           
 nal)                                                                                             
                                                                                                  
 bidirectional_1124 (Bidirectio  (None, None, 10)    280         ['masking_1124[0][0]']           
 nal)                                                                                             
                                                                                                  
 conv1d_326 (Conv1D)            (None, 25, 5)        3765        ['masking_1125[0][0]']           
                                                                                                  
 lstm_1622 (LSTM)               (None, 5)            320         ['bidirectional_1122[0][0]']     
                                                                                                  
 lstm_1624 (LSTM)               (None, 5)            320         ['bidirectional_1123[0][0]']     
                                                                                                  
 lstm_1626 (LSTM)               (None, 5)            320         ['bidirectional_1124[0][0]']     
                                                                                                  
 conv1d_327 (Conv1D)            (None, 25, 5)        205         ['conv1d_326[0][0]']             
                                                                                                  
 dense_972 (Dense)              (None, 96)           576         ['lstm_1622[0][0]']              
                                                                                                  
 dense_973 (Dense)              (None, 96)           576         ['lstm_1624[0][0]']              
                                                                                                  
 dense_974 (Dense)              (None, 96)           576         ['lstm_1626[0][0]']              
                                                                                                  
 bidirectional_1125 (Bidirectio  (None, 96)          20736       ['conv1d_327[0][0]']             
 nal)                                                                                             
                                                                                                  
 dropout_892 (Dropout)          (None, 96)           0           ['dense_972[0][0]']              
                                                                                                  
 dropout_893 (Dropout)          (None, 96)           0           ['dense_973[0][0]']              
                                                                                                  
 dropout_894 (Dropout)          (None, 96)           0           ['dense_974[0][0]']              
                                                                                                  
 dropout_895 (Dropout)          (None, 96)           0           ['bidirectional_1125[0][0]']     
                                                                                                  
 concatenate_243 (Concatenate)  (None, 384)          0           ['dropout_892[0][0]',            
                                                                  'dropout_893[0][0]',            
                                                                  'dropout_894[0][0]',            
                                                                  'dropout_895[0][0]']            
                                                                                                  
 dense_975 (Dense)              (None, 1)            385         ['concatenate_243[0][0]']        
                                                                                                  
==================================================================================================
Total params: 28,619
Trainable params: 28,619
Non-trainable params: 0
__________________________________________________________________________________________________
…
 bidirectional_1143 (Bidirectio  (None, None, 10)    280         ['masking_1143[0][0]']           
 nal)                                                                                             
                                                                                                  
 bidirectional_1144 (Bidirectio  (None, None, 10)    280         ['masking_1144[0][0]']           
 nal)                                                                                             
                                                                                                  
 conv1d_336 (Conv1D)            (None, 25, 5)        1885        ['masking_1145[0][0]']           
                                                                                                  
 lstm_1657 (LSTM)               (None, 5)            320         ['bidirectional_1142[0][0]']     
                                                                                                  
 lstm_1659 (LSTM)               (None, 5)            320         ['bidirectional_1143[0][0]']     
                                                                                                  
 lstm_1661 (LSTM)               (None, 5)            320         ['bidirectional_1144[0][0]']     
                                                                                                  
 conv1d_337 (Conv1D)            (None, 25, 5)        105         ['conv1d_336[0][0]']             
                                                                                                  
 dense_992 (Dense)              (None, 128)          768         ['lstm_1657[0][0]']              
                                                                                                  
 dense_993 (Dense)              (None, 128)          768         ['lstm_1659[0][0]']              
                                                                                                  
 dense_994 (Dense)              (None, 128)          768         ['lstm_1661[0][0]']              
                                                                                                  
 bidirectional_1145 (Bidirectio  (None, 128)         35840       ['conv1d_337[0][0]']             
 nal)                                                                                             
                                                                                                  
 dropout_912 (Dropout)          (None, 128)          0           ['dense_992[0][0]']              
                                                                                                  
 dropout_913 (Dropout)          (None, 128)          0           ['dense_993[0][0]']              
                                                                                                  
 dropout_914 (Dropout)          (None, 128)          0           ['dense_994[0][0]']              
                                                                                                  
 dropout_915 (Dropout)          (None, 128)          0           ['bidirectional_1145[0][0]']     
                                                                                                  
 concatenate_248 (Concatenate)  (None, 512)          0           ['dropout_912[0][0]',            
                                                                  'dropout_913[0][0]',            
                                                                  'dropout_914[0][0]',            
                                                                  'dropout_915[0][0]']            
                                                                                                  
 dense_995 (Dense)              (None, 1)            513         ['concatenate_248[0][0]']        
                                                                                                  
==================================================================================================
Total params: 42,447
Trainable params: 42,447
Non-trainable params: 0
__________________________________________________________________________________________________
…
 bidirectional_1163 (Bidirectio  (None, None, 10)    280         ['masking_1163[0][0]']           
 nal)                                                                                             
                                                                                                  
 bidirectional_1164 (Bidirectio  (None, None, 10)    280         ['masking_1164[0][0]']           
 nal)                                                                                             
                                                                                                  
 conv1d_346 (Conv1D)            (None, 25, 5)        2825        ['masking_1165[0][0]']           
                                                                                                  
 lstm_1692 (LSTM)               (None, 5)            320         ['bidirectional_1162[0][0]']     
                                                                                                  
 lstm_1694 (LSTM)               (None, 5)            320         ['bidirectional_1163[0][0]']     
                                                                                                  
 lstm_1696 (LSTM)               (None, 5)            320         ['bidirectional_1164[0][0]']     
                                                                                                  
 conv1d_347 (Conv1D)            (None, 25, 5)        155         ['conv1d_346[0][0]']             
                                                                                                  
 dense_1012 (Dense)             (None, 128)          768         ['lstm_1692[0][0]']              
                                                                                                  
 dense_1013 (Dense)             (None, 128)          768         ['lstm_1694[0][0]']              
                                                                                                  
 dense_1014 (Dense)             (None, 128)          768         ['lstm_1696[0][0]']              
                                                                                                  
 bidirectional_1165 (Bidirectio  (None, 128)         35840       ['conv1d_347[0][0]']             
 nal)                                                                                             
                                                                                                  
 dropout_932 (Dropout)          (None, 128)          0           ['dense_1012[0][0]']             
                                                                                                  
 dropout_933 (Dropout)          (None, 128)          0           ['dense_1013[0][0]']             
                                                                                                  
 dropout_934 (Dropout)          (None, 128)          0           ['dense_1014[0][0]']             
                                                                                                  
 dropout_935 (Dropout)          (None, 128)          0           ['bidirectional_1165[0][0]']     
                                                                                                  
 concatenate_253 (Concatenate)  (None, 512)          0           ['dropout_932[0][0]',            
                                                                  'dropout_933[0][0]',            
                                                                  'dropout_934[0][0]',            
                                                                  'dropout_935[0][0]']            
                                                                                                  
 dense_1015 (Dense)             (None, 1)            513         ['concatenate_253[0][0]']        
                                                                                                  
==================================================================================================
Total params: 43,437
Trainable params: 43,437
Non-trainable params: 0
__________________________________________________________________________________________________
…
 bidirectional_1183 (Bidirectio  (None, None, 10)    280         ['masking_1183[0][0]']           
 nal)                                                                                             
                                                                                                  
 bidirectional_1184 (Bidirectio  (None, None, 10)    280         ['masking_1184[0][0]']           
 nal)                                                                                             
                                                                                                  
 conv1d_356 (Conv1D)            (None, 25, 5)        3765        ['masking_1185[0][0]']           
                                                                                                  
 lstm_1727 (LSTM)               (None, 5)            320         ['bidirectional_1182[0][0]']     
                                                                                                  
 lstm_1729 (LSTM)               (None, 5)            320         ['bidirectional_1183[0][0]']     
                                                                                                  
 lstm_1731 (LSTM)               (None, 5)            320         ['bidirectional_1184[0][0]']     
                                                                                                  
 conv1d_357 (Conv1D)            (None, 25, 5)        205         ['conv1d_356[0][0]']             
                                                                                                  
 dense_1032 (Dense)             (None, 128)          768         ['lstm_1727[0][0]']              
                                                                                                  
 dense_1033 (Dense)             (None, 128)          768         ['lstm_1729[0][0]']              
                                                                                                  
 dense_1034 (Dense)             (None, 128)          768         ['lstm_1731[0][0]']              
                                                                                                  
 bidirectional_1185 (Bidirectio  (None, 128)         35840       ['conv1d_357[0][0]']             
 nal)                                                                                             
                                                                                                  
 dropout_952 (Dropout)          (None, 128)          0           ['dense_1032[0][0]']             
                                                                                                  
 dropout_953 (Dropout)          (None, 128)          0           ['dense_1033[0][0]']             
                                                                                                  
 dropout_954 (Dropout)          (None, 128)          0           ['dense_1034[0][0]']             
                                                                                                  
 dropout_955 (Dropout)          (None, 128)          0           ['bidirectional_1185[0][0]']     
                                                                                                  
 concatenate_258 (Concatenate)  (None, 512)          0           ['dropout_952[0][0]',            
                                                                  'dropout_953[0][0]',            
                                                                  'dropout_954[0][0]',            
                                                                  'dropout_955[0][0]']            
                                                                                                  
 dense_1035 (Dense)             (None, 1)            513         ['concatenate_258[0][0]']        
                                                                                                  
==================================================================================================
Total params: 44,427
Trainable params: 44,427
Non-trainable params: 0
__________________________________________________________________________________________________
…
