…
 bidirectional_7437 (Bidirectio  (None, None, 10)    280         ['masking_7437[0][0]']           
 nal)                                                                                             
                                                                                                  
 bidirectional_7438 (Bidirectio  (None, None, 10)    280         ['masking_7438[0][0]']           
 nal)                                                                                             
                                                                                                  
 conv1d_2668 (Conv1D)           (None, 24, 5)        65          ['masking_7439[0][0]']           
                                                                                                  
 lstm_10779 (LSTM)              (None, 5)            320         ['bidirectional_7436[0][0]']     
                                                                                                  
 lstm_10781 (LSTM)              (None, 5)            320         ['bidirectional_7437[0][0]']     
                                                                                                  
 lstm_10783 (LSTM)              (None, 5)            320         ['bidirectional_7438[0][0]']     
                                                                                                  
 conv1d_2669 (Conv1D)           (None, 24, 5)        105         ['conv1d_2668[0][0]']            
                                                                                                  
 dense_6296 (Dense)             (None, 64)           384         ['lstm_10779[0][0]']             
                                                                                                  
 dense_6297 (Dense)             (None, 64)           384         ['lstm_10781[0][0]']             
                                                                                                  
 dense_6298 (Dense)             (None, 64)           384         ['lstm_10783[0][0]']             
                                                                                                  
 bidirectional_7439 (Bidirectio  (None, 64)          9728        ['conv1d_2669[0][0]']            
 nal)                                                                                             
                                                                                                  
 dropout_6056 (Dropout)         (None, 64)           0           ['dense_6296[0][0]']             
                                                                                                  
 dropout_6057 (Dropout)         (None, 64)           0           ['dense_6297[0][0]']             
                                                                                                  
 dropout_6058 (Dropout)         (None, 64)           0           ['dense_6298[0][0]']             
                                                                                                  
 dropout_6059 (Dropout)         (None, 64)           0           ['bidirectional_7439[0][0]']     
                                                                                                  
 concatenate_1574 (Concatenate)  (None, 256)         0           ['dropout_6056[0][0]',           
                                                                  'dropout_6057[0][0]',           
                                                                  'dropout_6058[0][0]',           
                                                                  'dropout_6059[0][0]']           
                                                                                                  
 dense_6299 (Dense)             (None, 1)            257         ['concatenate_1574[0][0]']       
                                                                                                  
==================================================================================================
Total params: 13,107
Trainable params: 13,107
Non-trainable params: 0
__________________________________________________________________________________________________
…
 bidirectional_7457 (Bidirectio  (None, None, 10)    280         ['masking_7457[0][0]']           
 nal)                                                                                             
                                                                                                  
 bidirectional_7458 (Bidirectio  (None, None, 10)    280         ['masking_7458[0][0]']           
 nal)                                                                                             
                                                                                                  
 conv1d_2678 (Conv1D)           (None, 24, 5)        95          ['masking_7459[0][0]']           
                                                                                                  
 lstm_10814 (LSTM)              (None, 5)            320         ['bidirectional_7456[0][0]']     
                                                                                                  
 lstm_10816 (LSTM)              (None, 5)            320         ['bidirectional_7457[0][0]']     
                                                                                                  
 lstm_10818 (LSTM)              (None, 5)            320         ['bidirectional_7458[0][0]']     
                                                                                                  
 conv1d_2679 (Conv1D)           (None, 24, 5)        155         ['conv1d_2678[0][0]']            
                                                                                                  
 dense_6316 (Dense)             (None, 64)           384         ['lstm_10814[0][0]']             
                                                                                                  
 dense_6317 (Dense)             (None, 64)           384         ['lstm_10816[0][0]']             
                                                                                                  
 dense_6318 (Dense)             (None, 64)           384         ['lstm_10818[0][0]']             
                                                                                                  
 bidirectional_7459 (Bidirectio  (None, 64)          9728        ['conv1d_2679[0][0]']            
 nal)                                                                                             
                                                                                                  
 dropout_6076 (Dropout)         (None, 64)           0           ['dense_6316[0][0]']             
                                                                                                  
 dropout_6077 (Dropout)         (None, 64)           0           ['dense_6317[0][0]']             
                                                                                                  
 dropout_6078 (Dropout)         (None, 64)           0           ['dense_6318[0][0]']             
                                                                                                  
 dropout_6079 (Dropout)         (None, 64)           0           ['bidirectional_7459[0][0]']     
                                                                                                  
 concatenate_1579 (Concatenate)  (None, 256)         0           ['dropout_6076[0][0]',           
                                                                  'dropout_6077[0][0]',           
                                                                  'dropout_6078[0][0]',           
                                                                  'dropout_6079[0][0]']           
                                                                                                  
 dense_6319 (Dense)             (None, 1)            257         ['concatenate_1579[0][0]']       
                                                                                                  
==================================================================================================
Total params: 13,187
Trainable params: 13,187
Non-trainable params: 0
__________________________________________________________________________________________________
…
 bidirectional_7477 (Bidirectio  (None, None, 10)    280         ['masking_7477[0][0]']           
 nal)                                                                                             
                                                                                                  
 bidirectional_7478 (Bidirectio  (None, None, 10)    280         ['masking_7478[0][0]']           
 nal)                                                                                             
                                                                                                  
 conv1d_2688 (Conv1D)           (None, 24, 5)        125         ['masking_7479[0][0]']           
                                                                                                  
 lstm_10849 (LSTM)              (None, 5)            320         ['bidirectional_7476[0][0]']     
                                                                                                  
 lstm_10851 (LSTM)              (None, 5)            320         ['bidirectional_7477[0][0]']     
                                                                                                  
 lstm_10853 (LSTM)              (None, 5)            320         ['bidirectional_7478[0][0]']     
                                                                                                  
 conv1d_2689 (Conv1D)           (None, 24, 5)        205         ['conv1d_2688[0][0]']            
                                                                                                  
 dense_6336 (Dense)             (None, 64)           384         ['lstm_10849[0][0]']             
                                                                                                  
 dense_6337 (Dense)             (None, 64)           384         ['lstm_10851[0][0]']             
                                                                                                  
 dense_6338 (Dense)             (None, 64)           384         ['lstm_10853[0][0]']             
                                                                                                  
 bidirectional_7479 (Bidirectio  (None, 64)          9728        ['conv1d_2689[0][0]']            
 nal)                                                                                             
                                                                                                  
 dropout_6096 (Dropout)         (None, 64)           0           ['dense_6336[0][0]']             
                                                                                                  
 dropout_6097 (Dropout)         (None, 64)           0           ['dense_6337[0][0]']             
                                                                                                  
 dropout_6098 (Dropout)         (None, 64)           0           ['dense_6338[0][0]']             
                                                                                                  
 dropout_6099 (Dropout)         (None, 64)           0           ['bidirectional_7479[0][0]']     
                                                                                                  
 concatenate_1584 (Concatenate)  (None, 256)         0           ['dropout_6096[0][0]',           
                                                                  'dropout_6097[0][0]',           
                                                                  'dropout_6098[0][0]',           
                                                                  'dropout_6099[0][0]']           
                                                                                                  
 dense_6339 (Dense)             (None, 1)            257         ['concatenate_1584[0][0]']       
                                                                                                  
==================================================================================================
Total params: 13,267
Trainable params: 13,267
Non-trainable params: 0
__________________________________________________________________________________________________
…
 bidirectional_7497 (Bidirectio  (None, None, 10)    280         ['masking_7497[0][0]']           
 nal)                                                                                             
                                                                                                  
 bidirectional_7498 (Bidirectio  (None, None, 10)    280         ['masking_7498[0][0]']           
 nal)                                                                                             
                                                                                                  
 conv1d_2698 (Conv1D)           (None, 24, 5)        65          ['masking_7499[0][0]']           
                                                                                                  
 lstm_10884 (LSTM)              (None, 5)            320         ['bidirectional_7496[0][0]']     
                                                                                                  
 lstm_10886 (LSTM)              (None, 5)            320         ['bidirectional_7497[0][0]']     
                                                                                                  
 lstm_10888 (LSTM)              (None, 5)            320         ['bidirectional_7498[0][0]']     
                                                                                                  
 conv1d_2699 (Conv1D)           (None, 24, 5)        105         ['conv1d_2698[0][0]']            
                                                                                                  
 dense_6356 (Dense)             (None, 96)           576         ['lstm_10884[0][0]']             
                                                                                                  
 dense_6357 (Dense)             (None, 96)           576         ['lstm_10886[0][0]']             
                                                                                                  
 dense_6358 (Dense)             (None, 96)           576         ['lstm_10888[0][0]']             
                                                                                                  
 bidirectional_7499 (Bidirectio  (None, 96)          20736       ['conv1d_2699[0][0]']            
 nal)                                                                                             
                                                                                                  
 dropout_6116 (Dropout)         (None, 96)           0           ['dense_6356[0][0]']             
                                                                                                  
 dropout_6117 (Dropout)         (None, 96)           0           ['dense_6357[0][0]']             
                                                                                                  
 dropout_6118 (Dropout)         (None, 96)           0           ['dense_6358[0][0]']             
                                                                                                  
 dropout_6119 (Dropout)         (None, 96)           0           ['bidirectional_7499[0][0]']     
                                                                                                  
 concatenate_1589 (Concatenate)  (None, 384)         0           ['dropout_6116[0][0]',           
                                                                  'dropout_6117[0][0]',           
                                                                  'dropout_6118[0][0]',           
                                                                  'dropout_6119[0][0]']           
                                                                                                  
 dense_6359 (Dense)             (None, 1)            385         ['concatenate_1589[0][0]']       
                                                                                                  
==================================================================================================
Total params: 24,819
Trainable params: 24,819
Non-trainable params: 0
__________________________________________________________________________________________________
…
 bidirectional_7517 (Bidirectio  (None, None, 10)    280         ['masking_7517[0][0]']           
 nal)                                                                                             
                                                                                                  
 bidirectional_7518 (Bidirectio  (None, None, 10)    280         ['masking_7518[0][0]']           
 nal)                                                                                             
                                                                                                  
 conv1d_2708 (Conv1D)           (None, 24, 5)        95          ['masking_7519[0][0]']           
                                                                                                  
 lstm_10919 (LSTM)              (None, 5)            320         ['bidirectional_7516[0][0]']     
                                                                                                  
 lstm_10921 (LSTM)              (None, 5)            320         ['bidirectional_7517[0][0]']     
                                                                                                  
 lstm_10923 (LSTM)              (None, 5)            320         ['bidirectional_7518[0][0]']     
                                                                                                  
 conv1d_2709 (Conv1D)           (None, 24, 5)        155         ['conv1d_2708[0][0]']            
                                                                                                  
 dense_6376 (Dense)             (None, 96)           576         ['lstm_10919[0][0]']             
                                                                                                  
 dense_6377 (Dense)             (None, 96)           576         ['lstm_10921[0][0]']             
                                                                                                  
 dense_6378 (Dense)             (None, 96)           576         ['lstm_10923[0][0]']             
                                                                                                  
 bidirectional_7519 (Bidirectio  (None, 96)          20736       ['conv1d_2709[0][0]']            
 nal)                                                                                             
                                                                                                  
 dropout_6136 (Dropout)         (None, 96)           0           ['dense_6376[0][0]']             
                                                                                                  
 dropout_6137 (Dropout)         (None, 96)           0           ['dense_6377[0][0]']             
                                                                                                  
 dropout_6138 (Dropout)         (None, 96)           0           ['dense_6378[0][0]']             
                                                                                                  
 dropout_6139 (Dropout)         (None, 96)           0           ['bidirectional_7519[0][0]']     
                                                                                                  
 concatenate_1594 (Concatenate)  (None, 384)         0           ['dropout_6136[0][0]',           
                                                                  'dropout_6137[0][0]',           
                                                                  'dropout_6138[0][0]',           
                                                                  'dropout_6139[0][0]']           
                                                                                                  
 dense_6379 (Dense)             (None, 1)            385         ['concatenate_1594[0][0]']       
                                                                                                  
==================================================================================================
Total params: 24,899
Trainable params: 24,899
Non-trainable params: 0
__________________________________________________________________________________________________
…
 bidirectional_7537 (Bidirectio  (None, None, 10)    280         ['masking_7537[0][0]']           
 nal)                                                                                             
                                                                                                  
 bidirectional_7538 (Bidirectio  (None, None, 10)    280         ['masking_7538[0][0]']           
 nal)                                                                                             
                                                                                                  
 conv1d_2718 (Conv1D)           (None, 24, 5)        125         ['masking_7539[0][0]']           
                                                                                                  
 lstm_10954 (LSTM)              (None, 5)            320         ['bidirectional_7536[0][0]']     
                                                                                                  
 lstm_10956 (LSTM)              (None, 5)            320         ['bidirectional_7537[0][0]']     
                                                                                                  
 lstm_10958 (LSTM)              (None, 5)            320         ['bidirectional_7538[0][0]']     
                                                                                                  
 conv1d_2719 (Conv1D)           (None, 24, 5)        205         ['conv1d_2718[0][0]']            
                                                                                                  
 dense_6396 (Dense)             (None, 96)           576         ['lstm_10954[0][0]']             
                                                                                                  
 dense_6397 (Dense)             (None, 96)           576         ['lstm_10956[0][0]']             
                                                                                                  
 dense_6398 (Dense)             (None, 96)           576         ['lstm_10958[0][0]']             
                                                                                                  
 bidirectional_7539 (Bidirectio  (None, 96)          20736       ['conv1d_2719[0][0]']            
 nal)                                                                                             
                                                                                                  
 dropout_6156 (Dropout)         (None, 96)           0           ['dense_6396[0][0]']             
                                                                                                  
 dropout_6157 (Dropout)         (None, 96)           0           ['dense_6397[0][0]']             
                                                                                                  
 dropout_6158 (Dropout)         (None, 96)           0           ['dense_6398[0][0]']             
                                                                                                  
 dropout_6159 (Dropout)         (None, 96)           0           ['bidirectional_7539[0][0]']     
                                                                                                  
 concatenate_1599 (Concatenate)  (None, 384)         0           ['dropout_6156[0][0]',           
                                                                  'dropout_6157[0][0]',           
                                                                  'dropout_6158[0][0]',           
                                                                  'dropout_6159[0][0]']           
                                                                                                  
 dense_6399 (Dense)             (None, 1)            385         ['concatenate_1599[0][0]']       
                                                                                                  
==================================================================================================
Total params: 24,979
Trainable params: 24,979
Non-trainable params: 0
__________________________________________________________________________________________________
…
 bidirectional_7557 (Bidirectio  (None, None, 10)    280         ['masking_7557[0][0]']           
 nal)                                                                                             
                                                                                                  
 bidirectional_7558 (Bidirectio  (None, None, 10)    280         ['masking_7558[0][0]']           
 nal)                                                                                             
                                                                                                  
 conv1d_2728 (Conv1D)           (None, 24, 5)        65          ['masking_7559[0][0]']           
                                                                                                  
 lstm_10989 (LSTM)              (None, 5)            320         ['bidirectional_7556[0][0]']     
                                                                                                  
 lstm_10991 (LSTM)              (None, 5)            320         ['bidirectional_7557[0][0]']     
                                                                                                  
 lstm_10993 (LSTM)              (None, 5)            320         ['bidirectional_7558[0][0]']     
                                                                                                  
 conv1d_2729 (Conv1D)           (None, 24, 5)        105         ['conv1d_2728[0][0]']            
                                                                                                  
 dense_6416 (Dense)             (None, 128)          768         ['lstm_10989[0][0]']             
                                                                                                  
 dense_6417 (Dense)             (None, 128)          768         ['lstm_10991[0][0]']             
                                                                                                  
 dense_6418 (Dense)             (None, 128)          768         ['lstm_10993[0][0]']             
                                                                                                  
 bidirectional_7559 (Bidirectio  (None, 128)         35840       ['conv1d_2729[0][0]']            
 nal)                                                                                             
                                                                                                  
 dropout_6176 (Dropout)         (None, 128)          0           ['dense_6416[0][0]']             
                                                                                                  
 dropout_6177 (Dropout)         (None, 128)          0           ['dense_6417[0][0]']             
                                                                                                  
 dropout_6178 (Dropout)         (None, 128)          0           ['dense_6418[0][0]']             
                                                                                                  
 dropout_6179 (Dropout)         (None, 128)          0           ['bidirectional_7559[0][0]']     
                                                                                                  
 concatenate_1604 (Concatenate)  (None, 512)         0           ['dropout_6176[0][0]',           
                                                                  'dropout_6177[0][0]',           
                                                                  'dropout_6178[0][0]',           
                                                                  'dropout_6179[0][0]']           
                                                                                                  
 dense_6419 (Dense)             (None, 1)            513         ['concatenate_1604[0][0]']       
                                                                                                  
==================================================================================================
Total params: 40,627
Trainable params: 40,627
Non-trainable params: 0
__________________________________________________________________________________________________
…
 bidirectional_7577 (Bidirectio  (None, None, 10)    280         ['masking_7577[0][0]']           
 nal)                                                                                             
                                                                                                  
 bidirectional_7578 (Bidirectio  (None, None, 10)    280         ['masking_7578[0][0]']           
 nal)                                                                                             
                                                                                                  
 conv1d_2738 (Conv1D)           (None, 24, 5)        95          ['masking_7579[0][0]']           
                                                                                                  
 lstm_11024 (LSTM)              (None, 5)            320         ['bidirectional_7576[0][0]']     
                                                                                                  
 lstm_11026 (LSTM)              (None, 5)            320         ['bidirectional_7577[0][0]']     
                                                                                                  
 lstm_11028 (LSTM)              (None, 5)            320         ['bidirectional_7578[0][0]']     
                                                                                                  
 conv1d_2739 (Conv1D)           (None, 24, 5)        155         ['conv1d_2738[0][0]']            
                                                                                                  
 dense_6436 (Dense)             (None, 128)          768         ['lstm_11024[0][0]']             
                                                                                                  
 dense_6437 (Dense)             (None, 128)          768         ['lstm_11026[0][0]']             
                                                                                                  
 dense_6438 (Dense)             (None, 128)          768         ['lstm_11028[0][0]']             
                                                                                                  
 bidirectional_7579 (Bidirectio  (None, 128)         35840       ['conv1d_2739[0][0]']            
 nal)                                                                                             
                                                                                                  
 dropout_6196 (Dropout)         (None, 128)          0           ['dense_6436[0][0]']             
                                                                                                  
 dropout_6197 (Dropout)         (None, 128)          0           ['dense_6437[0][0]']             
                                                                                                  
 dropout_6198 (Dropout)         (None, 128)          0           ['dense_6438[0][0]']             
                                                                                                  
 dropout_6199 (Dropout)         (None, 128)          0           ['bidirectional_7579[0][0]']     
                                                                                                  
 concatenate_1609 (Concatenate)  (None, 512)         0           ['dropout_6196[0][0]',           
                                                                  'dropout_6197[0][0]',           
                                                                  'dropout_6198[0][0]',           
                                                                  'dropout_6199[0][0]']           
                                                                                                  
 dense_6439 (Dense)             (None, 1)            513         ['concatenate_1609[0][0]']       
                                                                                                  
==================================================================================================
Total params: 40,707
Trainable params: 40,707
Non-trainable params: 0
__________________________________________________________________________________________________
…
 bidirectional_7597 (Bidirectio  (None, None, 10)    280         ['masking_7597[0][0]']           
 nal)                                                                                             
                                                                                                  
 bidirectional_7598 (Bidirectio  (None, None, 10)    280         ['masking_7598[0][0]']           
 nal)                                                                                             
                                                                                                  
 conv1d_2748 (Conv1D)           (None, 24, 5)        125         ['masking_7599[0][0]']           
                                                                                                  
 lstm_11059 (LSTM)              (None, 5)            320         ['bidirectional_7596[0][0]']     
                                                                                                  
 lstm_11061 (LSTM)              (None, 5)            320         ['bidirectional_7597[0][0]']     
                                                                                                  
 lstm_11063 (LSTM)              (None, 5)            320         ['bidirectional_7598[0][0]']     
                                                                                                  
 conv1d_2749 (Conv1D)           (None, 24, 5)        205         ['conv1d_2748[0][0]']            
                                                                                                  
 dense_6456 (Dense)             (None, 128)          768         ['lstm_11059[0][0]']             
                                                                                                  
 dense_6457 (Dense)             (None, 128)          768         ['lstm_11061[0][0]']             
                                                                                                  
 dense_6458 (Dense)             (None, 128)          768         ['lstm_11063[0][0]']             
                                                                                                  
 bidirectional_7599 (Bidirectio  (None, 128)         35840       ['conv1d_2749[0][0]']            
 nal)                                                                                             
                                                                                                  
 dropout_6216 (Dropout)         (None, 128)          0           ['dense_6456[0][0]']             
                                                                                                  
 dropout_6217 (Dropout)         (None, 128)          0           ['dense_6457[0][0]']             
                                                                                                  
 dropout_6218 (Dropout)         (None, 128)          0           ['dense_6458[0][0]']             
                                                                                                  
 dropout_6219 (Dropout)         (None, 128)          0           ['bidirectional_7599[0][0]']     
                                                                                                  
 concatenate_1614 (Concatenate)  (None, 512)         0           ['dropout_6216[0][0]',           
                                                                  'dropout_6217[0][0]',           
                                                                  'dropout_6218[0][0]',           
                                                                  'dropout_6219[0][0]']           
                                                                                                  
 dense_6459 (Dense)             (None, 1)            513         ['concatenate_1614[0][0]']       
                                                                                                  
==================================================================================================
Total params: 40,787
Trainable params: 40,787
Non-trainable params: 0
__________________________________________________________________________________________________
…
