Model: "model_1"
_________________________________________________________________
 Layer (type)                Output Shape              Param #   
=================================================================
 input_1 (InputLayer)        [(None, 25, 94)]          0         
                                                                 
 masking_3 (Masking)         (None, 25, 94)            0         
                                                                 
 conv1d_1 (Conv1D)           (None, 25, 5)             1885      
                                                                 
 conv1d_2 (Conv1D)           (None, 25, 5)             105       
                                                                 
 bidirectional_3 (Bidirectio  (None, 128)              35840     
 nal)                                                            
                                                                 
 dropout (Dropout)           (None, 128)               0         
                                                                 
 output_dense (Dense)        (None, 1)                 129       
                                                                 
=================================================================
Total params: 37,959
Trainable params: 37,959
Non-trainable params: 0
_________________________________________________________________
Epoch 1/70
1/1 [==============================] - ETA: 0s - loss: 0.9225 - accuracy: 0.60721/1 [==============================] - 2s 2s/step - loss: 0.9225 - accuracy: 0.6072 - lr: 0.0100
…
