…
 bidirectional_5735 (Bidirectio  (None, None, 10)    280         ['masking_5735[0][0]']           
 nal)                                                                                             
                                                                                                  
 bidirectional_5736 (Bidirectio  (None, None, 10)    280         ['masking_5736[0][0]']           
 nal)                                                                                             
                                                                                                  
 conv1d_1932 (Conv1D)           (None, 25, 5)        1885        ['masking_5737[0][0]']           
                                                                                                  
 lstm_8203 (LSTM)               (None, 5)            320         ['bidirectional_5734[0][0]']     
                                                                                                  
 lstm_8205 (LSTM)               (None, 5)            320         ['bidirectional_5735[0][0]']     
                                                                                                  
 lstm_8207 (LSTM)               (None, 5)            320         ['bidirectional_5736[0][0]']     
                                                                                                  
 conv1d_1933 (Conv1D)           (None, 25, 5)        105         ['conv1d_1932[0][0]']            
                                                                                                  
 dense_4824 (Dense)             (None, 64)           384         ['lstm_8203[0][0]']              
                                                                                                  
 dense_4825 (Dense)             (None, 64)           384         ['lstm_8205[0][0]']              
                                                                                                  
 dense_4826 (Dense)             (None, 64)           384         ['lstm_8207[0][0]']              
                                                                                                  
 bidirectional_5737 (Bidirectio  (None, 64)          9728        ['conv1d_1933[0][0]']            
 nal)                                                                                             
                                                                                                  
 dropout_4584 (Dropout)         (None, 64)           0           ['dense_4824[0][0]']             
                                                                                                  
 dropout_4585 (Dropout)         (None, 64)           0           ['dense_4825[0][0]']             
                                                                                                  
 dropout_4586 (Dropout)         (None, 64)           0           ['dense_4826[0][0]']             
                                                                                                  
 dropout_4587 (Dropout)         (None, 64)           0           ['bidirectional_5737[0][0]']     
                                                                                                  
 concatenate_1206 (Concatenate)  (None, 256)         0           ['dropout_4584[0][0]',           
                                                                  'dropout_4585[0][0]',           
                                                                  'dropout_4586[0][0]',           
                                                                  'dropout_4587[0][0]']           
                                                                                                  
 dense_4827 (Dense)             (None, 1)            257         ['concatenate_1206[0][0]']       
                                                                                                  
==================================================================================================
Total params: 14,927
Trainable params: 14,927
Non-trainable params: 0
__________________________________________________________________________________________________
…
 bidirectional_5755 (Bidirectio  (None, None, 10)    280         ['masking_5755[0][0]']           
 nal)                                                                                             
                                                                                                  
 bidirectional_5756 (Bidirectio  (None, None, 10)    280         ['masking_5756[0][0]']           
 nal)                                                                                             
                                                                                                  
 conv1d_1942 (Conv1D)           (None, 25, 5)        2825        ['masking_5757[0][0]']           
                                                                                                  
 lstm_8238 (LSTM)               (None, 5)            320         ['bidirectional_5754[0][0]']     
                                                                                                  
 lstm_8240 (LSTM)               (None, 5)            320         ['bidirectional_5755[0][0]']     
                                                                                                  
 lstm_8242 (LSTM)               (None, 5)            320         ['bidirectional_5756[0][0]']     
                                                                                                  
 conv1d_1943 (Conv1D)           (None, 25, 5)        155         ['conv1d_1942[0][0]']            
                                                                                                  
 dense_4844 (Dense)             (None, 64)           384         ['lstm_8238[0][0]']              
                                                                                                  
 dense_4845 (Dense)             (None, 64)           384         ['lstm_8240[0][0]']              
                                                                                                  
 dense_4846 (Dense)             (None, 64)           384         ['lstm_8242[0][0]']              
                                                                                                  
 bidirectional_5757 (Bidirectio  (None, 64)          9728        ['conv1d_1943[0][0]']            
 nal)                                                                                             
                                                                                                  
 dropout_4604 (Dropout)         (None, 64)           0           ['dense_4844[0][0]']             
                                                                                                  
 dropout_4605 (Dropout)         (None, 64)           0           ['dense_4845[0][0]']             
                                                                                                  
 dropout_4606 (Dropout)         (None, 64)           0           ['dense_4846[0][0]']             
                                                                                                  
 dropout_4607 (Dropout)         (None, 64)           0           ['bidirectional_5757[0][0]']     
                                                                                                  
 concatenate_1211 (Concatenate)  (None, 256)         0           ['dropout_4604[0][0]',           
                                                                  'dropout_4605[0][0]',           
                                                                  'dropout_4606[0][0]',           
                                                                  'dropout_4607[0][0]']           
                                                                                                  
 dense_4847 (Dense)             (None, 1)            257         ['concatenate_1211[0][0]']       
                                                                                                  
==================================================================================================
Total params: 15,917
Trainable params: 15,917
Non-trainable params: 0
__________________________________________________________________________________________________
…
 bidirectional_5775 (Bidirectio  (None, None, 10)    280         ['masking_5775[0][0]']           
 nal)                                                                                             
                                                                                                  
 bidirectional_5776 (Bidirectio  (None, None, 10)    280         ['masking_5776[0][0]']           
 nal)                                                                                             
                                                                                                  
 conv1d_1952 (Conv1D)           (None, 25, 5)        3765        ['masking_5777[0][0]']           
                                                                                                  
 lstm_8273 (LSTM)               (None, 5)            320         ['bidirectional_5774[0][0]']     
                                                                                                  
 lstm_8275 (LSTM)               (None, 5)            320         ['bidirectional_5775[0][0]']     
                                                                                                  
 lstm_8277 (LSTM)               (None, 5)            320         ['bidirectional_5776[0][0]']     
                                                                                                  
 conv1d_1953 (Conv1D)           (None, 25, 5)        205         ['conv1d_1952[0][0]']            
                                                                                                  
 dense_4864 (Dense)             (None, 64)           384         ['lstm_8273[0][0]']              
                                                                                                  
 dense_4865 (Dense)             (None, 64)           384         ['lstm_8275[0][0]']              
                                                                                                  
 dense_4866 (Dense)             (None, 64)           384         ['lstm_8277[0][0]']              
                                                                                                  
 bidirectional_5777 (Bidirectio  (None, 64)          9728        ['conv1d_1953[0][0]']            
 nal)                                                                                             
                                                                                                  
 dropout_4624 (Dropout)         (None, 64)           0           ['dense_4864[0][0]']             
                                                                                                  
 dropout_4625 (Dropout)         (None, 64)           0           ['dense_4865[0][0]']             
                                                                                                  
 dropout_4626 (Dropout)         (None, 64)           0           ['dense_4866[0][0]']             
                                                                                                  
 dropout_4627 (Dropout)         (None, 64)           0           ['bidirectional_5777[0][0]']     
                                                                                                  
 concatenate_1216 (Concatenate)  (None, 256)         0           ['dropout_4624[0][0]',           
                                                                  'dropout_4625[0][0]',           
                                                                  'dropout_4626[0][0]',           
                                                                  'dropout_4627[0][0]']           
                                                                                                  
 dense_4867 (Dense)             (None, 1)            257         ['concatenate_1216[0][0]']       
                                                                                                  
==================================================================================================
Total params: 16,907
Trainable params: 16,907
Non-trainable params: 0
__________________________________________________________________________________________________
…
 bidirectional_5795 (Bidirectio  (None, None, 10)    280         ['masking_5795[0][0]']           
 nal)                                                                                             
                                                                                                  
 bidirectional_5796 (Bidirectio  (None, None, 10)    280         ['masking_5796[0][0]']           
 nal)                                                                                             
                                                                                                  
 conv1d_1962 (Conv1D)           (None, 25, 5)        1885        ['masking_5797[0][0]']           
                                                                                                  
 lstm_8308 (LSTM)               (None, 5)            320         ['bidirectional_5794[0][0]']     
                                                                                                  
 lstm_8310 (LSTM)               (None, 5)            320         ['bidirectional_5795[0][0]']     
                                                                                                  
 lstm_8312 (LSTM)               (None, 5)            320         ['bidirectional_5796[0][0]']     
                                                                                                  
 conv1d_1963 (Conv1D)           (None, 25, 5)        105         ['conv1d_1962[0][0]']            
                                                                                                  
 dense_4884 (Dense)             (None, 96)           576         ['lstm_8308[0][0]']              
                                                                                                  
 dense_4885 (Dense)             (None, 96)           576         ['lstm_8310[0][0]']              
                                                                                                  
 dense_4886 (Dense)             (None, 96)           576         ['lstm_8312[0][0]']              
                                                                                                  
 bidirectional_5797 (Bidirectio  (None, 96)          20736       ['conv1d_1963[0][0]']            
 nal)                                                                                             
                                                                                                  
 dropout_4644 (Dropout)         (None, 96)           0           ['dense_4884[0][0]']             
                                                                                                  
 dropout_4645 (Dropout)         (None, 96)           0           ['dense_4885[0][0]']             
                                                                                                  
 dropout_4646 (Dropout)         (None, 96)           0           ['dense_4886[0][0]']             
                                                                                                  
 dropout_4647 (Dropout)         (None, 96)           0           ['bidirectional_5797[0][0]']     
                                                                                                  
 concatenate_1221 (Concatenate)  (None, 384)         0           ['dropout_4644[0][0]',           
                                                                  'dropout_4645[0][0]',           
                                                                  'dropout_4646[0][0]',           
                                                                  'dropout_4647[0][0]']           
                                                                                                  
 dense_4887 (Dense)             (None, 1)            385         ['concatenate_1221[0][0]']       
                                                                                                  
==================================================================================================
Total params: 26,639
Trainable params: 26,639
Non-trainable params: 0
__________________________________________________________________________________________________
…
 bidirectional_5815 (Bidirectio  (None, None, 10)    280         ['masking_5815[0][0]']           
 nal)                                                                                             
                                                                                                  
 bidirectional_5816 (Bidirectio  (None, None, 10)    280         ['masking_5816[0][0]']           
 nal)                                                                                             
                                                                                                  
 conv1d_1972 (Conv1D)           (None, 25, 5)        2825        ['masking_5817[0][0]']           
                                                                                                  
 lstm_8343 (LSTM)               (None, 5)            320         ['bidirectional_5814[0][0]']     
                                                                                                  
 lstm_8345 (LSTM)               (None, 5)            320         ['bidirectional_5815[0][0]']     
                                                                                                  
 lstm_8347 (LSTM)               (None, 5)            320         ['bidirectional_5816[0][0]']     
                                                                                                  
 conv1d_1973 (Conv1D)           (None, 25, 5)        155         ['conv1d_1972[0][0]']            
                                                                                                  
 dense_4904 (Dense)             (None, 96)           576         ['lstm_8343[0][0]']              
                                                                                                  
 dense_4905 (Dense)             (None, 96)           576         ['lstm_8345[0][0]']              
                                                                                                  
 dense_4906 (Dense)             (None, 96)           576         ['lstm_8347[0][0]']              
                                                                                                  
 bidirectional_5817 (Bidirectio  (None, 96)          20736       ['conv1d_1973[0][0]']            
 nal)                                                                                             
                                                                                                  
 dropout_4664 (Dropout)         (None, 96)           0           ['dense_4904[0][0]']             
                                                                                                  
 dropout_4665 (Dropout)         (None, 96)           0           ['dense_4905[0][0]']             
                                                                                                  
 dropout_4666 (Dropout)         (None, 96)           0           ['dense_4906[0][0]']             
                                                                                                  
 dropout_4667 (Dropout)         (None, 96)           0           ['bidirectional_5817[0][0]']     
                                                                                                  
 concatenate_1226 (Concatenate)  (None, 384)         0           ['dropout_4664[0][0]',           
                                                                  'dropout_4665[0][0]',           
                                                                  'dropout_4666[0][0]',           
                                                                  'dropout_4667[0][0]']           
                                                                                                  
 dense_4907 (Dense)             (None, 1)            385         ['concatenate_1226[0][0]']       
                                                                                                  
==================================================================================================
Total params: 27,629
Trainable params: 27,629
Non-trainable params: 0
__________________________________________________________________________________________________
…
 bidirectional_5835 (Bidirectio  (None, None, 10)    280         ['masking_5835[0][0]']           
 nal)                                                                                             
                                                                                                  
 bidirectional_5836 (Bidirectio  (None, None, 10)    280         ['masking_5836[0][0]']           
 nal)                                                                                             
                                                                                                  
 conv1d_1982 (Conv1D)           (None, 25, 5)        3765        ['masking_5837[0][0]']           
                                                                                                  
 lstm_8378 (LSTM)               (None, 5)            320         ['bidirectional_5834[0][0]']     
                                                                                                  
 lstm_8380 (LSTM)               (None, 5)            320         ['bidirectional_5835[0][0]']     
                                                                                                  
 lstm_8382 (LSTM)               (None, 5)            320         ['bidirectional_5836[0][0]']     
                                                                                                  
 conv1d_1983 (Conv1D)           (None, 25, 5)        205         ['conv1d_1982[0][0]']            
                                                                                                  
 dense_4924 (Dense)             (None, 96)           576         ['lstm_8378[0][0]']              
                                                                                                  
 dense_4925 (Dense)             (None, 96)           576         ['lstm_8380[0][0]']              
                                                                                                  
 dense_4926 (Dense)             (None, 96)           576         ['lstm_8382[0][0]']              
                                                                                                  
 bidirectional_5837 (Bidirectio  (None, 96)          20736       ['conv1d_1983[0][0]']            
 nal)                                                                                             
                                                                                                  
 dropout_4684 (Dropout)         (None, 96)           0           ['dense_4924[0][0]']             
                                                                                                  
 dropout_4685 (Dropout)         (None, 96)           0           ['dense_4925[0][0]']             
                                                                                                  
 dropout_4686 (Dropout)         (None, 96)           0           ['dense_4926[0][0]']             
                                                                                                  
 dropout_4687 (Dropout)         (None, 96)           0           ['bidirectional_5837[0][0]']     
                                                                                                  
 concatenate_1231 (Concatenate)  (None, 384)         0           ['dropout_4684[0][0]',           
                                                                  'dropout_4685[0][0]',           
                                                                  'dropout_4686[0][0]',           
                                                                  'dropout_4687[0][0]']           
                                                                                                  
 dense_4927 (Dense)             (None, 1)            385         ['concatenate_1231[0][0]']       
                                                                                                  
==================================================================================================
Total params: 28,619
Trainable params: 28,619
Non-trainable params: 0
__________________________________________________________________________________________________
…
 bidirectional_5855 (Bidirectio  (None, None, 10)    280         ['masking_5855[0][0]']           
 nal)                                                                                             
                                                                                                  
 bidirectional_5856 (Bidirectio  (None, None, 10)    280         ['masking_5856[0][0]']           
 nal)                                                                                             
                                                                                                  
 conv1d_1992 (Conv1D)           (None, 25, 5)        1885        ['masking_5857[0][0]']           
                                                                                                  
 lstm_8413 (LSTM)               (None, 5)            320         ['bidirectional_5854[0][0]']     
                                                                                                  
 lstm_8415 (LSTM)               (None, 5)            320         ['bidirectional_5855[0][0]']     
                                                                                                  
 lstm_8417 (LSTM)               (None, 5)            320         ['bidirectional_5856[0][0]']     
                                                                                                  
 conv1d_1993 (Conv1D)           (None, 25, 5)        105         ['conv1d_1992[0][0]']            
                                                                                                  
 dense_4944 (Dense)             (None, 128)          768         ['lstm_8413[0][0]']              
                                                                                                  
 dense_4945 (Dense)             (None, 128)          768         ['lstm_8415[0][0]']              
                                                                                                  
 dense_4946 (Dense)             (None, 128)          768         ['lstm_8417[0][0]']              
                                                                                                  
 bidirectional_5857 (Bidirectio  (None, 128)         35840       ['conv1d_1993[0][0]']            
 nal)                                                                                             
                                                                                                  
 dropout_4704 (Dropout)         (None, 128)          0           ['dense_4944[0][0]']             
                                                                                                  
 dropout_4705 (Dropout)         (None, 128)          0           ['dense_4945[0][0]']             
                                                                                                  
 dropout_4706 (Dropout)         (None, 128)          0           ['dense_4946[0][0]']             
                                                                                                  
 dropout_4707 (Dropout)         (None, 128)          0           ['bidirectional_5857[0][0]']     
                                                                                                  
 concatenate_1236 (Concatenate)  (None, 512)         0           ['dropout_4704[0][0]',           
                                                                  'dropout_4705[0][0]',           
                                                                  'dropout_4706[0][0]',           
                                                                  'dropout_4707[0][0]']           
                                                                                                  
 dense_4947 (Dense)             (None, 1)            513         ['concatenate_1236[0][0]']       
                                                                                                  
==================================================================================================
Total params: 42,447
Trainable params: 42,447
Non-trainable params: 0
__________________________________________________________________________________________________
…
 bidirectional_5875 (Bidirectio  (None, None, 10)    280         ['masking_5875[0][0]']           
 nal)                                                                                             
                                                                                                  
 bidirectional_5876 (Bidirectio  (None, None, 10)    280         ['masking_5876[0][0]']           
 nal)                                                                                             
                                                                                                  
 conv1d_2002 (Conv1D)           (None, 25, 5)        2825        ['masking_5877[0][0]']           
                                                                                                  
 lstm_8448 (LSTM)               (None, 5)            320         ['bidirectional_5874[0][0]']     
                                                                                                  
 lstm_8450 (LSTM)               (None, 5)            320         ['bidirectional_5875[0][0]']     
                                                                                                  
 lstm_8452 (LSTM)               (None, 5)            320         ['bidirectional_5876[0][0]']     
                                                                                                  
 conv1d_2003 (Conv1D)           (None, 25, 5)        155         ['conv1d_2002[0][0]']            
                                                                                                  
 dense_4964 (Dense)             (None, 128)          768         ['lstm_8448[0][0]']              
                                                                                                  
 dense_4965 (Dense)             (None, 128)          768         ['lstm_8450[0][0]']              
                                                                                                  
 dense_4966 (Dense)             (None, 128)          768         ['lstm_8452[0][0]']              
                                                                                                  
 bidirectional_5877 (Bidirectio  (None, 128)         35840       ['conv1d_2003[0][0]']            
 nal)                                                                                             
                                                                                                  
 dropout_4724 (Dropout)         (None, 128)          0           ['dense_4964[0][0]']             
                                                                                                  
 dropout_4725 (Dropout)         (None, 128)          0           ['dense_4965[0][0]']             
                                                                                                  
 dropout_4726 (Dropout)         (None, 128)          0           ['dense_4966[0][0]']             
                                                                                                  
 dropout_4727 (Dropout)         (None, 128)          0           ['bidirectional_5877[0][0]']     
                                                                                                  
 concatenate_1241 (Concatenate)  (None, 512)         0           ['dropout_4724[0][0]',           
                                                                  'dropout_4725[0][0]',           
                                                                  'dropout_4726[0][0]',           
                                                                  'dropout_4727[0][0]']           
                                                                                                  
 dense_4967 (Dense)             (None, 1)            513         ['concatenate_1241[0][0]']       
                                                                                                  
==================================================================================================
Total params: 43,437
Trainable params: 43,437
Non-trainable params: 0
__________________________________________________________________________________________________
…
 bidirectional_5895 (Bidirectio  (None, None, 10)    280         ['masking_5895[0][0]']           
 nal)                                                                                             
                                                                                                  
 bidirectional_5896 (Bidirectio  (None, None, 10)    280         ['masking_5896[0][0]']           
 nal)                                                                                             
                                                                                                  
 conv1d_2012 (Conv1D)           (None, 25, 5)        3765        ['masking_5897[0][0]']           
                                                                                                  
 lstm_8483 (LSTM)               (None, 5)            320         ['bidirectional_5894[0][0]']     
                                                                                                  
 lstm_8485 (LSTM)               (None, 5)            320         ['bidirectional_5895[0][0]']     
                                                                                                  
 lstm_8487 (LSTM)               (None, 5)            320         ['bidirectional_5896[0][0]']     
                                                                                                  
 conv1d_2013 (Conv1D)           (None, 25, 5)        205         ['conv1d_2012[0][0]']            
                                                                                                  
 dense_4984 (Dense)             (None, 128)          768         ['lstm_8483[0][0]']              
                                                                                                  
 dense_4985 (Dense)             (None, 128)          768         ['lstm_8485[0][0]']              
                                                                                                  
 dense_4986 (Dense)             (None, 128)          768         ['lstm_8487[0][0]']              
                                                                                                  
 bidirectional_5897 (Bidirectio  (None, 128)         35840       ['conv1d_2013[0][0]']            
 nal)                                                                                             
                                                                                                  
 dropout_4744 (Dropout)         (None, 128)          0           ['dense_4984[0][0]']             
                                                                                                  
 dropout_4745 (Dropout)         (None, 128)          0           ['dense_4985[0][0]']             
                                                                                                  
 dropout_4746 (Dropout)         (None, 128)          0           ['dense_4986[0][0]']             
                                                                                                  
 dropout_4747 (Dropout)         (None, 128)          0           ['bidirectional_5897[0][0]']     
                                                                                                  
 concatenate_1246 (Concatenate)  (None, 512)         0           ['dropout_4744[0][0]',           
                                                                  'dropout_4745[0][0]',           
                                                                  'dropout_4746[0][0]',           
                                                                  'dropout_4747[0][0]']           
                                                                                                  
 dense_4987 (Dense)             (None, 1)            513         ['concatenate_1246[0][0]']       
                                                                                                  
==================================================================================================
Total params: 44,427
Trainable params: 44,427
Non-trainable params: 0
__________________________________________________________________________________________________
…
