…
 bidirectional_7253 (Bidirectio  (None, None, 10)    280         ['masking_7253[0][0]']           
 nal)                                                                                             
                                                                                                  
 bidirectional_7254 (Bidirectio  (None, None, 10)    280         ['masking_7254[0][0]']           
 nal)                                                                                             
                                                                                                  
 conv1d_2576 (Conv1D)           (None, 24, 5)        65          ['masking_7255[0][0]']           
                                                                                                  
 lstm_10457 (LSTM)              (None, 5)            320         ['bidirectional_7252[0][0]']     
                                                                                                  
 lstm_10459 (LSTM)              (None, 5)            320         ['bidirectional_7253[0][0]']     
                                                                                                  
 lstm_10461 (LSTM)              (None, 5)            320         ['bidirectional_7254[0][0]']     
                                                                                                  
 conv1d_2577 (Conv1D)           (None, 24, 5)        105         ['conv1d_2576[0][0]']            
                                                                                                  
 dense_6112 (Dense)             (None, 64)           384         ['lstm_10457[0][0]']             
                                                                                                  
 dense_6113 (Dense)             (None, 64)           384         ['lstm_10459[0][0]']             
                                                                                                  
 dense_6114 (Dense)             (None, 64)           384         ['lstm_10461[0][0]']             
                                                                                                  
 bidirectional_7255 (Bidirectio  (None, 64)          9728        ['conv1d_2577[0][0]']            
 nal)                                                                                             
                                                                                                  
 dropout_5872 (Dropout)         (None, 64)           0           ['dense_6112[0][0]']             
                                                                                                  
 dropout_5873 (Dropout)         (None, 64)           0           ['dense_6113[0][0]']             
                                                                                                  
 dropout_5874 (Dropout)         (None, 64)           0           ['dense_6114[0][0]']             
                                                                                                  
 dropout_5875 (Dropout)         (None, 64)           0           ['bidirectional_7255[0][0]']     
                                                                                                  
 concatenate_1528 (Concatenate)  (None, 256)         0           ['dropout_5872[0][0]',           
                                                                  'dropout_5873[0][0]',           
                                                                  'dropout_5874[0][0]',           
                                                                  'dropout_5875[0][0]']           
                                                                                                  
 dense_6115 (Dense)             (None, 1)            257         ['concatenate_1528[0][0]']       
                                                                                                  
==================================================================================================
Total params: 13,107
Trainable params: 13,107
Non-trainable params: 0
__________________________________________________________________________________________________
…
 bidirectional_7273 (Bidirectio  (None, None, 10)    280         ['masking_7273[0][0]']           
 nal)                                                                                             
                                                                                                  
 bidirectional_7274 (Bidirectio  (None, None, 10)    280         ['masking_7274[0][0]']           
 nal)                                                                                             
                                                                                                  
 conv1d_2586 (Conv1D)           (None, 24, 5)        95          ['masking_7275[0][0]']           
                                                                                                  
 lstm_10492 (LSTM)              (None, 5)            320         ['bidirectional_7272[0][0]']     
                                                                                                  
 lstm_10494 (LSTM)              (None, 5)            320         ['bidirectional_7273[0][0]']     
                                                                                                  
 lstm_10496 (LSTM)              (None, 5)            320         ['bidirectional_7274[0][0]']     
                                                                                                  
 conv1d_2587 (Conv1D)           (None, 24, 5)        155         ['conv1d_2586[0][0]']            
                                                                                                  
 dense_6132 (Dense)             (None, 64)           384         ['lstm_10492[0][0]']             
                                                                                                  
 dense_6133 (Dense)             (None, 64)           384         ['lstm_10494[0][0]']             
                                                                                                  
 dense_6134 (Dense)             (None, 64)           384         ['lstm_10496[0][0]']             
                                                                                                  
 bidirectional_7275 (Bidirectio  (None, 64)          9728        ['conv1d_2587[0][0]']            
 nal)                                                                                             
                                                                                                  
 dropout_5892 (Dropout)         (None, 64)           0           ['dense_6132[0][0]']             
                                                                                                  
 dropout_5893 (Dropout)         (None, 64)           0           ['dense_6133[0][0]']             
                                                                                                  
 dropout_5894 (Dropout)         (None, 64)           0           ['dense_6134[0][0]']             
                                                                                                  
 dropout_5895 (Dropout)         (None, 64)           0           ['bidirectional_7275[0][0]']     
                                                                                                  
 concatenate_1533 (Concatenate)  (None, 256)         0           ['dropout_5892[0][0]',           
                                                                  'dropout_5893[0][0]',           
                                                                  'dropout_5894[0][0]',           
                                                                  'dropout_5895[0][0]']           
                                                                                                  
 dense_6135 (Dense)             (None, 1)            257         ['concatenate_1533[0][0]']       
                                                                                                  
==================================================================================================
Total params: 13,187
Trainable params: 13,187
Non-trainable params: 0
__________________________________________________________________________________________________
…
 bidirectional_7293 (Bidirectio  (None, None, 10)    280         ['masking_7293[0][0]']           
 nal)                                                                                             
                                                                                                  
 bidirectional_7294 (Bidirectio  (None, None, 10)    280         ['masking_7294[0][0]']           
 nal)                                                                                             
                                                                                                  
 conv1d_2596 (Conv1D)           (None, 24, 5)        125         ['masking_7295[0][0]']           
                                                                                                  
 lstm_10527 (LSTM)              (None, 5)            320         ['bidirectional_7292[0][0]']     
                                                                                                  
 lstm_10529 (LSTM)              (None, 5)            320         ['bidirectional_7293[0][0]']     
                                                                                                  
 lstm_10531 (LSTM)              (None, 5)            320         ['bidirectional_7294[0][0]']     
                                                                                                  
 conv1d_2597 (Conv1D)           (None, 24, 5)        205         ['conv1d_2596[0][0]']            
                                                                                                  
 dense_6152 (Dense)             (None, 64)           384         ['lstm_10527[0][0]']             
                                                                                                  
 dense_6153 (Dense)             (None, 64)           384         ['lstm_10529[0][0]']             
                                                                                                  
 dense_6154 (Dense)             (None, 64)           384         ['lstm_10531[0][0]']             
                                                                                                  
 bidirectional_7295 (Bidirectio  (None, 64)          9728        ['conv1d_2597[0][0]']            
 nal)                                                                                             
                                                                                                  
 dropout_5912 (Dropout)         (None, 64)           0           ['dense_6152[0][0]']             
                                                                                                  
 dropout_5913 (Dropout)         (None, 64)           0           ['dense_6153[0][0]']             
                                                                                                  
 dropout_5914 (Dropout)         (None, 64)           0           ['dense_6154[0][0]']             
                                                                                                  
 dropout_5915 (Dropout)         (None, 64)           0           ['bidirectional_7295[0][0]']     
                                                                                                  
 concatenate_1538 (Concatenate)  (None, 256)         0           ['dropout_5912[0][0]',           
                                                                  'dropout_5913[0][0]',           
                                                                  'dropout_5914[0][0]',           
                                                                  'dropout_5915[0][0]']           
                                                                                                  
 dense_6155 (Dense)             (None, 1)            257         ['concatenate_1538[0][0]']       
                                                                                                  
==================================================================================================
Total params: 13,267
Trainable params: 13,267
Non-trainable params: 0
__________________________________________________________________________________________________
…
 bidirectional_7313 (Bidirectio  (None, None, 10)    280         ['masking_7313[0][0]']           
 nal)                                                                                             
                                                                                                  
 bidirectional_7314 (Bidirectio  (None, None, 10)    280         ['masking_7314[0][0]']           
 nal)                                                                                             
                                                                                                  
 conv1d_2606 (Conv1D)           (None, 24, 5)        65          ['masking_7315[0][0]']           
                                                                                                  
 lstm_10562 (LSTM)              (None, 5)            320         ['bidirectional_7312[0][0]']     
                                                                                                  
 lstm_10564 (LSTM)              (None, 5)            320         ['bidirectional_7313[0][0]']     
                                                                                                  
 lstm_10566 (LSTM)              (None, 5)            320         ['bidirectional_7314[0][0]']     
                                                                                                  
 conv1d_2607 (Conv1D)           (None, 24, 5)        105         ['conv1d_2606[0][0]']            
                                                                                                  
 dense_6172 (Dense)             (None, 96)           576         ['lstm_10562[0][0]']             
                                                                                                  
 dense_6173 (Dense)             (None, 96)           576         ['lstm_10564[0][0]']             
                                                                                                  
 dense_6174 (Dense)             (None, 96)           576         ['lstm_10566[0][0]']             
                                                                                                  
 bidirectional_7315 (Bidirectio  (None, 96)          20736       ['conv1d_2607[0][0]']            
 nal)                                                                                             
                                                                                                  
 dropout_5932 (Dropout)         (None, 96)           0           ['dense_6172[0][0]']             
                                                                                                  
 dropout_5933 (Dropout)         (None, 96)           0           ['dense_6173[0][0]']             
                                                                                                  
 dropout_5934 (Dropout)         (None, 96)           0           ['dense_6174[0][0]']             
                                                                                                  
 dropout_5935 (Dropout)         (None, 96)           0           ['bidirectional_7315[0][0]']     
                                                                                                  
 concatenate_1543 (Concatenate)  (None, 384)         0           ['dropout_5932[0][0]',           
                                                                  'dropout_5933[0][0]',           
                                                                  'dropout_5934[0][0]',           
                                                                  'dropout_5935[0][0]']           
                                                                                                  
 dense_6175 (Dense)             (None, 1)            385         ['concatenate_1543[0][0]']       
                                                                                                  
==================================================================================================
Total params: 24,819
Trainable params: 24,819
Non-trainable params: 0
__________________________________________________________________________________________________
…
 bidirectional_7333 (Bidirectio  (None, None, 10)    280         ['masking_7333[0][0]']           
 nal)                                                                                             
                                                                                                  
 bidirectional_7334 (Bidirectio  (None, None, 10)    280         ['masking_7334[0][0]']           
 nal)                                                                                             
                                                                                                  
 conv1d_2616 (Conv1D)           (None, 24, 5)        95          ['masking_7335[0][0]']           
                                                                                                  
 lstm_10597 (LSTM)              (None, 5)            320         ['bidirectional_7332[0][0]']     
                                                                                                  
 lstm_10599 (LSTM)              (None, 5)            320         ['bidirectional_7333[0][0]']     
                                                                                                  
 lstm_10601 (LSTM)              (None, 5)            320         ['bidirectional_7334[0][0]']     
                                                                                                  
 conv1d_2617 (Conv1D)           (None, 24, 5)        155         ['conv1d_2616[0][0]']            
                                                                                                  
 dense_6192 (Dense)             (None, 96)           576         ['lstm_10597[0][0]']             
                                                                                                  
 dense_6193 (Dense)             (None, 96)           576         ['lstm_10599[0][0]']             
                                                                                                  
 dense_6194 (Dense)             (None, 96)           576         ['lstm_10601[0][0]']             
                                                                                                  
 bidirectional_7335 (Bidirectio  (None, 96)          20736       ['conv1d_2617[0][0]']            
 nal)                                                                                             
                                                                                                  
 dropout_5952 (Dropout)         (None, 96)           0           ['dense_6192[0][0]']             
                                                                                                  
 dropout_5953 (Dropout)         (None, 96)           0           ['dense_6193[0][0]']             
                                                                                                  
 dropout_5954 (Dropout)         (None, 96)           0           ['dense_6194[0][0]']             
                                                                                                  
 dropout_5955 (Dropout)         (None, 96)           0           ['bidirectional_7335[0][0]']     
                                                                                                  
 concatenate_1548 (Concatenate)  (None, 384)         0           ['dropout_5952[0][0]',           
                                                                  'dropout_5953[0][0]',           
                                                                  'dropout_5954[0][0]',           
                                                                  'dropout_5955[0][0]']           
                                                                                                  
 dense_6195 (Dense)             (None, 1)            385         ['concatenate_1548[0][0]']       
                                                                                                  
==================================================================================================
Total params: 24,899
Trainable params: 24,899
Non-trainable params: 0
__________________________________________________________________________________________________
…
 bidirectional_7353 (Bidirectio  (None, None, 10)    280         ['masking_7353[0][0]']           
 nal)                                                                                             
                                                                                                  
 bidirectional_7354 (Bidirectio  (None, None, 10)    280         ['masking_7354[0][0]']           
 nal)                                                                                             
                                                                                                  
 conv1d_2626 (Conv1D)           (None, 24, 5)        125         ['masking_7355[0][0]']           
                                                                                                  
 lstm_10632 (LSTM)              (None, 5)            320         ['bidirectional_7352[0][0]']     
                                                                                                  
 lstm_10634 (LSTM)              (None, 5)            320         ['bidirectional_7353[0][0]']     
                                                                                                  
 lstm_10636 (LSTM)              (None, 5)            320         ['bidirectional_7354[0][0]']     
                                                                                                  
 conv1d_2627 (Conv1D)           (None, 24, 5)        205         ['conv1d_2626[0][0]']            
                                                                                                  
 dense_6212 (Dense)             (None, 96)           576         ['lstm_10632[0][0]']             
                                                                                                  
 dense_6213 (Dense)             (None, 96)           576         ['lstm_10634[0][0]']             
                                                                                                  
 dense_6214 (Dense)             (None, 96)           576         ['lstm_10636[0][0]']             
                                                                                                  
 bidirectional_7355 (Bidirectio  (None, 96)          20736       ['conv1d_2627[0][0]']            
 nal)                                                                                             
                                                                                                  
 dropout_5972 (Dropout)         (None, 96)           0           ['dense_6212[0][0]']             
                                                                                                  
 dropout_5973 (Dropout)         (None, 96)           0           ['dense_6213[0][0]']             
                                                                                                  
 dropout_5974 (Dropout)         (None, 96)           0           ['dense_6214[0][0]']             
                                                                                                  
 dropout_5975 (Dropout)         (None, 96)           0           ['bidirectional_7355[0][0]']     
                                                                                                  
 concatenate_1553 (Concatenate)  (None, 384)         0           ['dropout_5972[0][0]',           
                                                                  'dropout_5973[0][0]',           
                                                                  'dropout_5974[0][0]',           
                                                                  'dropout_5975[0][0]']           
                                                                                                  
 dense_6215 (Dense)             (None, 1)            385         ['concatenate_1553[0][0]']       
                                                                                                  
==================================================================================================
Total params: 24,979
Trainable params: 24,979
Non-trainable params: 0
__________________________________________________________________________________________________
…
 bidirectional_7373 (Bidirectio  (None, None, 10)    280         ['masking_7373[0][0]']           
 nal)                                                                                             
                                                                                                  
 bidirectional_7374 (Bidirectio  (None, None, 10)    280         ['masking_7374[0][0]']           
 nal)                                                                                             
                                                                                                  
 conv1d_2636 (Conv1D)           (None, 24, 5)        65          ['masking_7375[0][0]']           
                                                                                                  
 lstm_10667 (LSTM)              (None, 5)            320         ['bidirectional_7372[0][0]']     
                                                                                                  
 lstm_10669 (LSTM)              (None, 5)            320         ['bidirectional_7373[0][0]']     
                                                                                                  
 lstm_10671 (LSTM)              (None, 5)            320         ['bidirectional_7374[0][0]']     
                                                                                                  
 conv1d_2637 (Conv1D)           (None, 24, 5)        105         ['conv1d_2636[0][0]']            
                                                                                                  
 dense_6232 (Dense)             (None, 128)          768         ['lstm_10667[0][0]']             
                                                                                                  
 dense_6233 (Dense)             (None, 128)          768         ['lstm_10669[0][0]']             
                                                                                                  
 dense_6234 (Dense)             (None, 128)          768         ['lstm_10671[0][0]']             
                                                                                                  
 bidirectional_7375 (Bidirectio  (None, 128)         35840       ['conv1d_2637[0][0]']            
 nal)                                                                                             
                                                                                                  
 dropout_5992 (Dropout)         (None, 128)          0           ['dense_6232[0][0]']             
                                                                                                  
 dropout_5993 (Dropout)         (None, 128)          0           ['dense_6233[0][0]']             
                                                                                                  
 dropout_5994 (Dropout)         (None, 128)          0           ['dense_6234[0][0]']             
                                                                                                  
 dropout_5995 (Dropout)         (None, 128)          0           ['bidirectional_7375[0][0]']     
                                                                                                  
 concatenate_1558 (Concatenate)  (None, 512)         0           ['dropout_5992[0][0]',           
                                                                  'dropout_5993[0][0]',           
                                                                  'dropout_5994[0][0]',           
                                                                  'dropout_5995[0][0]']           
                                                                                                  
 dense_6235 (Dense)             (None, 1)            513         ['concatenate_1558[0][0]']       
                                                                                                  
==================================================================================================
Total params: 40,627
Trainable params: 40,627
Non-trainable params: 0
__________________________________________________________________________________________________
…
 bidirectional_7393 (Bidirectio  (None, None, 10)    280         ['masking_7393[0][0]']           
 nal)                                                                                             
                                                                                                  
 bidirectional_7394 (Bidirectio  (None, None, 10)    280         ['masking_7394[0][0]']           
 nal)                                                                                             
                                                                                                  
 conv1d_2646 (Conv1D)           (None, 24, 5)        95          ['masking_7395[0][0]']           
                                                                                                  
 lstm_10702 (LSTM)              (None, 5)            320         ['bidirectional_7392[0][0]']     
                                                                                                  
 lstm_10704 (LSTM)              (None, 5)            320         ['bidirectional_7393[0][0]']     
                                                                                                  
 lstm_10706 (LSTM)              (None, 5)            320         ['bidirectional_7394[0][0]']     
                                                                                                  
 conv1d_2647 (Conv1D)           (None, 24, 5)        155         ['conv1d_2646[0][0]']            
                                                                                                  
 dense_6252 (Dense)             (None, 128)          768         ['lstm_10702[0][0]']             
                                                                                                  
 dense_6253 (Dense)             (None, 128)          768         ['lstm_10704[0][0]']             
                                                                                                  
 dense_6254 (Dense)             (None, 128)          768         ['lstm_10706[0][0]']             
                                                                                                  
 bidirectional_7395 (Bidirectio  (None, 128)         35840       ['conv1d_2647[0][0]']            
 nal)                                                                                             
                                                                                                  
 dropout_6012 (Dropout)         (None, 128)          0           ['dense_6252[0][0]']             
                                                                                                  
 dropout_6013 (Dropout)         (None, 128)          0           ['dense_6253[0][0]']             
                                                                                                  
 dropout_6014 (Dropout)         (None, 128)          0           ['dense_6254[0][0]']             
                                                                                                  
 dropout_6015 (Dropout)         (None, 128)          0           ['bidirectional_7395[0][0]']     
                                                                                                  
 concatenate_1563 (Concatenate)  (None, 512)         0           ['dropout_6012[0][0]',           
                                                                  'dropout_6013[0][0]',           
                                                                  'dropout_6014[0][0]',           
                                                                  'dropout_6015[0][0]']           
                                                                                                  
 dense_6255 (Dense)             (None, 1)            513         ['concatenate_1563[0][0]']       
                                                                                                  
==================================================================================================
Total params: 40,707
Trainable params: 40,707
Non-trainable params: 0
__________________________________________________________________________________________________
…
 bidirectional_7413 (Bidirectio  (None, None, 10)    280         ['masking_7413[0][0]']           
 nal)                                                                                             
                                                                                                  
 bidirectional_7414 (Bidirectio  (None, None, 10)    280         ['masking_7414[0][0]']           
 nal)                                                                                             
                                                                                                  
 conv1d_2656 (Conv1D)           (None, 24, 5)        125         ['masking_7415[0][0]']           
                                                                                                  
 lstm_10737 (LSTM)              (None, 5)            320         ['bidirectional_7412[0][0]']     
                                                                                                  
 lstm_10739 (LSTM)              (None, 5)            320         ['bidirectional_7413[0][0]']     
                                                                                                  
 lstm_10741 (LSTM)              (None, 5)            320         ['bidirectional_7414[0][0]']     
                                                                                                  
 conv1d_2657 (Conv1D)           (None, 24, 5)        205         ['conv1d_2656[0][0]']            
                                                                                                  
 dense_6272 (Dense)             (None, 128)          768         ['lstm_10737[0][0]']             
                                                                                                  
 dense_6273 (Dense)             (None, 128)          768         ['lstm_10739[0][0]']             
                                                                                                  
 dense_6274 (Dense)             (None, 128)          768         ['lstm_10741[0][0]']             
                                                                                                  
 bidirectional_7415 (Bidirectio  (None, 128)         35840       ['conv1d_2657[0][0]']            
 nal)                                                                                             
                                                                                                  
 dropout_6032 (Dropout)         (None, 128)          0           ['dense_6272[0][0]']             
                                                                                                  
 dropout_6033 (Dropout)         (None, 128)          0           ['dense_6273[0][0]']             
                                                                                                  
 dropout_6034 (Dropout)         (None, 128)          0           ['dense_6274[0][0]']             
                                                                                                  
 dropout_6035 (Dropout)         (None, 128)          0           ['bidirectional_7415[0][0]']     
                                                                                                  
 concatenate_1568 (Concatenate)  (None, 512)         0           ['dropout_6032[0][0]',           
                                                                  'dropout_6033[0][0]',           
                                                                  'dropout_6034[0][0]',           
                                                                  'dropout_6035[0][0]']           
                                                                                                  
 dense_6275 (Dense)             (None, 1)            513         ['concatenate_1568[0][0]']       
                                                                                                  
==================================================================================================
Total params: 40,787
Trainable params: 40,787
Non-trainable params: 0
__________________________________________________________________________________________________
…
