…
 bidirectional_1207 (Bidirectio  (None, None, 10)    280         ['masking_1207[0][0]']           
 nal)                                                                                             
                                                                                                  
 bidirectional_1208 (Bidirectio  (None, None, 10)    280         ['masking_1208[0][0]']           
 nal)                                                                                             
                                                                                                  
 conv1d_368 (Conv1D)            (None, 25, 5)        1885        ['masking_1209[0][0]']           
                                                                                                  
 lstm_1769 (LSTM)               (None, 5)            320         ['bidirectional_1206[0][0]']     
                                                                                                  
 lstm_1771 (LSTM)               (None, 5)            320         ['bidirectional_1207[0][0]']     
                                                                                                  
 lstm_1773 (LSTM)               (None, 5)            320         ['bidirectional_1208[0][0]']     
                                                                                                  
 conv1d_369 (Conv1D)            (None, 25, 5)        105         ['conv1d_368[0][0]']             
                                                                                                  
 dense_1056 (Dense)             (None, 64)           384         ['lstm_1769[0][0]']              
                                                                                                  
 dense_1057 (Dense)             (None, 64)           384         ['lstm_1771[0][0]']              
                                                                                                  
 dense_1058 (Dense)             (None, 64)           384         ['lstm_1773[0][0]']              
                                                                                                  
 bidirectional_1209 (Bidirectio  (None, 64)          9728        ['conv1d_369[0][0]']             
 nal)                                                                                             
                                                                                                  
 dropout_976 (Dropout)          (None, 64)           0           ['dense_1056[0][0]']             
                                                                                                  
 dropout_977 (Dropout)          (None, 64)           0           ['dense_1057[0][0]']             
                                                                                                  
 dropout_978 (Dropout)          (None, 64)           0           ['dense_1058[0][0]']             
                                                                                                  
 dropout_979 (Dropout)          (None, 64)           0           ['bidirectional_1209[0][0]']     
                                                                                                  
 concatenate_264 (Concatenate)  (None, 256)          0           ['dropout_976[0][0]',            
                                                                  'dropout_977[0][0]',            
                                                                  'dropout_978[0][0]',            
                                                                  'dropout_979[0][0]']            
                                                                                                  
 dense_1059 (Dense)             (None, 1)            257         ['concatenate_264[0][0]']        
                                                                                                  
==================================================================================================
Total params: 14,927
Trainable params: 14,927
Non-trainable params: 0
__________________________________________________________________________________________________
…
 bidirectional_1227 (Bidirectio  (None, None, 10)    280         ['masking_1227[0][0]']           
 nal)                                                                                             
                                                                                                  
 bidirectional_1228 (Bidirectio  (None, None, 10)    280         ['masking_1228[0][0]']           
 nal)                                                                                             
                                                                                                  
 conv1d_378 (Conv1D)            (None, 25, 5)        2825        ['masking_1229[0][0]']           
                                                                                                  
 lstm_1804 (LSTM)               (None, 5)            320         ['bidirectional_1226[0][0]']     
                                                                                                  
 lstm_1806 (LSTM)               (None, 5)            320         ['bidirectional_1227[0][0]']     
                                                                                                  
 lstm_1808 (LSTM)               (None, 5)            320         ['bidirectional_1228[0][0]']     
                                                                                                  
 conv1d_379 (Conv1D)            (None, 25, 5)        155         ['conv1d_378[0][0]']             
                                                                                                  
 dense_1076 (Dense)             (None, 64)           384         ['lstm_1804[0][0]']              
                                                                                                  
 dense_1077 (Dense)             (None, 64)           384         ['lstm_1806[0][0]']              
                                                                                                  
 dense_1078 (Dense)             (None, 64)           384         ['lstm_1808[0][0]']              
                                                                                                  
 bidirectional_1229 (Bidirectio  (None, 64)          9728        ['conv1d_379[0][0]']             
 nal)                                                                                             
                                                                                                  
 dropout_996 (Dropout)          (None, 64)           0           ['dense_1076[0][0]']             
                                                                                                  
 dropout_997 (Dropout)          (None, 64)           0           ['dense_1077[0][0]']             
                                                                                                  
 dropout_998 (Dropout)          (None, 64)           0           ['dense_1078[0][0]']             
                                                                                                  
 dropout_999 (Dropout)          (None, 64)           0           ['bidirectional_1229[0][0]']     
                                                                                                  
 concatenate_269 (Concatenate)  (None, 256)          0           ['dropout_996[0][0]',            
                                                                  'dropout_997[0][0]',            
                                                                  'dropout_998[0][0]',            
                                                                  'dropout_999[0][0]']            
                                                                                                  
 dense_1079 (Dense)             (None, 1)            257         ['concatenate_269[0][0]']        
                                                                                                  
==================================================================================================
Total params: 15,917
Trainable params: 15,917
Non-trainable params: 0
__________________________________________________________________________________________________
…
 bidirectional_1247 (Bidirectio  (None, None, 10)    280         ['masking_1247[0][0]']           
 nal)                                                                                             
                                                                                                  
 bidirectional_1248 (Bidirectio  (None, None, 10)    280         ['masking_1248[0][0]']           
 nal)                                                                                             
                                                                                                  
 conv1d_388 (Conv1D)            (None, 25, 5)        3765        ['masking_1249[0][0]']           
                                                                                                  
 lstm_1839 (LSTM)               (None, 5)            320         ['bidirectional_1246[0][0]']     
                                                                                                  
 lstm_1841 (LSTM)               (None, 5)            320         ['bidirectional_1247[0][0]']     
                                                                                                  
 lstm_1843 (LSTM)               (None, 5)            320         ['bidirectional_1248[0][0]']     
                                                                                                  
 conv1d_389 (Conv1D)            (None, 25, 5)        205         ['conv1d_388[0][0]']             
                                                                                                  
 dense_1096 (Dense)             (None, 64)           384         ['lstm_1839[0][0]']              
                                                                                                  
 dense_1097 (Dense)             (None, 64)           384         ['lstm_1841[0][0]']              
                                                                                                  
 dense_1098 (Dense)             (None, 64)           384         ['lstm_1843[0][0]']              
                                                                                                  
 bidirectional_1249 (Bidirectio  (None, 64)          9728        ['conv1d_389[0][0]']             
 nal)                                                                                             
                                                                                                  
 dropout_1016 (Dropout)         (None, 64)           0           ['dense_1096[0][0]']             
                                                                                                  
 dropout_1017 (Dropout)         (None, 64)           0           ['dense_1097[0][0]']             
                                                                                                  
 dropout_1018 (Dropout)         (None, 64)           0           ['dense_1098[0][0]']             
                                                                                                  
 dropout_1019 (Dropout)         (None, 64)           0           ['bidirectional_1249[0][0]']     
                                                                                                  
 concatenate_274 (Concatenate)  (None, 256)          0           ['dropout_1016[0][0]',           
                                                                  'dropout_1017[0][0]',           
                                                                  'dropout_1018[0][0]',           
                                                                  'dropout_1019[0][0]']           
                                                                                                  
 dense_1099 (Dense)             (None, 1)            257         ['concatenate_274[0][0]']        
                                                                                                  
==================================================================================================
Total params: 16,907
Trainable params: 16,907
Non-trainable params: 0
__________________________________________________________________________________________________
…
 bidirectional_1267 (Bidirectio  (None, None, 10)    280         ['masking_1267[0][0]']           
 nal)                                                                                             
                                                                                                  
 bidirectional_1268 (Bidirectio  (None, None, 10)    280         ['masking_1268[0][0]']           
 nal)                                                                                             
                                                                                                  
 conv1d_398 (Conv1D)            (None, 25, 5)        1885        ['masking_1269[0][0]']           
                                                                                                  
 lstm_1874 (LSTM)               (None, 5)            320         ['bidirectional_1266[0][0]']     
                                                                                                  
 lstm_1876 (LSTM)               (None, 5)            320         ['bidirectional_1267[0][0]']     
                                                                                                  
 lstm_1878 (LSTM)               (None, 5)            320         ['bidirectional_1268[0][0]']     
                                                                                                  
 conv1d_399 (Conv1D)            (None, 25, 5)        105         ['conv1d_398[0][0]']             
                                                                                                  
 dense_1116 (Dense)             (None, 96)           576         ['lstm_1874[0][0]']              
                                                                                                  
 dense_1117 (Dense)             (None, 96)           576         ['lstm_1876[0][0]']              
                                                                                                  
 dense_1118 (Dense)             (None, 96)           576         ['lstm_1878[0][0]']              
                                                                                                  
 bidirectional_1269 (Bidirectio  (None, 96)          20736       ['conv1d_399[0][0]']             
 nal)                                                                                             
                                                                                                  
 dropout_1036 (Dropout)         (None, 96)           0           ['dense_1116[0][0]']             
                                                                                                  
 dropout_1037 (Dropout)         (None, 96)           0           ['dense_1117[0][0]']             
                                                                                                  
 dropout_1038 (Dropout)         (None, 96)           0           ['dense_1118[0][0]']             
                                                                                                  
 dropout_1039 (Dropout)         (None, 96)           0           ['bidirectional_1269[0][0]']     
                                                                                                  
 concatenate_279 (Concatenate)  (None, 384)          0           ['dropout_1036[0][0]',           
                                                                  'dropout_1037[0][0]',           
                                                                  'dropout_1038[0][0]',           
                                                                  'dropout_1039[0][0]']           
                                                                                                  
 dense_1119 (Dense)             (None, 1)            385         ['concatenate_279[0][0]']        
                                                                                                  
==================================================================================================
Total params: 26,639
Trainable params: 26,639
Non-trainable params: 0
__________________________________________________________________________________________________
…
 bidirectional_1287 (Bidirectio  (None, None, 10)    280         ['masking_1287[0][0]']           
 nal)                                                                                             
                                                                                                  
 bidirectional_1288 (Bidirectio  (None, None, 10)    280         ['masking_1288[0][0]']           
 nal)                                                                                             
                                                                                                  
 conv1d_408 (Conv1D)            (None, 25, 5)        2825        ['masking_1289[0][0]']           
                                                                                                  
 lstm_1909 (LSTM)               (None, 5)            320         ['bidirectional_1286[0][0]']     
                                                                                                  
 lstm_1911 (LSTM)               (None, 5)            320         ['bidirectional_1287[0][0]']     
                                                                                                  
 lstm_1913 (LSTM)               (None, 5)            320         ['bidirectional_1288[0][0]']     
                                                                                                  
 conv1d_409 (Conv1D)            (None, 25, 5)        155         ['conv1d_408[0][0]']             
                                                                                                  
 dense_1136 (Dense)             (None, 96)           576         ['lstm_1909[0][0]']              
                                                                                                  
 dense_1137 (Dense)             (None, 96)           576         ['lstm_1911[0][0]']              
                                                                                                  
 dense_1138 (Dense)             (None, 96)           576         ['lstm_1913[0][0]']              
                                                                                                  
 bidirectional_1289 (Bidirectio  (None, 96)          20736       ['conv1d_409[0][0]']             
 nal)                                                                                             
                                                                                                  
 dropout_1056 (Dropout)         (None, 96)           0           ['dense_1136[0][0]']             
                                                                                                  
 dropout_1057 (Dropout)         (None, 96)           0           ['dense_1137[0][0]']             
                                                                                                  
 dropout_1058 (Dropout)         (None, 96)           0           ['dense_1138[0][0]']             
                                                                                                  
 dropout_1059 (Dropout)         (None, 96)           0           ['bidirectional_1289[0][0]']     
                                                                                                  
 concatenate_284 (Concatenate)  (None, 384)          0           ['dropout_1056[0][0]',           
                                                                  'dropout_1057[0][0]',           
                                                                  'dropout_1058[0][0]',           
                                                                  'dropout_1059[0][0]']           
                                                                                                  
 dense_1139 (Dense)             (None, 1)            385         ['concatenate_284[0][0]']        
                                                                                                  
==================================================================================================
Total params: 27,629
Trainable params: 27,629
Non-trainable params: 0
__________________________________________________________________________________________________
…
 bidirectional_1307 (Bidirectio  (None, None, 10)    280         ['masking_1307[0][0]']           
 nal)                                                                                             
                                                                                                  
 bidirectional_1308 (Bidirectio  (None, None, 10)    280         ['masking_1308[0][0]']           
 nal)                                                                                             
                                                                                                  
 conv1d_418 (Conv1D)            (None, 25, 5)        3765        ['masking_1309[0][0]']           
                                                                                                  
 lstm_1944 (LSTM)               (None, 5)            320         ['bidirectional_1306[0][0]']     
                                                                                                  
 lstm_1946 (LSTM)               (None, 5)            320         ['bidirectional_1307[0][0]']     
                                                                                                  
 lstm_1948 (LSTM)               (None, 5)            320         ['bidirectional_1308[0][0]']     
                                                                                                  
 conv1d_419 (Conv1D)            (None, 25, 5)        205         ['conv1d_418[0][0]']             
                                                                                                  
 dense_1156 (Dense)             (None, 96)           576         ['lstm_1944[0][0]']              
                                                                                                  
 dense_1157 (Dense)             (None, 96)           576         ['lstm_1946[0][0]']              
                                                                                                  
 dense_1158 (Dense)             (None, 96)           576         ['lstm_1948[0][0]']              
                                                                                                  
 bidirectional_1309 (Bidirectio  (None, 96)          20736       ['conv1d_419[0][0]']             
 nal)                                                                                             
                                                                                                  
 dropout_1076 (Dropout)         (None, 96)           0           ['dense_1156[0][0]']             
                                                                                                  
 dropout_1077 (Dropout)         (None, 96)           0           ['dense_1157[0][0]']             
                                                                                                  
 dropout_1078 (Dropout)         (None, 96)           0           ['dense_1158[0][0]']             
                                                                                                  
 dropout_1079 (Dropout)         (None, 96)           0           ['bidirectional_1309[0][0]']     
                                                                                                  
 concatenate_289 (Concatenate)  (None, 384)          0           ['dropout_1076[0][0]',           
                                                                  'dropout_1077[0][0]',           
                                                                  'dropout_1078[0][0]',           
                                                                  'dropout_1079[0][0]']           
                                                                                                  
 dense_1159 (Dense)             (None, 1)            385         ['concatenate_289[0][0]']        
                                                                                                  
==================================================================================================
Total params: 28,619
Trainable params: 28,619
Non-trainable params: 0
__________________________________________________________________________________________________
…
 bidirectional_1327 (Bidirectio  (None, None, 10)    280         ['masking_1327[0][0]']           
 nal)                                                                                             
                                                                                                  
 bidirectional_1328 (Bidirectio  (None, None, 10)    280         ['masking_1328[0][0]']           
 nal)                                                                                             
                                                                                                  
 conv1d_428 (Conv1D)            (None, 25, 5)        1885        ['masking_1329[0][0]']           
                                                                                                  
 lstm_1979 (LSTM)               (None, 5)            320         ['bidirectional_1326[0][0]']     
                                                                                                  
 lstm_1981 (LSTM)               (None, 5)            320         ['bidirectional_1327[0][0]']     
                                                                                                  
 lstm_1983 (LSTM)               (None, 5)            320         ['bidirectional_1328[0][0]']     
                                                                                                  
 conv1d_429 (Conv1D)            (None, 25, 5)        105         ['conv1d_428[0][0]']             
                                                                                                  
 dense_1176 (Dense)             (None, 128)          768         ['lstm_1979[0][0]']              
                                                                                                  
 dense_1177 (Dense)             (None, 128)          768         ['lstm_1981[0][0]']              
                                                                                                  
 dense_1178 (Dense)             (None, 128)          768         ['lstm_1983[0][0]']              
                                                                                                  
 bidirectional_1329 (Bidirectio  (None, 128)         35840       ['conv1d_429[0][0]']             
 nal)                                                                                             
                                                                                                  
 dropout_1096 (Dropout)         (None, 128)          0           ['dense_1176[0][0]']             
                                                                                                  
 dropout_1097 (Dropout)         (None, 128)          0           ['dense_1177[0][0]']             
                                                                                                  
 dropout_1098 (Dropout)         (None, 128)          0           ['dense_1178[0][0]']             
                                                                                                  
 dropout_1099 (Dropout)         (None, 128)          0           ['bidirectional_1329[0][0]']     
                                                                                                  
 concatenate_294 (Concatenate)  (None, 512)          0           ['dropout_1096[0][0]',           
                                                                  'dropout_1097[0][0]',           
                                                                  'dropout_1098[0][0]',           
                                                                  'dropout_1099[0][0]']           
                                                                                                  
 dense_1179 (Dense)             (None, 1)            513         ['concatenate_294[0][0]']        
                                                                                                  
==================================================================================================
Total params: 42,447
Trainable params: 42,447
Non-trainable params: 0
__________________________________________________________________________________________________
…
 bidirectional_1347 (Bidirectio  (None, None, 10)    280         ['masking_1347[0][0]']           
 nal)                                                                                             
                                                                                                  
 bidirectional_1348 (Bidirectio  (None, None, 10)    280         ['masking_1348[0][0]']           
 nal)                                                                                             
                                                                                                  
 conv1d_438 (Conv1D)            (None, 25, 5)        2825        ['masking_1349[0][0]']           
                                                                                                  
 lstm_2014 (LSTM)               (None, 5)            320         ['bidirectional_1346[0][0]']     
                                                                                                  
 lstm_2016 (LSTM)               (None, 5)            320         ['bidirectional_1347[0][0]']     
                                                                                                  
 lstm_2018 (LSTM)               (None, 5)            320         ['bidirectional_1348[0][0]']     
                                                                                                  
 conv1d_439 (Conv1D)            (None, 25, 5)        155         ['conv1d_438[0][0]']             
                                                                                                  
 dense_1196 (Dense)             (None, 128)          768         ['lstm_2014[0][0]']              
                                                                                                  
 dense_1197 (Dense)             (None, 128)          768         ['lstm_2016[0][0]']              
                                                                                                  
 dense_1198 (Dense)             (None, 128)          768         ['lstm_2018[0][0]']              
                                                                                                  
 bidirectional_1349 (Bidirectio  (None, 128)         35840       ['conv1d_439[0][0]']             
 nal)                                                                                             
                                                                                                  
 dropout_1116 (Dropout)         (None, 128)          0           ['dense_1196[0][0]']             
                                                                                                  
 dropout_1117 (Dropout)         (None, 128)          0           ['dense_1197[0][0]']             
                                                                                                  
 dropout_1118 (Dropout)         (None, 128)          0           ['dense_1198[0][0]']             
                                                                                                  
 dropout_1119 (Dropout)         (None, 128)          0           ['bidirectional_1349[0][0]']     
                                                                                                  
 concatenate_299 (Concatenate)  (None, 512)          0           ['dropout_1116[0][0]',           
                                                                  'dropout_1117[0][0]',           
                                                                  'dropout_1118[0][0]',           
                                                                  'dropout_1119[0][0]']           
                                                                                                  
 dense_1199 (Dense)             (None, 1)            513         ['concatenate_299[0][0]']        
                                                                                                  
==================================================================================================
Total params: 43,437
Trainable params: 43,437
Non-trainable params: 0
__________________________________________________________________________________________________
…
 bidirectional_1367 (Bidirectio  (None, None, 10)    280         ['masking_1367[0][0]']           
 nal)                                                                                             
                                                                                                  
 bidirectional_1368 (Bidirectio  (None, None, 10)    280         ['masking_1368[0][0]']           
 nal)                                                                                             
                                                                                                  
 conv1d_448 (Conv1D)            (None, 25, 5)        3765        ['masking_1369[0][0]']           
                                                                                                  
 lstm_2049 (LSTM)               (None, 5)            320         ['bidirectional_1366[0][0]']     
                                                                                                  
 lstm_2051 (LSTM)               (None, 5)            320         ['bidirectional_1367[0][0]']     
                                                                                                  
 lstm_2053 (LSTM)               (None, 5)            320         ['bidirectional_1368[0][0]']     
                                                                                                  
 conv1d_449 (Conv1D)            (None, 25, 5)        205         ['conv1d_448[0][0]']             
                                                                                                  
 dense_1216 (Dense)             (None, 128)          768         ['lstm_2049[0][0]']              
                                                                                                  
 dense_1217 (Dense)             (None, 128)          768         ['lstm_2051[0][0]']              
                                                                                                  
 dense_1218 (Dense)             (None, 128)          768         ['lstm_2053[0][0]']              
                                                                                                  
 bidirectional_1369 (Bidirectio  (None, 128)         35840       ['conv1d_449[0][0]']             
 nal)                                                                                             
                                                                                                  
 dropout_1136 (Dropout)         (None, 128)          0           ['dense_1216[0][0]']             
                                                                                                  
 dropout_1137 (Dropout)         (None, 128)          0           ['dense_1217[0][0]']             
                                                                                                  
 dropout_1138 (Dropout)         (None, 128)          0           ['dense_1218[0][0]']             
                                                                                                  
 dropout_1139 (Dropout)         (None, 128)          0           ['bidirectional_1369[0][0]']     
                                                                                                  
 concatenate_304 (Concatenate)  (None, 512)          0           ['dropout_1136[0][0]',           
                                                                  'dropout_1137[0][0]',           
                                                                  'dropout_1138[0][0]',           
                                                                  'dropout_1139[0][0]']           
                                                                                                  
 dense_1219 (Dense)             (None, 1)            513         ['concatenate_304[0][0]']        
                                                                                                  
==================================================================================================
Total params: 44,427
Trainable params: 44,427
Non-trainable params: 0
__________________________________________________________________________________________________
…
