…
 bidirectional_8827 (Bidirectio  (None, None, 10)    280         ['masking_8827[0][0]']           
 nal)                                                                                             
                                                                                                  
 bidirectional_8828 (Bidirectio  (None, None, 10)    280         ['masking_8828[0][0]']           
 nal)                                                                                             
                                                                                                  
 conv1d_3128 (Conv1D)           (None, 25, 5)        1885        ['masking_8829[0][0]']           
                                                                                                  
 lstm_12869 (LSTM)              (None, 5)            320         ['bidirectional_8826[0][0]']     
                                                                                                  
 lstm_12871 (LSTM)              (None, 5)            320         ['bidirectional_8827[0][0]']     
                                                                                                  
 lstm_12873 (LSTM)              (None, 5)            320         ['bidirectional_8828[0][0]']     
                                                                                                  
 conv1d_3129 (Conv1D)           (None, 25, 5)        105         ['conv1d_3128[0][0]']            
                                                                                                  
 dense_7536 (Dense)             (None, 64)           384         ['lstm_12869[0][0]']             
                                                                                                  
 dense_7537 (Dense)             (None, 64)           384         ['lstm_12871[0][0]']             
                                                                                                  
 dense_7538 (Dense)             (None, 64)           384         ['lstm_12873[0][0]']             
                                                                                                  
 bidirectional_8829 (Bidirectio  (None, 64)          9728        ['conv1d_3129[0][0]']            
 nal)                                                                                             
                                                                                                  
 dropout_7216 (Dropout)         (None, 64)           0           ['dense_7536[0][0]']             
                                                                                                  
 dropout_7217 (Dropout)         (None, 64)           0           ['dense_7537[0][0]']             
                                                                                                  
 dropout_7218 (Dropout)         (None, 64)           0           ['dense_7538[0][0]']             
                                                                                                  
 dropout_7219 (Dropout)         (None, 64)           0           ['bidirectional_8829[0][0]']     
                                                                                                  
 concatenate_1884 (Concatenate)  (None, 256)         0           ['dropout_7216[0][0]',           
                                                                  'dropout_7217[0][0]',           
                                                                  'dropout_7218[0][0]',           
                                                                  'dropout_7219[0][0]']           
                                                                                                  
 dense_7539 (Dense)             (None, 1)            257         ['concatenate_1884[0][0]']       
                                                                                                  
==================================================================================================
Total params: 14,927
Trainable params: 14,927
Non-trainable params: 0
__________________________________________________________________________________________________
…
 bidirectional_8847 (Bidirectio  (None, None, 10)    280         ['masking_8847[0][0]']           
 nal)                                                                                             
                                                                                                  
 bidirectional_8848 (Bidirectio  (None, None, 10)    280         ['masking_8848[0][0]']           
 nal)                                                                                             
                                                                                                  
 conv1d_3138 (Conv1D)           (None, 25, 5)        2825        ['masking_8849[0][0]']           
                                                                                                  
 lstm_12904 (LSTM)              (None, 5)            320         ['bidirectional_8846[0][0]']     
                                                                                                  
 lstm_12906 (LSTM)              (None, 5)            320         ['bidirectional_8847[0][0]']     
                                                                                                  
 lstm_12908 (LSTM)              (None, 5)            320         ['bidirectional_8848[0][0]']     
                                                                                                  
 conv1d_3139 (Conv1D)           (None, 25, 5)        155         ['conv1d_3138[0][0]']            
                                                                                                  
 dense_7556 (Dense)             (None, 64)           384         ['lstm_12904[0][0]']             
                                                                                                  
 dense_7557 (Dense)             (None, 64)           384         ['lstm_12906[0][0]']             
                                                                                                  
 dense_7558 (Dense)             (None, 64)           384         ['lstm_12908[0][0]']             
                                                                                                  
 bidirectional_8849 (Bidirectio  (None, 64)          9728        ['conv1d_3139[0][0]']            
 nal)                                                                                             
                                                                                                  
 dropout_7236 (Dropout)         (None, 64)           0           ['dense_7556[0][0]']             
                                                                                                  
 dropout_7237 (Dropout)         (None, 64)           0           ['dense_7557[0][0]']             
                                                                                                  
 dropout_7238 (Dropout)         (None, 64)           0           ['dense_7558[0][0]']             
                                                                                                  
 dropout_7239 (Dropout)         (None, 64)           0           ['bidirectional_8849[0][0]']     
                                                                                                  
 concatenate_1889 (Concatenate)  (None, 256)         0           ['dropout_7236[0][0]',           
                                                                  'dropout_7237[0][0]',           
                                                                  'dropout_7238[0][0]',           
                                                                  'dropout_7239[0][0]']           
                                                                                                  
 dense_7559 (Dense)             (None, 1)            257         ['concatenate_1889[0][0]']       
                                                                                                  
==================================================================================================
Total params: 15,917
Trainable params: 15,917
Non-trainable params: 0
__________________________________________________________________________________________________
…
 bidirectional_8867 (Bidirectio  (None, None, 10)    280         ['masking_8867[0][0]']           
 nal)                                                                                             
                                                                                                  
 bidirectional_8868 (Bidirectio  (None, None, 10)    280         ['masking_8868[0][0]']           
 nal)                                                                                             
                                                                                                  
 conv1d_3148 (Conv1D)           (None, 25, 5)        3765        ['masking_8869[0][0]']           
                                                                                                  
 lstm_12939 (LSTM)              (None, 5)            320         ['bidirectional_8866[0][0]']     
                                                                                                  
 lstm_12941 (LSTM)              (None, 5)            320         ['bidirectional_8867[0][0]']     
                                                                                                  
 lstm_12943 (LSTM)              (None, 5)            320         ['bidirectional_8868[0][0]']     
                                                                                                  
 conv1d_3149 (Conv1D)           (None, 25, 5)        205         ['conv1d_3148[0][0]']            
                                                                                                  
 dense_7576 (Dense)             (None, 64)           384         ['lstm_12939[0][0]']             
                                                                                                  
 dense_7577 (Dense)             (None, 64)           384         ['lstm_12941[0][0]']             
                                                                                                  
 dense_7578 (Dense)             (None, 64)           384         ['lstm_12943[0][0]']             
                                                                                                  
 bidirectional_8869 (Bidirectio  (None, 64)          9728        ['conv1d_3149[0][0]']            
 nal)                                                                                             
                                                                                                  
 dropout_7256 (Dropout)         (None, 64)           0           ['dense_7576[0][0]']             
                                                                                                  
 dropout_7257 (Dropout)         (None, 64)           0           ['dense_7577[0][0]']             
                                                                                                  
 dropout_7258 (Dropout)         (None, 64)           0           ['dense_7578[0][0]']             
                                                                                                  
 dropout_7259 (Dropout)         (None, 64)           0           ['bidirectional_8869[0][0]']     
                                                                                                  
 concatenate_1894 (Concatenate)  (None, 256)         0           ['dropout_7256[0][0]',           
                                                                  'dropout_7257[0][0]',           
                                                                  'dropout_7258[0][0]',           
                                                                  'dropout_7259[0][0]']           
                                                                                                  
 dense_7579 (Dense)             (None, 1)            257         ['concatenate_1894[0][0]']       
                                                                                                  
==================================================================================================
Total params: 16,907
Trainable params: 16,907
Non-trainable params: 0
__________________________________________________________________________________________________
…
 bidirectional_8887 (Bidirectio  (None, None, 10)    280         ['masking_8887[0][0]']           
 nal)                                                                                             
                                                                                                  
 bidirectional_8888 (Bidirectio  (None, None, 10)    280         ['masking_8888[0][0]']           
 nal)                                                                                             
                                                                                                  
 conv1d_3158 (Conv1D)           (None, 25, 5)        1885        ['masking_8889[0][0]']           
                                                                                                  
 lstm_12974 (LSTM)              (None, 5)            320         ['bidirectional_8886[0][0]']     
                                                                                                  
 lstm_12976 (LSTM)              (None, 5)            320         ['bidirectional_8887[0][0]']     
                                                                                                  
 lstm_12978 (LSTM)              (None, 5)            320         ['bidirectional_8888[0][0]']     
                                                                                                  
 conv1d_3159 (Conv1D)           (None, 25, 5)        105         ['conv1d_3158[0][0]']            
                                                                                                  
 dense_7596 (Dense)             (None, 96)           576         ['lstm_12974[0][0]']             
                                                                                                  
 dense_7597 (Dense)             (None, 96)           576         ['lstm_12976[0][0]']             
                                                                                                  
 dense_7598 (Dense)             (None, 96)           576         ['lstm_12978[0][0]']             
                                                                                                  
 bidirectional_8889 (Bidirectio  (None, 96)          20736       ['conv1d_3159[0][0]']            
 nal)                                                                                             
                                                                                                  
 dropout_7276 (Dropout)         (None, 96)           0           ['dense_7596[0][0]']             
                                                                                                  
 dropout_7277 (Dropout)         (None, 96)           0           ['dense_7597[0][0]']             
                                                                                                  
 dropout_7278 (Dropout)         (None, 96)           0           ['dense_7598[0][0]']             
                                                                                                  
 dropout_7279 (Dropout)         (None, 96)           0           ['bidirectional_8889[0][0]']     
                                                                                                  
 concatenate_1899 (Concatenate)  (None, 384)         0           ['dropout_7276[0][0]',           
                                                                  'dropout_7277[0][0]',           
                                                                  'dropout_7278[0][0]',           
                                                                  'dropout_7279[0][0]']           
                                                                                                  
 dense_7599 (Dense)             (None, 1)            385         ['concatenate_1899[0][0]']       
                                                                                                  
==================================================================================================
Total params: 26,639
Trainable params: 26,639
Non-trainable params: 0
__________________________________________________________________________________________________
…
 bidirectional_8907 (Bidirectio  (None, None, 10)    280         ['masking_8907[0][0]']           
 nal)                                                                                             
                                                                                                  
 bidirectional_8908 (Bidirectio  (None, None, 10)    280         ['masking_8908[0][0]']           
 nal)                                                                                             
                                                                                                  
 conv1d_3168 (Conv1D)           (None, 25, 5)        2825        ['masking_8909[0][0]']           
                                                                                                  
 lstm_13009 (LSTM)              (None, 5)            320         ['bidirectional_8906[0][0]']     
                                                                                                  
 lstm_13011 (LSTM)              (None, 5)            320         ['bidirectional_8907[0][0]']     
                                                                                                  
 lstm_13013 (LSTM)              (None, 5)            320         ['bidirectional_8908[0][0]']     
                                                                                                  
 conv1d_3169 (Conv1D)           (None, 25, 5)        155         ['conv1d_3168[0][0]']            
                                                                                                  
 dense_7616 (Dense)             (None, 96)           576         ['lstm_13009[0][0]']             
                                                                                                  
 dense_7617 (Dense)             (None, 96)           576         ['lstm_13011[0][0]']             
                                                                                                  
 dense_7618 (Dense)             (None, 96)           576         ['lstm_13013[0][0]']             
                                                                                                  
 bidirectional_8909 (Bidirectio  (None, 96)          20736       ['conv1d_3169[0][0]']            
 nal)                                                                                             
                                                                                                  
 dropout_7296 (Dropout)         (None, 96)           0           ['dense_7616[0][0]']             
                                                                                                  
 dropout_7297 (Dropout)         (None, 96)           0           ['dense_7617[0][0]']             
                                                                                                  
 dropout_7298 (Dropout)         (None, 96)           0           ['dense_7618[0][0]']             
                                                                                                  
 dropout_7299 (Dropout)         (None, 96)           0           ['bidirectional_8909[0][0]']     
                                                                                                  
 concatenate_1904 (Concatenate)  (None, 384)         0           ['dropout_7296[0][0]',           
                                                                  'dropout_7297[0][0]',           
                                                                  'dropout_7298[0][0]',           
                                                                  'dropout_7299[0][0]']           
                                                                                                  
 dense_7619 (Dense)             (None, 1)            385         ['concatenate_1904[0][0]']       
                                                                                                  
==================================================================================================
Total params: 27,629
Trainable params: 27,629
Non-trainable params: 0
__________________________________________________________________________________________________
…
 bidirectional_8927 (Bidirectio  (None, None, 10)    280         ['masking_8927[0][0]']           
 nal)                                                                                             
                                                                                                  
 bidirectional_8928 (Bidirectio  (None, None, 10)    280         ['masking_8928[0][0]']           
 nal)                                                                                             
                                                                                                  
 conv1d_3178 (Conv1D)           (None, 25, 5)        3765        ['masking_8929[0][0]']           
                                                                                                  
 lstm_13044 (LSTM)              (None, 5)            320         ['bidirectional_8926[0][0]']     
                                                                                                  
 lstm_13046 (LSTM)              (None, 5)            320         ['bidirectional_8927[0][0]']     
                                                                                                  
 lstm_13048 (LSTM)              (None, 5)            320         ['bidirectional_8928[0][0]']     
                                                                                                  
 conv1d_3179 (Conv1D)           (None, 25, 5)        205         ['conv1d_3178[0][0]']            
                                                                                                  
 dense_7636 (Dense)             (None, 96)           576         ['lstm_13044[0][0]']             
                                                                                                  
 dense_7637 (Dense)             (None, 96)           576         ['lstm_13046[0][0]']             
                                                                                                  
 dense_7638 (Dense)             (None, 96)           576         ['lstm_13048[0][0]']             
                                                                                                  
 bidirectional_8929 (Bidirectio  (None, 96)          20736       ['conv1d_3179[0][0]']            
 nal)                                                                                             
                                                                                                  
 dropout_7316 (Dropout)         (None, 96)           0           ['dense_7636[0][0]']             
                                                                                                  
 dropout_7317 (Dropout)         (None, 96)           0           ['dense_7637[0][0]']             
                                                                                                  
 dropout_7318 (Dropout)         (None, 96)           0           ['dense_7638[0][0]']             
                                                                                                  
 dropout_7319 (Dropout)         (None, 96)           0           ['bidirectional_8929[0][0]']     
                                                                                                  
 concatenate_1909 (Concatenate)  (None, 384)         0           ['dropout_7316[0][0]',           
                                                                  'dropout_7317[0][0]',           
                                                                  'dropout_7318[0][0]',           
                                                                  'dropout_7319[0][0]']           
                                                                                                  
 dense_7639 (Dense)             (None, 1)            385         ['concatenate_1909[0][0]']       
                                                                                                  
==================================================================================================
Total params: 28,619
Trainable params: 28,619
Non-trainable params: 0
__________________________________________________________________________________________________
…
 bidirectional_8947 (Bidirectio  (None, None, 10)    280         ['masking_8947[0][0]']           
 nal)                                                                                             
                                                                                                  
 bidirectional_8948 (Bidirectio  (None, None, 10)    280         ['masking_8948[0][0]']           
 nal)                                                                                             
                                                                                                  
 conv1d_3188 (Conv1D)           (None, 25, 5)        1885        ['masking_8949[0][0]']           
                                                                                                  
 lstm_13079 (LSTM)              (None, 5)            320         ['bidirectional_8946[0][0]']     
                                                                                                  
 lstm_13081 (LSTM)              (None, 5)            320         ['bidirectional_8947[0][0]']     
                                                                                                  
 lstm_13083 (LSTM)              (None, 5)            320         ['bidirectional_8948[0][0]']     
                                                                                                  
 conv1d_3189 (Conv1D)           (None, 25, 5)        105         ['conv1d_3188[0][0]']            
                                                                                                  
 dense_7656 (Dense)             (None, 128)          768         ['lstm_13079[0][0]']             
                                                                                                  
 dense_7657 (Dense)             (None, 128)          768         ['lstm_13081[0][0]']             
                                                                                                  
 dense_7658 (Dense)             (None, 128)          768         ['lstm_13083[0][0]']             
                                                                                                  
 bidirectional_8949 (Bidirectio  (None, 128)         35840       ['conv1d_3189[0][0]']            
 nal)                                                                                             
                                                                                                  
 dropout_7336 (Dropout)         (None, 128)          0           ['dense_7656[0][0]']             
                                                                                                  
 dropout_7337 (Dropout)         (None, 128)          0           ['dense_7657[0][0]']             
                                                                                                  
 dropout_7338 (Dropout)         (None, 128)          0           ['dense_7658[0][0]']             
                                                                                                  
 dropout_7339 (Dropout)         (None, 128)          0           ['bidirectional_8949[0][0]']     
                                                                                                  
 concatenate_1914 (Concatenate)  (None, 512)         0           ['dropout_7336[0][0]',           
                                                                  'dropout_7337[0][0]',           
                                                                  'dropout_7338[0][0]',           
                                                                  'dropout_7339[0][0]']           
                                                                                                  
 dense_7659 (Dense)             (None, 1)            513         ['concatenate_1914[0][0]']       
                                                                                                  
==================================================================================================
Total params: 42,447
Trainable params: 42,447
Non-trainable params: 0
__________________________________________________________________________________________________
…
 bidirectional_8967 (Bidirectio  (None, None, 10)    280         ['masking_8967[0][0]']           
 nal)                                                                                             
                                                                                                  
 bidirectional_8968 (Bidirectio  (None, None, 10)    280         ['masking_8968[0][0]']           
 nal)                                                                                             
                                                                                                  
 conv1d_3198 (Conv1D)           (None, 25, 5)        2825        ['masking_8969[0][0]']           
                                                                                                  
 lstm_13114 (LSTM)              (None, 5)            320         ['bidirectional_8966[0][0]']     
                                                                                                  
 lstm_13116 (LSTM)              (None, 5)            320         ['bidirectional_8967[0][0]']     
                                                                                                  
 lstm_13118 (LSTM)              (None, 5)            320         ['bidirectional_8968[0][0]']     
                                                                                                  
 conv1d_3199 (Conv1D)           (None, 25, 5)        155         ['conv1d_3198[0][0]']            
                                                                                                  
 dense_7676 (Dense)             (None, 128)          768         ['lstm_13114[0][0]']             
                                                                                                  
 dense_7677 (Dense)             (None, 128)          768         ['lstm_13116[0][0]']             
                                                                                                  
 dense_7678 (Dense)             (None, 128)          768         ['lstm_13118[0][0]']             
                                                                                                  
 bidirectional_8969 (Bidirectio  (None, 128)         35840       ['conv1d_3199[0][0]']            
 nal)                                                                                             
                                                                                                  
 dropout_7356 (Dropout)         (None, 128)          0           ['dense_7676[0][0]']             
                                                                                                  
 dropout_7357 (Dropout)         (None, 128)          0           ['dense_7677[0][0]']             
                                                                                                  
 dropout_7358 (Dropout)         (None, 128)          0           ['dense_7678[0][0]']             
                                                                                                  
 dropout_7359 (Dropout)         (None, 128)          0           ['bidirectional_8969[0][0]']     
                                                                                                  
 concatenate_1919 (Concatenate)  (None, 512)         0           ['dropout_7356[0][0]',           
                                                                  'dropout_7357[0][0]',           
                                                                  'dropout_7358[0][0]',           
                                                                  'dropout_7359[0][0]']           
                                                                                                  
 dense_7679 (Dense)             (None, 1)            513         ['concatenate_1919[0][0]']       
                                                                                                  
==================================================================================================
Total params: 43,437
Trainable params: 43,437
Non-trainable params: 0
__________________________________________________________________________________________________
…
 bidirectional_8987 (Bidirectio  (None, None, 10)    280         ['masking_8987[0][0]']           
 nal)                                                                                             
                                                                                                  
 bidirectional_8988 (Bidirectio  (None, None, 10)    280         ['masking_8988[0][0]']           
 nal)                                                                                             
                                                                                                  
 conv1d_3208 (Conv1D)           (None, 25, 5)        3765        ['masking_8989[0][0]']           
                                                                                                  
 lstm_13149 (LSTM)              (None, 5)            320         ['bidirectional_8986[0][0]']     
                                                                                                  
 lstm_13151 (LSTM)              (None, 5)            320         ['bidirectional_8987[0][0]']     
                                                                                                  
 lstm_13153 (LSTM)              (None, 5)            320         ['bidirectional_8988[0][0]']     
                                                                                                  
 conv1d_3209 (Conv1D)           (None, 25, 5)        205         ['conv1d_3208[0][0]']            
                                                                                                  
 dense_7696 (Dense)             (None, 128)          768         ['lstm_13149[0][0]']             
                                                                                                  
 dense_7697 (Dense)             (None, 128)          768         ['lstm_13151[0][0]']             
                                                                                                  
 dense_7698 (Dense)             (None, 128)          768         ['lstm_13153[0][0]']             
                                                                                                  
 bidirectional_8989 (Bidirectio  (None, 128)         35840       ['conv1d_3209[0][0]']            
 nal)                                                                                             
                                                                                                  
 dropout_7376 (Dropout)         (None, 128)          0           ['dense_7696[0][0]']             
                                                                                                  
 dropout_7377 (Dropout)         (None, 128)          0           ['dense_7697[0][0]']             
                                                                                                  
 dropout_7378 (Dropout)         (None, 128)          0           ['dense_7698[0][0]']             
                                                                                                  
 dropout_7379 (Dropout)         (None, 128)          0           ['bidirectional_8989[0][0]']     
                                                                                                  
 concatenate_1924 (Concatenate)  (None, 512)         0           ['dropout_7376[0][0]',           
                                                                  'dropout_7377[0][0]',           
                                                                  'dropout_7378[0][0]',           
                                                                  'dropout_7379[0][0]']           
                                                                                                  
 dense_7699 (Dense)             (None, 1)            513         ['concatenate_1924[0][0]']       
                                                                                                  
==================================================================================================
Total params: 44,427
Trainable params: 44,427
Non-trainable params: 0
__________________________________________________________________________________________________
…
