…
 bidirectional_6287 (Bidirectio  (None, None, 10)    280         ['masking_6287[0][0]']           
 nal)                                                                                             
                                                                                                  
 bidirectional_6288 (Bidirectio  (None, None, 10)    280         ['masking_6288[0][0]']           
 nal)                                                                                             
                                                                                                  
 conv1d_2208 (Conv1D)           (None, 25, 5)        1885        ['masking_6289[0][0]']           
                                                                                                  
 lstm_9169 (LSTM)               (None, 5)            320         ['bidirectional_6286[0][0]']     
                                                                                                  
 lstm_9171 (LSTM)               (None, 5)            320         ['bidirectional_6287[0][0]']     
                                                                                                  
 lstm_9173 (LSTM)               (None, 5)            320         ['bidirectional_6288[0][0]']     
                                                                                                  
 conv1d_2209 (Conv1D)           (None, 25, 5)        105         ['conv1d_2208[0][0]']            
                                                                                                  
 dense_5376 (Dense)             (None, 64)           384         ['lstm_9169[0][0]']              
                                                                                                  
 dense_5377 (Dense)             (None, 64)           384         ['lstm_9171[0][0]']              
                                                                                                  
 dense_5378 (Dense)             (None, 64)           384         ['lstm_9173[0][0]']              
                                                                                                  
 bidirectional_6289 (Bidirectio  (None, 64)          9728        ['conv1d_2209[0][0]']            
 nal)                                                                                             
                                                                                                  
 dropout_5136 (Dropout)         (None, 64)           0           ['dense_5376[0][0]']             
                                                                                                  
 dropout_5137 (Dropout)         (None, 64)           0           ['dense_5377[0][0]']             
                                                                                                  
 dropout_5138 (Dropout)         (None, 64)           0           ['dense_5378[0][0]']             
                                                                                                  
 dropout_5139 (Dropout)         (None, 64)           0           ['bidirectional_6289[0][0]']     
                                                                                                  
 concatenate_1344 (Concatenate)  (None, 256)         0           ['dropout_5136[0][0]',           
                                                                  'dropout_5137[0][0]',           
                                                                  'dropout_5138[0][0]',           
                                                                  'dropout_5139[0][0]']           
                                                                                                  
 dense_5379 (Dense)             (None, 1)            257         ['concatenate_1344[0][0]']       
                                                                                                  
==================================================================================================
Total params: 14,927
Trainable params: 14,927
Non-trainable params: 0
__________________________________________________________________________________________________
…
 bidirectional_6307 (Bidirectio  (None, None, 10)    280         ['masking_6307[0][0]']           
 nal)                                                                                             
                                                                                                  
 bidirectional_6308 (Bidirectio  (None, None, 10)    280         ['masking_6308[0][0]']           
 nal)                                                                                             
                                                                                                  
 conv1d_2218 (Conv1D)           (None, 25, 5)        2825        ['masking_6309[0][0]']           
                                                                                                  
 lstm_9204 (LSTM)               (None, 5)            320         ['bidirectional_6306[0][0]']     
                                                                                                  
 lstm_9206 (LSTM)               (None, 5)            320         ['bidirectional_6307[0][0]']     
                                                                                                  
 lstm_9208 (LSTM)               (None, 5)            320         ['bidirectional_6308[0][0]']     
                                                                                                  
 conv1d_2219 (Conv1D)           (None, 25, 5)        155         ['conv1d_2218[0][0]']            
                                                                                                  
 dense_5396 (Dense)             (None, 64)           384         ['lstm_9204[0][0]']              
                                                                                                  
 dense_5397 (Dense)             (None, 64)           384         ['lstm_9206[0][0]']              
                                                                                                  
 dense_5398 (Dense)             (None, 64)           384         ['lstm_9208[0][0]']              
                                                                                                  
 bidirectional_6309 (Bidirectio  (None, 64)          9728        ['conv1d_2219[0][0]']            
 nal)                                                                                             
                                                                                                  
 dropout_5156 (Dropout)         (None, 64)           0           ['dense_5396[0][0]']             
                                                                                                  
 dropout_5157 (Dropout)         (None, 64)           0           ['dense_5397[0][0]']             
                                                                                                  
 dropout_5158 (Dropout)         (None, 64)           0           ['dense_5398[0][0]']             
                                                                                                  
 dropout_5159 (Dropout)         (None, 64)           0           ['bidirectional_6309[0][0]']     
                                                                                                  
 concatenate_1349 (Concatenate)  (None, 256)         0           ['dropout_5156[0][0]',           
                                                                  'dropout_5157[0][0]',           
                                                                  'dropout_5158[0][0]',           
                                                                  'dropout_5159[0][0]']           
                                                                                                  
 dense_5399 (Dense)             (None, 1)            257         ['concatenate_1349[0][0]']       
                                                                                                  
==================================================================================================
Total params: 15,917
Trainable params: 15,917
Non-trainable params: 0
__________________________________________________________________________________________________
…
 bidirectional_6327 (Bidirectio  (None, None, 10)    280         ['masking_6327[0][0]']           
 nal)                                                                                             
                                                                                                  
 bidirectional_6328 (Bidirectio  (None, None, 10)    280         ['masking_6328[0][0]']           
 nal)                                                                                             
                                                                                                  
 conv1d_2228 (Conv1D)           (None, 25, 5)        3765        ['masking_6329[0][0]']           
                                                                                                  
 lstm_9239 (LSTM)               (None, 5)            320         ['bidirectional_6326[0][0]']     
                                                                                                  
 lstm_9241 (LSTM)               (None, 5)            320         ['bidirectional_6327[0][0]']     
                                                                                                  
 lstm_9243 (LSTM)               (None, 5)            320         ['bidirectional_6328[0][0]']     
                                                                                                  
 conv1d_2229 (Conv1D)           (None, 25, 5)        205         ['conv1d_2228[0][0]']            
                                                                                                  
 dense_5416 (Dense)             (None, 64)           384         ['lstm_9239[0][0]']              
                                                                                                  
 dense_5417 (Dense)             (None, 64)           384         ['lstm_9241[0][0]']              
                                                                                                  
 dense_5418 (Dense)             (None, 64)           384         ['lstm_9243[0][0]']              
                                                                                                  
 bidirectional_6329 (Bidirectio  (None, 64)          9728        ['conv1d_2229[0][0]']            
 nal)                                                                                             
                                                                                                  
 dropout_5176 (Dropout)         (None, 64)           0           ['dense_5416[0][0]']             
                                                                                                  
 dropout_5177 (Dropout)         (None, 64)           0           ['dense_5417[0][0]']             
                                                                                                  
 dropout_5178 (Dropout)         (None, 64)           0           ['dense_5418[0][0]']             
                                                                                                  
 dropout_5179 (Dropout)         (None, 64)           0           ['bidirectional_6329[0][0]']     
                                                                                                  
 concatenate_1354 (Concatenate)  (None, 256)         0           ['dropout_5176[0][0]',           
                                                                  'dropout_5177[0][0]',           
                                                                  'dropout_5178[0][0]',           
                                                                  'dropout_5179[0][0]']           
                                                                                                  
 dense_5419 (Dense)             (None, 1)            257         ['concatenate_1354[0][0]']       
                                                                                                  
==================================================================================================
Total params: 16,907
Trainable params: 16,907
Non-trainable params: 0
__________________________________________________________________________________________________
…
 bidirectional_6347 (Bidirectio  (None, None, 10)    280         ['masking_6347[0][0]']           
 nal)                                                                                             
                                                                                                  
 bidirectional_6348 (Bidirectio  (None, None, 10)    280         ['masking_6348[0][0]']           
 nal)                                                                                             
                                                                                                  
 conv1d_2238 (Conv1D)           (None, 25, 5)        1885        ['masking_6349[0][0]']           
                                                                                                  
 lstm_9274 (LSTM)               (None, 5)            320         ['bidirectional_6346[0][0]']     
                                                                                                  
 lstm_9276 (LSTM)               (None, 5)            320         ['bidirectional_6347[0][0]']     
                                                                                                  
 lstm_9278 (LSTM)               (None, 5)            320         ['bidirectional_6348[0][0]']     
                                                                                                  
 conv1d_2239 (Conv1D)           (None, 25, 5)        105         ['conv1d_2238[0][0]']            
                                                                                                  
 dense_5436 (Dense)             (None, 96)           576         ['lstm_9274[0][0]']              
                                                                                                  
 dense_5437 (Dense)             (None, 96)           576         ['lstm_9276[0][0]']              
                                                                                                  
 dense_5438 (Dense)             (None, 96)           576         ['lstm_9278[0][0]']              
                                                                                                  
 bidirectional_6349 (Bidirectio  (None, 96)          20736       ['conv1d_2239[0][0]']            
 nal)                                                                                             
                                                                                                  
 dropout_5196 (Dropout)         (None, 96)           0           ['dense_5436[0][0]']             
                                                                                                  
 dropout_5197 (Dropout)         (None, 96)           0           ['dense_5437[0][0]']             
                                                                                                  
 dropout_5198 (Dropout)         (None, 96)           0           ['dense_5438[0][0]']             
                                                                                                  
 dropout_5199 (Dropout)         (None, 96)           0           ['bidirectional_6349[0][0]']     
                                                                                                  
 concatenate_1359 (Concatenate)  (None, 384)         0           ['dropout_5196[0][0]',           
                                                                  'dropout_5197[0][0]',           
                                                                  'dropout_5198[0][0]',           
                                                                  'dropout_5199[0][0]']           
                                                                                                  
 dense_5439 (Dense)             (None, 1)            385         ['concatenate_1359[0][0]']       
                                                                                                  
==================================================================================================
Total params: 26,639
Trainable params: 26,639
Non-trainable params: 0
__________________________________________________________________________________________________
…
 bidirectional_6367 (Bidirectio  (None, None, 10)    280         ['masking_6367[0][0]']           
 nal)                                                                                             
                                                                                                  
 bidirectional_6368 (Bidirectio  (None, None, 10)    280         ['masking_6368[0][0]']           
 nal)                                                                                             
                                                                                                  
 conv1d_2248 (Conv1D)           (None, 25, 5)        2825        ['masking_6369[0][0]']           
                                                                                                  
 lstm_9309 (LSTM)               (None, 5)            320         ['bidirectional_6366[0][0]']     
                                                                                                  
 lstm_9311 (LSTM)               (None, 5)            320         ['bidirectional_6367[0][0]']     
                                                                                                  
 lstm_9313 (LSTM)               (None, 5)            320         ['bidirectional_6368[0][0]']     
                                                                                                  
 conv1d_2249 (Conv1D)           (None, 25, 5)        155         ['conv1d_2248[0][0]']            
                                                                                                  
 dense_5456 (Dense)             (None, 96)           576         ['lstm_9309[0][0]']              
                                                                                                  
 dense_5457 (Dense)             (None, 96)           576         ['lstm_9311[0][0]']              
                                                                                                  
 dense_5458 (Dense)             (None, 96)           576         ['lstm_9313[0][0]']              
                                                                                                  
 bidirectional_6369 (Bidirectio  (None, 96)          20736       ['conv1d_2249[0][0]']            
 nal)                                                                                             
                                                                                                  
 dropout_5216 (Dropout)         (None, 96)           0           ['dense_5456[0][0]']             
                                                                                                  
 dropout_5217 (Dropout)         (None, 96)           0           ['dense_5457[0][0]']             
                                                                                                  
 dropout_5218 (Dropout)         (None, 96)           0           ['dense_5458[0][0]']             
                                                                                                  
 dropout_5219 (Dropout)         (None, 96)           0           ['bidirectional_6369[0][0]']     
                                                                                                  
 concatenate_1364 (Concatenate)  (None, 384)         0           ['dropout_5216[0][0]',           
                                                                  'dropout_5217[0][0]',           
                                                                  'dropout_5218[0][0]',           
                                                                  'dropout_5219[0][0]']           
                                                                                                  
 dense_5459 (Dense)             (None, 1)            385         ['concatenate_1364[0][0]']       
                                                                                                  
==================================================================================================
Total params: 27,629
Trainable params: 27,629
Non-trainable params: 0
__________________________________________________________________________________________________
…
 bidirectional_6387 (Bidirectio  (None, None, 10)    280         ['masking_6387[0][0]']           
 nal)                                                                                             
                                                                                                  
 bidirectional_6388 (Bidirectio  (None, None, 10)    280         ['masking_6388[0][0]']           
 nal)                                                                                             
                                                                                                  
 conv1d_2258 (Conv1D)           (None, 25, 5)        3765        ['masking_6389[0][0]']           
                                                                                                  
 lstm_9344 (LSTM)               (None, 5)            320         ['bidirectional_6386[0][0]']     
                                                                                                  
 lstm_9346 (LSTM)               (None, 5)            320         ['bidirectional_6387[0][0]']     
                                                                                                  
 lstm_9348 (LSTM)               (None, 5)            320         ['bidirectional_6388[0][0]']     
                                                                                                  
 conv1d_2259 (Conv1D)           (None, 25, 5)        205         ['conv1d_2258[0][0]']            
                                                                                                  
 dense_5476 (Dense)             (None, 96)           576         ['lstm_9344[0][0]']              
                                                                                                  
 dense_5477 (Dense)             (None, 96)           576         ['lstm_9346[0][0]']              
                                                                                                  
 dense_5478 (Dense)             (None, 96)           576         ['lstm_9348[0][0]']              
                                                                                                  
 bidirectional_6389 (Bidirectio  (None, 96)          20736       ['conv1d_2259[0][0]']            
 nal)                                                                                             
                                                                                                  
 dropout_5236 (Dropout)         (None, 96)           0           ['dense_5476[0][0]']             
                                                                                                  
 dropout_5237 (Dropout)         (None, 96)           0           ['dense_5477[0][0]']             
                                                                                                  
 dropout_5238 (Dropout)         (None, 96)           0           ['dense_5478[0][0]']             
                                                                                                  
 dropout_5239 (Dropout)         (None, 96)           0           ['bidirectional_6389[0][0]']     
                                                                                                  
 concatenate_1369 (Concatenate)  (None, 384)         0           ['dropout_5236[0][0]',           
                                                                  'dropout_5237[0][0]',           
                                                                  'dropout_5238[0][0]',           
                                                                  'dropout_5239[0][0]']           
                                                                                                  
 dense_5479 (Dense)             (None, 1)            385         ['concatenate_1369[0][0]']       
                                                                                                  
==================================================================================================
Total params: 28,619
Trainable params: 28,619
Non-trainable params: 0
__________________________________________________________________________________________________
…
 bidirectional_6407 (Bidirectio  (None, None, 10)    280         ['masking_6407[0][0]']           
 nal)                                                                                             
                                                                                                  
 bidirectional_6408 (Bidirectio  (None, None, 10)    280         ['masking_6408[0][0]']           
 nal)                                                                                             
                                                                                                  
 conv1d_2268 (Conv1D)           (None, 25, 5)        1885        ['masking_6409[0][0]']           
                                                                                                  
 lstm_9379 (LSTM)               (None, 5)            320         ['bidirectional_6406[0][0]']     
                                                                                                  
 lstm_9381 (LSTM)               (None, 5)            320         ['bidirectional_6407[0][0]']     
                                                                                                  
 lstm_9383 (LSTM)               (None, 5)            320         ['bidirectional_6408[0][0]']     
                                                                                                  
 conv1d_2269 (Conv1D)           (None, 25, 5)        105         ['conv1d_2268[0][0]']            
                                                                                                  
 dense_5496 (Dense)             (None, 128)          768         ['lstm_9379[0][0]']              
                                                                                                  
 dense_5497 (Dense)             (None, 128)          768         ['lstm_9381[0][0]']              
                                                                                                  
 dense_5498 (Dense)             (None, 128)          768         ['lstm_9383[0][0]']              
                                                                                                  
 bidirectional_6409 (Bidirectio  (None, 128)         35840       ['conv1d_2269[0][0]']            
 nal)                                                                                             
                                                                                                  
 dropout_5256 (Dropout)         (None, 128)          0           ['dense_5496[0][0]']             
                                                                                                  
 dropout_5257 (Dropout)         (None, 128)          0           ['dense_5497[0][0]']             
                                                                                                  
 dropout_5258 (Dropout)         (None, 128)          0           ['dense_5498[0][0]']             
                                                                                                  
 dropout_5259 (Dropout)         (None, 128)          0           ['bidirectional_6409[0][0]']     
                                                                                                  
 concatenate_1374 (Concatenate)  (None, 512)         0           ['dropout_5256[0][0]',           
                                                                  'dropout_5257[0][0]',           
                                                                  'dropout_5258[0][0]',           
                                                                  'dropout_5259[0][0]']           
                                                                                                  
 dense_5499 (Dense)             (None, 1)            513         ['concatenate_1374[0][0]']       
                                                                                                  
==================================================================================================
Total params: 42,447
Trainable params: 42,447
Non-trainable params: 0
__________________________________________________________________________________________________
…
 bidirectional_6427 (Bidirectio  (None, None, 10)    280         ['masking_6427[0][0]']           
 nal)                                                                                             
                                                                                                  
 bidirectional_6428 (Bidirectio  (None, None, 10)    280         ['masking_6428[0][0]']           
 nal)                                                                                             
                                                                                                  
 conv1d_2278 (Conv1D)           (None, 25, 5)        2825        ['masking_6429[0][0]']           
                                                                                                  
 lstm_9414 (LSTM)               (None, 5)            320         ['bidirectional_6426[0][0]']     
                                                                                                  
 lstm_9416 (LSTM)               (None, 5)            320         ['bidirectional_6427[0][0]']     
                                                                                                  
 lstm_9418 (LSTM)               (None, 5)            320         ['bidirectional_6428[0][0]']     
                                                                                                  
 conv1d_2279 (Conv1D)           (None, 25, 5)        155         ['conv1d_2278[0][0]']            
                                                                                                  
 dense_5516 (Dense)             (None, 128)          768         ['lstm_9414[0][0]']              
                                                                                                  
 dense_5517 (Dense)             (None, 128)          768         ['lstm_9416[0][0]']              
                                                                                                  
 dense_5518 (Dense)             (None, 128)          768         ['lstm_9418[0][0]']              
                                                                                                  
 bidirectional_6429 (Bidirectio  (None, 128)         35840       ['conv1d_2279[0][0]']            
 nal)                                                                                             
                                                                                                  
 dropout_5276 (Dropout)         (None, 128)          0           ['dense_5516[0][0]']             
                                                                                                  
 dropout_5277 (Dropout)         (None, 128)          0           ['dense_5517[0][0]']             
                                                                                                  
 dropout_5278 (Dropout)         (None, 128)          0           ['dense_5518[0][0]']             
                                                                                                  
 dropout_5279 (Dropout)         (None, 128)          0           ['bidirectional_6429[0][0]']     
                                                                                                  
 concatenate_1379 (Concatenate)  (None, 512)         0           ['dropout_5276[0][0]',           
                                                                  'dropout_5277[0][0]',           
                                                                  'dropout_5278[0][0]',           
                                                                  'dropout_5279[0][0]']           
                                                                                                  
 dense_5519 (Dense)             (None, 1)            513         ['concatenate_1379[0][0]']       
                                                                                                  
==================================================================================================
Total params: 43,437
Trainable params: 43,437
Non-trainable params: 0
__________________________________________________________________________________________________
…
 bidirectional_6447 (Bidirectio  (None, None, 10)    280         ['masking_6447[0][0]']           
 nal)                                                                                             
                                                                                                  
 bidirectional_6448 (Bidirectio  (None, None, 10)    280         ['masking_6448[0][0]']           
 nal)                                                                                             
                                                                                                  
 conv1d_2288 (Conv1D)           (None, 25, 5)        3765        ['masking_6449[0][0]']           
                                                                                                  
 lstm_9449 (LSTM)               (None, 5)            320         ['bidirectional_6446[0][0]']     
                                                                                                  
 lstm_9451 (LSTM)               (None, 5)            320         ['bidirectional_6447[0][0]']     
                                                                                                  
 lstm_9453 (LSTM)               (None, 5)            320         ['bidirectional_6448[0][0]']     
                                                                                                  
 conv1d_2289 (Conv1D)           (None, 25, 5)        205         ['conv1d_2288[0][0]']            
                                                                                                  
 dense_5536 (Dense)             (None, 128)          768         ['lstm_9449[0][0]']              
                                                                                                  
 dense_5537 (Dense)             (None, 128)          768         ['lstm_9451[0][0]']              
                                                                                                  
 dense_5538 (Dense)             (None, 128)          768         ['lstm_9453[0][0]']              
                                                                                                  
 bidirectional_6449 (Bidirectio  (None, 128)         35840       ['conv1d_2289[0][0]']            
 nal)                                                                                             
                                                                                                  
 dropout_5296 (Dropout)         (None, 128)          0           ['dense_5536[0][0]']             
                                                                                                  
 dropout_5297 (Dropout)         (None, 128)          0           ['dense_5537[0][0]']             
                                                                                                  
 dropout_5298 (Dropout)         (None, 128)          0           ['dense_5538[0][0]']             
                                                                                                  
 dropout_5299 (Dropout)         (None, 128)          0           ['bidirectional_6449[0][0]']     
                                                                                                  
 concatenate_1384 (Concatenate)  (None, 512)         0           ['dropout_5296[0][0]',           
                                                                  'dropout_5297[0][0]',           
                                                                  'dropout_5298[0][0]',           
                                                                  'dropout_5299[0][0]']           
                                                                                                  
 dense_5539 (Dense)             (None, 1)            513         ['concatenate_1384[0][0]']       
                                                                                                  
==================================================================================================
Total params: 44,427
Trainable params: 44,427
Non-trainable params: 0
__________________________________________________________________________________________________
…
