…
 bidirectional_12517 (Bidirecti  (None, None, 10)    280         ['masking_12517[0][0]']          
 onal)                                                                                            
                                                                                                  
 bidirectional_12518 (Bidirecti  (None, None, 10)    280         ['masking_12518[0][0]']          
 onal)                                                                                            
                                                                                                  
 conv1d_4508 (Conv1D)           (None, 24, 5)        65          ['masking_12519[0][0]']          
                                                                                                  
 lstm_18179 (LSTM)              (None, 5)            320         ['bidirectional_12516[0][0]']    
                                                                                                  
 lstm_18181 (LSTM)              (None, 5)            320         ['bidirectional_12517[0][0]']    
                                                                                                  
 lstm_18183 (LSTM)              (None, 5)            320         ['bidirectional_12518[0][0]']    
                                                                                                  
 conv1d_4509 (Conv1D)           (None, 24, 5)        105         ['conv1d_4508[0][0]']            
                                                                                                  
 dense_10616 (Dense)            (None, 64)           384         ['lstm_18179[0][0]']             
                                                                                                  
 dense_10617 (Dense)            (None, 64)           384         ['lstm_18181[0][0]']             
                                                                                                  
 dense_10618 (Dense)            (None, 64)           384         ['lstm_18183[0][0]']             
                                                                                                  
 bidirectional_12519 (Bidirecti  (None, 64)          9728        ['conv1d_4509[0][0]']            
 onal)                                                                                            
                                                                                                  
 dropout_10216 (Dropout)        (None, 64)           0           ['dense_10616[0][0]']            
                                                                                                  
 dropout_10217 (Dropout)        (None, 64)           0           ['dense_10617[0][0]']            
                                                                                                  
 dropout_10218 (Dropout)        (None, 64)           0           ['dense_10618[0][0]']            
                                                                                                  
 dropout_10219 (Dropout)        (None, 64)           0           ['bidirectional_12519[0][0]']    
                                                                                                  
 concatenate_2654 (Concatenate)  (None, 256)         0           ['dropout_10216[0][0]',          
                                                                  'dropout_10217[0][0]',          
                                                                  'dropout_10218[0][0]',          
                                                                  'dropout_10219[0][0]']          
                                                                                                  
 dense_10619 (Dense)            (None, 1)            257         ['concatenate_2654[0][0]']       
                                                                                                  
==================================================================================================
Total params: 13,107
Trainable params: 13,107
Non-trainable params: 0
__________________________________________________________________________________________________
…
 bidirectional_12537 (Bidirecti  (None, None, 10)    280         ['masking_12537[0][0]']          
 onal)                                                                                            
                                                                                                  
 bidirectional_12538 (Bidirecti  (None, None, 10)    280         ['masking_12538[0][0]']          
 onal)                                                                                            
                                                                                                  
 conv1d_4518 (Conv1D)           (None, 24, 5)        95          ['masking_12539[0][0]']          
                                                                                                  
 lstm_18214 (LSTM)              (None, 5)            320         ['bidirectional_12536[0][0]']    
                                                                                                  
 lstm_18216 (LSTM)              (None, 5)            320         ['bidirectional_12537[0][0]']    
                                                                                                  
 lstm_18218 (LSTM)              (None, 5)            320         ['bidirectional_12538[0][0]']    
                                                                                                  
 conv1d_4519 (Conv1D)           (None, 24, 5)        155         ['conv1d_4518[0][0]']            
                                                                                                  
 dense_10636 (Dense)            (None, 64)           384         ['lstm_18214[0][0]']             
                                                                                                  
 dense_10637 (Dense)            (None, 64)           384         ['lstm_18216[0][0]']             
                                                                                                  
 dense_10638 (Dense)            (None, 64)           384         ['lstm_18218[0][0]']             
                                                                                                  
 bidirectional_12539 (Bidirecti  (None, 64)          9728        ['conv1d_4519[0][0]']            
 onal)                                                                                            
                                                                                                  
 dropout_10236 (Dropout)        (None, 64)           0           ['dense_10636[0][0]']            
                                                                                                  
 dropout_10237 (Dropout)        (None, 64)           0           ['dense_10637[0][0]']            
                                                                                                  
 dropout_10238 (Dropout)        (None, 64)           0           ['dense_10638[0][0]']            
                                                                                                  
 dropout_10239 (Dropout)        (None, 64)           0           ['bidirectional_12539[0][0]']    
                                                                                                  
 concatenate_2659 (Concatenate)  (None, 256)         0           ['dropout_10236[0][0]',          
                                                                  'dropout_10237[0][0]',          
                                                                  'dropout_10238[0][0]',          
                                                                  'dropout_10239[0][0]']          
                                                                                                  
 dense_10639 (Dense)            (None, 1)            257         ['concatenate_2659[0][0]']       
                                                                                                  
==================================================================================================
Total params: 13,187
Trainable params: 13,187
Non-trainable params: 0
__________________________________________________________________________________________________
…
 bidirectional_12557 (Bidirecti  (None, None, 10)    280         ['masking_12557[0][0]']          
 onal)                                                                                            
                                                                                                  
 bidirectional_12558 (Bidirecti  (None, None, 10)    280         ['masking_12558[0][0]']          
 onal)                                                                                            
                                                                                                  
 conv1d_4528 (Conv1D)           (None, 24, 5)        125         ['masking_12559[0][0]']          
                                                                                                  
 lstm_18249 (LSTM)              (None, 5)            320         ['bidirectional_12556[0][0]']    
                                                                                                  
 lstm_18251 (LSTM)              (None, 5)            320         ['bidirectional_12557[0][0]']    
                                                                                                  
 lstm_18253 (LSTM)              (None, 5)            320         ['bidirectional_12558[0][0]']    
                                                                                                  
 conv1d_4529 (Conv1D)           (None, 24, 5)        205         ['conv1d_4528[0][0]']            
                                                                                                  
 dense_10656 (Dense)            (None, 64)           384         ['lstm_18249[0][0]']             
                                                                                                  
 dense_10657 (Dense)            (None, 64)           384         ['lstm_18251[0][0]']             
                                                                                                  
 dense_10658 (Dense)            (None, 64)           384         ['lstm_18253[0][0]']             
                                                                                                  
 bidirectional_12559 (Bidirecti  (None, 64)          9728        ['conv1d_4529[0][0]']            
 onal)                                                                                            
                                                                                                  
 dropout_10256 (Dropout)        (None, 64)           0           ['dense_10656[0][0]']            
                                                                                                  
 dropout_10257 (Dropout)        (None, 64)           0           ['dense_10657[0][0]']            
                                                                                                  
 dropout_10258 (Dropout)        (None, 64)           0           ['dense_10658[0][0]']            
                                                                                                  
 dropout_10259 (Dropout)        (None, 64)           0           ['bidirectional_12559[0][0]']    
                                                                                                  
 concatenate_2664 (Concatenate)  (None, 256)         0           ['dropout_10256[0][0]',          
                                                                  'dropout_10257[0][0]',          
                                                                  'dropout_10258[0][0]',          
                                                                  'dropout_10259[0][0]']          
                                                                                                  
 dense_10659 (Dense)            (None, 1)            257         ['concatenate_2664[0][0]']       
                                                                                                  
==================================================================================================
Total params: 13,267
Trainable params: 13,267
Non-trainable params: 0
__________________________________________________________________________________________________
…
 bidirectional_12577 (Bidirecti  (None, None, 10)    280         ['masking_12577[0][0]']          
 onal)                                                                                            
                                                                                                  
 bidirectional_12578 (Bidirecti  (None, None, 10)    280         ['masking_12578[0][0]']          
 onal)                                                                                            
                                                                                                  
 conv1d_4538 (Conv1D)           (None, 24, 5)        65          ['masking_12579[0][0]']          
                                                                                                  
 lstm_18284 (LSTM)              (None, 5)            320         ['bidirectional_12576[0][0]']    
                                                                                                  
 lstm_18286 (LSTM)              (None, 5)            320         ['bidirectional_12577[0][0]']    
                                                                                                  
 lstm_18288 (LSTM)              (None, 5)            320         ['bidirectional_12578[0][0]']    
                                                                                                  
 conv1d_4539 (Conv1D)           (None, 24, 5)        105         ['conv1d_4538[0][0]']            
                                                                                                  
 dense_10676 (Dense)            (None, 96)           576         ['lstm_18284[0][0]']             
                                                                                                  
 dense_10677 (Dense)            (None, 96)           576         ['lstm_18286[0][0]']             
                                                                                                  
 dense_10678 (Dense)            (None, 96)           576         ['lstm_18288[0][0]']             
                                                                                                  
 bidirectional_12579 (Bidirecti  (None, 96)          20736       ['conv1d_4539[0][0]']            
 onal)                                                                                            
                                                                                                  
 dropout_10276 (Dropout)        (None, 96)           0           ['dense_10676[0][0]']            
                                                                                                  
 dropout_10277 (Dropout)        (None, 96)           0           ['dense_10677[0][0]']            
                                                                                                  
 dropout_10278 (Dropout)        (None, 96)           0           ['dense_10678[0][0]']            
                                                                                                  
 dropout_10279 (Dropout)        (None, 96)           0           ['bidirectional_12579[0][0]']    
                                                                                                  
 concatenate_2669 (Concatenate)  (None, 384)         0           ['dropout_10276[0][0]',          
                                                                  'dropout_10277[0][0]',          
                                                                  'dropout_10278[0][0]',          
                                                                  'dropout_10279[0][0]']          
                                                                                                  
 dense_10679 (Dense)            (None, 1)            385         ['concatenate_2669[0][0]']       
                                                                                                  
==================================================================================================
Total params: 24,819
Trainable params: 24,819
Non-trainable params: 0
__________________________________________________________________________________________________
…
 bidirectional_12597 (Bidirecti  (None, None, 10)    280         ['masking_12597[0][0]']          
 onal)                                                                                            
                                                                                                  
 bidirectional_12598 (Bidirecti  (None, None, 10)    280         ['masking_12598[0][0]']          
 onal)                                                                                            
                                                                                                  
 conv1d_4548 (Conv1D)           (None, 24, 5)        95          ['masking_12599[0][0]']          
                                                                                                  
 lstm_18319 (LSTM)              (None, 5)            320         ['bidirectional_12596[0][0]']    
                                                                                                  
 lstm_18321 (LSTM)              (None, 5)            320         ['bidirectional_12597[0][0]']    
                                                                                                  
 lstm_18323 (LSTM)              (None, 5)            320         ['bidirectional_12598[0][0]']    
                                                                                                  
 conv1d_4549 (Conv1D)           (None, 24, 5)        155         ['conv1d_4548[0][0]']            
                                                                                                  
 dense_10696 (Dense)            (None, 96)           576         ['lstm_18319[0][0]']             
                                                                                                  
 dense_10697 (Dense)            (None, 96)           576         ['lstm_18321[0][0]']             
                                                                                                  
 dense_10698 (Dense)            (None, 96)           576         ['lstm_18323[0][0]']             
                                                                                                  
 bidirectional_12599 (Bidirecti  (None, 96)          20736       ['conv1d_4549[0][0]']            
 onal)                                                                                            
                                                                                                  
 dropout_10296 (Dropout)        (None, 96)           0           ['dense_10696[0][0]']            
                                                                                                  
 dropout_10297 (Dropout)        (None, 96)           0           ['dense_10697[0][0]']            
                                                                                                  
 dropout_10298 (Dropout)        (None, 96)           0           ['dense_10698[0][0]']            
                                                                                                  
 dropout_10299 (Dropout)        (None, 96)           0           ['bidirectional_12599[0][0]']    
                                                                                                  
 concatenate_2674 (Concatenate)  (None, 384)         0           ['dropout_10296[0][0]',          
                                                                  'dropout_10297[0][0]',          
                                                                  'dropout_10298[0][0]',          
                                                                  'dropout_10299[0][0]']          
                                                                                                  
 dense_10699 (Dense)            (None, 1)            385         ['concatenate_2674[0][0]']       
                                                                                                  
==================================================================================================
Total params: 24,899
Trainable params: 24,899
Non-trainable params: 0
__________________________________________________________________________________________________
…
 bidirectional_12617 (Bidirecti  (None, None, 10)    280         ['masking_12617[0][0]']          
 onal)                                                                                            
                                                                                                  
 bidirectional_12618 (Bidirecti  (None, None, 10)    280         ['masking_12618[0][0]']          
 onal)                                                                                            
                                                                                                  
 conv1d_4558 (Conv1D)           (None, 24, 5)        125         ['masking_12619[0][0]']          
                                                                                                  
 lstm_18354 (LSTM)              (None, 5)            320         ['bidirectional_12616[0][0]']    
                                                                                                  
 lstm_18356 (LSTM)              (None, 5)            320         ['bidirectional_12617[0][0]']    
                                                                                                  
 lstm_18358 (LSTM)              (None, 5)            320         ['bidirectional_12618[0][0]']    
                                                                                                  
 conv1d_4559 (Conv1D)           (None, 24, 5)        205         ['conv1d_4558[0][0]']            
                                                                                                  
 dense_10716 (Dense)            (None, 96)           576         ['lstm_18354[0][0]']             
                                                                                                  
 dense_10717 (Dense)            (None, 96)           576         ['lstm_18356[0][0]']             
                                                                                                  
 dense_10718 (Dense)            (None, 96)           576         ['lstm_18358[0][0]']             
                                                                                                  
 bidirectional_12619 (Bidirecti  (None, 96)          20736       ['conv1d_4559[0][0]']            
 onal)                                                                                            
                                                                                                  
 dropout_10316 (Dropout)        (None, 96)           0           ['dense_10716[0][0]']            
                                                                                                  
 dropout_10317 (Dropout)        (None, 96)           0           ['dense_10717[0][0]']            
                                                                                                  
 dropout_10318 (Dropout)        (None, 96)           0           ['dense_10718[0][0]']            
                                                                                                  
 dropout_10319 (Dropout)        (None, 96)           0           ['bidirectional_12619[0][0]']    
                                                                                                  
 concatenate_2679 (Concatenate)  (None, 384)         0           ['dropout_10316[0][0]',          
                                                                  'dropout_10317[0][0]',          
                                                                  'dropout_10318[0][0]',          
                                                                  'dropout_10319[0][0]']          
                                                                                                  
 dense_10719 (Dense)            (None, 1)            385         ['concatenate_2679[0][0]']       
                                                                                                  
==================================================================================================
Total params: 24,979
Trainable params: 24,979
Non-trainable params: 0
__________________________________________________________________________________________________
…
 bidirectional_12637 (Bidirecti  (None, None, 10)    280         ['masking_12637[0][0]']          
 onal)                                                                                            
                                                                                                  
 bidirectional_12638 (Bidirecti  (None, None, 10)    280         ['masking_12638[0][0]']          
 onal)                                                                                            
                                                                                                  
 conv1d_4568 (Conv1D)           (None, 24, 5)        65          ['masking_12639[0][0]']          
                                                                                                  
 lstm_18389 (LSTM)              (None, 5)            320         ['bidirectional_12636[0][0]']    
                                                                                                  
 lstm_18391 (LSTM)              (None, 5)            320         ['bidirectional_12637[0][0]']    
                                                                                                  
 lstm_18393 (LSTM)              (None, 5)            320         ['bidirectional_12638[0][0]']    
                                                                                                  
 conv1d_4569 (Conv1D)           (None, 24, 5)        105         ['conv1d_4568[0][0]']            
                                                                                                  
 dense_10736 (Dense)            (None, 128)          768         ['lstm_18389[0][0]']             
                                                                                                  
 dense_10737 (Dense)            (None, 128)          768         ['lstm_18391[0][0]']             
                                                                                                  
 dense_10738 (Dense)            (None, 128)          768         ['lstm_18393[0][0]']             
                                                                                                  
 bidirectional_12639 (Bidirecti  (None, 128)         35840       ['conv1d_4569[0][0]']            
 onal)                                                                                            
                                                                                                  
 dropout_10336 (Dropout)        (None, 128)          0           ['dense_10736[0][0]']            
                                                                                                  
 dropout_10337 (Dropout)        (None, 128)          0           ['dense_10737[0][0]']            
                                                                                                  
 dropout_10338 (Dropout)        (None, 128)          0           ['dense_10738[0][0]']            
                                                                                                  
 dropout_10339 (Dropout)        (None, 128)          0           ['bidirectional_12639[0][0]']    
                                                                                                  
 concatenate_2684 (Concatenate)  (None, 512)         0           ['dropout_10336[0][0]',          
                                                                  'dropout_10337[0][0]',          
                                                                  'dropout_10338[0][0]',          
                                                                  'dropout_10339[0][0]']          
                                                                                                  
 dense_10739 (Dense)            (None, 1)            513         ['concatenate_2684[0][0]']       
                                                                                                  
==================================================================================================
Total params: 40,627
Trainable params: 40,627
Non-trainable params: 0
__________________________________________________________________________________________________
…
 bidirectional_12657 (Bidirecti  (None, None, 10)    280         ['masking_12657[0][0]']          
 onal)                                                                                            
                                                                                                  
 bidirectional_12658 (Bidirecti  (None, None, 10)    280         ['masking_12658[0][0]']          
 onal)                                                                                            
                                                                                                  
 conv1d_4578 (Conv1D)           (None, 24, 5)        95          ['masking_12659[0][0]']          
                                                                                                  
 lstm_18424 (LSTM)              (None, 5)            320         ['bidirectional_12656[0][0]']    
                                                                                                  
 lstm_18426 (LSTM)              (None, 5)            320         ['bidirectional_12657[0][0]']    
                                                                                                  
 lstm_18428 (LSTM)              (None, 5)            320         ['bidirectional_12658[0][0]']    
                                                                                                  
 conv1d_4579 (Conv1D)           (None, 24, 5)        155         ['conv1d_4578[0][0]']            
                                                                                                  
 dense_10756 (Dense)            (None, 128)          768         ['lstm_18424[0][0]']             
                                                                                                  
 dense_10757 (Dense)            (None, 128)          768         ['lstm_18426[0][0]']             
                                                                                                  
 dense_10758 (Dense)            (None, 128)          768         ['lstm_18428[0][0]']             
                                                                                                  
 bidirectional_12659 (Bidirecti  (None, 128)         35840       ['conv1d_4579[0][0]']            
 onal)                                                                                            
                                                                                                  
 dropout_10356 (Dropout)        (None, 128)          0           ['dense_10756[0][0]']            
                                                                                                  
 dropout_10357 (Dropout)        (None, 128)          0           ['dense_10757[0][0]']            
                                                                                                  
 dropout_10358 (Dropout)        (None, 128)          0           ['dense_10758[0][0]']            
                                                                                                  
 dropout_10359 (Dropout)        (None, 128)          0           ['bidirectional_12659[0][0]']    
                                                                                                  
 concatenate_2689 (Concatenate)  (None, 512)         0           ['dropout_10356[0][0]',          
                                                                  'dropout_10357[0][0]',          
                                                                  'dropout_10358[0][0]',          
                                                                  'dropout_10359[0][0]']          
                                                                                                  
 dense_10759 (Dense)            (None, 1)            513         ['concatenate_2689[0][0]']       
                                                                                                  
==================================================================================================
Total params: 40,707
Trainable params: 40,707
Non-trainable params: 0
__________________________________________________________________________________________________
…
 bidirectional_12677 (Bidirecti  (None, None, 10)    280         ['masking_12677[0][0]']          
 onal)                                                                                            
                                                                                                  
 bidirectional_12678 (Bidirecti  (None, None, 10)    280         ['masking_12678[0][0]']          
 onal)                                                                                            
                                                                                                  
 conv1d_4588 (Conv1D)           (None, 24, 5)        125         ['masking_12679[0][0]']          
                                                                                                  
 lstm_18459 (LSTM)              (None, 5)            320         ['bidirectional_12676[0][0]']    
                                                                                                  
 lstm_18461 (LSTM)              (None, 5)            320         ['bidirectional_12677[0][0]']    
                                                                                                  
 lstm_18463 (LSTM)              (None, 5)            320         ['bidirectional_12678[0][0]']    
                                                                                                  
 conv1d_4589 (Conv1D)           (None, 24, 5)        205         ['conv1d_4588[0][0]']            
                                                                                                  
 dense_10776 (Dense)            (None, 128)          768         ['lstm_18459[0][0]']             
                                                                                                  
 dense_10777 (Dense)            (None, 128)          768         ['lstm_18461[0][0]']             
                                                                                                  
 dense_10778 (Dense)            (None, 128)          768         ['lstm_18463[0][0]']             
                                                                                                  
 bidirectional_12679 (Bidirecti  (None, 128)         35840       ['conv1d_4589[0][0]']            
 onal)                                                                                            
                                                                                                  
 dropout_10376 (Dropout)        (None, 128)          0           ['dense_10776[0][0]']            
                                                                                                  
 dropout_10377 (Dropout)        (None, 128)          0           ['dense_10777[0][0]']            
                                                                                                  
 dropout_10378 (Dropout)        (None, 128)          0           ['dense_10778[0][0]']            
                                                                                                  
 dropout_10379 (Dropout)        (None, 128)          0           ['bidirectional_12679[0][0]']    
                                                                                                  
 concatenate_2694 (Concatenate)  (None, 512)         0           ['dropout_10376[0][0]',          
                                                                  'dropout_10377[0][0]',          
                                                                  'dropout_10378[0][0]',          
                                                                  'dropout_10379[0][0]']          
                                                                                                  
 dense_10779 (Dense)            (None, 1)            513         ['concatenate_2694[0][0]']       
                                                                                                  
==================================================================================================
Total params: 40,787
Trainable params: 40,787
Non-trainable params: 0
__________________________________________________________________________________________________
…
