…
 bidirectional_11367 (Bidirecti  (None, None, 10)    280         ['masking_11367[0][0]']          
 onal)                                                                                            
                                                                                                  
 bidirectional_11368 (Bidirecti  (None, None, 10)    280         ['masking_11368[0][0]']          
 onal)                                                                                            
                                                                                                  
 conv1d_4048 (Conv1D)           (None, 25, 5)        1885        ['masking_11369[0][0]']          
                                                                                                  
 lstm_16569 (LSTM)              (None, 5)            320         ['bidirectional_11366[0][0]']    
                                                                                                  
 lstm_16571 (LSTM)              (None, 5)            320         ['bidirectional_11367[0][0]']    
                                                                                                  
 lstm_16573 (LSTM)              (None, 5)            320         ['bidirectional_11368[0][0]']    
                                                                                                  
 conv1d_4049 (Conv1D)           (None, 25, 5)        105         ['conv1d_4048[0][0]']            
                                                                                                  
 dense_9696 (Dense)             (None, 64)           384         ['lstm_16569[0][0]']             
                                                                                                  
 dense_9697 (Dense)             (None, 64)           384         ['lstm_16571[0][0]']             
                                                                                                  
 dense_9698 (Dense)             (None, 64)           384         ['lstm_16573[0][0]']             
                                                                                                  
 bidirectional_11369 (Bidirecti  (None, 64)          9728        ['conv1d_4049[0][0]']            
 onal)                                                                                            
                                                                                                  
 dropout_9296 (Dropout)         (None, 64)           0           ['dense_9696[0][0]']             
                                                                                                  
 dropout_9297 (Dropout)         (None, 64)           0           ['dense_9697[0][0]']             
                                                                                                  
 dropout_9298 (Dropout)         (None, 64)           0           ['dense_9698[0][0]']             
                                                                                                  
 dropout_9299 (Dropout)         (None, 64)           0           ['bidirectional_11369[0][0]']    
                                                                                                  
 concatenate_2424 (Concatenate)  (None, 256)         0           ['dropout_9296[0][0]',           
                                                                  'dropout_9297[0][0]',           
                                                                  'dropout_9298[0][0]',           
                                                                  'dropout_9299[0][0]']           
                                                                                                  
 dense_9699 (Dense)             (None, 1)            257         ['concatenate_2424[0][0]']       
                                                                                                  
==================================================================================================
Total params: 14,927
Trainable params: 14,927
Non-trainable params: 0
__________________________________________________________________________________________________
…
 bidirectional_11387 (Bidirecti  (None, None, 10)    280         ['masking_11387[0][0]']          
 onal)                                                                                            
                                                                                                  
 bidirectional_11388 (Bidirecti  (None, None, 10)    280         ['masking_11388[0][0]']          
 onal)                                                                                            
                                                                                                  
 conv1d_4058 (Conv1D)           (None, 25, 5)        2825        ['masking_11389[0][0]']          
                                                                                                  
 lstm_16604 (LSTM)              (None, 5)            320         ['bidirectional_11386[0][0]']    
                                                                                                  
 lstm_16606 (LSTM)              (None, 5)            320         ['bidirectional_11387[0][0]']    
                                                                                                  
 lstm_16608 (LSTM)              (None, 5)            320         ['bidirectional_11388[0][0]']    
                                                                                                  
 conv1d_4059 (Conv1D)           (None, 25, 5)        155         ['conv1d_4058[0][0]']            
                                                                                                  
 dense_9716 (Dense)             (None, 64)           384         ['lstm_16604[0][0]']             
                                                                                                  
 dense_9717 (Dense)             (None, 64)           384         ['lstm_16606[0][0]']             
                                                                                                  
 dense_9718 (Dense)             (None, 64)           384         ['lstm_16608[0][0]']             
                                                                                                  
 bidirectional_11389 (Bidirecti  (None, 64)          9728        ['conv1d_4059[0][0]']            
 onal)                                                                                            
                                                                                                  
 dropout_9316 (Dropout)         (None, 64)           0           ['dense_9716[0][0]']             
                                                                                                  
 dropout_9317 (Dropout)         (None, 64)           0           ['dense_9717[0][0]']             
                                                                                                  
 dropout_9318 (Dropout)         (None, 64)           0           ['dense_9718[0][0]']             
                                                                                                  
 dropout_9319 (Dropout)         (None, 64)           0           ['bidirectional_11389[0][0]']    
                                                                                                  
 concatenate_2429 (Concatenate)  (None, 256)         0           ['dropout_9316[0][0]',           
                                                                  'dropout_9317[0][0]',           
                                                                  'dropout_9318[0][0]',           
                                                                  'dropout_9319[0][0]']           
                                                                                                  
 dense_9719 (Dense)             (None, 1)            257         ['concatenate_2429[0][0]']       
                                                                                                  
==================================================================================================
Total params: 15,917
Trainable params: 15,917
Non-trainable params: 0
__________________________________________________________________________________________________
…
 bidirectional_11407 (Bidirecti  (None, None, 10)    280         ['masking_11407[0][0]']          
 onal)                                                                                            
                                                                                                  
 bidirectional_11408 (Bidirecti  (None, None, 10)    280         ['masking_11408[0][0]']          
 onal)                                                                                            
                                                                                                  
 conv1d_4068 (Conv1D)           (None, 25, 5)        3765        ['masking_11409[0][0]']          
                                                                                                  
 lstm_16639 (LSTM)              (None, 5)            320         ['bidirectional_11406[0][0]']    
                                                                                                  
 lstm_16641 (LSTM)              (None, 5)            320         ['bidirectional_11407[0][0]']    
                                                                                                  
 lstm_16643 (LSTM)              (None, 5)            320         ['bidirectional_11408[0][0]']    
                                                                                                  
 conv1d_4069 (Conv1D)           (None, 25, 5)        205         ['conv1d_4068[0][0]']            
                                                                                                  
 dense_9736 (Dense)             (None, 64)           384         ['lstm_16639[0][0]']             
                                                                                                  
 dense_9737 (Dense)             (None, 64)           384         ['lstm_16641[0][0]']             
                                                                                                  
 dense_9738 (Dense)             (None, 64)           384         ['lstm_16643[0][0]']             
                                                                                                  
 bidirectional_11409 (Bidirecti  (None, 64)          9728        ['conv1d_4069[0][0]']            
 onal)                                                                                            
                                                                                                  
 dropout_9336 (Dropout)         (None, 64)           0           ['dense_9736[0][0]']             
                                                                                                  
 dropout_9337 (Dropout)         (None, 64)           0           ['dense_9737[0][0]']             
                                                                                                  
 dropout_9338 (Dropout)         (None, 64)           0           ['dense_9738[0][0]']             
                                                                                                  
 dropout_9339 (Dropout)         (None, 64)           0           ['bidirectional_11409[0][0]']    
                                                                                                  
 concatenate_2434 (Concatenate)  (None, 256)         0           ['dropout_9336[0][0]',           
                                                                  'dropout_9337[0][0]',           
                                                                  'dropout_9338[0][0]',           
                                                                  'dropout_9339[0][0]']           
                                                                                                  
 dense_9739 (Dense)             (None, 1)            257         ['concatenate_2434[0][0]']       
                                                                                                  
==================================================================================================
Total params: 16,907
Trainable params: 16,907
Non-trainable params: 0
__________________________________________________________________________________________________
…
 bidirectional_11427 (Bidirecti  (None, None, 10)    280         ['masking_11427[0][0]']          
 onal)                                                                                            
                                                                                                  
 bidirectional_11428 (Bidirecti  (None, None, 10)    280         ['masking_11428[0][0]']          
 onal)                                                                                            
                                                                                                  
 conv1d_4078 (Conv1D)           (None, 25, 5)        1885        ['masking_11429[0][0]']          
                                                                                                  
 lstm_16674 (LSTM)              (None, 5)            320         ['bidirectional_11426[0][0]']    
                                                                                                  
 lstm_16676 (LSTM)              (None, 5)            320         ['bidirectional_11427[0][0]']    
                                                                                                  
 lstm_16678 (LSTM)              (None, 5)            320         ['bidirectional_11428[0][0]']    
                                                                                                  
 conv1d_4079 (Conv1D)           (None, 25, 5)        105         ['conv1d_4078[0][0]']            
                                                                                                  
 dense_9756 (Dense)             (None, 96)           576         ['lstm_16674[0][0]']             
                                                                                                  
 dense_9757 (Dense)             (None, 96)           576         ['lstm_16676[0][0]']             
                                                                                                  
 dense_9758 (Dense)             (None, 96)           576         ['lstm_16678[0][0]']             
                                                                                                  
 bidirectional_11429 (Bidirecti  (None, 96)          20736       ['conv1d_4079[0][0]']            
 onal)                                                                                            
                                                                                                  
 dropout_9356 (Dropout)         (None, 96)           0           ['dense_9756[0][0]']             
                                                                                                  
 dropout_9357 (Dropout)         (None, 96)           0           ['dense_9757[0][0]']             
                                                                                                  
 dropout_9358 (Dropout)         (None, 96)           0           ['dense_9758[0][0]']             
                                                                                                  
 dropout_9359 (Dropout)         (None, 96)           0           ['bidirectional_11429[0][0]']    
                                                                                                  
 concatenate_2439 (Concatenate)  (None, 384)         0           ['dropout_9356[0][0]',           
                                                                  'dropout_9357[0][0]',           
                                                                  'dropout_9358[0][0]',           
                                                                  'dropout_9359[0][0]']           
                                                                                                  
 dense_9759 (Dense)             (None, 1)            385         ['concatenate_2439[0][0]']       
                                                                                                  
==================================================================================================
Total params: 26,639
Trainable params: 26,639
Non-trainable params: 0
__________________________________________________________________________________________________
…
 bidirectional_11447 (Bidirecti  (None, None, 10)    280         ['masking_11447[0][0]']          
 onal)                                                                                            
                                                                                                  
 bidirectional_11448 (Bidirecti  (None, None, 10)    280         ['masking_11448[0][0]']          
 onal)                                                                                            
                                                                                                  
 conv1d_4088 (Conv1D)           (None, 25, 5)        2825        ['masking_11449[0][0]']          
                                                                                                  
 lstm_16709 (LSTM)              (None, 5)            320         ['bidirectional_11446[0][0]']    
                                                                                                  
 lstm_16711 (LSTM)              (None, 5)            320         ['bidirectional_11447[0][0]']    
                                                                                                  
 lstm_16713 (LSTM)              (None, 5)            320         ['bidirectional_11448[0][0]']    
                                                                                                  
 conv1d_4089 (Conv1D)           (None, 25, 5)        155         ['conv1d_4088[0][0]']            
                                                                                                  
 dense_9776 (Dense)             (None, 96)           576         ['lstm_16709[0][0]']             
                                                                                                  
 dense_9777 (Dense)             (None, 96)           576         ['lstm_16711[0][0]']             
                                                                                                  
 dense_9778 (Dense)             (None, 96)           576         ['lstm_16713[0][0]']             
                                                                                                  
 bidirectional_11449 (Bidirecti  (None, 96)          20736       ['conv1d_4089[0][0]']            
 onal)                                                                                            
                                                                                                  
 dropout_9376 (Dropout)         (None, 96)           0           ['dense_9776[0][0]']             
                                                                                                  
 dropout_9377 (Dropout)         (None, 96)           0           ['dense_9777[0][0]']             
                                                                                                  
 dropout_9378 (Dropout)         (None, 96)           0           ['dense_9778[0][0]']             
                                                                                                  
 dropout_9379 (Dropout)         (None, 96)           0           ['bidirectional_11449[0][0]']    
                                                                                                  
 concatenate_2444 (Concatenate)  (None, 384)         0           ['dropout_9376[0][0]',           
                                                                  'dropout_9377[0][0]',           
                                                                  'dropout_9378[0][0]',           
                                                                  'dropout_9379[0][0]']           
                                                                                                  
 dense_9779 (Dense)             (None, 1)            385         ['concatenate_2444[0][0]']       
                                                                                                  
==================================================================================================
Total params: 27,629
Trainable params: 27,629
Non-trainable params: 0
__________________________________________________________________________________________________
…
 bidirectional_11467 (Bidirecti  (None, None, 10)    280         ['masking_11467[0][0]']          
 onal)                                                                                            
                                                                                                  
 bidirectional_11468 (Bidirecti  (None, None, 10)    280         ['masking_11468[0][0]']          
 onal)                                                                                            
                                                                                                  
 conv1d_4098 (Conv1D)           (None, 25, 5)        3765        ['masking_11469[0][0]']          
                                                                                                  
 lstm_16744 (LSTM)              (None, 5)            320         ['bidirectional_11466[0][0]']    
                                                                                                  
 lstm_16746 (LSTM)              (None, 5)            320         ['bidirectional_11467[0][0]']    
                                                                                                  
 lstm_16748 (LSTM)              (None, 5)            320         ['bidirectional_11468[0][0]']    
                                                                                                  
 conv1d_4099 (Conv1D)           (None, 25, 5)        205         ['conv1d_4098[0][0]']            
                                                                                                  
 dense_9796 (Dense)             (None, 96)           576         ['lstm_16744[0][0]']             
                                                                                                  
 dense_9797 (Dense)             (None, 96)           576         ['lstm_16746[0][0]']             
                                                                                                  
 dense_9798 (Dense)             (None, 96)           576         ['lstm_16748[0][0]']             
                                                                                                  
 bidirectional_11469 (Bidirecti  (None, 96)          20736       ['conv1d_4099[0][0]']            
 onal)                                                                                            
                                                                                                  
 dropout_9396 (Dropout)         (None, 96)           0           ['dense_9796[0][0]']             
                                                                                                  
 dropout_9397 (Dropout)         (None, 96)           0           ['dense_9797[0][0]']             
                                                                                                  
 dropout_9398 (Dropout)         (None, 96)           0           ['dense_9798[0][0]']             
                                                                                                  
 dropout_9399 (Dropout)         (None, 96)           0           ['bidirectional_11469[0][0]']    
                                                                                                  
 concatenate_2449 (Concatenate)  (None, 384)         0           ['dropout_9396[0][0]',           
                                                                  'dropout_9397[0][0]',           
                                                                  'dropout_9398[0][0]',           
                                                                  'dropout_9399[0][0]']           
                                                                                                  
 dense_9799 (Dense)             (None, 1)            385         ['concatenate_2449[0][0]']       
                                                                                                  
==================================================================================================
Total params: 28,619
Trainable params: 28,619
Non-trainable params: 0
__________________________________________________________________________________________________
…
 bidirectional_11487 (Bidirecti  (None, None, 10)    280         ['masking_11487[0][0]']          
 onal)                                                                                            
                                                                                                  
 bidirectional_11488 (Bidirecti  (None, None, 10)    280         ['masking_11488[0][0]']          
 onal)                                                                                            
                                                                                                  
 conv1d_4108 (Conv1D)           (None, 25, 5)        1885        ['masking_11489[0][0]']          
                                                                                                  
 lstm_16779 (LSTM)              (None, 5)            320         ['bidirectional_11486[0][0]']    
                                                                                                  
 lstm_16781 (LSTM)              (None, 5)            320         ['bidirectional_11487[0][0]']    
                                                                                                  
 lstm_16783 (LSTM)              (None, 5)            320         ['bidirectional_11488[0][0]']    
                                                                                                  
 conv1d_4109 (Conv1D)           (None, 25, 5)        105         ['conv1d_4108[0][0]']            
                                                                                                  
 dense_9816 (Dense)             (None, 128)          768         ['lstm_16779[0][0]']             
                                                                                                  
 dense_9817 (Dense)             (None, 128)          768         ['lstm_16781[0][0]']             
                                                                                                  
 dense_9818 (Dense)             (None, 128)          768         ['lstm_16783[0][0]']             
                                                                                                  
 bidirectional_11489 (Bidirecti  (None, 128)         35840       ['conv1d_4109[0][0]']            
 onal)                                                                                            
                                                                                                  
 dropout_9416 (Dropout)         (None, 128)          0           ['dense_9816[0][0]']             
                                                                                                  
 dropout_9417 (Dropout)         (None, 128)          0           ['dense_9817[0][0]']             
                                                                                                  
 dropout_9418 (Dropout)         (None, 128)          0           ['dense_9818[0][0]']             
                                                                                                  
 dropout_9419 (Dropout)         (None, 128)          0           ['bidirectional_11489[0][0]']    
                                                                                                  
 concatenate_2454 (Concatenate)  (None, 512)         0           ['dropout_9416[0][0]',           
                                                                  'dropout_9417[0][0]',           
                                                                  'dropout_9418[0][0]',           
                                                                  'dropout_9419[0][0]']           
                                                                                                  
 dense_9819 (Dense)             (None, 1)            513         ['concatenate_2454[0][0]']       
                                                                                                  
==================================================================================================
Total params: 42,447
Trainable params: 42,447
Non-trainable params: 0
__________________________________________________________________________________________________
…
 bidirectional_11507 (Bidirecti  (None, None, 10)    280         ['masking_11507[0][0]']          
 onal)                                                                                            
                                                                                                  
 bidirectional_11508 (Bidirecti  (None, None, 10)    280         ['masking_11508[0][0]']          
 onal)                                                                                            
                                                                                                  
 conv1d_4118 (Conv1D)           (None, 25, 5)        2825        ['masking_11509[0][0]']          
                                                                                                  
 lstm_16814 (LSTM)              (None, 5)            320         ['bidirectional_11506[0][0]']    
                                                                                                  
 lstm_16816 (LSTM)              (None, 5)            320         ['bidirectional_11507[0][0]']    
                                                                                                  
 lstm_16818 (LSTM)              (None, 5)            320         ['bidirectional_11508[0][0]']    
                                                                                                  
 conv1d_4119 (Conv1D)           (None, 25, 5)        155         ['conv1d_4118[0][0]']            
                                                                                                  
 dense_9836 (Dense)             (None, 128)          768         ['lstm_16814[0][0]']             
                                                                                                  
 dense_9837 (Dense)             (None, 128)          768         ['lstm_16816[0][0]']             
                                                                                                  
 dense_9838 (Dense)             (None, 128)          768         ['lstm_16818[0][0]']             
                                                                                                  
 bidirectional_11509 (Bidirecti  (None, 128)         35840       ['conv1d_4119[0][0]']            
 onal)                                                                                            
                                                                                                  
 dropout_9436 (Dropout)         (None, 128)          0           ['dense_9836[0][0]']             
                                                                                                  
 dropout_9437 (Dropout)         (None, 128)          0           ['dense_9837[0][0]']             
                                                                                                  
 dropout_9438 (Dropout)         (None, 128)          0           ['dense_9838[0][0]']             
                                                                                                  
 dropout_9439 (Dropout)         (None, 128)          0           ['bidirectional_11509[0][0]']    
                                                                                                  
 concatenate_2459 (Concatenate)  (None, 512)         0           ['dropout_9436[0][0]',           
                                                                  'dropout_9437[0][0]',           
                                                                  'dropout_9438[0][0]',           
                                                                  'dropout_9439[0][0]']           
                                                                                                  
 dense_9839 (Dense)             (None, 1)            513         ['concatenate_2459[0][0]']       
                                                                                                  
==================================================================================================
Total params: 43,437
Trainable params: 43,437
Non-trainable params: 0
__________________________________________________________________________________________________
…
 bidirectional_11527 (Bidirecti  (None, None, 10)    280         ['masking_11527[0][0]']          
 onal)                                                                                            
                                                                                                  
 bidirectional_11528 (Bidirecti  (None, None, 10)    280         ['masking_11528[0][0]']          
 onal)                                                                                            
                                                                                                  
 conv1d_4128 (Conv1D)           (None, 25, 5)        3765        ['masking_11529[0][0]']          
                                                                                                  
 lstm_16849 (LSTM)              (None, 5)            320         ['bidirectional_11526[0][0]']    
                                                                                                  
 lstm_16851 (LSTM)              (None, 5)            320         ['bidirectional_11527[0][0]']    
                                                                                                  
 lstm_16853 (LSTM)              (None, 5)            320         ['bidirectional_11528[0][0]']    
                                                                                                  
 conv1d_4129 (Conv1D)           (None, 25, 5)        205         ['conv1d_4128[0][0]']            
                                                                                                  
 dense_9856 (Dense)             (None, 128)          768         ['lstm_16849[0][0]']             
                                                                                                  
 dense_9857 (Dense)             (None, 128)          768         ['lstm_16851[0][0]']             
                                                                                                  
 dense_9858 (Dense)             (None, 128)          768         ['lstm_16853[0][0]']             
                                                                                                  
 bidirectional_11529 (Bidirecti  (None, 128)         35840       ['conv1d_4129[0][0]']            
 onal)                                                                                            
                                                                                                  
 dropout_9456 (Dropout)         (None, 128)          0           ['dense_9856[0][0]']             
                                                                                                  
 dropout_9457 (Dropout)         (None, 128)          0           ['dense_9857[0][0]']             
                                                                                                  
 dropout_9458 (Dropout)         (None, 128)          0           ['dense_9858[0][0]']             
                                                                                                  
 dropout_9459 (Dropout)         (None, 128)          0           ['bidirectional_11529[0][0]']    
                                                                                                  
 concatenate_2464 (Concatenate)  (None, 512)         0           ['dropout_9456[0][0]',           
                                                                  'dropout_9457[0][0]',           
                                                                  'dropout_9458[0][0]',           
                                                                  'dropout_9459[0][0]']           
                                                                                                  
 dense_9859 (Dense)             (None, 1)            513         ['concatenate_2464[0][0]']       
                                                                                                  
==================================================================================================
Total params: 44,427
Trainable params: 44,427
Non-trainable params: 0
__________________________________________________________________________________________________
…
