…
 bidirectional_4345 (Bidirectio  (None, None, 10)    280         ['masking_4345[0][0]']           
 nal)                                                                                             
                                                                                                  
 bidirectional_4346 (Bidirectio  (None, None, 10)    280         ['masking_4346[0][0]']           
 nal)                                                                                             
                                                                                                  
 conv1d_1472 (Conv1D)           (None, 24, 5)        65          ['masking_4347[0][0]']           
                                                                                                  
 lstm_6113 (LSTM)               (None, 5)            320         ['bidirectional_4344[0][0]']     
                                                                                                  
 lstm_6115 (LSTM)               (None, 5)            320         ['bidirectional_4345[0][0]']     
                                                                                                  
 lstm_6117 (LSTM)               (None, 5)            320         ['bidirectional_4346[0][0]']     
                                                                                                  
 conv1d_1473 (Conv1D)           (None, 24, 5)        105         ['conv1d_1472[0][0]']            
                                                                                                  
 dense_3584 (Dense)             (None, 64)           384         ['lstm_6113[0][0]']              
                                                                                                  
 dense_3585 (Dense)             (None, 64)           384         ['lstm_6115[0][0]']              
                                                                                                  
 dense_3586 (Dense)             (None, 64)           384         ['lstm_6117[0][0]']              
                                                                                                  
 bidirectional_4347 (Bidirectio  (None, 64)          9728        ['conv1d_1473[0][0]']            
 nal)                                                                                             
                                                                                                  
 dropout_3424 (Dropout)         (None, 64)           0           ['dense_3584[0][0]']             
                                                                                                  
 dropout_3425 (Dropout)         (None, 64)           0           ['dense_3585[0][0]']             
                                                                                                  
 dropout_3426 (Dropout)         (None, 64)           0           ['dense_3586[0][0]']             
                                                                                                  
 dropout_3427 (Dropout)         (None, 64)           0           ['bidirectional_4347[0][0]']     
                                                                                                  
 concatenate_896 (Concatenate)  (None, 256)          0           ['dropout_3424[0][0]',           
                                                                  'dropout_3425[0][0]',           
                                                                  'dropout_3426[0][0]',           
                                                                  'dropout_3427[0][0]']           
                                                                                                  
 dense_3587 (Dense)             (None, 1)            257         ['concatenate_896[0][0]']        
                                                                                                  
==================================================================================================
Total params: 13,107
Trainable params: 13,107
Non-trainable params: 0
__________________________________________________________________________________________________
…
 bidirectional_4365 (Bidirectio  (None, None, 10)    280         ['masking_4365[0][0]']           
 nal)                                                                                             
                                                                                                  
 bidirectional_4366 (Bidirectio  (None, None, 10)    280         ['masking_4366[0][0]']           
 nal)                                                                                             
                                                                                                  
 conv1d_1482 (Conv1D)           (None, 24, 5)        95          ['masking_4367[0][0]']           
                                                                                                  
 lstm_6148 (LSTM)               (None, 5)            320         ['bidirectional_4364[0][0]']     
                                                                                                  
 lstm_6150 (LSTM)               (None, 5)            320         ['bidirectional_4365[0][0]']     
                                                                                                  
 lstm_6152 (LSTM)               (None, 5)            320         ['bidirectional_4366[0][0]']     
                                                                                                  
 conv1d_1483 (Conv1D)           (None, 24, 5)        155         ['conv1d_1482[0][0]']            
                                                                                                  
 dense_3604 (Dense)             (None, 64)           384         ['lstm_6148[0][0]']              
                                                                                                  
 dense_3605 (Dense)             (None, 64)           384         ['lstm_6150[0][0]']              
                                                                                                  
 dense_3606 (Dense)             (None, 64)           384         ['lstm_6152[0][0]']              
                                                                                                  
 bidirectional_4367 (Bidirectio  (None, 64)          9728        ['conv1d_1483[0][0]']            
 nal)                                                                                             
                                                                                                  
 dropout_3444 (Dropout)         (None, 64)           0           ['dense_3604[0][0]']             
                                                                                                  
 dropout_3445 (Dropout)         (None, 64)           0           ['dense_3605[0][0]']             
                                                                                                  
 dropout_3446 (Dropout)         (None, 64)           0           ['dense_3606[0][0]']             
                                                                                                  
 dropout_3447 (Dropout)         (None, 64)           0           ['bidirectional_4367[0][0]']     
                                                                                                  
 concatenate_901 (Concatenate)  (None, 256)          0           ['dropout_3444[0][0]',           
                                                                  'dropout_3445[0][0]',           
                                                                  'dropout_3446[0][0]',           
                                                                  'dropout_3447[0][0]']           
                                                                                                  
 dense_3607 (Dense)             (None, 1)            257         ['concatenate_901[0][0]']        
                                                                                                  
==================================================================================================
Total params: 13,187
Trainable params: 13,187
Non-trainable params: 0
__________________________________________________________________________________________________
…
 bidirectional_4385 (Bidirectio  (None, None, 10)    280         ['masking_4385[0][0]']           
 nal)                                                                                             
                                                                                                  
 bidirectional_4386 (Bidirectio  (None, None, 10)    280         ['masking_4386[0][0]']           
 nal)                                                                                             
                                                                                                  
 conv1d_1492 (Conv1D)           (None, 24, 5)        125         ['masking_4387[0][0]']           
                                                                                                  
 lstm_6183 (LSTM)               (None, 5)            320         ['bidirectional_4384[0][0]']     
                                                                                                  
 lstm_6185 (LSTM)               (None, 5)            320         ['bidirectional_4385[0][0]']     
                                                                                                  
 lstm_6187 (LSTM)               (None, 5)            320         ['bidirectional_4386[0][0]']     
                                                                                                  
 conv1d_1493 (Conv1D)           (None, 24, 5)        205         ['conv1d_1492[0][0]']            
                                                                                                  
 dense_3624 (Dense)             (None, 64)           384         ['lstm_6183[0][0]']              
                                                                                                  
 dense_3625 (Dense)             (None, 64)           384         ['lstm_6185[0][0]']              
                                                                                                  
 dense_3626 (Dense)             (None, 64)           384         ['lstm_6187[0][0]']              
                                                                                                  
 bidirectional_4387 (Bidirectio  (None, 64)          9728        ['conv1d_1493[0][0]']            
 nal)                                                                                             
                                                                                                  
 dropout_3464 (Dropout)         (None, 64)           0           ['dense_3624[0][0]']             
                                                                                                  
 dropout_3465 (Dropout)         (None, 64)           0           ['dense_3625[0][0]']             
                                                                                                  
 dropout_3466 (Dropout)         (None, 64)           0           ['dense_3626[0][0]']             
                                                                                                  
 dropout_3467 (Dropout)         (None, 64)           0           ['bidirectional_4387[0][0]']     
                                                                                                  
 concatenate_906 (Concatenate)  (None, 256)          0           ['dropout_3464[0][0]',           
                                                                  'dropout_3465[0][0]',           
                                                                  'dropout_3466[0][0]',           
                                                                  'dropout_3467[0][0]']           
                                                                                                  
 dense_3627 (Dense)             (None, 1)            257         ['concatenate_906[0][0]']        
                                                                                                  
==================================================================================================
Total params: 13,267
Trainable params: 13,267
Non-trainable params: 0
__________________________________________________________________________________________________
…
 bidirectional_4405 (Bidirectio  (None, None, 10)    280         ['masking_4405[0][0]']           
 nal)                                                                                             
                                                                                                  
 bidirectional_4406 (Bidirectio  (None, None, 10)    280         ['masking_4406[0][0]']           
 nal)                                                                                             
                                                                                                  
 conv1d_1502 (Conv1D)           (None, 24, 5)        65          ['masking_4407[0][0]']           
                                                                                                  
 lstm_6218 (LSTM)               (None, 5)            320         ['bidirectional_4404[0][0]']     
                                                                                                  
 lstm_6220 (LSTM)               (None, 5)            320         ['bidirectional_4405[0][0]']     
                                                                                                  
 lstm_6222 (LSTM)               (None, 5)            320         ['bidirectional_4406[0][0]']     
                                                                                                  
 conv1d_1503 (Conv1D)           (None, 24, 5)        105         ['conv1d_1502[0][0]']            
                                                                                                  
 dense_3644 (Dense)             (None, 96)           576         ['lstm_6218[0][0]']              
                                                                                                  
 dense_3645 (Dense)             (None, 96)           576         ['lstm_6220[0][0]']              
                                                                                                  
 dense_3646 (Dense)             (None, 96)           576         ['lstm_6222[0][0]']              
                                                                                                  
 bidirectional_4407 (Bidirectio  (None, 96)          20736       ['conv1d_1503[0][0]']            
 nal)                                                                                             
                                                                                                  
 dropout_3484 (Dropout)         (None, 96)           0           ['dense_3644[0][0]']             
                                                                                                  
 dropout_3485 (Dropout)         (None, 96)           0           ['dense_3645[0][0]']             
                                                                                                  
 dropout_3486 (Dropout)         (None, 96)           0           ['dense_3646[0][0]']             
                                                                                                  
 dropout_3487 (Dropout)         (None, 96)           0           ['bidirectional_4407[0][0]']     
                                                                                                  
 concatenate_911 (Concatenate)  (None, 384)          0           ['dropout_3484[0][0]',           
                                                                  'dropout_3485[0][0]',           
                                                                  'dropout_3486[0][0]',           
                                                                  'dropout_3487[0][0]']           
                                                                                                  
 dense_3647 (Dense)             (None, 1)            385         ['concatenate_911[0][0]']        
                                                                                                  
==================================================================================================
Total params: 24,819
Trainable params: 24,819
Non-trainable params: 0
__________________________________________________________________________________________________
…
 bidirectional_4425 (Bidirectio  (None, None, 10)    280         ['masking_4425[0][0]']           
 nal)                                                                                             
                                                                                                  
 bidirectional_4426 (Bidirectio  (None, None, 10)    280         ['masking_4426[0][0]']           
 nal)                                                                                             
                                                                                                  
 conv1d_1512 (Conv1D)           (None, 24, 5)        95          ['masking_4427[0][0]']           
                                                                                                  
 lstm_6253 (LSTM)               (None, 5)            320         ['bidirectional_4424[0][0]']     
                                                                                                  
 lstm_6255 (LSTM)               (None, 5)            320         ['bidirectional_4425[0][0]']     
                                                                                                  
 lstm_6257 (LSTM)               (None, 5)            320         ['bidirectional_4426[0][0]']     
                                                                                                  
 conv1d_1513 (Conv1D)           (None, 24, 5)        155         ['conv1d_1512[0][0]']            
                                                                                                  
 dense_3664 (Dense)             (None, 96)           576         ['lstm_6253[0][0]']              
                                                                                                  
 dense_3665 (Dense)             (None, 96)           576         ['lstm_6255[0][0]']              
                                                                                                  
 dense_3666 (Dense)             (None, 96)           576         ['lstm_6257[0][0]']              
                                                                                                  
 bidirectional_4427 (Bidirectio  (None, 96)          20736       ['conv1d_1513[0][0]']            
 nal)                                                                                             
                                                                                                  
 dropout_3504 (Dropout)         (None, 96)           0           ['dense_3664[0][0]']             
                                                                                                  
 dropout_3505 (Dropout)         (None, 96)           0           ['dense_3665[0][0]']             
                                                                                                  
 dropout_3506 (Dropout)         (None, 96)           0           ['dense_3666[0][0]']             
                                                                                                  
 dropout_3507 (Dropout)         (None, 96)           0           ['bidirectional_4427[0][0]']     
                                                                                                  
 concatenate_916 (Concatenate)  (None, 384)          0           ['dropout_3504[0][0]',           
                                                                  'dropout_3505[0][0]',           
                                                                  'dropout_3506[0][0]',           
                                                                  'dropout_3507[0][0]']           
                                                                                                  
 dense_3667 (Dense)             (None, 1)            385         ['concatenate_916[0][0]']        
                                                                                                  
==================================================================================================
Total params: 24,899
Trainable params: 24,899
Non-trainable params: 0
__________________________________________________________________________________________________
…
 bidirectional_4445 (Bidirectio  (None, None, 10)    280         ['masking_4445[0][0]']           
 nal)                                                                                             
                                                                                                  
 bidirectional_4446 (Bidirectio  (None, None, 10)    280         ['masking_4446[0][0]']           
 nal)                                                                                             
                                                                                                  
 conv1d_1522 (Conv1D)           (None, 24, 5)        125         ['masking_4447[0][0]']           
                                                                                                  
 lstm_6288 (LSTM)               (None, 5)            320         ['bidirectional_4444[0][0]']     
                                                                                                  
 lstm_6290 (LSTM)               (None, 5)            320         ['bidirectional_4445[0][0]']     
                                                                                                  
 lstm_6292 (LSTM)               (None, 5)            320         ['bidirectional_4446[0][0]']     
                                                                                                  
 conv1d_1523 (Conv1D)           (None, 24, 5)        205         ['conv1d_1522[0][0]']            
                                                                                                  
 dense_3684 (Dense)             (None, 96)           576         ['lstm_6288[0][0]']              
                                                                                                  
 dense_3685 (Dense)             (None, 96)           576         ['lstm_6290[0][0]']              
                                                                                                  
 dense_3686 (Dense)             (None, 96)           576         ['lstm_6292[0][0]']              
                                                                                                  
 bidirectional_4447 (Bidirectio  (None, 96)          20736       ['conv1d_1523[0][0]']            
 nal)                                                                                             
                                                                                                  
 dropout_3524 (Dropout)         (None, 96)           0           ['dense_3684[0][0]']             
                                                                                                  
 dropout_3525 (Dropout)         (None, 96)           0           ['dense_3685[0][0]']             
                                                                                                  
 dropout_3526 (Dropout)         (None, 96)           0           ['dense_3686[0][0]']             
                                                                                                  
 dropout_3527 (Dropout)         (None, 96)           0           ['bidirectional_4447[0][0]']     
                                                                                                  
 concatenate_921 (Concatenate)  (None, 384)          0           ['dropout_3524[0][0]',           
                                                                  'dropout_3525[0][0]',           
                                                                  'dropout_3526[0][0]',           
                                                                  'dropout_3527[0][0]']           
                                                                                                  
 dense_3687 (Dense)             (None, 1)            385         ['concatenate_921[0][0]']        
                                                                                                  
==================================================================================================
Total params: 24,979
Trainable params: 24,979
Non-trainable params: 0
__________________________________________________________________________________________________
…
 bidirectional_4465 (Bidirectio  (None, None, 10)    280         ['masking_4465[0][0]']           
 nal)                                                                                             
                                                                                                  
 bidirectional_4466 (Bidirectio  (None, None, 10)    280         ['masking_4466[0][0]']           
 nal)                                                                                             
                                                                                                  
 conv1d_1532 (Conv1D)           (None, 24, 5)        65          ['masking_4467[0][0]']           
                                                                                                  
 lstm_6323 (LSTM)               (None, 5)            320         ['bidirectional_4464[0][0]']     
                                                                                                  
 lstm_6325 (LSTM)               (None, 5)            320         ['bidirectional_4465[0][0]']     
                                                                                                  
 lstm_6327 (LSTM)               (None, 5)            320         ['bidirectional_4466[0][0]']     
                                                                                                  
 conv1d_1533 (Conv1D)           (None, 24, 5)        105         ['conv1d_1532[0][0]']            
                                                                                                  
 dense_3704 (Dense)             (None, 128)          768         ['lstm_6323[0][0]']              
                                                                                                  
 dense_3705 (Dense)             (None, 128)          768         ['lstm_6325[0][0]']              
                                                                                                  
 dense_3706 (Dense)             (None, 128)          768         ['lstm_6327[0][0]']              
                                                                                                  
 bidirectional_4467 (Bidirectio  (None, 128)         35840       ['conv1d_1533[0][0]']            
 nal)                                                                                             
                                                                                                  
 dropout_3544 (Dropout)         (None, 128)          0           ['dense_3704[0][0]']             
                                                                                                  
 dropout_3545 (Dropout)         (None, 128)          0           ['dense_3705[0][0]']             
                                                                                                  
 dropout_3546 (Dropout)         (None, 128)          0           ['dense_3706[0][0]']             
                                                                                                  
 dropout_3547 (Dropout)         (None, 128)          0           ['bidirectional_4467[0][0]']     
                                                                                                  
 concatenate_926 (Concatenate)  (None, 512)          0           ['dropout_3544[0][0]',           
                                                                  'dropout_3545[0][0]',           
                                                                  'dropout_3546[0][0]',           
                                                                  'dropout_3547[0][0]']           
                                                                                                  
 dense_3707 (Dense)             (None, 1)            513         ['concatenate_926[0][0]']        
                                                                                                  
==================================================================================================
Total params: 40,627
Trainable params: 40,627
Non-trainable params: 0
__________________________________________________________________________________________________
…
 bidirectional_4485 (Bidirectio  (None, None, 10)    280         ['masking_4485[0][0]']           
 nal)                                                                                             
                                                                                                  
 bidirectional_4486 (Bidirectio  (None, None, 10)    280         ['masking_4486[0][0]']           
 nal)                                                                                             
                                                                                                  
 conv1d_1542 (Conv1D)           (None, 24, 5)        95          ['masking_4487[0][0]']           
                                                                                                  
 lstm_6358 (LSTM)               (None, 5)            320         ['bidirectional_4484[0][0]']     
                                                                                                  
 lstm_6360 (LSTM)               (None, 5)            320         ['bidirectional_4485[0][0]']     
                                                                                                  
 lstm_6362 (LSTM)               (None, 5)            320         ['bidirectional_4486[0][0]']     
                                                                                                  
 conv1d_1543 (Conv1D)           (None, 24, 5)        155         ['conv1d_1542[0][0]']            
                                                                                                  
 dense_3724 (Dense)             (None, 128)          768         ['lstm_6358[0][0]']              
                                                                                                  
 dense_3725 (Dense)             (None, 128)          768         ['lstm_6360[0][0]']              
                                                                                                  
 dense_3726 (Dense)             (None, 128)          768         ['lstm_6362[0][0]']              
                                                                                                  
 bidirectional_4487 (Bidirectio  (None, 128)         35840       ['conv1d_1543[0][0]']            
 nal)                                                                                             
                                                                                                  
 dropout_3564 (Dropout)         (None, 128)          0           ['dense_3724[0][0]']             
                                                                                                  
 dropout_3565 (Dropout)         (None, 128)          0           ['dense_3725[0][0]']             
                                                                                                  
 dropout_3566 (Dropout)         (None, 128)          0           ['dense_3726[0][0]']             
                                                                                                  
 dropout_3567 (Dropout)         (None, 128)          0           ['bidirectional_4487[0][0]']     
                                                                                                  
 concatenate_931 (Concatenate)  (None, 512)          0           ['dropout_3564[0][0]',           
                                                                  'dropout_3565[0][0]',           
                                                                  'dropout_3566[0][0]',           
                                                                  'dropout_3567[0][0]']           
                                                                                                  
 dense_3727 (Dense)             (None, 1)            513         ['concatenate_931[0][0]']        
                                                                                                  
==================================================================================================
Total params: 40,707
Trainable params: 40,707
Non-trainable params: 0
__________________________________________________________________________________________________
…
 bidirectional_4505 (Bidirectio  (None, None, 10)    280         ['masking_4505[0][0]']           
 nal)                                                                                             
                                                                                                  
 bidirectional_4506 (Bidirectio  (None, None, 10)    280         ['masking_4506[0][0]']           
 nal)                                                                                             
                                                                                                  
 conv1d_1552 (Conv1D)           (None, 24, 5)        125         ['masking_4507[0][0]']           
                                                                                                  
 lstm_6393 (LSTM)               (None, 5)            320         ['bidirectional_4504[0][0]']     
                                                                                                  
 lstm_6395 (LSTM)               (None, 5)            320         ['bidirectional_4505[0][0]']     
                                                                                                  
 lstm_6397 (LSTM)               (None, 5)            320         ['bidirectional_4506[0][0]']     
                                                                                                  
 conv1d_1553 (Conv1D)           (None, 24, 5)        205         ['conv1d_1552[0][0]']            
                                                                                                  
 dense_3744 (Dense)             (None, 128)          768         ['lstm_6393[0][0]']              
                                                                                                  
 dense_3745 (Dense)             (None, 128)          768         ['lstm_6395[0][0]']              
                                                                                                  
 dense_3746 (Dense)             (None, 128)          768         ['lstm_6397[0][0]']              
                                                                                                  
 bidirectional_4507 (Bidirectio  (None, 128)         35840       ['conv1d_1553[0][0]']            
 nal)                                                                                             
                                                                                                  
 dropout_3584 (Dropout)         (None, 128)          0           ['dense_3744[0][0]']             
                                                                                                  
 dropout_3585 (Dropout)         (None, 128)          0           ['dense_3745[0][0]']             
                                                                                                  
 dropout_3586 (Dropout)         (None, 128)          0           ['dense_3746[0][0]']             
                                                                                                  
 dropout_3587 (Dropout)         (None, 128)          0           ['bidirectional_4507[0][0]']     
                                                                                                  
 concatenate_936 (Concatenate)  (None, 512)          0           ['dropout_3584[0][0]',           
                                                                  'dropout_3585[0][0]',           
                                                                  'dropout_3586[0][0]',           
                                                                  'dropout_3587[0][0]']           
                                                                                                  
 dense_3747 (Dense)             (None, 1)            513         ['concatenate_936[0][0]']        
                                                                                                  
==================================================================================================
Total params: 40,787
Trainable params: 40,787
Non-trainable params: 0
__________________________________________________________________________________________________
…
