…
 bidirectional_4161 (Bidirectio  (None, None, 10)    280         ['masking_4161[0][0]']           
 nal)                                                                                             
                                                                                                  
 bidirectional_4162 (Bidirectio  (None, None, 10)    280         ['masking_4162[0][0]']           
 nal)                                                                                             
                                                                                                  
 conv1d_1380 (Conv1D)           (None, 24, 5)        65          ['masking_4163[0][0]']           
                                                                                                  
 lstm_5791 (LSTM)               (None, 5)            320         ['bidirectional_4160[0][0]']     
                                                                                                  
 lstm_5793 (LSTM)               (None, 5)            320         ['bidirectional_4161[0][0]']     
                                                                                                  
 lstm_5795 (LSTM)               (None, 5)            320         ['bidirectional_4162[0][0]']     
                                                                                                  
 conv1d_1381 (Conv1D)           (None, 24, 5)        105         ['conv1d_1380[0][0]']            
                                                                                                  
 dense_3400 (Dense)             (None, 64)           384         ['lstm_5791[0][0]']              
                                                                                                  
 dense_3401 (Dense)             (None, 64)           384         ['lstm_5793[0][0]']              
                                                                                                  
 dense_3402 (Dense)             (None, 64)           384         ['lstm_5795[0][0]']              
                                                                                                  
 bidirectional_4163 (Bidirectio  (None, 64)          9728        ['conv1d_1381[0][0]']            
 nal)                                                                                             
                                                                                                  
 dropout_3240 (Dropout)         (None, 64)           0           ['dense_3400[0][0]']             
                                                                                                  
 dropout_3241 (Dropout)         (None, 64)           0           ['dense_3401[0][0]']             
                                                                                                  
 dropout_3242 (Dropout)         (None, 64)           0           ['dense_3402[0][0]']             
                                                                                                  
 dropout_3243 (Dropout)         (None, 64)           0           ['bidirectional_4163[0][0]']     
                                                                                                  
 concatenate_850 (Concatenate)  (None, 256)          0           ['dropout_3240[0][0]',           
                                                                  'dropout_3241[0][0]',           
                                                                  'dropout_3242[0][0]',           
                                                                  'dropout_3243[0][0]']           
                                                                                                  
 dense_3403 (Dense)             (None, 1)            257         ['concatenate_850[0][0]']        
                                                                                                  
==================================================================================================
Total params: 13,107
Trainable params: 13,107
Non-trainable params: 0
__________________________________________________________________________________________________
…
 bidirectional_4181 (Bidirectio  (None, None, 10)    280         ['masking_4181[0][0]']           
 nal)                                                                                             
                                                                                                  
 bidirectional_4182 (Bidirectio  (None, None, 10)    280         ['masking_4182[0][0]']           
 nal)                                                                                             
                                                                                                  
 conv1d_1390 (Conv1D)           (None, 24, 5)        95          ['masking_4183[0][0]']           
                                                                                                  
 lstm_5826 (LSTM)               (None, 5)            320         ['bidirectional_4180[0][0]']     
                                                                                                  
 lstm_5828 (LSTM)               (None, 5)            320         ['bidirectional_4181[0][0]']     
                                                                                                  
 lstm_5830 (LSTM)               (None, 5)            320         ['bidirectional_4182[0][0]']     
                                                                                                  
 conv1d_1391 (Conv1D)           (None, 24, 5)        155         ['conv1d_1390[0][0]']            
                                                                                                  
 dense_3420 (Dense)             (None, 64)           384         ['lstm_5826[0][0]']              
                                                                                                  
 dense_3421 (Dense)             (None, 64)           384         ['lstm_5828[0][0]']              
                                                                                                  
 dense_3422 (Dense)             (None, 64)           384         ['lstm_5830[0][0]']              
                                                                                                  
 bidirectional_4183 (Bidirectio  (None, 64)          9728        ['conv1d_1391[0][0]']            
 nal)                                                                                             
                                                                                                  
 dropout_3260 (Dropout)         (None, 64)           0           ['dense_3420[0][0]']             
                                                                                                  
 dropout_3261 (Dropout)         (None, 64)           0           ['dense_3421[0][0]']             
                                                                                                  
 dropout_3262 (Dropout)         (None, 64)           0           ['dense_3422[0][0]']             
                                                                                                  
 dropout_3263 (Dropout)         (None, 64)           0           ['bidirectional_4183[0][0]']     
                                                                                                  
 concatenate_855 (Concatenate)  (None, 256)          0           ['dropout_3260[0][0]',           
                                                                  'dropout_3261[0][0]',           
                                                                  'dropout_3262[0][0]',           
                                                                  'dropout_3263[0][0]']           
                                                                                                  
 dense_3423 (Dense)             (None, 1)            257         ['concatenate_855[0][0]']        
                                                                                                  
==================================================================================================
Total params: 13,187
Trainable params: 13,187
Non-trainable params: 0
__________________________________________________________________________________________________
…
 bidirectional_4201 (Bidirectio  (None, None, 10)    280         ['masking_4201[0][0]']           
 nal)                                                                                             
                                                                                                  
 bidirectional_4202 (Bidirectio  (None, None, 10)    280         ['masking_4202[0][0]']           
 nal)                                                                                             
                                                                                                  
 conv1d_1400 (Conv1D)           (None, 24, 5)        125         ['masking_4203[0][0]']           
                                                                                                  
 lstm_5861 (LSTM)               (None, 5)            320         ['bidirectional_4200[0][0]']     
                                                                                                  
 lstm_5863 (LSTM)               (None, 5)            320         ['bidirectional_4201[0][0]']     
                                                                                                  
 lstm_5865 (LSTM)               (None, 5)            320         ['bidirectional_4202[0][0]']     
                                                                                                  
 conv1d_1401 (Conv1D)           (None, 24, 5)        205         ['conv1d_1400[0][0]']            
                                                                                                  
 dense_3440 (Dense)             (None, 64)           384         ['lstm_5861[0][0]']              
                                                                                                  
 dense_3441 (Dense)             (None, 64)           384         ['lstm_5863[0][0]']              
                                                                                                  
 dense_3442 (Dense)             (None, 64)           384         ['lstm_5865[0][0]']              
                                                                                                  
 bidirectional_4203 (Bidirectio  (None, 64)          9728        ['conv1d_1401[0][0]']            
 nal)                                                                                             
                                                                                                  
 dropout_3280 (Dropout)         (None, 64)           0           ['dense_3440[0][0]']             
                                                                                                  
 dropout_3281 (Dropout)         (None, 64)           0           ['dense_3441[0][0]']             
                                                                                                  
 dropout_3282 (Dropout)         (None, 64)           0           ['dense_3442[0][0]']             
                                                                                                  
 dropout_3283 (Dropout)         (None, 64)           0           ['bidirectional_4203[0][0]']     
                                                                                                  
 concatenate_860 (Concatenate)  (None, 256)          0           ['dropout_3280[0][0]',           
                                                                  'dropout_3281[0][0]',           
                                                                  'dropout_3282[0][0]',           
                                                                  'dropout_3283[0][0]']           
                                                                                                  
 dense_3443 (Dense)             (None, 1)            257         ['concatenate_860[0][0]']        
                                                                                                  
==================================================================================================
Total params: 13,267
Trainable params: 13,267
Non-trainable params: 0
__________________________________________________________________________________________________
…
 bidirectional_4221 (Bidirectio  (None, None, 10)    280         ['masking_4221[0][0]']           
 nal)                                                                                             
                                                                                                  
 bidirectional_4222 (Bidirectio  (None, None, 10)    280         ['masking_4222[0][0]']           
 nal)                                                                                             
                                                                                                  
 conv1d_1410 (Conv1D)           (None, 24, 5)        65          ['masking_4223[0][0]']           
                                                                                                  
 lstm_5896 (LSTM)               (None, 5)            320         ['bidirectional_4220[0][0]']     
                                                                                                  
 lstm_5898 (LSTM)               (None, 5)            320         ['bidirectional_4221[0][0]']     
                                                                                                  
 lstm_5900 (LSTM)               (None, 5)            320         ['bidirectional_4222[0][0]']     
                                                                                                  
 conv1d_1411 (Conv1D)           (None, 24, 5)        105         ['conv1d_1410[0][0]']            
                                                                                                  
 dense_3460 (Dense)             (None, 96)           576         ['lstm_5896[0][0]']              
                                                                                                  
 dense_3461 (Dense)             (None, 96)           576         ['lstm_5898[0][0]']              
                                                                                                  
 dense_3462 (Dense)             (None, 96)           576         ['lstm_5900[0][0]']              
                                                                                                  
 bidirectional_4223 (Bidirectio  (None, 96)          20736       ['conv1d_1411[0][0]']            
 nal)                                                                                             
                                                                                                  
 dropout_3300 (Dropout)         (None, 96)           0           ['dense_3460[0][0]']             
                                                                                                  
 dropout_3301 (Dropout)         (None, 96)           0           ['dense_3461[0][0]']             
                                                                                                  
 dropout_3302 (Dropout)         (None, 96)           0           ['dense_3462[0][0]']             
                                                                                                  
 dropout_3303 (Dropout)         (None, 96)           0           ['bidirectional_4223[0][0]']     
                                                                                                  
 concatenate_865 (Concatenate)  (None, 384)          0           ['dropout_3300[0][0]',           
                                                                  'dropout_3301[0][0]',           
                                                                  'dropout_3302[0][0]',           
                                                                  'dropout_3303[0][0]']           
                                                                                                  
 dense_3463 (Dense)             (None, 1)            385         ['concatenate_865[0][0]']        
                                                                                                  
==================================================================================================
Total params: 24,819
Trainable params: 24,819
Non-trainable params: 0
__________________________________________________________________________________________________
…
 bidirectional_4241 (Bidirectio  (None, None, 10)    280         ['masking_4241[0][0]']           
 nal)                                                                                             
                                                                                                  
 bidirectional_4242 (Bidirectio  (None, None, 10)    280         ['masking_4242[0][0]']           
 nal)                                                                                             
                                                                                                  
 conv1d_1420 (Conv1D)           (None, 24, 5)        95          ['masking_4243[0][0]']           
                                                                                                  
 lstm_5931 (LSTM)               (None, 5)            320         ['bidirectional_4240[0][0]']     
                                                                                                  
 lstm_5933 (LSTM)               (None, 5)            320         ['bidirectional_4241[0][0]']     
                                                                                                  
 lstm_5935 (LSTM)               (None, 5)            320         ['bidirectional_4242[0][0]']     
                                                                                                  
 conv1d_1421 (Conv1D)           (None, 24, 5)        155         ['conv1d_1420[0][0]']            
                                                                                                  
 dense_3480 (Dense)             (None, 96)           576         ['lstm_5931[0][0]']              
                                                                                                  
 dense_3481 (Dense)             (None, 96)           576         ['lstm_5933[0][0]']              
                                                                                                  
 dense_3482 (Dense)             (None, 96)           576         ['lstm_5935[0][0]']              
                                                                                                  
 bidirectional_4243 (Bidirectio  (None, 96)          20736       ['conv1d_1421[0][0]']            
 nal)                                                                                             
                                                                                                  
 dropout_3320 (Dropout)         (None, 96)           0           ['dense_3480[0][0]']             
                                                                                                  
 dropout_3321 (Dropout)         (None, 96)           0           ['dense_3481[0][0]']             
                                                                                                  
 dropout_3322 (Dropout)         (None, 96)           0           ['dense_3482[0][0]']             
                                                                                                  
 dropout_3323 (Dropout)         (None, 96)           0           ['bidirectional_4243[0][0]']     
                                                                                                  
 concatenate_870 (Concatenate)  (None, 384)          0           ['dropout_3320[0][0]',           
                                                                  'dropout_3321[0][0]',           
                                                                  'dropout_3322[0][0]',           
                                                                  'dropout_3323[0][0]']           
                                                                                                  
 dense_3483 (Dense)             (None, 1)            385         ['concatenate_870[0][0]']        
                                                                                                  
==================================================================================================
Total params: 24,899
Trainable params: 24,899
Non-trainable params: 0
__________________________________________________________________________________________________
…
 bidirectional_4261 (Bidirectio  (None, None, 10)    280         ['masking_4261[0][0]']           
 nal)                                                                                             
                                                                                                  
 bidirectional_4262 (Bidirectio  (None, None, 10)    280         ['masking_4262[0][0]']           
 nal)                                                                                             
                                                                                                  
 conv1d_1430 (Conv1D)           (None, 24, 5)        125         ['masking_4263[0][0]']           
                                                                                                  
 lstm_5966 (LSTM)               (None, 5)            320         ['bidirectional_4260[0][0]']     
                                                                                                  
 lstm_5968 (LSTM)               (None, 5)            320         ['bidirectional_4261[0][0]']     
                                                                                                  
 lstm_5970 (LSTM)               (None, 5)            320         ['bidirectional_4262[0][0]']     
                                                                                                  
 conv1d_1431 (Conv1D)           (None, 24, 5)        205         ['conv1d_1430[0][0]']            
                                                                                                  
 dense_3500 (Dense)             (None, 96)           576         ['lstm_5966[0][0]']              
                                                                                                  
 dense_3501 (Dense)             (None, 96)           576         ['lstm_5968[0][0]']              
                                                                                                  
 dense_3502 (Dense)             (None, 96)           576         ['lstm_5970[0][0]']              
                                                                                                  
 bidirectional_4263 (Bidirectio  (None, 96)          20736       ['conv1d_1431[0][0]']            
 nal)                                                                                             
                                                                                                  
 dropout_3340 (Dropout)         (None, 96)           0           ['dense_3500[0][0]']             
                                                                                                  
 dropout_3341 (Dropout)         (None, 96)           0           ['dense_3501[0][0]']             
                                                                                                  
 dropout_3342 (Dropout)         (None, 96)           0           ['dense_3502[0][0]']             
                                                                                                  
 dropout_3343 (Dropout)         (None, 96)           0           ['bidirectional_4263[0][0]']     
                                                                                                  
 concatenate_875 (Concatenate)  (None, 384)          0           ['dropout_3340[0][0]',           
                                                                  'dropout_3341[0][0]',           
                                                                  'dropout_3342[0][0]',           
                                                                  'dropout_3343[0][0]']           
                                                                                                  
 dense_3503 (Dense)             (None, 1)            385         ['concatenate_875[0][0]']        
                                                                                                  
==================================================================================================
Total params: 24,979
Trainable params: 24,979
Non-trainable params: 0
__________________________________________________________________________________________________
…
 bidirectional_4281 (Bidirectio  (None, None, 10)    280         ['masking_4281[0][0]']           
 nal)                                                                                             
                                                                                                  
 bidirectional_4282 (Bidirectio  (None, None, 10)    280         ['masking_4282[0][0]']           
 nal)                                                                                             
                                                                                                  
 conv1d_1440 (Conv1D)           (None, 24, 5)        65          ['masking_4283[0][0]']           
                                                                                                  
 lstm_6001 (LSTM)               (None, 5)            320         ['bidirectional_4280[0][0]']     
                                                                                                  
 lstm_6003 (LSTM)               (None, 5)            320         ['bidirectional_4281[0][0]']     
                                                                                                  
 lstm_6005 (LSTM)               (None, 5)            320         ['bidirectional_4282[0][0]']     
                                                                                                  
 conv1d_1441 (Conv1D)           (None, 24, 5)        105         ['conv1d_1440[0][0]']            
                                                                                                  
 dense_3520 (Dense)             (None, 128)          768         ['lstm_6001[0][0]']              
                                                                                                  
 dense_3521 (Dense)             (None, 128)          768         ['lstm_6003[0][0]']              
                                                                                                  
 dense_3522 (Dense)             (None, 128)          768         ['lstm_6005[0][0]']              
                                                                                                  
 bidirectional_4283 (Bidirectio  (None, 128)         35840       ['conv1d_1441[0][0]']            
 nal)                                                                                             
                                                                                                  
 dropout_3360 (Dropout)         (None, 128)          0           ['dense_3520[0][0]']             
                                                                                                  
 dropout_3361 (Dropout)         (None, 128)          0           ['dense_3521[0][0]']             
                                                                                                  
 dropout_3362 (Dropout)         (None, 128)          0           ['dense_3522[0][0]']             
                                                                                                  
 dropout_3363 (Dropout)         (None, 128)          0           ['bidirectional_4283[0][0]']     
                                                                                                  
 concatenate_880 (Concatenate)  (None, 512)          0           ['dropout_3360[0][0]',           
                                                                  'dropout_3361[0][0]',           
                                                                  'dropout_3362[0][0]',           
                                                                  'dropout_3363[0][0]']           
                                                                                                  
 dense_3523 (Dense)             (None, 1)            513         ['concatenate_880[0][0]']        
                                                                                                  
==================================================================================================
Total params: 40,627
Trainable params: 40,627
Non-trainable params: 0
__________________________________________________________________________________________________
…
 bidirectional_4301 (Bidirectio  (None, None, 10)    280         ['masking_4301[0][0]']           
 nal)                                                                                             
                                                                                                  
 bidirectional_4302 (Bidirectio  (None, None, 10)    280         ['masking_4302[0][0]']           
 nal)                                                                                             
                                                                                                  
 conv1d_1450 (Conv1D)           (None, 24, 5)        95          ['masking_4303[0][0]']           
                                                                                                  
 lstm_6036 (LSTM)               (None, 5)            320         ['bidirectional_4300[0][0]']     
                                                                                                  
 lstm_6038 (LSTM)               (None, 5)            320         ['bidirectional_4301[0][0]']     
                                                                                                  
 lstm_6040 (LSTM)               (None, 5)            320         ['bidirectional_4302[0][0]']     
                                                                                                  
 conv1d_1451 (Conv1D)           (None, 24, 5)        155         ['conv1d_1450[0][0]']            
                                                                                                  
 dense_3540 (Dense)             (None, 128)          768         ['lstm_6036[0][0]']              
                                                                                                  
 dense_3541 (Dense)             (None, 128)          768         ['lstm_6038[0][0]']              
                                                                                                  
 dense_3542 (Dense)             (None, 128)          768         ['lstm_6040[0][0]']              
                                                                                                  
 bidirectional_4303 (Bidirectio  (None, 128)         35840       ['conv1d_1451[0][0]']            
 nal)                                                                                             
                                                                                                  
 dropout_3380 (Dropout)         (None, 128)          0           ['dense_3540[0][0]']             
                                                                                                  
 dropout_3381 (Dropout)         (None, 128)          0           ['dense_3541[0][0]']             
                                                                                                  
 dropout_3382 (Dropout)         (None, 128)          0           ['dense_3542[0][0]']             
                                                                                                  
 dropout_3383 (Dropout)         (None, 128)          0           ['bidirectional_4303[0][0]']     
                                                                                                  
 concatenate_885 (Concatenate)  (None, 512)          0           ['dropout_3380[0][0]',           
                                                                  'dropout_3381[0][0]',           
                                                                  'dropout_3382[0][0]',           
                                                                  'dropout_3383[0][0]']           
                                                                                                  
 dense_3543 (Dense)             (None, 1)            513         ['concatenate_885[0][0]']        
                                                                                                  
==================================================================================================
Total params: 40,707
Trainable params: 40,707
Non-trainable params: 0
__________________________________________________________________________________________________
…
 bidirectional_4321 (Bidirectio  (None, None, 10)    280         ['masking_4321[0][0]']           
 nal)                                                                                             
                                                                                                  
 bidirectional_4322 (Bidirectio  (None, None, 10)    280         ['masking_4322[0][0]']           
 nal)                                                                                             
                                                                                                  
 conv1d_1460 (Conv1D)           (None, 24, 5)        125         ['masking_4323[0][0]']           
                                                                                                  
 lstm_6071 (LSTM)               (None, 5)            320         ['bidirectional_4320[0][0]']     
                                                                                                  
 lstm_6073 (LSTM)               (None, 5)            320         ['bidirectional_4321[0][0]']     
                                                                                                  
 lstm_6075 (LSTM)               (None, 5)            320         ['bidirectional_4322[0][0]']     
                                                                                                  
 conv1d_1461 (Conv1D)           (None, 24, 5)        205         ['conv1d_1460[0][0]']            
                                                                                                  
 dense_3560 (Dense)             (None, 128)          768         ['lstm_6071[0][0]']              
                                                                                                  
 dense_3561 (Dense)             (None, 128)          768         ['lstm_6073[0][0]']              
                                                                                                  
 dense_3562 (Dense)             (None, 128)          768         ['lstm_6075[0][0]']              
                                                                                                  
 bidirectional_4323 (Bidirectio  (None, 128)         35840       ['conv1d_1461[0][0]']            
 nal)                                                                                             
                                                                                                  
 dropout_3400 (Dropout)         (None, 128)          0           ['dense_3560[0][0]']             
                                                                                                  
 dropout_3401 (Dropout)         (None, 128)          0           ['dense_3561[0][0]']             
                                                                                                  
 dropout_3402 (Dropout)         (None, 128)          0           ['dense_3562[0][0]']             
                                                                                                  
 dropout_3403 (Dropout)         (None, 128)          0           ['bidirectional_4323[0][0]']     
                                                                                                  
 concatenate_890 (Concatenate)  (None, 512)          0           ['dropout_3400[0][0]',           
                                                                  'dropout_3401[0][0]',           
                                                                  'dropout_3402[0][0]',           
                                                                  'dropout_3403[0][0]']           
                                                                                                  
 dense_3563 (Dense)             (None, 1)            513         ['concatenate_890[0][0]']        
                                                                                                  
==================================================================================================
Total params: 40,787
Trainable params: 40,787
Non-trainable params: 0
__________________________________________________________________________________________________
…
