…
 bidirectional_3379 (Bidirectio  (None, None, 10)    280         ['masking_3379[0][0]']           
 nal)                                                                                             
                                                                                                  
 bidirectional_3380 (Bidirectio  (None, None, 10)    280         ['masking_3380[0][0]']           
 nal)                                                                                             
                                                                                                  
 conv1d_1104 (Conv1D)           (None, 25, 5)        1885        ['masking_3381[0][0]']           
                                                                                                  
 lstm_4825 (LSTM)               (None, 5)            320         ['bidirectional_3378[0][0]']     
                                                                                                  
 lstm_4827 (LSTM)               (None, 5)            320         ['bidirectional_3379[0][0]']     
                                                                                                  
 lstm_4829 (LSTM)               (None, 5)            320         ['bidirectional_3380[0][0]']     
                                                                                                  
 conv1d_1105 (Conv1D)           (None, 25, 5)        105         ['conv1d_1104[0][0]']            
                                                                                                  
 dense_2848 (Dense)             (None, 64)           384         ['lstm_4825[0][0]']              
                                                                                                  
 dense_2849 (Dense)             (None, 64)           384         ['lstm_4827[0][0]']              
                                                                                                  
 dense_2850 (Dense)             (None, 64)           384         ['lstm_4829[0][0]']              
                                                                                                  
 bidirectional_3381 (Bidirectio  (None, 64)          9728        ['conv1d_1105[0][0]']            
 nal)                                                                                             
                                                                                                  
 dropout_2688 (Dropout)         (None, 64)           0           ['dense_2848[0][0]']             
                                                                                                  
 dropout_2689 (Dropout)         (None, 64)           0           ['dense_2849[0][0]']             
                                                                                                  
 dropout_2690 (Dropout)         (None, 64)           0           ['dense_2850[0][0]']             
                                                                                                  
 dropout_2691 (Dropout)         (None, 64)           0           ['bidirectional_3381[0][0]']     
                                                                                                  
 concatenate_712 (Concatenate)  (None, 256)          0           ['dropout_2688[0][0]',           
                                                                  'dropout_2689[0][0]',           
                                                                  'dropout_2690[0][0]',           
                                                                  'dropout_2691[0][0]']           
                                                                                                  
 dense_2851 (Dense)             (None, 1)            257         ['concatenate_712[0][0]']        
                                                                                                  
==================================================================================================
Total params: 14,927
Trainable params: 14,927
Non-trainable params: 0
__________________________________________________________________________________________________
…
 bidirectional_3399 (Bidirectio  (None, None, 10)    280         ['masking_3399[0][0]']           
 nal)                                                                                             
                                                                                                  
 bidirectional_3400 (Bidirectio  (None, None, 10)    280         ['masking_3400[0][0]']           
 nal)                                                                                             
                                                                                                  
 conv1d_1114 (Conv1D)           (None, 25, 5)        2825        ['masking_3401[0][0]']           
                                                                                                  
 lstm_4860 (LSTM)               (None, 5)            320         ['bidirectional_3398[0][0]']     
                                                                                                  
 lstm_4862 (LSTM)               (None, 5)            320         ['bidirectional_3399[0][0]']     
                                                                                                  
 lstm_4864 (LSTM)               (None, 5)            320         ['bidirectional_3400[0][0]']     
                                                                                                  
 conv1d_1115 (Conv1D)           (None, 25, 5)        155         ['conv1d_1114[0][0]']            
                                                                                                  
 dense_2868 (Dense)             (None, 64)           384         ['lstm_4860[0][0]']              
                                                                                                  
 dense_2869 (Dense)             (None, 64)           384         ['lstm_4862[0][0]']              
                                                                                                  
 dense_2870 (Dense)             (None, 64)           384         ['lstm_4864[0][0]']              
                                                                                                  
 bidirectional_3401 (Bidirectio  (None, 64)          9728        ['conv1d_1115[0][0]']            
 nal)                                                                                             
                                                                                                  
 dropout_2708 (Dropout)         (None, 64)           0           ['dense_2868[0][0]']             
                                                                                                  
 dropout_2709 (Dropout)         (None, 64)           0           ['dense_2869[0][0]']             
                                                                                                  
 dropout_2710 (Dropout)         (None, 64)           0           ['dense_2870[0][0]']             
                                                                                                  
 dropout_2711 (Dropout)         (None, 64)           0           ['bidirectional_3401[0][0]']     
                                                                                                  
 concatenate_717 (Concatenate)  (None, 256)          0           ['dropout_2708[0][0]',           
                                                                  'dropout_2709[0][0]',           
                                                                  'dropout_2710[0][0]',           
                                                                  'dropout_2711[0][0]']           
                                                                                                  
 dense_2871 (Dense)             (None, 1)            257         ['concatenate_717[0][0]']        
                                                                                                  
==================================================================================================
Total params: 15,917
Trainable params: 15,917
Non-trainable params: 0
__________________________________________________________________________________________________
…
 bidirectional_3419 (Bidirectio  (None, None, 10)    280         ['masking_3419[0][0]']           
 nal)                                                                                             
                                                                                                  
 bidirectional_3420 (Bidirectio  (None, None, 10)    280         ['masking_3420[0][0]']           
 nal)                                                                                             
                                                                                                  
 conv1d_1124 (Conv1D)           (None, 25, 5)        3765        ['masking_3421[0][0]']           
                                                                                                  
 lstm_4895 (LSTM)               (None, 5)            320         ['bidirectional_3418[0][0]']     
                                                                                                  
 lstm_4897 (LSTM)               (None, 5)            320         ['bidirectional_3419[0][0]']     
                                                                                                  
 lstm_4899 (LSTM)               (None, 5)            320         ['bidirectional_3420[0][0]']     
                                                                                                  
 conv1d_1125 (Conv1D)           (None, 25, 5)        205         ['conv1d_1124[0][0]']            
                                                                                                  
 dense_2888 (Dense)             (None, 64)           384         ['lstm_4895[0][0]']              
                                                                                                  
 dense_2889 (Dense)             (None, 64)           384         ['lstm_4897[0][0]']              
                                                                                                  
 dense_2890 (Dense)             (None, 64)           384         ['lstm_4899[0][0]']              
                                                                                                  
 bidirectional_3421 (Bidirectio  (None, 64)          9728        ['conv1d_1125[0][0]']            
 nal)                                                                                             
                                                                                                  
 dropout_2728 (Dropout)         (None, 64)           0           ['dense_2888[0][0]']             
                                                                                                  
 dropout_2729 (Dropout)         (None, 64)           0           ['dense_2889[0][0]']             
                                                                                                  
 dropout_2730 (Dropout)         (None, 64)           0           ['dense_2890[0][0]']             
                                                                                                  
 dropout_2731 (Dropout)         (None, 64)           0           ['bidirectional_3421[0][0]']     
                                                                                                  
 concatenate_722 (Concatenate)  (None, 256)          0           ['dropout_2728[0][0]',           
                                                                  'dropout_2729[0][0]',           
                                                                  'dropout_2730[0][0]',           
                                                                  'dropout_2731[0][0]']           
                                                                                                  
 dense_2891 (Dense)             (None, 1)            257         ['concatenate_722[0][0]']        
                                                                                                  
==================================================================================================
Total params: 16,907
Trainable params: 16,907
Non-trainable params: 0
__________________________________________________________________________________________________
…
 bidirectional_3439 (Bidirectio  (None, None, 10)    280         ['masking_3439[0][0]']           
 nal)                                                                                             
                                                                                                  
 bidirectional_3440 (Bidirectio  (None, None, 10)    280         ['masking_3440[0][0]']           
 nal)                                                                                             
                                                                                                  
 conv1d_1134 (Conv1D)           (None, 25, 5)        1885        ['masking_3441[0][0]']           
                                                                                                  
 lstm_4930 (LSTM)               (None, 5)            320         ['bidirectional_3438[0][0]']     
                                                                                                  
 lstm_4932 (LSTM)               (None, 5)            320         ['bidirectional_3439[0][0]']     
                                                                                                  
 lstm_4934 (LSTM)               (None, 5)            320         ['bidirectional_3440[0][0]']     
                                                                                                  
 conv1d_1135 (Conv1D)           (None, 25, 5)        105         ['conv1d_1134[0][0]']            
                                                                                                  
 dense_2908 (Dense)             (None, 96)           576         ['lstm_4930[0][0]']              
                                                                                                  
 dense_2909 (Dense)             (None, 96)           576         ['lstm_4932[0][0]']              
                                                                                                  
 dense_2910 (Dense)             (None, 96)           576         ['lstm_4934[0][0]']              
                                                                                                  
 bidirectional_3441 (Bidirectio  (None, 96)          20736       ['conv1d_1135[0][0]']            
 nal)                                                                                             
                                                                                                  
 dropout_2748 (Dropout)         (None, 96)           0           ['dense_2908[0][0]']             
                                                                                                  
 dropout_2749 (Dropout)         (None, 96)           0           ['dense_2909[0][0]']             
                                                                                                  
 dropout_2750 (Dropout)         (None, 96)           0           ['dense_2910[0][0]']             
                                                                                                  
 dropout_2751 (Dropout)         (None, 96)           0           ['bidirectional_3441[0][0]']     
                                                                                                  
 concatenate_727 (Concatenate)  (None, 384)          0           ['dropout_2748[0][0]',           
                                                                  'dropout_2749[0][0]',           
                                                                  'dropout_2750[0][0]',           
                                                                  'dropout_2751[0][0]']           
                                                                                                  
 dense_2911 (Dense)             (None, 1)            385         ['concatenate_727[0][0]']        
                                                                                                  
==================================================================================================
Total params: 26,639
Trainable params: 26,639
Non-trainable params: 0
__________________________________________________________________________________________________
…
 bidirectional_3459 (Bidirectio  (None, None, 10)    280         ['masking_3459[0][0]']           
 nal)                                                                                             
                                                                                                  
 bidirectional_3460 (Bidirectio  (None, None, 10)    280         ['masking_3460[0][0]']           
 nal)                                                                                             
                                                                                                  
 conv1d_1144 (Conv1D)           (None, 25, 5)        2825        ['masking_3461[0][0]']           
                                                                                                  
 lstm_4965 (LSTM)               (None, 5)            320         ['bidirectional_3458[0][0]']     
                                                                                                  
 lstm_4967 (LSTM)               (None, 5)            320         ['bidirectional_3459[0][0]']     
                                                                                                  
 lstm_4969 (LSTM)               (None, 5)            320         ['bidirectional_3460[0][0]']     
                                                                                                  
 conv1d_1145 (Conv1D)           (None, 25, 5)        155         ['conv1d_1144[0][0]']            
                                                                                                  
 dense_2928 (Dense)             (None, 96)           576         ['lstm_4965[0][0]']              
                                                                                                  
 dense_2929 (Dense)             (None, 96)           576         ['lstm_4967[0][0]']              
                                                                                                  
 dense_2930 (Dense)             (None, 96)           576         ['lstm_4969[0][0]']              
                                                                                                  
 bidirectional_3461 (Bidirectio  (None, 96)          20736       ['conv1d_1145[0][0]']            
 nal)                                                                                             
                                                                                                  
 dropout_2768 (Dropout)         (None, 96)           0           ['dense_2928[0][0]']             
                                                                                                  
 dropout_2769 (Dropout)         (None, 96)           0           ['dense_2929[0][0]']             
                                                                                                  
 dropout_2770 (Dropout)         (None, 96)           0           ['dense_2930[0][0]']             
                                                                                                  
 dropout_2771 (Dropout)         (None, 96)           0           ['bidirectional_3461[0][0]']     
                                                                                                  
 concatenate_732 (Concatenate)  (None, 384)          0           ['dropout_2768[0][0]',           
                                                                  'dropout_2769[0][0]',           
                                                                  'dropout_2770[0][0]',           
                                                                  'dropout_2771[0][0]']           
                                                                                                  
 dense_2931 (Dense)             (None, 1)            385         ['concatenate_732[0][0]']        
                                                                                                  
==================================================================================================
Total params: 27,629
Trainable params: 27,629
Non-trainable params: 0
__________________________________________________________________________________________________
…
 bidirectional_3479 (Bidirectio  (None, None, 10)    280         ['masking_3479[0][0]']           
 nal)                                                                                             
                                                                                                  
 bidirectional_3480 (Bidirectio  (None, None, 10)    280         ['masking_3480[0][0]']           
 nal)                                                                                             
                                                                                                  
 conv1d_1154 (Conv1D)           (None, 25, 5)        3765        ['masking_3481[0][0]']           
                                                                                                  
 lstm_5000 (LSTM)               (None, 5)            320         ['bidirectional_3478[0][0]']     
                                                                                                  
 lstm_5002 (LSTM)               (None, 5)            320         ['bidirectional_3479[0][0]']     
                                                                                                  
 lstm_5004 (LSTM)               (None, 5)            320         ['bidirectional_3480[0][0]']     
                                                                                                  
 conv1d_1155 (Conv1D)           (None, 25, 5)        205         ['conv1d_1154[0][0]']            
                                                                                                  
 dense_2948 (Dense)             (None, 96)           576         ['lstm_5000[0][0]']              
                                                                                                  
 dense_2949 (Dense)             (None, 96)           576         ['lstm_5002[0][0]']              
                                                                                                  
 dense_2950 (Dense)             (None, 96)           576         ['lstm_5004[0][0]']              
                                                                                                  
 bidirectional_3481 (Bidirectio  (None, 96)          20736       ['conv1d_1155[0][0]']            
 nal)                                                                                             
                                                                                                  
 dropout_2788 (Dropout)         (None, 96)           0           ['dense_2948[0][0]']             
                                                                                                  
 dropout_2789 (Dropout)         (None, 96)           0           ['dense_2949[0][0]']             
                                                                                                  
 dropout_2790 (Dropout)         (None, 96)           0           ['dense_2950[0][0]']             
                                                                                                  
 dropout_2791 (Dropout)         (None, 96)           0           ['bidirectional_3481[0][0]']     
                                                                                                  
 concatenate_737 (Concatenate)  (None, 384)          0           ['dropout_2788[0][0]',           
                                                                  'dropout_2789[0][0]',           
                                                                  'dropout_2790[0][0]',           
                                                                  'dropout_2791[0][0]']           
                                                                                                  
 dense_2951 (Dense)             (None, 1)            385         ['concatenate_737[0][0]']        
                                                                                                  
==================================================================================================
Total params: 28,619
Trainable params: 28,619
Non-trainable params: 0
__________________________________________________________________________________________________
…
 bidirectional_3499 (Bidirectio  (None, None, 10)    280         ['masking_3499[0][0]']           
 nal)                                                                                             
                                                                                                  
 bidirectional_3500 (Bidirectio  (None, None, 10)    280         ['masking_3500[0][0]']           
 nal)                                                                                             
                                                                                                  
 conv1d_1164 (Conv1D)           (None, 25, 5)        1885        ['masking_3501[0][0]']           
                                                                                                  
 lstm_5035 (LSTM)               (None, 5)            320         ['bidirectional_3498[0][0]']     
                                                                                                  
 lstm_5037 (LSTM)               (None, 5)            320         ['bidirectional_3499[0][0]']     
                                                                                                  
 lstm_5039 (LSTM)               (None, 5)            320         ['bidirectional_3500[0][0]']     
                                                                                                  
 conv1d_1165 (Conv1D)           (None, 25, 5)        105         ['conv1d_1164[0][0]']            
                                                                                                  
 dense_2968 (Dense)             (None, 128)          768         ['lstm_5035[0][0]']              
                                                                                                  
 dense_2969 (Dense)             (None, 128)          768         ['lstm_5037[0][0]']              
                                                                                                  
 dense_2970 (Dense)             (None, 128)          768         ['lstm_5039[0][0]']              
                                                                                                  
 bidirectional_3501 (Bidirectio  (None, 128)         35840       ['conv1d_1165[0][0]']            
 nal)                                                                                             
                                                                                                  
 dropout_2808 (Dropout)         (None, 128)          0           ['dense_2968[0][0]']             
                                                                                                  
 dropout_2809 (Dropout)         (None, 128)          0           ['dense_2969[0][0]']             
                                                                                                  
 dropout_2810 (Dropout)         (None, 128)          0           ['dense_2970[0][0]']             
                                                                                                  
 dropout_2811 (Dropout)         (None, 128)          0           ['bidirectional_3501[0][0]']     
                                                                                                  
 concatenate_742 (Concatenate)  (None, 512)          0           ['dropout_2808[0][0]',           
                                                                  'dropout_2809[0][0]',           
                                                                  'dropout_2810[0][0]',           
                                                                  'dropout_2811[0][0]']           
                                                                                                  
 dense_2971 (Dense)             (None, 1)            513         ['concatenate_742[0][0]']        
                                                                                                  
==================================================================================================
Total params: 42,447
Trainable params: 42,447
Non-trainable params: 0
__________________________________________________________________________________________________
…
 bidirectional_3519 (Bidirectio  (None, None, 10)    280         ['masking_3519[0][0]']           
 nal)                                                                                             
                                                                                                  
 bidirectional_3520 (Bidirectio  (None, None, 10)    280         ['masking_3520[0][0]']           
 nal)                                                                                             
                                                                                                  
 conv1d_1174 (Conv1D)           (None, 25, 5)        2825        ['masking_3521[0][0]']           
                                                                                                  
 lstm_5070 (LSTM)               (None, 5)            320         ['bidirectional_3518[0][0]']     
                                                                                                  
 lstm_5072 (LSTM)               (None, 5)            320         ['bidirectional_3519[0][0]']     
                                                                                                  
 lstm_5074 (LSTM)               (None, 5)            320         ['bidirectional_3520[0][0]']     
                                                                                                  
 conv1d_1175 (Conv1D)           (None, 25, 5)        155         ['conv1d_1174[0][0]']            
                                                                                                  
 dense_2988 (Dense)             (None, 128)          768         ['lstm_5070[0][0]']              
                                                                                                  
 dense_2989 (Dense)             (None, 128)          768         ['lstm_5072[0][0]']              
                                                                                                  
 dense_2990 (Dense)             (None, 128)          768         ['lstm_5074[0][0]']              
                                                                                                  
 bidirectional_3521 (Bidirectio  (None, 128)         35840       ['conv1d_1175[0][0]']            
 nal)                                                                                             
                                                                                                  
 dropout_2828 (Dropout)         (None, 128)          0           ['dense_2988[0][0]']             
                                                                                                  
 dropout_2829 (Dropout)         (None, 128)          0           ['dense_2989[0][0]']             
                                                                                                  
 dropout_2830 (Dropout)         (None, 128)          0           ['dense_2990[0][0]']             
                                                                                                  
 dropout_2831 (Dropout)         (None, 128)          0           ['bidirectional_3521[0][0]']     
                                                                                                  
 concatenate_747 (Concatenate)  (None, 512)          0           ['dropout_2828[0][0]',           
                                                                  'dropout_2829[0][0]',           
                                                                  'dropout_2830[0][0]',           
                                                                  'dropout_2831[0][0]']           
                                                                                                  
 dense_2991 (Dense)             (None, 1)            513         ['concatenate_747[0][0]']        
                                                                                                  
==================================================================================================
Total params: 43,437
Trainable params: 43,437
Non-trainable params: 0
__________________________________________________________________________________________________
…
 bidirectional_3539 (Bidirectio  (None, None, 10)    280         ['masking_3539[0][0]']           
 nal)                                                                                             
                                                                                                  
 bidirectional_3540 (Bidirectio  (None, None, 10)    280         ['masking_3540[0][0]']           
 nal)                                                                                             
                                                                                                  
 conv1d_1184 (Conv1D)           (None, 25, 5)        3765        ['masking_3541[0][0]']           
                                                                                                  
 lstm_5105 (LSTM)               (None, 5)            320         ['bidirectional_3538[0][0]']     
                                                                                                  
 lstm_5107 (LSTM)               (None, 5)            320         ['bidirectional_3539[0][0]']     
                                                                                                  
 lstm_5109 (LSTM)               (None, 5)            320         ['bidirectional_3540[0][0]']     
                                                                                                  
 conv1d_1185 (Conv1D)           (None, 25, 5)        205         ['conv1d_1184[0][0]']            
                                                                                                  
 dense_3008 (Dense)             (None, 128)          768         ['lstm_5105[0][0]']              
                                                                                                  
 dense_3009 (Dense)             (None, 128)          768         ['lstm_5107[0][0]']              
                                                                                                  
 dense_3010 (Dense)             (None, 128)          768         ['lstm_5109[0][0]']              
                                                                                                  
 bidirectional_3541 (Bidirectio  (None, 128)         35840       ['conv1d_1185[0][0]']            
 nal)                                                                                             
                                                                                                  
 dropout_2848 (Dropout)         (None, 128)          0           ['dense_3008[0][0]']             
                                                                                                  
 dropout_2849 (Dropout)         (None, 128)          0           ['dense_3009[0][0]']             
                                                                                                  
 dropout_2850 (Dropout)         (None, 128)          0           ['dense_3010[0][0]']             
                                                                                                  
 dropout_2851 (Dropout)         (None, 128)          0           ['bidirectional_3541[0][0]']     
                                                                                                  
 concatenate_752 (Concatenate)  (None, 512)          0           ['dropout_2848[0][0]',           
                                                                  'dropout_2849[0][0]',           
                                                                  'dropout_2850[0][0]',           
                                                                  'dropout_2851[0][0]']           
                                                                                                  
 dense_3011 (Dense)             (None, 1)            513         ['concatenate_752[0][0]']        
                                                                                                  
==================================================================================================
Total params: 44,427
Trainable params: 44,427
Non-trainable params: 0
__________________________________________________________________________________________________
…
