…
 bidirectional_8091 (Bidirectio  (None, None, 10)    280         ['masking_8091[0][0]']           
 nal)                                                                                             
                                                                                                  
 bidirectional_8092 (Bidirectio  (None, None, 10)    280         ['masking_8092[0][0]']           
 nal)                                                                                             
                                                                                                  
 conv1d_2760 (Conv1D)           (None, 25, 5)        1885        ['masking_8093[0][0]']           
                                                                                                  
 lstm_11581 (LSTM)              (None, 5)            320         ['bidirectional_8090[0][0]']     
                                                                                                  
 lstm_11583 (LSTM)              (None, 5)            320         ['bidirectional_8091[0][0]']     
                                                                                                  
 lstm_11585 (LSTM)              (None, 5)            320         ['bidirectional_8092[0][0]']     
                                                                                                  
 conv1d_2761 (Conv1D)           (None, 25, 5)        105         ['conv1d_2760[0][0]']            
                                                                                                  
 dense_6800 (Dense)             (None, 64)           384         ['lstm_11581[0][0]']             
                                                                                                  
 dense_6801 (Dense)             (None, 64)           384         ['lstm_11583[0][0]']             
                                                                                                  
 dense_6802 (Dense)             (None, 64)           384         ['lstm_11585[0][0]']             
                                                                                                  
 bidirectional_8093 (Bidirectio  (None, 64)          9728        ['conv1d_2761[0][0]']            
 nal)                                                                                             
                                                                                                  
 dropout_6480 (Dropout)         (None, 64)           0           ['dense_6800[0][0]']             
                                                                                                  
 dropout_6481 (Dropout)         (None, 64)           0           ['dense_6801[0][0]']             
                                                                                                  
 dropout_6482 (Dropout)         (None, 64)           0           ['dense_6802[0][0]']             
                                                                                                  
 dropout_6483 (Dropout)         (None, 64)           0           ['bidirectional_8093[0][0]']     
                                                                                                  
 concatenate_1700 (Concatenate)  (None, 256)         0           ['dropout_6480[0][0]',           
                                                                  'dropout_6481[0][0]',           
                                                                  'dropout_6482[0][0]',           
                                                                  'dropout_6483[0][0]']           
                                                                                                  
 dense_6803 (Dense)             (None, 1)            257         ['concatenate_1700[0][0]']       
                                                                                                  
==================================================================================================
Total params: 14,927
Trainable params: 14,927
Non-trainable params: 0
__________________________________________________________________________________________________
…
 bidirectional_8111 (Bidirectio  (None, None, 10)    280         ['masking_8111[0][0]']           
 nal)                                                                                             
                                                                                                  
 bidirectional_8112 (Bidirectio  (None, None, 10)    280         ['masking_8112[0][0]']           
 nal)                                                                                             
                                                                                                  
 conv1d_2770 (Conv1D)           (None, 25, 5)        2825        ['masking_8113[0][0]']           
                                                                                                  
 lstm_11616 (LSTM)              (None, 5)            320         ['bidirectional_8110[0][0]']     
                                                                                                  
 lstm_11618 (LSTM)              (None, 5)            320         ['bidirectional_8111[0][0]']     
                                                                                                  
 lstm_11620 (LSTM)              (None, 5)            320         ['bidirectional_8112[0][0]']     
                                                                                                  
 conv1d_2771 (Conv1D)           (None, 25, 5)        155         ['conv1d_2770[0][0]']            
                                                                                                  
 dense_6820 (Dense)             (None, 64)           384         ['lstm_11616[0][0]']             
                                                                                                  
 dense_6821 (Dense)             (None, 64)           384         ['lstm_11618[0][0]']             
                                                                                                  
 dense_6822 (Dense)             (None, 64)           384         ['lstm_11620[0][0]']             
                                                                                                  
 bidirectional_8113 (Bidirectio  (None, 64)          9728        ['conv1d_2771[0][0]']            
 nal)                                                                                             
                                                                                                  
 dropout_6500 (Dropout)         (None, 64)           0           ['dense_6820[0][0]']             
                                                                                                  
 dropout_6501 (Dropout)         (None, 64)           0           ['dense_6821[0][0]']             
                                                                                                  
 dropout_6502 (Dropout)         (None, 64)           0           ['dense_6822[0][0]']             
                                                                                                  
 dropout_6503 (Dropout)         (None, 64)           0           ['bidirectional_8113[0][0]']     
                                                                                                  
 concatenate_1705 (Concatenate)  (None, 256)         0           ['dropout_6500[0][0]',           
                                                                  'dropout_6501[0][0]',           
                                                                  'dropout_6502[0][0]',           
                                                                  'dropout_6503[0][0]']           
                                                                                                  
 dense_6823 (Dense)             (None, 1)            257         ['concatenate_1705[0][0]']       
                                                                                                  
==================================================================================================
Total params: 15,917
Trainable params: 15,917
Non-trainable params: 0
__________________________________________________________________________________________________
…
 bidirectional_8131 (Bidirectio  (None, None, 10)    280         ['masking_8131[0][0]']           
 nal)                                                                                             
                                                                                                  
 bidirectional_8132 (Bidirectio  (None, None, 10)    280         ['masking_8132[0][0]']           
 nal)                                                                                             
                                                                                                  
 conv1d_2780 (Conv1D)           (None, 25, 5)        3765        ['masking_8133[0][0]']           
                                                                                                  
 lstm_11651 (LSTM)              (None, 5)            320         ['bidirectional_8130[0][0]']     
                                                                                                  
 lstm_11653 (LSTM)              (None, 5)            320         ['bidirectional_8131[0][0]']     
                                                                                                  
 lstm_11655 (LSTM)              (None, 5)            320         ['bidirectional_8132[0][0]']     
                                                                                                  
 conv1d_2781 (Conv1D)           (None, 25, 5)        205         ['conv1d_2780[0][0]']            
                                                                                                  
 dense_6840 (Dense)             (None, 64)           384         ['lstm_11651[0][0]']             
                                                                                                  
 dense_6841 (Dense)             (None, 64)           384         ['lstm_11653[0][0]']             
                                                                                                  
 dense_6842 (Dense)             (None, 64)           384         ['lstm_11655[0][0]']             
                                                                                                  
 bidirectional_8133 (Bidirectio  (None, 64)          9728        ['conv1d_2781[0][0]']            
 nal)                                                                                             
                                                                                                  
 dropout_6520 (Dropout)         (None, 64)           0           ['dense_6840[0][0]']             
                                                                                                  
 dropout_6521 (Dropout)         (None, 64)           0           ['dense_6841[0][0]']             
                                                                                                  
 dropout_6522 (Dropout)         (None, 64)           0           ['dense_6842[0][0]']             
                                                                                                  
 dropout_6523 (Dropout)         (None, 64)           0           ['bidirectional_8133[0][0]']     
                                                                                                  
 concatenate_1710 (Concatenate)  (None, 256)         0           ['dropout_6520[0][0]',           
                                                                  'dropout_6521[0][0]',           
                                                                  'dropout_6522[0][0]',           
                                                                  'dropout_6523[0][0]']           
                                                                                                  
 dense_6843 (Dense)             (None, 1)            257         ['concatenate_1710[0][0]']       
                                                                                                  
==================================================================================================
Total params: 16,907
Trainable params: 16,907
Non-trainable params: 0
__________________________________________________________________________________________________
…
 bidirectional_8151 (Bidirectio  (None, None, 10)    280         ['masking_8151[0][0]']           
 nal)                                                                                             
                                                                                                  
 bidirectional_8152 (Bidirectio  (None, None, 10)    280         ['masking_8152[0][0]']           
 nal)                                                                                             
                                                                                                  
 conv1d_2790 (Conv1D)           (None, 25, 5)        1885        ['masking_8153[0][0]']           
                                                                                                  
 lstm_11686 (LSTM)              (None, 5)            320         ['bidirectional_8150[0][0]']     
                                                                                                  
 lstm_11688 (LSTM)              (None, 5)            320         ['bidirectional_8151[0][0]']     
                                                                                                  
 lstm_11690 (LSTM)              (None, 5)            320         ['bidirectional_8152[0][0]']     
                                                                                                  
 conv1d_2791 (Conv1D)           (None, 25, 5)        105         ['conv1d_2790[0][0]']            
                                                                                                  
 dense_6860 (Dense)             (None, 96)           576         ['lstm_11686[0][0]']             
                                                                                                  
 dense_6861 (Dense)             (None, 96)           576         ['lstm_11688[0][0]']             
                                                                                                  
 dense_6862 (Dense)             (None, 96)           576         ['lstm_11690[0][0]']             
                                                                                                  
 bidirectional_8153 (Bidirectio  (None, 96)          20736       ['conv1d_2791[0][0]']            
 nal)                                                                                             
                                                                                                  
 dropout_6540 (Dropout)         (None, 96)           0           ['dense_6860[0][0]']             
                                                                                                  
 dropout_6541 (Dropout)         (None, 96)           0           ['dense_6861[0][0]']             
                                                                                                  
 dropout_6542 (Dropout)         (None, 96)           0           ['dense_6862[0][0]']             
                                                                                                  
 dropout_6543 (Dropout)         (None, 96)           0           ['bidirectional_8153[0][0]']     
                                                                                                  
 concatenate_1715 (Concatenate)  (None, 384)         0           ['dropout_6540[0][0]',           
                                                                  'dropout_6541[0][0]',           
                                                                  'dropout_6542[0][0]',           
                                                                  'dropout_6543[0][0]']           
                                                                                                  
 dense_6863 (Dense)             (None, 1)            385         ['concatenate_1715[0][0]']       
                                                                                                  
==================================================================================================
Total params: 26,639
Trainable params: 26,639
Non-trainable params: 0
__________________________________________________________________________________________________
…
 bidirectional_8171 (Bidirectio  (None, None, 10)    280         ['masking_8171[0][0]']           
 nal)                                                                                             
                                                                                                  
 bidirectional_8172 (Bidirectio  (None, None, 10)    280         ['masking_8172[0][0]']           
 nal)                                                                                             
                                                                                                  
 conv1d_2800 (Conv1D)           (None, 25, 5)        2825        ['masking_8173[0][0]']           
                                                                                                  
 lstm_11721 (LSTM)              (None, 5)            320         ['bidirectional_8170[0][0]']     
                                                                                                  
 lstm_11723 (LSTM)              (None, 5)            320         ['bidirectional_8171[0][0]']     
                                                                                                  
 lstm_11725 (LSTM)              (None, 5)            320         ['bidirectional_8172[0][0]']     
                                                                                                  
 conv1d_2801 (Conv1D)           (None, 25, 5)        155         ['conv1d_2800[0][0]']            
                                                                                                  
 dense_6880 (Dense)             (None, 96)           576         ['lstm_11721[0][0]']             
                                                                                                  
 dense_6881 (Dense)             (None, 96)           576         ['lstm_11723[0][0]']             
                                                                                                  
 dense_6882 (Dense)             (None, 96)           576         ['lstm_11725[0][0]']             
                                                                                                  
 bidirectional_8173 (Bidirectio  (None, 96)          20736       ['conv1d_2801[0][0]']            
 nal)                                                                                             
                                                                                                  
 dropout_6560 (Dropout)         (None, 96)           0           ['dense_6880[0][0]']             
                                                                                                  
 dropout_6561 (Dropout)         (None, 96)           0           ['dense_6881[0][0]']             
                                                                                                  
 dropout_6562 (Dropout)         (None, 96)           0           ['dense_6882[0][0]']             
                                                                                                  
 dropout_6563 (Dropout)         (None, 96)           0           ['bidirectional_8173[0][0]']     
                                                                                                  
 concatenate_1720 (Concatenate)  (None, 384)         0           ['dropout_6560[0][0]',           
                                                                  'dropout_6561[0][0]',           
                                                                  'dropout_6562[0][0]',           
                                                                  'dropout_6563[0][0]']           
                                                                                                  
 dense_6883 (Dense)             (None, 1)            385         ['concatenate_1720[0][0]']       
                                                                                                  
==================================================================================================
Total params: 27,629
Trainable params: 27,629
Non-trainable params: 0
__________________________________________________________________________________________________
…
 bidirectional_8191 (Bidirectio  (None, None, 10)    280         ['masking_8191[0][0]']           
 nal)                                                                                             
                                                                                                  
 bidirectional_8192 (Bidirectio  (None, None, 10)    280         ['masking_8192[0][0]']           
 nal)                                                                                             
                                                                                                  
 conv1d_2810 (Conv1D)           (None, 25, 5)        3765        ['masking_8193[0][0]']           
                                                                                                  
 lstm_11756 (LSTM)              (None, 5)            320         ['bidirectional_8190[0][0]']     
                                                                                                  
 lstm_11758 (LSTM)              (None, 5)            320         ['bidirectional_8191[0][0]']     
                                                                                                  
 lstm_11760 (LSTM)              (None, 5)            320         ['bidirectional_8192[0][0]']     
                                                                                                  
 conv1d_2811 (Conv1D)           (None, 25, 5)        205         ['conv1d_2810[0][0]']            
                                                                                                  
 dense_6900 (Dense)             (None, 96)           576         ['lstm_11756[0][0]']             
                                                                                                  
 dense_6901 (Dense)             (None, 96)           576         ['lstm_11758[0][0]']             
                                                                                                  
 dense_6902 (Dense)             (None, 96)           576         ['lstm_11760[0][0]']             
                                                                                                  
 bidirectional_8193 (Bidirectio  (None, 96)          20736       ['conv1d_2811[0][0]']            
 nal)                                                                                             
                                                                                                  
 dropout_6580 (Dropout)         (None, 96)           0           ['dense_6900[0][0]']             
                                                                                                  
 dropout_6581 (Dropout)         (None, 96)           0           ['dense_6901[0][0]']             
                                                                                                  
 dropout_6582 (Dropout)         (None, 96)           0           ['dense_6902[0][0]']             
                                                                                                  
 dropout_6583 (Dropout)         (None, 96)           0           ['bidirectional_8193[0][0]']     
                                                                                                  
 concatenate_1725 (Concatenate)  (None, 384)         0           ['dropout_6580[0][0]',           
                                                                  'dropout_6581[0][0]',           
                                                                  'dropout_6582[0][0]',           
                                                                  'dropout_6583[0][0]']           
                                                                                                  
 dense_6903 (Dense)             (None, 1)            385         ['concatenate_1725[0][0]']       
                                                                                                  
==================================================================================================
Total params: 28,619
Trainable params: 28,619
Non-trainable params: 0
__________________________________________________________________________________________________
…
 bidirectional_8211 (Bidirectio  (None, None, 10)    280         ['masking_8211[0][0]']           
 nal)                                                                                             
                                                                                                  
 bidirectional_8212 (Bidirectio  (None, None, 10)    280         ['masking_8212[0][0]']           
 nal)                                                                                             
                                                                                                  
 conv1d_2820 (Conv1D)           (None, 25, 5)        1885        ['masking_8213[0][0]']           
                                                                                                  
 lstm_11791 (LSTM)              (None, 5)            320         ['bidirectional_8210[0][0]']     
                                                                                                  
 lstm_11793 (LSTM)              (None, 5)            320         ['bidirectional_8211[0][0]']     
                                                                                                  
 lstm_11795 (LSTM)              (None, 5)            320         ['bidirectional_8212[0][0]']     
                                                                                                  
 conv1d_2821 (Conv1D)           (None, 25, 5)        105         ['conv1d_2820[0][0]']            
                                                                                                  
 dense_6920 (Dense)             (None, 128)          768         ['lstm_11791[0][0]']             
                                                                                                  
 dense_6921 (Dense)             (None, 128)          768         ['lstm_11793[0][0]']             
                                                                                                  
 dense_6922 (Dense)             (None, 128)          768         ['lstm_11795[0][0]']             
                                                                                                  
 bidirectional_8213 (Bidirectio  (None, 128)         35840       ['conv1d_2821[0][0]']            
 nal)                                                                                             
                                                                                                  
 dropout_6600 (Dropout)         (None, 128)          0           ['dense_6920[0][0]']             
                                                                                                  
 dropout_6601 (Dropout)         (None, 128)          0           ['dense_6921[0][0]']             
                                                                                                  
 dropout_6602 (Dropout)         (None, 128)          0           ['dense_6922[0][0]']             
                                                                                                  
 dropout_6603 (Dropout)         (None, 128)          0           ['bidirectional_8213[0][0]']     
                                                                                                  
 concatenate_1730 (Concatenate)  (None, 512)         0           ['dropout_6600[0][0]',           
                                                                  'dropout_6601[0][0]',           
                                                                  'dropout_6602[0][0]',           
                                                                  'dropout_6603[0][0]']           
                                                                                                  
 dense_6923 (Dense)             (None, 1)            513         ['concatenate_1730[0][0]']       
                                                                                                  
==================================================================================================
Total params: 42,447
Trainable params: 42,447
Non-trainable params: 0
__________________________________________________________________________________________________
…
 bidirectional_8231 (Bidirectio  (None, None, 10)    280         ['masking_8231[0][0]']           
 nal)                                                                                             
                                                                                                  
 bidirectional_8232 (Bidirectio  (None, None, 10)    280         ['masking_8232[0][0]']           
 nal)                                                                                             
                                                                                                  
 conv1d_2830 (Conv1D)           (None, 25, 5)        2825        ['masking_8233[0][0]']           
                                                                                                  
 lstm_11826 (LSTM)              (None, 5)            320         ['bidirectional_8230[0][0]']     
                                                                                                  
 lstm_11828 (LSTM)              (None, 5)            320         ['bidirectional_8231[0][0]']     
                                                                                                  
 lstm_11830 (LSTM)              (None, 5)            320         ['bidirectional_8232[0][0]']     
                                                                                                  
 conv1d_2831 (Conv1D)           (None, 25, 5)        155         ['conv1d_2830[0][0]']            
                                                                                                  
 dense_6940 (Dense)             (None, 128)          768         ['lstm_11826[0][0]']             
                                                                                                  
 dense_6941 (Dense)             (None, 128)          768         ['lstm_11828[0][0]']             
                                                                                                  
 dense_6942 (Dense)             (None, 128)          768         ['lstm_11830[0][0]']             
                                                                                                  
 bidirectional_8233 (Bidirectio  (None, 128)         35840       ['conv1d_2831[0][0]']            
 nal)                                                                                             
                                                                                                  
 dropout_6620 (Dropout)         (None, 128)          0           ['dense_6940[0][0]']             
                                                                                                  
 dropout_6621 (Dropout)         (None, 128)          0           ['dense_6941[0][0]']             
                                                                                                  
 dropout_6622 (Dropout)         (None, 128)          0           ['dense_6942[0][0]']             
                                                                                                  
 dropout_6623 (Dropout)         (None, 128)          0           ['bidirectional_8233[0][0]']     
                                                                                                  
 concatenate_1735 (Concatenate)  (None, 512)         0           ['dropout_6620[0][0]',           
                                                                  'dropout_6621[0][0]',           
                                                                  'dropout_6622[0][0]',           
                                                                  'dropout_6623[0][0]']           
                                                                                                  
 dense_6943 (Dense)             (None, 1)            513         ['concatenate_1735[0][0]']       
                                                                                                  
==================================================================================================
Total params: 43,437
Trainable params: 43,437
Non-trainable params: 0
__________________________________________________________________________________________________
…
 bidirectional_8251 (Bidirectio  (None, None, 10)    280         ['masking_8251[0][0]']           
 nal)                                                                                             
                                                                                                  
 bidirectional_8252 (Bidirectio  (None, None, 10)    280         ['masking_8252[0][0]']           
 nal)                                                                                             
                                                                                                  
 conv1d_2840 (Conv1D)           (None, 25, 5)        3765        ['masking_8253[0][0]']           
                                                                                                  
 lstm_11861 (LSTM)              (None, 5)            320         ['bidirectional_8250[0][0]']     
                                                                                                  
 lstm_11863 (LSTM)              (None, 5)            320         ['bidirectional_8251[0][0]']     
                                                                                                  
 lstm_11865 (LSTM)              (None, 5)            320         ['bidirectional_8252[0][0]']     
                                                                                                  
 conv1d_2841 (Conv1D)           (None, 25, 5)        205         ['conv1d_2840[0][0]']            
                                                                                                  
 dense_6960 (Dense)             (None, 128)          768         ['lstm_11861[0][0]']             
                                                                                                  
 dense_6961 (Dense)             (None, 128)          768         ['lstm_11863[0][0]']             
                                                                                                  
 dense_6962 (Dense)             (None, 128)          768         ['lstm_11865[0][0]']             
                                                                                                  
 bidirectional_8253 (Bidirectio  (None, 128)         35840       ['conv1d_2841[0][0]']            
 nal)                                                                                             
                                                                                                  
 dropout_6640 (Dropout)         (None, 128)          0           ['dense_6960[0][0]']             
                                                                                                  
 dropout_6641 (Dropout)         (None, 128)          0           ['dense_6961[0][0]']             
                                                                                                  
 dropout_6642 (Dropout)         (None, 128)          0           ['dense_6962[0][0]']             
                                                                                                  
 dropout_6643 (Dropout)         (None, 128)          0           ['bidirectional_8253[0][0]']     
                                                                                                  
 concatenate_1740 (Concatenate)  (None, 512)         0           ['dropout_6640[0][0]',           
                                                                  'dropout_6641[0][0]',           
                                                                  'dropout_6642[0][0]',           
                                                                  'dropout_6643[0][0]']           
                                                                                                  
 dense_6963 (Dense)             (None, 1)            513         ['concatenate_1740[0][0]']       
                                                                                                  
==================================================================================================
Total params: 44,427
Trainable params: 44,427
Non-trainable params: 0
__________________________________________________________________________________________________
…
