…
 bidirectional_9609 (Bidirectio  (None, None, 10)    280         ['masking_9609[0][0]']           
 nal)                                                                                             
                                                                                                  
 bidirectional_9610 (Bidirectio  (None, None, 10)    280         ['masking_9610[0][0]']           
 nal)                                                                                             
                                                                                                  
 conv1d_3404 (Conv1D)           (None, 24, 5)        65          ['masking_9611[0][0]']           
                                                                                                  
 lstm_13835 (LSTM)              (None, 5)            320         ['bidirectional_9608[0][0]']     
                                                                                                  
 lstm_13837 (LSTM)              (None, 5)            320         ['bidirectional_9609[0][0]']     
                                                                                                  
 lstm_13839 (LSTM)              (None, 5)            320         ['bidirectional_9610[0][0]']     
                                                                                                  
 conv1d_3405 (Conv1D)           (None, 24, 5)        105         ['conv1d_3404[0][0]']            
                                                                                                  
 dense_8088 (Dense)             (None, 64)           384         ['lstm_13835[0][0]']             
                                                                                                  
 dense_8089 (Dense)             (None, 64)           384         ['lstm_13837[0][0]']             
                                                                                                  
 dense_8090 (Dense)             (None, 64)           384         ['lstm_13839[0][0]']             
                                                                                                  
 bidirectional_9611 (Bidirectio  (None, 64)          9728        ['conv1d_3405[0][0]']            
 nal)                                                                                             
                                                                                                  
 dropout_7768 (Dropout)         (None, 64)           0           ['dense_8088[0][0]']             
                                                                                                  
 dropout_7769 (Dropout)         (None, 64)           0           ['dense_8089[0][0]']             
                                                                                                  
 dropout_7770 (Dropout)         (None, 64)           0           ['dense_8090[0][0]']             
                                                                                                  
 dropout_7771 (Dropout)         (None, 64)           0           ['bidirectional_9611[0][0]']     
                                                                                                  
 concatenate_2022 (Concatenate)  (None, 256)         0           ['dropout_7768[0][0]',           
                                                                  'dropout_7769[0][0]',           
                                                                  'dropout_7770[0][0]',           
                                                                  'dropout_7771[0][0]']           
                                                                                                  
 dense_8091 (Dense)             (None, 1)            257         ['concatenate_2022[0][0]']       
                                                                                                  
==================================================================================================
Total params: 13,107
Trainable params: 13,107
Non-trainable params: 0
__________________________________________________________________________________________________
…
 bidirectional_9629 (Bidirectio  (None, None, 10)    280         ['masking_9629[0][0]']           
 nal)                                                                                             
                                                                                                  
 bidirectional_9630 (Bidirectio  (None, None, 10)    280         ['masking_9630[0][0]']           
 nal)                                                                                             
                                                                                                  
 conv1d_3414 (Conv1D)           (None, 24, 5)        95          ['masking_9631[0][0]']           
                                                                                                  
 lstm_13870 (LSTM)              (None, 5)            320         ['bidirectional_9628[0][0]']     
                                                                                                  
 lstm_13872 (LSTM)              (None, 5)            320         ['bidirectional_9629[0][0]']     
                                                                                                  
 lstm_13874 (LSTM)              (None, 5)            320         ['bidirectional_9630[0][0]']     
                                                                                                  
 conv1d_3415 (Conv1D)           (None, 24, 5)        155         ['conv1d_3414[0][0]']            
                                                                                                  
 dense_8108 (Dense)             (None, 64)           384         ['lstm_13870[0][0]']             
                                                                                                  
 dense_8109 (Dense)             (None, 64)           384         ['lstm_13872[0][0]']             
                                                                                                  
 dense_8110 (Dense)             (None, 64)           384         ['lstm_13874[0][0]']             
                                                                                                  
 bidirectional_9631 (Bidirectio  (None, 64)          9728        ['conv1d_3415[0][0]']            
 nal)                                                                                             
                                                                                                  
 dropout_7788 (Dropout)         (None, 64)           0           ['dense_8108[0][0]']             
                                                                                                  
 dropout_7789 (Dropout)         (None, 64)           0           ['dense_8109[0][0]']             
                                                                                                  
 dropout_7790 (Dropout)         (None, 64)           0           ['dense_8110[0][0]']             
                                                                                                  
 dropout_7791 (Dropout)         (None, 64)           0           ['bidirectional_9631[0][0]']     
                                                                                                  
 concatenate_2027 (Concatenate)  (None, 256)         0           ['dropout_7788[0][0]',           
                                                                  'dropout_7789[0][0]',           
                                                                  'dropout_7790[0][0]',           
                                                                  'dropout_7791[0][0]']           
                                                                                                  
 dense_8111 (Dense)             (None, 1)            257         ['concatenate_2027[0][0]']       
                                                                                                  
==================================================================================================
Total params: 13,187
Trainable params: 13,187
Non-trainable params: 0
__________________________________________________________________________________________________
…
 bidirectional_9649 (Bidirectio  (None, None, 10)    280         ['masking_9649[0][0]']           
 nal)                                                                                             
                                                                                                  
 bidirectional_9650 (Bidirectio  (None, None, 10)    280         ['masking_9650[0][0]']           
 nal)                                                                                             
                                                                                                  
 conv1d_3424 (Conv1D)           (None, 24, 5)        125         ['masking_9651[0][0]']           
                                                                                                  
 lstm_13905 (LSTM)              (None, 5)            320         ['bidirectional_9648[0][0]']     
                                                                                                  
 lstm_13907 (LSTM)              (None, 5)            320         ['bidirectional_9649[0][0]']     
                                                                                                  
 lstm_13909 (LSTM)              (None, 5)            320         ['bidirectional_9650[0][0]']     
                                                                                                  
 conv1d_3425 (Conv1D)           (None, 24, 5)        205         ['conv1d_3424[0][0]']            
                                                                                                  
 dense_8128 (Dense)             (None, 64)           384         ['lstm_13905[0][0]']             
                                                                                                  
 dense_8129 (Dense)             (None, 64)           384         ['lstm_13907[0][0]']             
                                                                                                  
 dense_8130 (Dense)             (None, 64)           384         ['lstm_13909[0][0]']             
                                                                                                  
 bidirectional_9651 (Bidirectio  (None, 64)          9728        ['conv1d_3425[0][0]']            
 nal)                                                                                             
                                                                                                  
 dropout_7808 (Dropout)         (None, 64)           0           ['dense_8128[0][0]']             
                                                                                                  
 dropout_7809 (Dropout)         (None, 64)           0           ['dense_8129[0][0]']             
                                                                                                  
 dropout_7810 (Dropout)         (None, 64)           0           ['dense_8130[0][0]']             
                                                                                                  
 dropout_7811 (Dropout)         (None, 64)           0           ['bidirectional_9651[0][0]']     
                                                                                                  
 concatenate_2032 (Concatenate)  (None, 256)         0           ['dropout_7808[0][0]',           
                                                                  'dropout_7809[0][0]',           
                                                                  'dropout_7810[0][0]',           
                                                                  'dropout_7811[0][0]']           
                                                                                                  
 dense_8131 (Dense)             (None, 1)            257         ['concatenate_2032[0][0]']       
                                                                                                  
==================================================================================================
Total params: 13,267
Trainable params: 13,267
Non-trainable params: 0
__________________________________________________________________________________________________
…
 bidirectional_9669 (Bidirectio  (None, None, 10)    280         ['masking_9669[0][0]']           
 nal)                                                                                             
                                                                                                  
 bidirectional_9670 (Bidirectio  (None, None, 10)    280         ['masking_9670[0][0]']           
 nal)                                                                                             
                                                                                                  
 conv1d_3434 (Conv1D)           (None, 24, 5)        65          ['masking_9671[0][0]']           
                                                                                                  
 lstm_13940 (LSTM)              (None, 5)            320         ['bidirectional_9668[0][0]']     
                                                                                                  
 lstm_13942 (LSTM)              (None, 5)            320         ['bidirectional_9669[0][0]']     
                                                                                                  
 lstm_13944 (LSTM)              (None, 5)            320         ['bidirectional_9670[0][0]']     
                                                                                                  
 conv1d_3435 (Conv1D)           (None, 24, 5)        105         ['conv1d_3434[0][0]']            
                                                                                                  
 dense_8148 (Dense)             (None, 96)           576         ['lstm_13940[0][0]']             
                                                                                                  
 dense_8149 (Dense)             (None, 96)           576         ['lstm_13942[0][0]']             
                                                                                                  
 dense_8150 (Dense)             (None, 96)           576         ['lstm_13944[0][0]']             
                                                                                                  
 bidirectional_9671 (Bidirectio  (None, 96)          20736       ['conv1d_3435[0][0]']            
 nal)                                                                                             
                                                                                                  
 dropout_7828 (Dropout)         (None, 96)           0           ['dense_8148[0][0]']             
                                                                                                  
 dropout_7829 (Dropout)         (None, 96)           0           ['dense_8149[0][0]']             
                                                                                                  
 dropout_7830 (Dropout)         (None, 96)           0           ['dense_8150[0][0]']             
                                                                                                  
 dropout_7831 (Dropout)         (None, 96)           0           ['bidirectional_9671[0][0]']     
                                                                                                  
 concatenate_2037 (Concatenate)  (None, 384)         0           ['dropout_7828[0][0]',           
                                                                  'dropout_7829[0][0]',           
                                                                  'dropout_7830[0][0]',           
                                                                  'dropout_7831[0][0]']           
                                                                                                  
 dense_8151 (Dense)             (None, 1)            385         ['concatenate_2037[0][0]']       
                                                                                                  
==================================================================================================
Total params: 24,819
Trainable params: 24,819
Non-trainable params: 0
__________________________________________________________________________________________________
…
 bidirectional_9689 (Bidirectio  (None, None, 10)    280         ['masking_9689[0][0]']           
 nal)                                                                                             
                                                                                                  
 bidirectional_9690 (Bidirectio  (None, None, 10)    280         ['masking_9690[0][0]']           
 nal)                                                                                             
                                                                                                  
 conv1d_3444 (Conv1D)           (None, 24, 5)        95          ['masking_9691[0][0]']           
                                                                                                  
 lstm_13975 (LSTM)              (None, 5)            320         ['bidirectional_9688[0][0]']     
                                                                                                  
 lstm_13977 (LSTM)              (None, 5)            320         ['bidirectional_9689[0][0]']     
                                                                                                  
 lstm_13979 (LSTM)              (None, 5)            320         ['bidirectional_9690[0][0]']     
                                                                                                  
 conv1d_3445 (Conv1D)           (None, 24, 5)        155         ['conv1d_3444[0][0]']            
                                                                                                  
 dense_8168 (Dense)             (None, 96)           576         ['lstm_13975[0][0]']             
                                                                                                  
 dense_8169 (Dense)             (None, 96)           576         ['lstm_13977[0][0]']             
                                                                                                  
 dense_8170 (Dense)             (None, 96)           576         ['lstm_13979[0][0]']             
                                                                                                  
 bidirectional_9691 (Bidirectio  (None, 96)          20736       ['conv1d_3445[0][0]']            
 nal)                                                                                             
                                                                                                  
 dropout_7848 (Dropout)         (None, 96)           0           ['dense_8168[0][0]']             
                                                                                                  
 dropout_7849 (Dropout)         (None, 96)           0           ['dense_8169[0][0]']             
                                                                                                  
 dropout_7850 (Dropout)         (None, 96)           0           ['dense_8170[0][0]']             
                                                                                                  
 dropout_7851 (Dropout)         (None, 96)           0           ['bidirectional_9691[0][0]']     
                                                                                                  
 concatenate_2042 (Concatenate)  (None, 384)         0           ['dropout_7848[0][0]',           
                                                                  'dropout_7849[0][0]',           
                                                                  'dropout_7850[0][0]',           
                                                                  'dropout_7851[0][0]']           
                                                                                                  
 dense_8171 (Dense)             (None, 1)            385         ['concatenate_2042[0][0]']       
                                                                                                  
==================================================================================================
Total params: 24,899
Trainable params: 24,899
Non-trainable params: 0
__________________________________________________________________________________________________
…
 bidirectional_9709 (Bidirectio  (None, None, 10)    280         ['masking_9709[0][0]']           
 nal)                                                                                             
                                                                                                  
 bidirectional_9710 (Bidirectio  (None, None, 10)    280         ['masking_9710[0][0]']           
 nal)                                                                                             
                                                                                                  
 conv1d_3454 (Conv1D)           (None, 24, 5)        125         ['masking_9711[0][0]']           
                                                                                                  
 lstm_14010 (LSTM)              (None, 5)            320         ['bidirectional_9708[0][0]']     
                                                                                                  
 lstm_14012 (LSTM)              (None, 5)            320         ['bidirectional_9709[0][0]']     
                                                                                                  
 lstm_14014 (LSTM)              (None, 5)            320         ['bidirectional_9710[0][0]']     
                                                                                                  
 conv1d_3455 (Conv1D)           (None, 24, 5)        205         ['conv1d_3454[0][0]']            
                                                                                                  
 dense_8188 (Dense)             (None, 96)           576         ['lstm_14010[0][0]']             
                                                                                                  
 dense_8189 (Dense)             (None, 96)           576         ['lstm_14012[0][0]']             
                                                                                                  
 dense_8190 (Dense)             (None, 96)           576         ['lstm_14014[0][0]']             
                                                                                                  
 bidirectional_9711 (Bidirectio  (None, 96)          20736       ['conv1d_3455[0][0]']            
 nal)                                                                                             
                                                                                                  
 dropout_7868 (Dropout)         (None, 96)           0           ['dense_8188[0][0]']             
                                                                                                  
 dropout_7869 (Dropout)         (None, 96)           0           ['dense_8189[0][0]']             
                                                                                                  
 dropout_7870 (Dropout)         (None, 96)           0           ['dense_8190[0][0]']             
                                                                                                  
 dropout_7871 (Dropout)         (None, 96)           0           ['bidirectional_9711[0][0]']     
                                                                                                  
 concatenate_2047 (Concatenate)  (None, 384)         0           ['dropout_7868[0][0]',           
                                                                  'dropout_7869[0][0]',           
                                                                  'dropout_7870[0][0]',           
                                                                  'dropout_7871[0][0]']           
                                                                                                  
 dense_8191 (Dense)             (None, 1)            385         ['concatenate_2047[0][0]']       
                                                                                                  
==================================================================================================
Total params: 24,979
Trainable params: 24,979
Non-trainable params: 0
__________________________________________________________________________________________________
…
 bidirectional_9729 (Bidirectio  (None, None, 10)    280         ['masking_9729[0][0]']           
 nal)                                                                                             
                                                                                                  
 bidirectional_9730 (Bidirectio  (None, None, 10)    280         ['masking_9730[0][0]']           
 nal)                                                                                             
                                                                                                  
 conv1d_3464 (Conv1D)           (None, 24, 5)        65          ['masking_9731[0][0]']           
                                                                                                  
 lstm_14045 (LSTM)              (None, 5)            320         ['bidirectional_9728[0][0]']     
                                                                                                  
 lstm_14047 (LSTM)              (None, 5)            320         ['bidirectional_9729[0][0]']     
                                                                                                  
 lstm_14049 (LSTM)              (None, 5)            320         ['bidirectional_9730[0][0]']     
                                                                                                  
 conv1d_3465 (Conv1D)           (None, 24, 5)        105         ['conv1d_3464[0][0]']            
                                                                                                  
 dense_8208 (Dense)             (None, 128)          768         ['lstm_14045[0][0]']             
                                                                                                  
 dense_8209 (Dense)             (None, 128)          768         ['lstm_14047[0][0]']             
                                                                                                  
 dense_8210 (Dense)             (None, 128)          768         ['lstm_14049[0][0]']             
                                                                                                  
 bidirectional_9731 (Bidirectio  (None, 128)         35840       ['conv1d_3465[0][0]']            
 nal)                                                                                             
                                                                                                  
 dropout_7888 (Dropout)         (None, 128)          0           ['dense_8208[0][0]']             
                                                                                                  
 dropout_7889 (Dropout)         (None, 128)          0           ['dense_8209[0][0]']             
                                                                                                  
 dropout_7890 (Dropout)         (None, 128)          0           ['dense_8210[0][0]']             
                                                                                                  
 dropout_7891 (Dropout)         (None, 128)          0           ['bidirectional_9731[0][0]']     
                                                                                                  
 concatenate_2052 (Concatenate)  (None, 512)         0           ['dropout_7888[0][0]',           
                                                                  'dropout_7889[0][0]',           
                                                                  'dropout_7890[0][0]',           
                                                                  'dropout_7891[0][0]']           
                                                                                                  
 dense_8211 (Dense)             (None, 1)            513         ['concatenate_2052[0][0]']       
                                                                                                  
==================================================================================================
Total params: 40,627
Trainable params: 40,627
Non-trainable params: 0
__________________________________________________________________________________________________
…
 bidirectional_9749 (Bidirectio  (None, None, 10)    280         ['masking_9749[0][0]']           
 nal)                                                                                             
                                                                                                  
 bidirectional_9750 (Bidirectio  (None, None, 10)    280         ['masking_9750[0][0]']           
 nal)                                                                                             
                                                                                                  
 conv1d_3474 (Conv1D)           (None, 24, 5)        95          ['masking_9751[0][0]']           
                                                                                                  
 lstm_14080 (LSTM)              (None, 5)            320         ['bidirectional_9748[0][0]']     
                                                                                                  
 lstm_14082 (LSTM)              (None, 5)            320         ['bidirectional_9749[0][0]']     
                                                                                                  
 lstm_14084 (LSTM)              (None, 5)            320         ['bidirectional_9750[0][0]']     
                                                                                                  
 conv1d_3475 (Conv1D)           (None, 24, 5)        155         ['conv1d_3474[0][0]']            
                                                                                                  
 dense_8228 (Dense)             (None, 128)          768         ['lstm_14080[0][0]']             
                                                                                                  
 dense_8229 (Dense)             (None, 128)          768         ['lstm_14082[0][0]']             
                                                                                                  
 dense_8230 (Dense)             (None, 128)          768         ['lstm_14084[0][0]']             
                                                                                                  
 bidirectional_9751 (Bidirectio  (None, 128)         35840       ['conv1d_3475[0][0]']            
 nal)                                                                                             
                                                                                                  
 dropout_7908 (Dropout)         (None, 128)          0           ['dense_8228[0][0]']             
                                                                                                  
 dropout_7909 (Dropout)         (None, 128)          0           ['dense_8229[0][0]']             
                                                                                                  
 dropout_7910 (Dropout)         (None, 128)          0           ['dense_8230[0][0]']             
                                                                                                  
 dropout_7911 (Dropout)         (None, 128)          0           ['bidirectional_9751[0][0]']     
                                                                                                  
 concatenate_2057 (Concatenate)  (None, 512)         0           ['dropout_7908[0][0]',           
                                                                  'dropout_7909[0][0]',           
                                                                  'dropout_7910[0][0]',           
                                                                  'dropout_7911[0][0]']           
                                                                                                  
 dense_8231 (Dense)             (None, 1)            513         ['concatenate_2057[0][0]']       
                                                                                                  
==================================================================================================
Total params: 40,707
Trainable params: 40,707
Non-trainable params: 0
__________________________________________________________________________________________________
…
 bidirectional_9769 (Bidirectio  (None, None, 10)    280         ['masking_9769[0][0]']           
 nal)                                                                                             
                                                                                                  
 bidirectional_9770 (Bidirectio  (None, None, 10)    280         ['masking_9770[0][0]']           
 nal)                                                                                             
                                                                                                  
 conv1d_3484 (Conv1D)           (None, 24, 5)        125         ['masking_9771[0][0]']           
                                                                                                  
 lstm_14115 (LSTM)              (None, 5)            320         ['bidirectional_9768[0][0]']     
                                                                                                  
 lstm_14117 (LSTM)              (None, 5)            320         ['bidirectional_9769[0][0]']     
                                                                                                  
 lstm_14119 (LSTM)              (None, 5)            320         ['bidirectional_9770[0][0]']     
                                                                                                  
 conv1d_3485 (Conv1D)           (None, 24, 5)        205         ['conv1d_3484[0][0]']            
                                                                                                  
 dense_8248 (Dense)             (None, 128)          768         ['lstm_14115[0][0]']             
                                                                                                  
 dense_8249 (Dense)             (None, 128)          768         ['lstm_14117[0][0]']             
                                                                                                  
 dense_8250 (Dense)             (None, 128)          768         ['lstm_14119[0][0]']             
                                                                                                  
 bidirectional_9771 (Bidirectio  (None, 128)         35840       ['conv1d_3485[0][0]']            
 nal)                                                                                             
                                                                                                  
 dropout_7928 (Dropout)         (None, 128)          0           ['dense_8248[0][0]']             
                                                                                                  
 dropout_7929 (Dropout)         (None, 128)          0           ['dense_8249[0][0]']             
                                                                                                  
 dropout_7930 (Dropout)         (None, 128)          0           ['dense_8250[0][0]']             
                                                                                                  
 dropout_7931 (Dropout)         (None, 128)          0           ['bidirectional_9771[0][0]']     
                                                                                                  
 concatenate_2062 (Concatenate)  (None, 512)         0           ['dropout_7928[0][0]',           
                                                                  'dropout_7929[0][0]',           
                                                                  'dropout_7930[0][0]',           
                                                                  'dropout_7931[0][0]']           
                                                                                                  
 dense_8251 (Dense)             (None, 1)            513         ['concatenate_2062[0][0]']       
                                                                                                  
==================================================================================================
Total params: 40,787
Trainable params: 40,787
Non-trainable params: 0
__________________________________________________________________________________________________
…
