…
 bidirectional_7069 (Bidirectio  (None, None, 10)    280         ['masking_7069[0][0]']           
 nal)                                                                                             
                                                                                                  
 bidirectional_7070 (Bidirectio  (None, None, 10)    280         ['masking_7070[0][0]']           
 nal)                                                                                             
                                                                                                  
 conv1d_2484 (Conv1D)           (None, 24, 5)        65          ['masking_7071[0][0]']           
                                                                                                  
 lstm_10135 (LSTM)              (None, 5)            320         ['bidirectional_7068[0][0]']     
                                                                                                  
 lstm_10137 (LSTM)              (None, 5)            320         ['bidirectional_7069[0][0]']     
                                                                                                  
 lstm_10139 (LSTM)              (None, 5)            320         ['bidirectional_7070[0][0]']     
                                                                                                  
 conv1d_2485 (Conv1D)           (None, 24, 5)        105         ['conv1d_2484[0][0]']            
                                                                                                  
 dense_5928 (Dense)             (None, 64)           384         ['lstm_10135[0][0]']             
                                                                                                  
 dense_5929 (Dense)             (None, 64)           384         ['lstm_10137[0][0]']             
                                                                                                  
 dense_5930 (Dense)             (None, 64)           384         ['lstm_10139[0][0]']             
                                                                                                  
 bidirectional_7071 (Bidirectio  (None, 64)          9728        ['conv1d_2485[0][0]']            
 nal)                                                                                             
                                                                                                  
 dropout_5688 (Dropout)         (None, 64)           0           ['dense_5928[0][0]']             
                                                                                                  
 dropout_5689 (Dropout)         (None, 64)           0           ['dense_5929[0][0]']             
                                                                                                  
 dropout_5690 (Dropout)         (None, 64)           0           ['dense_5930[0][0]']             
                                                                                                  
 dropout_5691 (Dropout)         (None, 64)           0           ['bidirectional_7071[0][0]']     
                                                                                                  
 concatenate_1482 (Concatenate)  (None, 256)         0           ['dropout_5688[0][0]',           
                                                                  'dropout_5689[0][0]',           
                                                                  'dropout_5690[0][0]',           
                                                                  'dropout_5691[0][0]']           
                                                                                                  
 dense_5931 (Dense)             (None, 1)            257         ['concatenate_1482[0][0]']       
                                                                                                  
==================================================================================================
Total params: 13,107
Trainable params: 13,107
Non-trainable params: 0
__________________________________________________________________________________________________
…
 bidirectional_7089 (Bidirectio  (None, None, 10)    280         ['masking_7089[0][0]']           
 nal)                                                                                             
                                                                                                  
 bidirectional_7090 (Bidirectio  (None, None, 10)    280         ['masking_7090[0][0]']           
 nal)                                                                                             
                                                                                                  
 conv1d_2494 (Conv1D)           (None, 24, 5)        95          ['masking_7091[0][0]']           
                                                                                                  
 lstm_10170 (LSTM)              (None, 5)            320         ['bidirectional_7088[0][0]']     
                                                                                                  
 lstm_10172 (LSTM)              (None, 5)            320         ['bidirectional_7089[0][0]']     
                                                                                                  
 lstm_10174 (LSTM)              (None, 5)            320         ['bidirectional_7090[0][0]']     
                                                                                                  
 conv1d_2495 (Conv1D)           (None, 24, 5)        155         ['conv1d_2494[0][0]']            
                                                                                                  
 dense_5948 (Dense)             (None, 64)           384         ['lstm_10170[0][0]']             
                                                                                                  
 dense_5949 (Dense)             (None, 64)           384         ['lstm_10172[0][0]']             
                                                                                                  
 dense_5950 (Dense)             (None, 64)           384         ['lstm_10174[0][0]']             
                                                                                                  
 bidirectional_7091 (Bidirectio  (None, 64)          9728        ['conv1d_2495[0][0]']            
 nal)                                                                                             
                                                                                                  
 dropout_5708 (Dropout)         (None, 64)           0           ['dense_5948[0][0]']             
                                                                                                  
 dropout_5709 (Dropout)         (None, 64)           0           ['dense_5949[0][0]']             
                                                                                                  
 dropout_5710 (Dropout)         (None, 64)           0           ['dense_5950[0][0]']             
                                                                                                  
 dropout_5711 (Dropout)         (None, 64)           0           ['bidirectional_7091[0][0]']     
                                                                                                  
 concatenate_1487 (Concatenate)  (None, 256)         0           ['dropout_5708[0][0]',           
                                                                  'dropout_5709[0][0]',           
                                                                  'dropout_5710[0][0]',           
                                                                  'dropout_5711[0][0]']           
                                                                                                  
 dense_5951 (Dense)             (None, 1)            257         ['concatenate_1487[0][0]']       
                                                                                                  
==================================================================================================
Total params: 13,187
Trainable params: 13,187
Non-trainable params: 0
__________________________________________________________________________________________________
…
 bidirectional_7109 (Bidirectio  (None, None, 10)    280         ['masking_7109[0][0]']           
 nal)                                                                                             
                                                                                                  
 bidirectional_7110 (Bidirectio  (None, None, 10)    280         ['masking_7110[0][0]']           
 nal)                                                                                             
                                                                                                  
 conv1d_2504 (Conv1D)           (None, 24, 5)        125         ['masking_7111[0][0]']           
                                                                                                  
 lstm_10205 (LSTM)              (None, 5)            320         ['bidirectional_7108[0][0]']     
                                                                                                  
 lstm_10207 (LSTM)              (None, 5)            320         ['bidirectional_7109[0][0]']     
                                                                                                  
 lstm_10209 (LSTM)              (None, 5)            320         ['bidirectional_7110[0][0]']     
                                                                                                  
 conv1d_2505 (Conv1D)           (None, 24, 5)        205         ['conv1d_2504[0][0]']            
                                                                                                  
 dense_5968 (Dense)             (None, 64)           384         ['lstm_10205[0][0]']             
                                                                                                  
 dense_5969 (Dense)             (None, 64)           384         ['lstm_10207[0][0]']             
                                                                                                  
 dense_5970 (Dense)             (None, 64)           384         ['lstm_10209[0][0]']             
                                                                                                  
 bidirectional_7111 (Bidirectio  (None, 64)          9728        ['conv1d_2505[0][0]']            
 nal)                                                                                             
                                                                                                  
 dropout_5728 (Dropout)         (None, 64)           0           ['dense_5968[0][0]']             
                                                                                                  
 dropout_5729 (Dropout)         (None, 64)           0           ['dense_5969[0][0]']             
                                                                                                  
 dropout_5730 (Dropout)         (None, 64)           0           ['dense_5970[0][0]']             
                                                                                                  
 dropout_5731 (Dropout)         (None, 64)           0           ['bidirectional_7111[0][0]']     
                                                                                                  
 concatenate_1492 (Concatenate)  (None, 256)         0           ['dropout_5728[0][0]',           
                                                                  'dropout_5729[0][0]',           
                                                                  'dropout_5730[0][0]',           
                                                                  'dropout_5731[0][0]']           
                                                                                                  
 dense_5971 (Dense)             (None, 1)            257         ['concatenate_1492[0][0]']       
                                                                                                  
==================================================================================================
Total params: 13,267
Trainable params: 13,267
Non-trainable params: 0
__________________________________________________________________________________________________
…
 bidirectional_7129 (Bidirectio  (None, None, 10)    280         ['masking_7129[0][0]']           
 nal)                                                                                             
                                                                                                  
 bidirectional_7130 (Bidirectio  (None, None, 10)    280         ['masking_7130[0][0]']           
 nal)                                                                                             
                                                                                                  
 conv1d_2514 (Conv1D)           (None, 24, 5)        65          ['masking_7131[0][0]']           
                                                                                                  
 lstm_10240 (LSTM)              (None, 5)            320         ['bidirectional_7128[0][0]']     
                                                                                                  
 lstm_10242 (LSTM)              (None, 5)            320         ['bidirectional_7129[0][0]']     
                                                                                                  
 lstm_10244 (LSTM)              (None, 5)            320         ['bidirectional_7130[0][0]']     
                                                                                                  
 conv1d_2515 (Conv1D)           (None, 24, 5)        105         ['conv1d_2514[0][0]']            
                                                                                                  
 dense_5988 (Dense)             (None, 96)           576         ['lstm_10240[0][0]']             
                                                                                                  
 dense_5989 (Dense)             (None, 96)           576         ['lstm_10242[0][0]']             
                                                                                                  
 dense_5990 (Dense)             (None, 96)           576         ['lstm_10244[0][0]']             
                                                                                                  
 bidirectional_7131 (Bidirectio  (None, 96)          20736       ['conv1d_2515[0][0]']            
 nal)                                                                                             
                                                                                                  
 dropout_5748 (Dropout)         (None, 96)           0           ['dense_5988[0][0]']             
                                                                                                  
 dropout_5749 (Dropout)         (None, 96)           0           ['dense_5989[0][0]']             
                                                                                                  
 dropout_5750 (Dropout)         (None, 96)           0           ['dense_5990[0][0]']             
                                                                                                  
 dropout_5751 (Dropout)         (None, 96)           0           ['bidirectional_7131[0][0]']     
                                                                                                  
 concatenate_1497 (Concatenate)  (None, 384)         0           ['dropout_5748[0][0]',           
                                                                  'dropout_5749[0][0]',           
                                                                  'dropout_5750[0][0]',           
                                                                  'dropout_5751[0][0]']           
                                                                                                  
 dense_5991 (Dense)             (None, 1)            385         ['concatenate_1497[0][0]']       
                                                                                                  
==================================================================================================
Total params: 24,819
Trainable params: 24,819
Non-trainable params: 0
__________________________________________________________________________________________________
…
 bidirectional_7149 (Bidirectio  (None, None, 10)    280         ['masking_7149[0][0]']           
 nal)                                                                                             
                                                                                                  
 bidirectional_7150 (Bidirectio  (None, None, 10)    280         ['masking_7150[0][0]']           
 nal)                                                                                             
                                                                                                  
 conv1d_2524 (Conv1D)           (None, 24, 5)        95          ['masking_7151[0][0]']           
                                                                                                  
 lstm_10275 (LSTM)              (None, 5)            320         ['bidirectional_7148[0][0]']     
                                                                                                  
 lstm_10277 (LSTM)              (None, 5)            320         ['bidirectional_7149[0][0]']     
                                                                                                  
 lstm_10279 (LSTM)              (None, 5)            320         ['bidirectional_7150[0][0]']     
                                                                                                  
 conv1d_2525 (Conv1D)           (None, 24, 5)        155         ['conv1d_2524[0][0]']            
                                                                                                  
 dense_6008 (Dense)             (None, 96)           576         ['lstm_10275[0][0]']             
                                                                                                  
 dense_6009 (Dense)             (None, 96)           576         ['lstm_10277[0][0]']             
                                                                                                  
 dense_6010 (Dense)             (None, 96)           576         ['lstm_10279[0][0]']             
                                                                                                  
 bidirectional_7151 (Bidirectio  (None, 96)          20736       ['conv1d_2525[0][0]']            
 nal)                                                                                             
                                                                                                  
 dropout_5768 (Dropout)         (None, 96)           0           ['dense_6008[0][0]']             
                                                                                                  
 dropout_5769 (Dropout)         (None, 96)           0           ['dense_6009[0][0]']             
                                                                                                  
 dropout_5770 (Dropout)         (None, 96)           0           ['dense_6010[0][0]']             
                                                                                                  
 dropout_5771 (Dropout)         (None, 96)           0           ['bidirectional_7151[0][0]']     
                                                                                                  
 concatenate_1502 (Concatenate)  (None, 384)         0           ['dropout_5768[0][0]',           
                                                                  'dropout_5769[0][0]',           
                                                                  'dropout_5770[0][0]',           
                                                                  'dropout_5771[0][0]']           
                                                                                                  
 dense_6011 (Dense)             (None, 1)            385         ['concatenate_1502[0][0]']       
                                                                                                  
==================================================================================================
Total params: 24,899
Trainable params: 24,899
Non-trainable params: 0
__________________________________________________________________________________________________
…
 bidirectional_7169 (Bidirectio  (None, None, 10)    280         ['masking_7169[0][0]']           
 nal)                                                                                             
                                                                                                  
 bidirectional_7170 (Bidirectio  (None, None, 10)    280         ['masking_7170[0][0]']           
 nal)                                                                                             
                                                                                                  
 conv1d_2534 (Conv1D)           (None, 24, 5)        125         ['masking_7171[0][0]']           
                                                                                                  
 lstm_10310 (LSTM)              (None, 5)            320         ['bidirectional_7168[0][0]']     
                                                                                                  
 lstm_10312 (LSTM)              (None, 5)            320         ['bidirectional_7169[0][0]']     
                                                                                                  
 lstm_10314 (LSTM)              (None, 5)            320         ['bidirectional_7170[0][0]']     
                                                                                                  
 conv1d_2535 (Conv1D)           (None, 24, 5)        205         ['conv1d_2534[0][0]']            
                                                                                                  
 dense_6028 (Dense)             (None, 96)           576         ['lstm_10310[0][0]']             
                                                                                                  
 dense_6029 (Dense)             (None, 96)           576         ['lstm_10312[0][0]']             
                                                                                                  
 dense_6030 (Dense)             (None, 96)           576         ['lstm_10314[0][0]']             
                                                                                                  
 bidirectional_7171 (Bidirectio  (None, 96)          20736       ['conv1d_2535[0][0]']            
 nal)                                                                                             
                                                                                                  
 dropout_5788 (Dropout)         (None, 96)           0           ['dense_6028[0][0]']             
                                                                                                  
 dropout_5789 (Dropout)         (None, 96)           0           ['dense_6029[0][0]']             
                                                                                                  
 dropout_5790 (Dropout)         (None, 96)           0           ['dense_6030[0][0]']             
                                                                                                  
 dropout_5791 (Dropout)         (None, 96)           0           ['bidirectional_7171[0][0]']     
                                                                                                  
 concatenate_1507 (Concatenate)  (None, 384)         0           ['dropout_5788[0][0]',           
                                                                  'dropout_5789[0][0]',           
                                                                  'dropout_5790[0][0]',           
                                                                  'dropout_5791[0][0]']           
                                                                                                  
 dense_6031 (Dense)             (None, 1)            385         ['concatenate_1507[0][0]']       
                                                                                                  
==================================================================================================
Total params: 24,979
Trainable params: 24,979
Non-trainable params: 0
__________________________________________________________________________________________________
…
 bidirectional_7189 (Bidirectio  (None, None, 10)    280         ['masking_7189[0][0]']           
 nal)                                                                                             
                                                                                                  
 bidirectional_7190 (Bidirectio  (None, None, 10)    280         ['masking_7190[0][0]']           
 nal)                                                                                             
                                                                                                  
 conv1d_2544 (Conv1D)           (None, 24, 5)        65          ['masking_7191[0][0]']           
                                                                                                  
 lstm_10345 (LSTM)              (None, 5)            320         ['bidirectional_7188[0][0]']     
                                                                                                  
 lstm_10347 (LSTM)              (None, 5)            320         ['bidirectional_7189[0][0]']     
                                                                                                  
 lstm_10349 (LSTM)              (None, 5)            320         ['bidirectional_7190[0][0]']     
                                                                                                  
 conv1d_2545 (Conv1D)           (None, 24, 5)        105         ['conv1d_2544[0][0]']            
                                                                                                  
 dense_6048 (Dense)             (None, 128)          768         ['lstm_10345[0][0]']             
                                                                                                  
 dense_6049 (Dense)             (None, 128)          768         ['lstm_10347[0][0]']             
                                                                                                  
 dense_6050 (Dense)             (None, 128)          768         ['lstm_10349[0][0]']             
                                                                                                  
 bidirectional_7191 (Bidirectio  (None, 128)         35840       ['conv1d_2545[0][0]']            
 nal)                                                                                             
                                                                                                  
 dropout_5808 (Dropout)         (None, 128)          0           ['dense_6048[0][0]']             
                                                                                                  
 dropout_5809 (Dropout)         (None, 128)          0           ['dense_6049[0][0]']             
                                                                                                  
 dropout_5810 (Dropout)         (None, 128)          0           ['dense_6050[0][0]']             
                                                                                                  
 dropout_5811 (Dropout)         (None, 128)          0           ['bidirectional_7191[0][0]']     
                                                                                                  
 concatenate_1512 (Concatenate)  (None, 512)         0           ['dropout_5808[0][0]',           
                                                                  'dropout_5809[0][0]',           
                                                                  'dropout_5810[0][0]',           
                                                                  'dropout_5811[0][0]']           
                                                                                                  
 dense_6051 (Dense)             (None, 1)            513         ['concatenate_1512[0][0]']       
                                                                                                  
==================================================================================================
Total params: 40,627
Trainable params: 40,627
Non-trainable params: 0
__________________________________________________________________________________________________
…
 bidirectional_7209 (Bidirectio  (None, None, 10)    280         ['masking_7209[0][0]']           
 nal)                                                                                             
                                                                                                  
 bidirectional_7210 (Bidirectio  (None, None, 10)    280         ['masking_7210[0][0]']           
 nal)                                                                                             
                                                                                                  
 conv1d_2554 (Conv1D)           (None, 24, 5)        95          ['masking_7211[0][0]']           
                                                                                                  
 lstm_10380 (LSTM)              (None, 5)            320         ['bidirectional_7208[0][0]']     
                                                                                                  
 lstm_10382 (LSTM)              (None, 5)            320         ['bidirectional_7209[0][0]']     
                                                                                                  
 lstm_10384 (LSTM)              (None, 5)            320         ['bidirectional_7210[0][0]']     
                                                                                                  
 conv1d_2555 (Conv1D)           (None, 24, 5)        155         ['conv1d_2554[0][0]']            
                                                                                                  
 dense_6068 (Dense)             (None, 128)          768         ['lstm_10380[0][0]']             
                                                                                                  
 dense_6069 (Dense)             (None, 128)          768         ['lstm_10382[0][0]']             
                                                                                                  
 dense_6070 (Dense)             (None, 128)          768         ['lstm_10384[0][0]']             
                                                                                                  
 bidirectional_7211 (Bidirectio  (None, 128)         35840       ['conv1d_2555[0][0]']            
 nal)                                                                                             
                                                                                                  
 dropout_5828 (Dropout)         (None, 128)          0           ['dense_6068[0][0]']             
                                                                                                  
 dropout_5829 (Dropout)         (None, 128)          0           ['dense_6069[0][0]']             
                                                                                                  
 dropout_5830 (Dropout)         (None, 128)          0           ['dense_6070[0][0]']             
                                                                                                  
 dropout_5831 (Dropout)         (None, 128)          0           ['bidirectional_7211[0][0]']     
                                                                                                  
 concatenate_1517 (Concatenate)  (None, 512)         0           ['dropout_5828[0][0]',           
                                                                  'dropout_5829[0][0]',           
                                                                  'dropout_5830[0][0]',           
                                                                  'dropout_5831[0][0]']           
                                                                                                  
 dense_6071 (Dense)             (None, 1)            513         ['concatenate_1517[0][0]']       
                                                                                                  
==================================================================================================
Total params: 40,707
Trainable params: 40,707
Non-trainable params: 0
__________________________________________________________________________________________________
…
 bidirectional_7229 (Bidirectio  (None, None, 10)    280         ['masking_7229[0][0]']           
 nal)                                                                                             
                                                                                                  
 bidirectional_7230 (Bidirectio  (None, None, 10)    280         ['masking_7230[0][0]']           
 nal)                                                                                             
                                                                                                  
 conv1d_2564 (Conv1D)           (None, 24, 5)        125         ['masking_7231[0][0]']           
                                                                                                  
 lstm_10415 (LSTM)              (None, 5)            320         ['bidirectional_7228[0][0]']     
                                                                                                  
 lstm_10417 (LSTM)              (None, 5)            320         ['bidirectional_7229[0][0]']     
                                                                                                  
 lstm_10419 (LSTM)              (None, 5)            320         ['bidirectional_7230[0][0]']     
                                                                                                  
 conv1d_2565 (Conv1D)           (None, 24, 5)        205         ['conv1d_2564[0][0]']            
                                                                                                  
 dense_6088 (Dense)             (None, 128)          768         ['lstm_10415[0][0]']             
                                                                                                  
 dense_6089 (Dense)             (None, 128)          768         ['lstm_10417[0][0]']             
                                                                                                  
 dense_6090 (Dense)             (None, 128)          768         ['lstm_10419[0][0]']             
                                                                                                  
 bidirectional_7231 (Bidirectio  (None, 128)         35840       ['conv1d_2565[0][0]']            
 nal)                                                                                             
                                                                                                  
 dropout_5848 (Dropout)         (None, 128)          0           ['dense_6088[0][0]']             
                                                                                                  
 dropout_5849 (Dropout)         (None, 128)          0           ['dense_6089[0][0]']             
                                                                                                  
 dropout_5850 (Dropout)         (None, 128)          0           ['dense_6090[0][0]']             
                                                                                                  
 dropout_5851 (Dropout)         (None, 128)          0           ['bidirectional_7231[0][0]']     
                                                                                                  
 concatenate_1522 (Concatenate)  (None, 512)         0           ['dropout_5848[0][0]',           
                                                                  'dropout_5849[0][0]',           
                                                                  'dropout_5850[0][0]',           
                                                                  'dropout_5851[0][0]']           
                                                                                                  
 dense_6091 (Dense)             (None, 1)            513         ['concatenate_1522[0][0]']       
                                                                                                  
==================================================================================================
Total params: 40,787
Trainable params: 40,787
Non-trainable params: 0
__________________________________________________________________________________________________
…
