…
 bidirectional_6701 (Bidirectio  (None, None, 10)    280         ['masking_6701[0][0]']           
 nal)                                                                                             
                                                                                                  
 bidirectional_6702 (Bidirectio  (None, None, 10)    280         ['masking_6702[0][0]']           
 nal)                                                                                             
                                                                                                  
 conv1d_2300 (Conv1D)           (None, 24, 5)        65          ['masking_6703[0][0]']           
                                                                                                  
 lstm_9491 (LSTM)               (None, 5)            320         ['bidirectional_6700[0][0]']     
                                                                                                  
 lstm_9493 (LSTM)               (None, 5)            320         ['bidirectional_6701[0][0]']     
                                                                                                  
 lstm_9495 (LSTM)               (None, 5)            320         ['bidirectional_6702[0][0]']     
                                                                                                  
 conv1d_2301 (Conv1D)           (None, 24, 5)        105         ['conv1d_2300[0][0]']            
                                                                                                  
 dense_5560 (Dense)             (None, 64)           384         ['lstm_9491[0][0]']              
                                                                                                  
 dense_5561 (Dense)             (None, 64)           384         ['lstm_9493[0][0]']              
                                                                                                  
 dense_5562 (Dense)             (None, 64)           384         ['lstm_9495[0][0]']              
                                                                                                  
 bidirectional_6703 (Bidirectio  (None, 64)          9728        ['conv1d_2301[0][0]']            
 nal)                                                                                             
                                                                                                  
 dropout_5320 (Dropout)         (None, 64)           0           ['dense_5560[0][0]']             
                                                                                                  
 dropout_5321 (Dropout)         (None, 64)           0           ['dense_5561[0][0]']             
                                                                                                  
 dropout_5322 (Dropout)         (None, 64)           0           ['dense_5562[0][0]']             
                                                                                                  
 dropout_5323 (Dropout)         (None, 64)           0           ['bidirectional_6703[0][0]']     
                                                                                                  
 concatenate_1390 (Concatenate)  (None, 256)         0           ['dropout_5320[0][0]',           
                                                                  'dropout_5321[0][0]',           
                                                                  'dropout_5322[0][0]',           
                                                                  'dropout_5323[0][0]']           
                                                                                                  
 dense_5563 (Dense)             (None, 1)            257         ['concatenate_1390[0][0]']       
                                                                                                  
==================================================================================================
Total params: 13,107
Trainable params: 13,107
Non-trainable params: 0
__________________________________________________________________________________________________
…
 bidirectional_6721 (Bidirectio  (None, None, 10)    280         ['masking_6721[0][0]']           
 nal)                                                                                             
                                                                                                  
 bidirectional_6722 (Bidirectio  (None, None, 10)    280         ['masking_6722[0][0]']           
 nal)                                                                                             
                                                                                                  
 conv1d_2310 (Conv1D)           (None, 24, 5)        95          ['masking_6723[0][0]']           
                                                                                                  
 lstm_9526 (LSTM)               (None, 5)            320         ['bidirectional_6720[0][0]']     
                                                                                                  
 lstm_9528 (LSTM)               (None, 5)            320         ['bidirectional_6721[0][0]']     
                                                                                                  
 lstm_9530 (LSTM)               (None, 5)            320         ['bidirectional_6722[0][0]']     
                                                                                                  
 conv1d_2311 (Conv1D)           (None, 24, 5)        155         ['conv1d_2310[0][0]']            
                                                                                                  
 dense_5580 (Dense)             (None, 64)           384         ['lstm_9526[0][0]']              
                                                                                                  
 dense_5581 (Dense)             (None, 64)           384         ['lstm_9528[0][0]']              
                                                                                                  
 dense_5582 (Dense)             (None, 64)           384         ['lstm_9530[0][0]']              
                                                                                                  
 bidirectional_6723 (Bidirectio  (None, 64)          9728        ['conv1d_2311[0][0]']            
 nal)                                                                                             
                                                                                                  
 dropout_5340 (Dropout)         (None, 64)           0           ['dense_5580[0][0]']             
                                                                                                  
 dropout_5341 (Dropout)         (None, 64)           0           ['dense_5581[0][0]']             
                                                                                                  
 dropout_5342 (Dropout)         (None, 64)           0           ['dense_5582[0][0]']             
                                                                                                  
 dropout_5343 (Dropout)         (None, 64)           0           ['bidirectional_6723[0][0]']     
                                                                                                  
 concatenate_1395 (Concatenate)  (None, 256)         0           ['dropout_5340[0][0]',           
                                                                  'dropout_5341[0][0]',           
                                                                  'dropout_5342[0][0]',           
                                                                  'dropout_5343[0][0]']           
                                                                                                  
 dense_5583 (Dense)             (None, 1)            257         ['concatenate_1395[0][0]']       
                                                                                                  
==================================================================================================
Total params: 13,187
Trainable params: 13,187
Non-trainable params: 0
__________________________________________________________________________________________________
…
 bidirectional_6741 (Bidirectio  (None, None, 10)    280         ['masking_6741[0][0]']           
 nal)                                                                                             
                                                                                                  
 bidirectional_6742 (Bidirectio  (None, None, 10)    280         ['masking_6742[0][0]']           
 nal)                                                                                             
                                                                                                  
 conv1d_2320 (Conv1D)           (None, 24, 5)        125         ['masking_6743[0][0]']           
                                                                                                  
 lstm_9561 (LSTM)               (None, 5)            320         ['bidirectional_6740[0][0]']     
                                                                                                  
 lstm_9563 (LSTM)               (None, 5)            320         ['bidirectional_6741[0][0]']     
                                                                                                  
 lstm_9565 (LSTM)               (None, 5)            320         ['bidirectional_6742[0][0]']     
                                                                                                  
 conv1d_2321 (Conv1D)           (None, 24, 5)        205         ['conv1d_2320[0][0]']            
                                                                                                  
 dense_5600 (Dense)             (None, 64)           384         ['lstm_9561[0][0]']              
                                                                                                  
 dense_5601 (Dense)             (None, 64)           384         ['lstm_9563[0][0]']              
                                                                                                  
 dense_5602 (Dense)             (None, 64)           384         ['lstm_9565[0][0]']              
                                                                                                  
 bidirectional_6743 (Bidirectio  (None, 64)          9728        ['conv1d_2321[0][0]']            
 nal)                                                                                             
                                                                                                  
 dropout_5360 (Dropout)         (None, 64)           0           ['dense_5600[0][0]']             
                                                                                                  
 dropout_5361 (Dropout)         (None, 64)           0           ['dense_5601[0][0]']             
                                                                                                  
 dropout_5362 (Dropout)         (None, 64)           0           ['dense_5602[0][0]']             
                                                                                                  
 dropout_5363 (Dropout)         (None, 64)           0           ['bidirectional_6743[0][0]']     
                                                                                                  
 concatenate_1400 (Concatenate)  (None, 256)         0           ['dropout_5360[0][0]',           
                                                                  'dropout_5361[0][0]',           
                                                                  'dropout_5362[0][0]',           
                                                                  'dropout_5363[0][0]']           
                                                                                                  
 dense_5603 (Dense)             (None, 1)            257         ['concatenate_1400[0][0]']       
                                                                                                  
==================================================================================================
Total params: 13,267
Trainable params: 13,267
Non-trainable params: 0
__________________________________________________________________________________________________
…
 bidirectional_6761 (Bidirectio  (None, None, 10)    280         ['masking_6761[0][0]']           
 nal)                                                                                             
                                                                                                  
 bidirectional_6762 (Bidirectio  (None, None, 10)    280         ['masking_6762[0][0]']           
 nal)                                                                                             
                                                                                                  
 conv1d_2330 (Conv1D)           (None, 24, 5)        65          ['masking_6763[0][0]']           
                                                                                                  
 lstm_9596 (LSTM)               (None, 5)            320         ['bidirectional_6760[0][0]']     
                                                                                                  
 lstm_9598 (LSTM)               (None, 5)            320         ['bidirectional_6761[0][0]']     
                                                                                                  
 lstm_9600 (LSTM)               (None, 5)            320         ['bidirectional_6762[0][0]']     
                                                                                                  
 conv1d_2331 (Conv1D)           (None, 24, 5)        105         ['conv1d_2330[0][0]']            
                                                                                                  
 dense_5620 (Dense)             (None, 96)           576         ['lstm_9596[0][0]']              
                                                                                                  
 dense_5621 (Dense)             (None, 96)           576         ['lstm_9598[0][0]']              
                                                                                                  
 dense_5622 (Dense)             (None, 96)           576         ['lstm_9600[0][0]']              
                                                                                                  
 bidirectional_6763 (Bidirectio  (None, 96)          20736       ['conv1d_2331[0][0]']            
 nal)                                                                                             
                                                                                                  
 dropout_5380 (Dropout)         (None, 96)           0           ['dense_5620[0][0]']             
                                                                                                  
 dropout_5381 (Dropout)         (None, 96)           0           ['dense_5621[0][0]']             
                                                                                                  
 dropout_5382 (Dropout)         (None, 96)           0           ['dense_5622[0][0]']             
                                                                                                  
 dropout_5383 (Dropout)         (None, 96)           0           ['bidirectional_6763[0][0]']     
                                                                                                  
 concatenate_1405 (Concatenate)  (None, 384)         0           ['dropout_5380[0][0]',           
                                                                  'dropout_5381[0][0]',           
                                                                  'dropout_5382[0][0]',           
                                                                  'dropout_5383[0][0]']           
                                                                                                  
 dense_5623 (Dense)             (None, 1)            385         ['concatenate_1405[0][0]']       
                                                                                                  
==================================================================================================
Total params: 24,819
Trainable params: 24,819
Non-trainable params: 0
__________________________________________________________________________________________________
…
 bidirectional_6781 (Bidirectio  (None, None, 10)    280         ['masking_6781[0][0]']           
 nal)                                                                                             
                                                                                                  
 bidirectional_6782 (Bidirectio  (None, None, 10)    280         ['masking_6782[0][0]']           
 nal)                                                                                             
                                                                                                  
 conv1d_2340 (Conv1D)           (None, 24, 5)        95          ['masking_6783[0][0]']           
                                                                                                  
 lstm_9631 (LSTM)               (None, 5)            320         ['bidirectional_6780[0][0]']     
                                                                                                  
 lstm_9633 (LSTM)               (None, 5)            320         ['bidirectional_6781[0][0]']     
                                                                                                  
 lstm_9635 (LSTM)               (None, 5)            320         ['bidirectional_6782[0][0]']     
                                                                                                  
 conv1d_2341 (Conv1D)           (None, 24, 5)        155         ['conv1d_2340[0][0]']            
                                                                                                  
 dense_5640 (Dense)             (None, 96)           576         ['lstm_9631[0][0]']              
                                                                                                  
 dense_5641 (Dense)             (None, 96)           576         ['lstm_9633[0][0]']              
                                                                                                  
 dense_5642 (Dense)             (None, 96)           576         ['lstm_9635[0][0]']              
                                                                                                  
 bidirectional_6783 (Bidirectio  (None, 96)          20736       ['conv1d_2341[0][0]']            
 nal)                                                                                             
                                                                                                  
 dropout_5400 (Dropout)         (None, 96)           0           ['dense_5640[0][0]']             
                                                                                                  
 dropout_5401 (Dropout)         (None, 96)           0           ['dense_5641[0][0]']             
                                                                                                  
 dropout_5402 (Dropout)         (None, 96)           0           ['dense_5642[0][0]']             
                                                                                                  
 dropout_5403 (Dropout)         (None, 96)           0           ['bidirectional_6783[0][0]']     
                                                                                                  
 concatenate_1410 (Concatenate)  (None, 384)         0           ['dropout_5400[0][0]',           
                                                                  'dropout_5401[0][0]',           
                                                                  'dropout_5402[0][0]',           
                                                                  'dropout_5403[0][0]']           
                                                                                                  
 dense_5643 (Dense)             (None, 1)            385         ['concatenate_1410[0][0]']       
                                                                                                  
==================================================================================================
Total params: 24,899
Trainable params: 24,899
Non-trainable params: 0
__________________________________________________________________________________________________
…
 bidirectional_6801 (Bidirectio  (None, None, 10)    280         ['masking_6801[0][0]']           
 nal)                                                                                             
                                                                                                  
 bidirectional_6802 (Bidirectio  (None, None, 10)    280         ['masking_6802[0][0]']           
 nal)                                                                                             
                                                                                                  
 conv1d_2350 (Conv1D)           (None, 24, 5)        125         ['masking_6803[0][0]']           
                                                                                                  
 lstm_9666 (LSTM)               (None, 5)            320         ['bidirectional_6800[0][0]']     
                                                                                                  
 lstm_9668 (LSTM)               (None, 5)            320         ['bidirectional_6801[0][0]']     
                                                                                                  
 lstm_9670 (LSTM)               (None, 5)            320         ['bidirectional_6802[0][0]']     
                                                                                                  
 conv1d_2351 (Conv1D)           (None, 24, 5)        205         ['conv1d_2350[0][0]']            
                                                                                                  
 dense_5660 (Dense)             (None, 96)           576         ['lstm_9666[0][0]']              
                                                                                                  
 dense_5661 (Dense)             (None, 96)           576         ['lstm_9668[0][0]']              
                                                                                                  
 dense_5662 (Dense)             (None, 96)           576         ['lstm_9670[0][0]']              
                                                                                                  
 bidirectional_6803 (Bidirectio  (None, 96)          20736       ['conv1d_2351[0][0]']            
 nal)                                                                                             
                                                                                                  
 dropout_5420 (Dropout)         (None, 96)           0           ['dense_5660[0][0]']             
                                                                                                  
 dropout_5421 (Dropout)         (None, 96)           0           ['dense_5661[0][0]']             
                                                                                                  
 dropout_5422 (Dropout)         (None, 96)           0           ['dense_5662[0][0]']             
                                                                                                  
 dropout_5423 (Dropout)         (None, 96)           0           ['bidirectional_6803[0][0]']     
                                                                                                  
 concatenate_1415 (Concatenate)  (None, 384)         0           ['dropout_5420[0][0]',           
                                                                  'dropout_5421[0][0]',           
                                                                  'dropout_5422[0][0]',           
                                                                  'dropout_5423[0][0]']           
                                                                                                  
 dense_5663 (Dense)             (None, 1)            385         ['concatenate_1415[0][0]']       
                                                                                                  
==================================================================================================
Total params: 24,979
Trainable params: 24,979
Non-trainable params: 0
__________________________________________________________________________________________________
…
 bidirectional_6821 (Bidirectio  (None, None, 10)    280         ['masking_6821[0][0]']           
 nal)                                                                                             
                                                                                                  
 bidirectional_6822 (Bidirectio  (None, None, 10)    280         ['masking_6822[0][0]']           
 nal)                                                                                             
                                                                                                  
 conv1d_2360 (Conv1D)           (None, 24, 5)        65          ['masking_6823[0][0]']           
                                                                                                  
 lstm_9701 (LSTM)               (None, 5)            320         ['bidirectional_6820[0][0]']     
                                                                                                  
 lstm_9703 (LSTM)               (None, 5)            320         ['bidirectional_6821[0][0]']     
                                                                                                  
 lstm_9705 (LSTM)               (None, 5)            320         ['bidirectional_6822[0][0]']     
                                                                                                  
 conv1d_2361 (Conv1D)           (None, 24, 5)        105         ['conv1d_2360[0][0]']            
                                                                                                  
 dense_5680 (Dense)             (None, 128)          768         ['lstm_9701[0][0]']              
                                                                                                  
 dense_5681 (Dense)             (None, 128)          768         ['lstm_9703[0][0]']              
                                                                                                  
 dense_5682 (Dense)             (None, 128)          768         ['lstm_9705[0][0]']              
                                                                                                  
 bidirectional_6823 (Bidirectio  (None, 128)         35840       ['conv1d_2361[0][0]']            
 nal)                                                                                             
                                                                                                  
 dropout_5440 (Dropout)         (None, 128)          0           ['dense_5680[0][0]']             
                                                                                                  
 dropout_5441 (Dropout)         (None, 128)          0           ['dense_5681[0][0]']             
                                                                                                  
 dropout_5442 (Dropout)         (None, 128)          0           ['dense_5682[0][0]']             
                                                                                                  
 dropout_5443 (Dropout)         (None, 128)          0           ['bidirectional_6823[0][0]']     
                                                                                                  
 concatenate_1420 (Concatenate)  (None, 512)         0           ['dropout_5440[0][0]',           
                                                                  'dropout_5441[0][0]',           
                                                                  'dropout_5442[0][0]',           
                                                                  'dropout_5443[0][0]']           
                                                                                                  
 dense_5683 (Dense)             (None, 1)            513         ['concatenate_1420[0][0]']       
                                                                                                  
==================================================================================================
Total params: 40,627
Trainable params: 40,627
Non-trainable params: 0
__________________________________________________________________________________________________
…
 bidirectional_6841 (Bidirectio  (None, None, 10)    280         ['masking_6841[0][0]']           
 nal)                                                                                             
                                                                                                  
 bidirectional_6842 (Bidirectio  (None, None, 10)    280         ['masking_6842[0][0]']           
 nal)                                                                                             
                                                                                                  
 conv1d_2370 (Conv1D)           (None, 24, 5)        95          ['masking_6843[0][0]']           
                                                                                                  
 lstm_9736 (LSTM)               (None, 5)            320         ['bidirectional_6840[0][0]']     
                                                                                                  
 lstm_9738 (LSTM)               (None, 5)            320         ['bidirectional_6841[0][0]']     
                                                                                                  
 lstm_9740 (LSTM)               (None, 5)            320         ['bidirectional_6842[0][0]']     
                                                                                                  
 conv1d_2371 (Conv1D)           (None, 24, 5)        155         ['conv1d_2370[0][0]']            
                                                                                                  
 dense_5700 (Dense)             (None, 128)          768         ['lstm_9736[0][0]']              
                                                                                                  
 dense_5701 (Dense)             (None, 128)          768         ['lstm_9738[0][0]']              
                                                                                                  
 dense_5702 (Dense)             (None, 128)          768         ['lstm_9740[0][0]']              
                                                                                                  
 bidirectional_6843 (Bidirectio  (None, 128)         35840       ['conv1d_2371[0][0]']            
 nal)                                                                                             
                                                                                                  
 dropout_5460 (Dropout)         (None, 128)          0           ['dense_5700[0][0]']             
                                                                                                  
 dropout_5461 (Dropout)         (None, 128)          0           ['dense_5701[0][0]']             
                                                                                                  
 dropout_5462 (Dropout)         (None, 128)          0           ['dense_5702[0][0]']             
                                                                                                  
 dropout_5463 (Dropout)         (None, 128)          0           ['bidirectional_6843[0][0]']     
                                                                                                  
 concatenate_1425 (Concatenate)  (None, 512)         0           ['dropout_5460[0][0]',           
                                                                  'dropout_5461[0][0]',           
                                                                  'dropout_5462[0][0]',           
                                                                  'dropout_5463[0][0]']           
                                                                                                  
 dense_5703 (Dense)             (None, 1)            513         ['concatenate_1425[0][0]']       
                                                                                                  
==================================================================================================
Total params: 40,707
Trainable params: 40,707
Non-trainable params: 0
__________________________________________________________________________________________________
…
 bidirectional_6861 (Bidirectio  (None, None, 10)    280         ['masking_6861[0][0]']           
 nal)                                                                                             
                                                                                                  
 bidirectional_6862 (Bidirectio  (None, None, 10)    280         ['masking_6862[0][0]']           
 nal)                                                                                             
                                                                                                  
 conv1d_2380 (Conv1D)           (None, 24, 5)        125         ['masking_6863[0][0]']           
                                                                                                  
 lstm_9771 (LSTM)               (None, 5)            320         ['bidirectional_6860[0][0]']     
                                                                                                  
 lstm_9773 (LSTM)               (None, 5)            320         ['bidirectional_6861[0][0]']     
                                                                                                  
 lstm_9775 (LSTM)               (None, 5)            320         ['bidirectional_6862[0][0]']     
                                                                                                  
 conv1d_2381 (Conv1D)           (None, 24, 5)        205         ['conv1d_2380[0][0]']            
                                                                                                  
 dense_5720 (Dense)             (None, 128)          768         ['lstm_9771[0][0]']              
                                                                                                  
 dense_5721 (Dense)             (None, 128)          768         ['lstm_9773[0][0]']              
                                                                                                  
 dense_5722 (Dense)             (None, 128)          768         ['lstm_9775[0][0]']              
                                                                                                  
 bidirectional_6863 (Bidirectio  (None, 128)         35840       ['conv1d_2381[0][0]']            
 nal)                                                                                             
                                                                                                  
 dropout_5480 (Dropout)         (None, 128)          0           ['dense_5720[0][0]']             
                                                                                                  
 dropout_5481 (Dropout)         (None, 128)          0           ['dense_5721[0][0]']             
                                                                                                  
 dropout_5482 (Dropout)         (None, 128)          0           ['dense_5722[0][0]']             
                                                                                                  
 dropout_5483 (Dropout)         (None, 128)          0           ['bidirectional_6863[0][0]']     
                                                                                                  
 concatenate_1430 (Concatenate)  (None, 512)         0           ['dropout_5480[0][0]',           
                                                                  'dropout_5481[0][0]',           
                                                                  'dropout_5482[0][0]',           
                                                                  'dropout_5483[0][0]']           
                                                                                                  
 dense_5723 (Dense)             (None, 1)            513         ['concatenate_1430[0][0]']       
                                                                                                  
==================================================================================================
Total params: 40,787
Trainable params: 40,787
Non-trainable params: 0
__________________________________________________________________________________________________
…
