…
 bidirectional_9793 (Bidirectio  (None, None, 10)    280         ['masking_9793[0][0]']           
 nal)                                                                                             
                                                                                                  
 bidirectional_9794 (Bidirectio  (None, None, 10)    280         ['masking_9794[0][0]']           
 nal)                                                                                             
                                                                                                  
 conv1d_3496 (Conv1D)           (None, 24, 5)        65          ['masking_9795[0][0]']           
                                                                                                  
 lstm_14157 (LSTM)              (None, 5)            320         ['bidirectional_9792[0][0]']     
                                                                                                  
 lstm_14159 (LSTM)              (None, 5)            320         ['bidirectional_9793[0][0]']     
                                                                                                  
 lstm_14161 (LSTM)              (None, 5)            320         ['bidirectional_9794[0][0]']     
                                                                                                  
 conv1d_3497 (Conv1D)           (None, 24, 5)        105         ['conv1d_3496[0][0]']            
                                                                                                  
 dense_8272 (Dense)             (None, 64)           384         ['lstm_14157[0][0]']             
                                                                                                  
 dense_8273 (Dense)             (None, 64)           384         ['lstm_14159[0][0]']             
                                                                                                  
 dense_8274 (Dense)             (None, 64)           384         ['lstm_14161[0][0]']             
                                                                                                  
 bidirectional_9795 (Bidirectio  (None, 64)          9728        ['conv1d_3497[0][0]']            
 nal)                                                                                             
                                                                                                  
 dropout_7952 (Dropout)         (None, 64)           0           ['dense_8272[0][0]']             
                                                                                                  
 dropout_7953 (Dropout)         (None, 64)           0           ['dense_8273[0][0]']             
                                                                                                  
 dropout_7954 (Dropout)         (None, 64)           0           ['dense_8274[0][0]']             
                                                                                                  
 dropout_7955 (Dropout)         (None, 64)           0           ['bidirectional_9795[0][0]']     
                                                                                                  
 concatenate_2068 (Concatenate)  (None, 256)         0           ['dropout_7952[0][0]',           
                                                                  'dropout_7953[0][0]',           
                                                                  'dropout_7954[0][0]',           
                                                                  'dropout_7955[0][0]']           
                                                                                                  
 dense_8275 (Dense)             (None, 1)            257         ['concatenate_2068[0][0]']       
                                                                                                  
==================================================================================================
Total params: 13,107
Trainable params: 13,107
Non-trainable params: 0
__________________________________________________________________________________________________
…
 bidirectional_9813 (Bidirectio  (None, None, 10)    280         ['masking_9813[0][0]']           
 nal)                                                                                             
                                                                                                  
 bidirectional_9814 (Bidirectio  (None, None, 10)    280         ['masking_9814[0][0]']           
 nal)                                                                                             
                                                                                                  
 conv1d_3506 (Conv1D)           (None, 24, 5)        95          ['masking_9815[0][0]']           
                                                                                                  
 lstm_14192 (LSTM)              (None, 5)            320         ['bidirectional_9812[0][0]']     
                                                                                                  
 lstm_14194 (LSTM)              (None, 5)            320         ['bidirectional_9813[0][0]']     
                                                                                                  
 lstm_14196 (LSTM)              (None, 5)            320         ['bidirectional_9814[0][0]']     
                                                                                                  
 conv1d_3507 (Conv1D)           (None, 24, 5)        155         ['conv1d_3506[0][0]']            
                                                                                                  
 dense_8292 (Dense)             (None, 64)           384         ['lstm_14192[0][0]']             
                                                                                                  
 dense_8293 (Dense)             (None, 64)           384         ['lstm_14194[0][0]']             
                                                                                                  
 dense_8294 (Dense)             (None, 64)           384         ['lstm_14196[0][0]']             
                                                                                                  
 bidirectional_9815 (Bidirectio  (None, 64)          9728        ['conv1d_3507[0][0]']            
 nal)                                                                                             
                                                                                                  
 dropout_7972 (Dropout)         (None, 64)           0           ['dense_8292[0][0]']             
                                                                                                  
 dropout_7973 (Dropout)         (None, 64)           0           ['dense_8293[0][0]']             
                                                                                                  
 dropout_7974 (Dropout)         (None, 64)           0           ['dense_8294[0][0]']             
                                                                                                  
 dropout_7975 (Dropout)         (None, 64)           0           ['bidirectional_9815[0][0]']     
                                                                                                  
 concatenate_2073 (Concatenate)  (None, 256)         0           ['dropout_7972[0][0]',           
                                                                  'dropout_7973[0][0]',           
                                                                  'dropout_7974[0][0]',           
                                                                  'dropout_7975[0][0]']           
                                                                                                  
 dense_8295 (Dense)             (None, 1)            257         ['concatenate_2073[0][0]']       
                                                                                                  
==================================================================================================
Total params: 13,187
Trainable params: 13,187
Non-trainable params: 0
__________________________________________________________________________________________________
…
 bidirectional_9833 (Bidirectio  (None, None, 10)    280         ['masking_9833[0][0]']           
 nal)                                                                                             
                                                                                                  
 bidirectional_9834 (Bidirectio  (None, None, 10)    280         ['masking_9834[0][0]']           
 nal)                                                                                             
                                                                                                  
 conv1d_3516 (Conv1D)           (None, 24, 5)        125         ['masking_9835[0][0]']           
                                                                                                  
 lstm_14227 (LSTM)              (None, 5)            320         ['bidirectional_9832[0][0]']     
                                                                                                  
 lstm_14229 (LSTM)              (None, 5)            320         ['bidirectional_9833[0][0]']     
                                                                                                  
 lstm_14231 (LSTM)              (None, 5)            320         ['bidirectional_9834[0][0]']     
                                                                                                  
 conv1d_3517 (Conv1D)           (None, 24, 5)        205         ['conv1d_3516[0][0]']            
                                                                                                  
 dense_8312 (Dense)             (None, 64)           384         ['lstm_14227[0][0]']             
                                                                                                  
 dense_8313 (Dense)             (None, 64)           384         ['lstm_14229[0][0]']             
                                                                                                  
 dense_8314 (Dense)             (None, 64)           384         ['lstm_14231[0][0]']             
                                                                                                  
 bidirectional_9835 (Bidirectio  (None, 64)          9728        ['conv1d_3517[0][0]']            
 nal)                                                                                             
                                                                                                  
 dropout_7992 (Dropout)         (None, 64)           0           ['dense_8312[0][0]']             
                                                                                                  
 dropout_7993 (Dropout)         (None, 64)           0           ['dense_8313[0][0]']             
                                                                                                  
 dropout_7994 (Dropout)         (None, 64)           0           ['dense_8314[0][0]']             
                                                                                                  
 dropout_7995 (Dropout)         (None, 64)           0           ['bidirectional_9835[0][0]']     
                                                                                                  
 concatenate_2078 (Concatenate)  (None, 256)         0           ['dropout_7992[0][0]',           
                                                                  'dropout_7993[0][0]',           
                                                                  'dropout_7994[0][0]',           
                                                                  'dropout_7995[0][0]']           
                                                                                                  
 dense_8315 (Dense)             (None, 1)            257         ['concatenate_2078[0][0]']       
                                                                                                  
==================================================================================================
Total params: 13,267
Trainable params: 13,267
Non-trainable params: 0
__________________________________________________________________________________________________
…
 bidirectional_9853 (Bidirectio  (None, None, 10)    280         ['masking_9853[0][0]']           
 nal)                                                                                             
                                                                                                  
 bidirectional_9854 (Bidirectio  (None, None, 10)    280         ['masking_9854[0][0]']           
 nal)                                                                                             
                                                                                                  
 conv1d_3526 (Conv1D)           (None, 24, 5)        65          ['masking_9855[0][0]']           
                                                                                                  
 lstm_14262 (LSTM)              (None, 5)            320         ['bidirectional_9852[0][0]']     
                                                                                                  
 lstm_14264 (LSTM)              (None, 5)            320         ['bidirectional_9853[0][0]']     
                                                                                                  
 lstm_14266 (LSTM)              (None, 5)            320         ['bidirectional_9854[0][0]']     
                                                                                                  
 conv1d_3527 (Conv1D)           (None, 24, 5)        105         ['conv1d_3526[0][0]']            
                                                                                                  
 dense_8332 (Dense)             (None, 96)           576         ['lstm_14262[0][0]']             
                                                                                                  
 dense_8333 (Dense)             (None, 96)           576         ['lstm_14264[0][0]']             
                                                                                                  
 dense_8334 (Dense)             (None, 96)           576         ['lstm_14266[0][0]']             
                                                                                                  
 bidirectional_9855 (Bidirectio  (None, 96)          20736       ['conv1d_3527[0][0]']            
 nal)                                                                                             
                                                                                                  
 dropout_8012 (Dropout)         (None, 96)           0           ['dense_8332[0][0]']             
                                                                                                  
 dropout_8013 (Dropout)         (None, 96)           0           ['dense_8333[0][0]']             
                                                                                                  
 dropout_8014 (Dropout)         (None, 96)           0           ['dense_8334[0][0]']             
                                                                                                  
 dropout_8015 (Dropout)         (None, 96)           0           ['bidirectional_9855[0][0]']     
                                                                                                  
 concatenate_2083 (Concatenate)  (None, 384)         0           ['dropout_8012[0][0]',           
                                                                  'dropout_8013[0][0]',           
                                                                  'dropout_8014[0][0]',           
                                                                  'dropout_8015[0][0]']           
                                                                                                  
 dense_8335 (Dense)             (None, 1)            385         ['concatenate_2083[0][0]']       
                                                                                                  
==================================================================================================
Total params: 24,819
Trainable params: 24,819
Non-trainable params: 0
__________________________________________________________________________________________________
…
 bidirectional_9873 (Bidirectio  (None, None, 10)    280         ['masking_9873[0][0]']           
 nal)                                                                                             
                                                                                                  
 bidirectional_9874 (Bidirectio  (None, None, 10)    280         ['masking_9874[0][0]']           
 nal)                                                                                             
                                                                                                  
 conv1d_3536 (Conv1D)           (None, 24, 5)        95          ['masking_9875[0][0]']           
                                                                                                  
 lstm_14297 (LSTM)              (None, 5)            320         ['bidirectional_9872[0][0]']     
                                                                                                  
 lstm_14299 (LSTM)              (None, 5)            320         ['bidirectional_9873[0][0]']     
                                                                                                  
 lstm_14301 (LSTM)              (None, 5)            320         ['bidirectional_9874[0][0]']     
                                                                                                  
 conv1d_3537 (Conv1D)           (None, 24, 5)        155         ['conv1d_3536[0][0]']            
                                                                                                  
 dense_8352 (Dense)             (None, 96)           576         ['lstm_14297[0][0]']             
                                                                                                  
 dense_8353 (Dense)             (None, 96)           576         ['lstm_14299[0][0]']             
                                                                                                  
 dense_8354 (Dense)             (None, 96)           576         ['lstm_14301[0][0]']             
                                                                                                  
 bidirectional_9875 (Bidirectio  (None, 96)          20736       ['conv1d_3537[0][0]']            
 nal)                                                                                             
                                                                                                  
 dropout_8032 (Dropout)         (None, 96)           0           ['dense_8352[0][0]']             
                                                                                                  
 dropout_8033 (Dropout)         (None, 96)           0           ['dense_8353[0][0]']             
                                                                                                  
 dropout_8034 (Dropout)         (None, 96)           0           ['dense_8354[0][0]']             
                                                                                                  
 dropout_8035 (Dropout)         (None, 96)           0           ['bidirectional_9875[0][0]']     
                                                                                                  
 concatenate_2088 (Concatenate)  (None, 384)         0           ['dropout_8032[0][0]',           
                                                                  'dropout_8033[0][0]',           
                                                                  'dropout_8034[0][0]',           
                                                                  'dropout_8035[0][0]']           
                                                                                                  
 dense_8355 (Dense)             (None, 1)            385         ['concatenate_2088[0][0]']       
                                                                                                  
==================================================================================================
Total params: 24,899
Trainable params: 24,899
Non-trainable params: 0
__________________________________________________________________________________________________
…
 bidirectional_9893 (Bidirectio  (None, None, 10)    280         ['masking_9893[0][0]']           
 nal)                                                                                             
                                                                                                  
 bidirectional_9894 (Bidirectio  (None, None, 10)    280         ['masking_9894[0][0]']           
 nal)                                                                                             
                                                                                                  
 conv1d_3546 (Conv1D)           (None, 24, 5)        125         ['masking_9895[0][0]']           
                                                                                                  
 lstm_14332 (LSTM)              (None, 5)            320         ['bidirectional_9892[0][0]']     
                                                                                                  
 lstm_14334 (LSTM)              (None, 5)            320         ['bidirectional_9893[0][0]']     
                                                                                                  
 lstm_14336 (LSTM)              (None, 5)            320         ['bidirectional_9894[0][0]']     
                                                                                                  
 conv1d_3547 (Conv1D)           (None, 24, 5)        205         ['conv1d_3546[0][0]']            
                                                                                                  
 dense_8372 (Dense)             (None, 96)           576         ['lstm_14332[0][0]']             
                                                                                                  
 dense_8373 (Dense)             (None, 96)           576         ['lstm_14334[0][0]']             
                                                                                                  
 dense_8374 (Dense)             (None, 96)           576         ['lstm_14336[0][0]']             
                                                                                                  
 bidirectional_9895 (Bidirectio  (None, 96)          20736       ['conv1d_3547[0][0]']            
 nal)                                                                                             
                                                                                                  
 dropout_8052 (Dropout)         (None, 96)           0           ['dense_8372[0][0]']             
                                                                                                  
 dropout_8053 (Dropout)         (None, 96)           0           ['dense_8373[0][0]']             
                                                                                                  
 dropout_8054 (Dropout)         (None, 96)           0           ['dense_8374[0][0]']             
                                                                                                  
 dropout_8055 (Dropout)         (None, 96)           0           ['bidirectional_9895[0][0]']     
                                                                                                  
 concatenate_2093 (Concatenate)  (None, 384)         0           ['dropout_8052[0][0]',           
                                                                  'dropout_8053[0][0]',           
                                                                  'dropout_8054[0][0]',           
                                                                  'dropout_8055[0][0]']           
                                                                                                  
 dense_8375 (Dense)             (None, 1)            385         ['concatenate_2093[0][0]']       
                                                                                                  
==================================================================================================
Total params: 24,979
Trainable params: 24,979
Non-trainable params: 0
__________________________________________________________________________________________________
…
 bidirectional_9913 (Bidirectio  (None, None, 10)    280         ['masking_9913[0][0]']           
 nal)                                                                                             
                                                                                                  
 bidirectional_9914 (Bidirectio  (None, None, 10)    280         ['masking_9914[0][0]']           
 nal)                                                                                             
                                                                                                  
 conv1d_3556 (Conv1D)           (None, 24, 5)        65          ['masking_9915[0][0]']           
                                                                                                  
 lstm_14367 (LSTM)              (None, 5)            320         ['bidirectional_9912[0][0]']     
                                                                                                  
 lstm_14369 (LSTM)              (None, 5)            320         ['bidirectional_9913[0][0]']     
                                                                                                  
 lstm_14371 (LSTM)              (None, 5)            320         ['bidirectional_9914[0][0]']     
                                                                                                  
 conv1d_3557 (Conv1D)           (None, 24, 5)        105         ['conv1d_3556[0][0]']            
                                                                                                  
 dense_8392 (Dense)             (None, 128)          768         ['lstm_14367[0][0]']             
                                                                                                  
 dense_8393 (Dense)             (None, 128)          768         ['lstm_14369[0][0]']             
                                                                                                  
 dense_8394 (Dense)             (None, 128)          768         ['lstm_14371[0][0]']             
                                                                                                  
 bidirectional_9915 (Bidirectio  (None, 128)         35840       ['conv1d_3557[0][0]']            
 nal)                                                                                             
                                                                                                  
 dropout_8072 (Dropout)         (None, 128)          0           ['dense_8392[0][0]']             
                                                                                                  
 dropout_8073 (Dropout)         (None, 128)          0           ['dense_8393[0][0]']             
                                                                                                  
 dropout_8074 (Dropout)         (None, 128)          0           ['dense_8394[0][0]']             
                                                                                                  
 dropout_8075 (Dropout)         (None, 128)          0           ['bidirectional_9915[0][0]']     
                                                                                                  
 concatenate_2098 (Concatenate)  (None, 512)         0           ['dropout_8072[0][0]',           
                                                                  'dropout_8073[0][0]',           
                                                                  'dropout_8074[0][0]',           
                                                                  'dropout_8075[0][0]']           
                                                                                                  
 dense_8395 (Dense)             (None, 1)            513         ['concatenate_2098[0][0]']       
                                                                                                  
==================================================================================================
Total params: 40,627
Trainable params: 40,627
Non-trainable params: 0
__________________________________________________________________________________________________
…
 bidirectional_9933 (Bidirectio  (None, None, 10)    280         ['masking_9933[0][0]']           
 nal)                                                                                             
                                                                                                  
 bidirectional_9934 (Bidirectio  (None, None, 10)    280         ['masking_9934[0][0]']           
 nal)                                                                                             
                                                                                                  
 conv1d_3566 (Conv1D)           (None, 24, 5)        95          ['masking_9935[0][0]']           
                                                                                                  
 lstm_14402 (LSTM)              (None, 5)            320         ['bidirectional_9932[0][0]']     
                                                                                                  
 lstm_14404 (LSTM)              (None, 5)            320         ['bidirectional_9933[0][0]']     
                                                                                                  
 lstm_14406 (LSTM)              (None, 5)            320         ['bidirectional_9934[0][0]']     
                                                                                                  
 conv1d_3567 (Conv1D)           (None, 24, 5)        155         ['conv1d_3566[0][0]']            
                                                                                                  
 dense_8412 (Dense)             (None, 128)          768         ['lstm_14402[0][0]']             
                                                                                                  
 dense_8413 (Dense)             (None, 128)          768         ['lstm_14404[0][0]']             
                                                                                                  
 dense_8414 (Dense)             (None, 128)          768         ['lstm_14406[0][0]']             
                                                                                                  
 bidirectional_9935 (Bidirectio  (None, 128)         35840       ['conv1d_3567[0][0]']            
 nal)                                                                                             
                                                                                                  
 dropout_8092 (Dropout)         (None, 128)          0           ['dense_8412[0][0]']             
                                                                                                  
 dropout_8093 (Dropout)         (None, 128)          0           ['dense_8413[0][0]']             
                                                                                                  
 dropout_8094 (Dropout)         (None, 128)          0           ['dense_8414[0][0]']             
                                                                                                  
 dropout_8095 (Dropout)         (None, 128)          0           ['bidirectional_9935[0][0]']     
                                                                                                  
 concatenate_2103 (Concatenate)  (None, 512)         0           ['dropout_8092[0][0]',           
                                                                  'dropout_8093[0][0]',           
                                                                  'dropout_8094[0][0]',           
                                                                  'dropout_8095[0][0]']           
                                                                                                  
 dense_8415 (Dense)             (None, 1)            513         ['concatenate_2103[0][0]']       
                                                                                                  
==================================================================================================
Total params: 40,707
Trainable params: 40,707
Non-trainable params: 0
__________________________________________________________________________________________________
…
 bidirectional_9953 (Bidirectio  (None, None, 10)    280         ['masking_9953[0][0]']           
 nal)                                                                                             
                                                                                                  
 bidirectional_9954 (Bidirectio  (None, None, 10)    280         ['masking_9954[0][0]']           
 nal)                                                                                             
                                                                                                  
 conv1d_3576 (Conv1D)           (None, 24, 5)        125         ['masking_9955[0][0]']           
                                                                                                  
 lstm_14437 (LSTM)              (None, 5)            320         ['bidirectional_9952[0][0]']     
                                                                                                  
 lstm_14439 (LSTM)              (None, 5)            320         ['bidirectional_9953[0][0]']     
                                                                                                  
 lstm_14441 (LSTM)              (None, 5)            320         ['bidirectional_9954[0][0]']     
                                                                                                  
 conv1d_3577 (Conv1D)           (None, 24, 5)        205         ['conv1d_3576[0][0]']            
                                                                                                  
 dense_8432 (Dense)             (None, 128)          768         ['lstm_14437[0][0]']             
                                                                                                  
 dense_8433 (Dense)             (None, 128)          768         ['lstm_14439[0][0]']             
                                                                                                  
 dense_8434 (Dense)             (None, 128)          768         ['lstm_14441[0][0]']             
                                                                                                  
 bidirectional_9955 (Bidirectio  (None, 128)         35840       ['conv1d_3577[0][0]']            
 nal)                                                                                             
                                                                                                  
 dropout_8112 (Dropout)         (None, 128)          0           ['dense_8432[0][0]']             
                                                                                                  
 dropout_8113 (Dropout)         (None, 128)          0           ['dense_8433[0][0]']             
                                                                                                  
 dropout_8114 (Dropout)         (None, 128)          0           ['dense_8434[0][0]']             
                                                                                                  
 dropout_8115 (Dropout)         (None, 128)          0           ['bidirectional_9955[0][0]']     
                                                                                                  
 concatenate_2108 (Concatenate)  (None, 512)         0           ['dropout_8112[0][0]',           
                                                                  'dropout_8113[0][0]',           
                                                                  'dropout_8114[0][0]',           
                                                                  'dropout_8115[0][0]']           
                                                                                                  
 dense_8435 (Dense)             (None, 1)            513         ['concatenate_2108[0][0]']       
                                                                                                  
==================================================================================================
Total params: 40,787
Trainable params: 40,787
Non-trainable params: 0
__________________________________________________________________________________________________
…
