…
 bidirectional_10815 (Bidirecti  (None, None, 10)    280         ['masking_10815[0][0]']          
 onal)                                                                                            
                                                                                                  
 bidirectional_10816 (Bidirecti  (None, None, 10)    280         ['masking_10816[0][0]']          
 onal)                                                                                            
                                                                                                  
 conv1d_3772 (Conv1D)           (None, 25, 5)        1885        ['masking_10817[0][0]']          
                                                                                                  
 lstm_15603 (LSTM)              (None, 5)            320         ['bidirectional_10814[0][0]']    
                                                                                                  
 lstm_15605 (LSTM)              (None, 5)            320         ['bidirectional_10815[0][0]']    
                                                                                                  
 lstm_15607 (LSTM)              (None, 5)            320         ['bidirectional_10816[0][0]']    
                                                                                                  
 conv1d_3773 (Conv1D)           (None, 25, 5)        105         ['conv1d_3772[0][0]']            
                                                                                                  
 dense_9144 (Dense)             (None, 64)           384         ['lstm_15603[0][0]']             
                                                                                                  
 dense_9145 (Dense)             (None, 64)           384         ['lstm_15605[0][0]']             
                                                                                                  
 dense_9146 (Dense)             (None, 64)           384         ['lstm_15607[0][0]']             
                                                                                                  
 bidirectional_10817 (Bidirecti  (None, 64)          9728        ['conv1d_3773[0][0]']            
 onal)                                                                                            
                                                                                                  
 dropout_8744 (Dropout)         (None, 64)           0           ['dense_9144[0][0]']             
                                                                                                  
 dropout_8745 (Dropout)         (None, 64)           0           ['dense_9145[0][0]']             
                                                                                                  
 dropout_8746 (Dropout)         (None, 64)           0           ['dense_9146[0][0]']             
                                                                                                  
 dropout_8747 (Dropout)         (None, 64)           0           ['bidirectional_10817[0][0]']    
                                                                                                  
 concatenate_2286 (Concatenate)  (None, 256)         0           ['dropout_8744[0][0]',           
                                                                  'dropout_8745[0][0]',           
                                                                  'dropout_8746[0][0]',           
                                                                  'dropout_8747[0][0]']           
                                                                                                  
 dense_9147 (Dense)             (None, 1)            257         ['concatenate_2286[0][0]']       
                                                                                                  
==================================================================================================
Total params: 14,927
Trainable params: 14,927
Non-trainable params: 0
__________________________________________________________________________________________________
…
 bidirectional_10835 (Bidirecti  (None, None, 10)    280         ['masking_10835[0][0]']          
 onal)                                                                                            
                                                                                                  
 bidirectional_10836 (Bidirecti  (None, None, 10)    280         ['masking_10836[0][0]']          
 onal)                                                                                            
                                                                                                  
 conv1d_3782 (Conv1D)           (None, 25, 5)        2825        ['masking_10837[0][0]']          
                                                                                                  
 lstm_15638 (LSTM)              (None, 5)            320         ['bidirectional_10834[0][0]']    
                                                                                                  
 lstm_15640 (LSTM)              (None, 5)            320         ['bidirectional_10835[0][0]']    
                                                                                                  
 lstm_15642 (LSTM)              (None, 5)            320         ['bidirectional_10836[0][0]']    
                                                                                                  
 conv1d_3783 (Conv1D)           (None, 25, 5)        155         ['conv1d_3782[0][0]']            
                                                                                                  
 dense_9164 (Dense)             (None, 64)           384         ['lstm_15638[0][0]']             
                                                                                                  
 dense_9165 (Dense)             (None, 64)           384         ['lstm_15640[0][0]']             
                                                                                                  
 dense_9166 (Dense)             (None, 64)           384         ['lstm_15642[0][0]']             
                                                                                                  
 bidirectional_10837 (Bidirecti  (None, 64)          9728        ['conv1d_3783[0][0]']            
 onal)                                                                                            
                                                                                                  
 dropout_8764 (Dropout)         (None, 64)           0           ['dense_9164[0][0]']             
                                                                                                  
 dropout_8765 (Dropout)         (None, 64)           0           ['dense_9165[0][0]']             
                                                                                                  
 dropout_8766 (Dropout)         (None, 64)           0           ['dense_9166[0][0]']             
                                                                                                  
 dropout_8767 (Dropout)         (None, 64)           0           ['bidirectional_10837[0][0]']    
                                                                                                  
 concatenate_2291 (Concatenate)  (None, 256)         0           ['dropout_8764[0][0]',           
                                                                  'dropout_8765[0][0]',           
                                                                  'dropout_8766[0][0]',           
                                                                  'dropout_8767[0][0]']           
                                                                                                  
 dense_9167 (Dense)             (None, 1)            257         ['concatenate_2291[0][0]']       
                                                                                                  
==================================================================================================
Total params: 15,917
Trainable params: 15,917
Non-trainable params: 0
__________________________________________________________________________________________________
…
 bidirectional_10855 (Bidirecti  (None, None, 10)    280         ['masking_10855[0][0]']          
 onal)                                                                                            
                                                                                                  
 bidirectional_10856 (Bidirecti  (None, None, 10)    280         ['masking_10856[0][0]']          
 onal)                                                                                            
                                                                                                  
 conv1d_3792 (Conv1D)           (None, 25, 5)        3765        ['masking_10857[0][0]']          
                                                                                                  
 lstm_15673 (LSTM)              (None, 5)            320         ['bidirectional_10854[0][0]']    
                                                                                                  
 lstm_15675 (LSTM)              (None, 5)            320         ['bidirectional_10855[0][0]']    
                                                                                                  
 lstm_15677 (LSTM)              (None, 5)            320         ['bidirectional_10856[0][0]']    
                                                                                                  
 conv1d_3793 (Conv1D)           (None, 25, 5)        205         ['conv1d_3792[0][0]']            
                                                                                                  
 dense_9184 (Dense)             (None, 64)           384         ['lstm_15673[0][0]']             
                                                                                                  
 dense_9185 (Dense)             (None, 64)           384         ['lstm_15675[0][0]']             
                                                                                                  
 dense_9186 (Dense)             (None, 64)           384         ['lstm_15677[0][0]']             
                                                                                                  
 bidirectional_10857 (Bidirecti  (None, 64)          9728        ['conv1d_3793[0][0]']            
 onal)                                                                                            
                                                                                                  
 dropout_8784 (Dropout)         (None, 64)           0           ['dense_9184[0][0]']             
                                                                                                  
 dropout_8785 (Dropout)         (None, 64)           0           ['dense_9185[0][0]']             
                                                                                                  
 dropout_8786 (Dropout)         (None, 64)           0           ['dense_9186[0][0]']             
                                                                                                  
 dropout_8787 (Dropout)         (None, 64)           0           ['bidirectional_10857[0][0]']    
                                                                                                  
 concatenate_2296 (Concatenate)  (None, 256)         0           ['dropout_8784[0][0]',           
                                                                  'dropout_8785[0][0]',           
                                                                  'dropout_8786[0][0]',           
                                                                  'dropout_8787[0][0]']           
                                                                                                  
 dense_9187 (Dense)             (None, 1)            257         ['concatenate_2296[0][0]']       
                                                                                                  
==================================================================================================
Total params: 16,907
Trainable params: 16,907
Non-trainable params: 0
__________________________________________________________________________________________________
…
 bidirectional_10875 (Bidirecti  (None, None, 10)    280         ['masking_10875[0][0]']          
 onal)                                                                                            
                                                                                                  
 bidirectional_10876 (Bidirecti  (None, None, 10)    280         ['masking_10876[0][0]']          
 onal)                                                                                            
                                                                                                  
 conv1d_3802 (Conv1D)           (None, 25, 5)        1885        ['masking_10877[0][0]']          
                                                                                                  
 lstm_15708 (LSTM)              (None, 5)            320         ['bidirectional_10874[0][0]']    
                                                                                                  
 lstm_15710 (LSTM)              (None, 5)            320         ['bidirectional_10875[0][0]']    
                                                                                                  
 lstm_15712 (LSTM)              (None, 5)            320         ['bidirectional_10876[0][0]']    
                                                                                                  
 conv1d_3803 (Conv1D)           (None, 25, 5)        105         ['conv1d_3802[0][0]']            
                                                                                                  
 dense_9204 (Dense)             (None, 96)           576         ['lstm_15708[0][0]']             
                                                                                                  
 dense_9205 (Dense)             (None, 96)           576         ['lstm_15710[0][0]']             
                                                                                                  
 dense_9206 (Dense)             (None, 96)           576         ['lstm_15712[0][0]']             
                                                                                                  
 bidirectional_10877 (Bidirecti  (None, 96)          20736       ['conv1d_3803[0][0]']            
 onal)                                                                                            
                                                                                                  
 dropout_8804 (Dropout)         (None, 96)           0           ['dense_9204[0][0]']             
                                                                                                  
 dropout_8805 (Dropout)         (None, 96)           0           ['dense_9205[0][0]']             
                                                                                                  
 dropout_8806 (Dropout)         (None, 96)           0           ['dense_9206[0][0]']             
                                                                                                  
 dropout_8807 (Dropout)         (None, 96)           0           ['bidirectional_10877[0][0]']    
                                                                                                  
 concatenate_2301 (Concatenate)  (None, 384)         0           ['dropout_8804[0][0]',           
                                                                  'dropout_8805[0][0]',           
                                                                  'dropout_8806[0][0]',           
                                                                  'dropout_8807[0][0]']           
                                                                                                  
 dense_9207 (Dense)             (None, 1)            385         ['concatenate_2301[0][0]']       
                                                                                                  
==================================================================================================
Total params: 26,639
Trainable params: 26,639
Non-trainable params: 0
__________________________________________________________________________________________________
…
 bidirectional_10895 (Bidirecti  (None, None, 10)    280         ['masking_10895[0][0]']          
 onal)                                                                                            
                                                                                                  
 bidirectional_10896 (Bidirecti  (None, None, 10)    280         ['masking_10896[0][0]']          
 onal)                                                                                            
                                                                                                  
 conv1d_3812 (Conv1D)           (None, 25, 5)        2825        ['masking_10897[0][0]']          
                                                                                                  
 lstm_15743 (LSTM)              (None, 5)            320         ['bidirectional_10894[0][0]']    
                                                                                                  
 lstm_15745 (LSTM)              (None, 5)            320         ['bidirectional_10895[0][0]']    
                                                                                                  
 lstm_15747 (LSTM)              (None, 5)            320         ['bidirectional_10896[0][0]']    
                                                                                                  
 conv1d_3813 (Conv1D)           (None, 25, 5)        155         ['conv1d_3812[0][0]']            
                                                                                                  
 dense_9224 (Dense)             (None, 96)           576         ['lstm_15743[0][0]']             
                                                                                                  
 dense_9225 (Dense)             (None, 96)           576         ['lstm_15745[0][0]']             
                                                                                                  
 dense_9226 (Dense)             (None, 96)           576         ['lstm_15747[0][0]']             
                                                                                                  
 bidirectional_10897 (Bidirecti  (None, 96)          20736       ['conv1d_3813[0][0]']            
 onal)                                                                                            
                                                                                                  
 dropout_8824 (Dropout)         (None, 96)           0           ['dense_9224[0][0]']             
                                                                                                  
 dropout_8825 (Dropout)         (None, 96)           0           ['dense_9225[0][0]']             
                                                                                                  
 dropout_8826 (Dropout)         (None, 96)           0           ['dense_9226[0][0]']             
                                                                                                  
 dropout_8827 (Dropout)         (None, 96)           0           ['bidirectional_10897[0][0]']    
                                                                                                  
 concatenate_2306 (Concatenate)  (None, 384)         0           ['dropout_8824[0][0]',           
                                                                  'dropout_8825[0][0]',           
                                                                  'dropout_8826[0][0]',           
                                                                  'dropout_8827[0][0]']           
                                                                                                  
 dense_9227 (Dense)             (None, 1)            385         ['concatenate_2306[0][0]']       
                                                                                                  
==================================================================================================
Total params: 27,629
Trainable params: 27,629
Non-trainable params: 0
__________________________________________________________________________________________________
…
 bidirectional_10915 (Bidirecti  (None, None, 10)    280         ['masking_10915[0][0]']          
 onal)                                                                                            
                                                                                                  
 bidirectional_10916 (Bidirecti  (None, None, 10)    280         ['masking_10916[0][0]']          
 onal)                                                                                            
                                                                                                  
 conv1d_3822 (Conv1D)           (None, 25, 5)        3765        ['masking_10917[0][0]']          
                                                                                                  
 lstm_15778 (LSTM)              (None, 5)            320         ['bidirectional_10914[0][0]']    
                                                                                                  
 lstm_15780 (LSTM)              (None, 5)            320         ['bidirectional_10915[0][0]']    
                                                                                                  
 lstm_15782 (LSTM)              (None, 5)            320         ['bidirectional_10916[0][0]']    
                                                                                                  
 conv1d_3823 (Conv1D)           (None, 25, 5)        205         ['conv1d_3822[0][0]']            
                                                                                                  
 dense_9244 (Dense)             (None, 96)           576         ['lstm_15778[0][0]']             
                                                                                                  
 dense_9245 (Dense)             (None, 96)           576         ['lstm_15780[0][0]']             
                                                                                                  
 dense_9246 (Dense)             (None, 96)           576         ['lstm_15782[0][0]']             
                                                                                                  
 bidirectional_10917 (Bidirecti  (None, 96)          20736       ['conv1d_3823[0][0]']            
 onal)                                                                                            
                                                                                                  
 dropout_8844 (Dropout)         (None, 96)           0           ['dense_9244[0][0]']             
                                                                                                  
 dropout_8845 (Dropout)         (None, 96)           0           ['dense_9245[0][0]']             
                                                                                                  
 dropout_8846 (Dropout)         (None, 96)           0           ['dense_9246[0][0]']             
                                                                                                  
 dropout_8847 (Dropout)         (None, 96)           0           ['bidirectional_10917[0][0]']    
                                                                                                  
 concatenate_2311 (Concatenate)  (None, 384)         0           ['dropout_8844[0][0]',           
                                                                  'dropout_8845[0][0]',           
                                                                  'dropout_8846[0][0]',           
                                                                  'dropout_8847[0][0]']           
                                                                                                  
 dense_9247 (Dense)             (None, 1)            385         ['concatenate_2311[0][0]']       
                                                                                                  
==================================================================================================
Total params: 28,619
Trainable params: 28,619
Non-trainable params: 0
__________________________________________________________________________________________________
…
 bidirectional_10935 (Bidirecti  (None, None, 10)    280         ['masking_10935[0][0]']          
 onal)                                                                                            
                                                                                                  
 bidirectional_10936 (Bidirecti  (None, None, 10)    280         ['masking_10936[0][0]']          
 onal)                                                                                            
                                                                                                  
 conv1d_3832 (Conv1D)           (None, 25, 5)        1885        ['masking_10937[0][0]']          
                                                                                                  
 lstm_15813 (LSTM)              (None, 5)            320         ['bidirectional_10934[0][0]']    
                                                                                                  
 lstm_15815 (LSTM)              (None, 5)            320         ['bidirectional_10935[0][0]']    
                                                                                                  
 lstm_15817 (LSTM)              (None, 5)            320         ['bidirectional_10936[0][0]']    
                                                                                                  
 conv1d_3833 (Conv1D)           (None, 25, 5)        105         ['conv1d_3832[0][0]']            
                                                                                                  
 dense_9264 (Dense)             (None, 128)          768         ['lstm_15813[0][0]']             
                                                                                                  
 dense_9265 (Dense)             (None, 128)          768         ['lstm_15815[0][0]']             
                                                                                                  
 dense_9266 (Dense)             (None, 128)          768         ['lstm_15817[0][0]']             
                                                                                                  
 bidirectional_10937 (Bidirecti  (None, 128)         35840       ['conv1d_3833[0][0]']            
 onal)                                                                                            
                                                                                                  
 dropout_8864 (Dropout)         (None, 128)          0           ['dense_9264[0][0]']             
                                                                                                  
 dropout_8865 (Dropout)         (None, 128)          0           ['dense_9265[0][0]']             
                                                                                                  
 dropout_8866 (Dropout)         (None, 128)          0           ['dense_9266[0][0]']             
                                                                                                  
 dropout_8867 (Dropout)         (None, 128)          0           ['bidirectional_10937[0][0]']    
                                                                                                  
 concatenate_2316 (Concatenate)  (None, 512)         0           ['dropout_8864[0][0]',           
                                                                  'dropout_8865[0][0]',           
                                                                  'dropout_8866[0][0]',           
                                                                  'dropout_8867[0][0]']           
                                                                                                  
 dense_9267 (Dense)             (None, 1)            513         ['concatenate_2316[0][0]']       
                                                                                                  
==================================================================================================
Total params: 42,447
Trainable params: 42,447
Non-trainable params: 0
__________________________________________________________________________________________________
…
 bidirectional_10955 (Bidirecti  (None, None, 10)    280         ['masking_10955[0][0]']          
 onal)                                                                                            
                                                                                                  
 bidirectional_10956 (Bidirecti  (None, None, 10)    280         ['masking_10956[0][0]']          
 onal)                                                                                            
                                                                                                  
 conv1d_3842 (Conv1D)           (None, 25, 5)        2825        ['masking_10957[0][0]']          
                                                                                                  
 lstm_15848 (LSTM)              (None, 5)            320         ['bidirectional_10954[0][0]']    
                                                                                                  
 lstm_15850 (LSTM)              (None, 5)            320         ['bidirectional_10955[0][0]']    
                                                                                                  
 lstm_15852 (LSTM)              (None, 5)            320         ['bidirectional_10956[0][0]']    
                                                                                                  
 conv1d_3843 (Conv1D)           (None, 25, 5)        155         ['conv1d_3842[0][0]']            
                                                                                                  
 dense_9284 (Dense)             (None, 128)          768         ['lstm_15848[0][0]']             
                                                                                                  
 dense_9285 (Dense)             (None, 128)          768         ['lstm_15850[0][0]']             
                                                                                                  
 dense_9286 (Dense)             (None, 128)          768         ['lstm_15852[0][0]']             
                                                                                                  
 bidirectional_10957 (Bidirecti  (None, 128)         35840       ['conv1d_3843[0][0]']            
 onal)                                                                                            
                                                                                                  
 dropout_8884 (Dropout)         (None, 128)          0           ['dense_9284[0][0]']             
                                                                                                  
 dropout_8885 (Dropout)         (None, 128)          0           ['dense_9285[0][0]']             
                                                                                                  
 dropout_8886 (Dropout)         (None, 128)          0           ['dense_9286[0][0]']             
                                                                                                  
 dropout_8887 (Dropout)         (None, 128)          0           ['bidirectional_10957[0][0]']    
                                                                                                  
 concatenate_2321 (Concatenate)  (None, 512)         0           ['dropout_8884[0][0]',           
                                                                  'dropout_8885[0][0]',           
                                                                  'dropout_8886[0][0]',           
                                                                  'dropout_8887[0][0]']           
                                                                                                  
 dense_9287 (Dense)             (None, 1)            513         ['concatenate_2321[0][0]']       
                                                                                                  
==================================================================================================
Total params: 43,437
Trainable params: 43,437
Non-trainable params: 0
__________________________________________________________________________________________________
…
 bidirectional_10975 (Bidirecti  (None, None, 10)    280         ['masking_10975[0][0]']          
 onal)                                                                                            
                                                                                                  
 bidirectional_10976 (Bidirecti  (None, None, 10)    280         ['masking_10976[0][0]']          
 onal)                                                                                            
                                                                                                  
 conv1d_3852 (Conv1D)           (None, 25, 5)        3765        ['masking_10977[0][0]']          
                                                                                                  
 lstm_15883 (LSTM)              (None, 5)            320         ['bidirectional_10974[0][0]']    
                                                                                                  
 lstm_15885 (LSTM)              (None, 5)            320         ['bidirectional_10975[0][0]']    
                                                                                                  
 lstm_15887 (LSTM)              (None, 5)            320         ['bidirectional_10976[0][0]']    
                                                                                                  
 conv1d_3853 (Conv1D)           (None, 25, 5)        205         ['conv1d_3852[0][0]']            
                                                                                                  
 dense_9304 (Dense)             (None, 128)          768         ['lstm_15883[0][0]']             
                                                                                                  
 dense_9305 (Dense)             (None, 128)          768         ['lstm_15885[0][0]']             
                                                                                                  
 dense_9306 (Dense)             (None, 128)          768         ['lstm_15887[0][0]']             
                                                                                                  
 bidirectional_10977 (Bidirecti  (None, 128)         35840       ['conv1d_3853[0][0]']            
 onal)                                                                                            
                                                                                                  
 dropout_8904 (Dropout)         (None, 128)          0           ['dense_9304[0][0]']             
                                                                                                  
 dropout_8905 (Dropout)         (None, 128)          0           ['dense_9305[0][0]']             
                                                                                                  
 dropout_8906 (Dropout)         (None, 128)          0           ['dense_9306[0][0]']             
                                                                                                  
 dropout_8907 (Dropout)         (None, 128)          0           ['bidirectional_10977[0][0]']    
                                                                                                  
 concatenate_2326 (Concatenate)  (None, 512)         0           ['dropout_8904[0][0]',           
                                                                  'dropout_8905[0][0]',           
                                                                  'dropout_8906[0][0]',           
                                                                  'dropout_8907[0][0]']           
                                                                                                  
 dense_9307 (Dense)             (None, 1)            513         ['concatenate_2326[0][0]']       
                                                                                                  
==================================================================================================
Total params: 44,427
Trainable params: 44,427
Non-trainable params: 0
__________________________________________________________________________________________________
…
