…
 bidirectional_839 (Bidirection  (None, None, 10)    280         ['masking_839[0][0]']            
 al)                                                                                              
                                                                                                  
 bidirectional_840 (Bidirection  (None, None, 10)    280         ['masking_840[0][0]']            
 al)                                                                                              
                                                                                                  
 conv1d_184 (Conv1D)            (None, 25, 5)        1885        ['masking_841[0][0]']            
                                                                                                  
 lstm_1125 (LSTM)               (None, 5)            320         ['bidirectional_838[0][0]']      
                                                                                                  
 lstm_1127 (LSTM)               (None, 5)            320         ['bidirectional_839[0][0]']      
                                                                                                  
 lstm_1129 (LSTM)               (None, 5)            320         ['bidirectional_840[0][0]']      
                                                                                                  
 conv1d_185 (Conv1D)            (None, 25, 5)        105         ['conv1d_184[0][0]']             
                                                                                                  
 dense_688 (Dense)              (None, 64)           384         ['lstm_1125[0][0]']              
                                                                                                  
 dense_689 (Dense)              (None, 64)           384         ['lstm_1127[0][0]']              
                                                                                                  
 dense_690 (Dense)              (None, 64)           384         ['lstm_1129[0][0]']              
                                                                                                  
 bidirectional_841 (Bidirection  (None, 64)          9728        ['conv1d_185[0][0]']             
 al)                                                                                              
                                                                                                  
 dropout_608 (Dropout)          (None, 64)           0           ['dense_688[0][0]']              
                                                                                                  
 dropout_609 (Dropout)          (None, 64)           0           ['dense_689[0][0]']              
                                                                                                  
 dropout_610 (Dropout)          (None, 64)           0           ['dense_690[0][0]']              
                                                                                                  
 dropout_611 (Dropout)          (None, 64)           0           ['bidirectional_841[0][0]']      
                                                                                                  
 concatenate_172 (Concatenate)  (None, 256)          0           ['dropout_608[0][0]',            
                                                                  'dropout_609[0][0]',            
                                                                  'dropout_610[0][0]',            
                                                                  'dropout_611[0][0]']            
                                                                                                  
 dense_691 (Dense)              (None, 1)            257         ['concatenate_172[0][0]']        
                                                                                                  
==================================================================================================
Total params: 14,927
Trainable params: 14,927
Non-trainable params: 0
__________________________________________________________________________________________________
…
 bidirectional_859 (Bidirection  (None, None, 10)    280         ['masking_859[0][0]']            
 al)                                                                                              
                                                                                                  
 bidirectional_860 (Bidirection  (None, None, 10)    280         ['masking_860[0][0]']            
 al)                                                                                              
                                                                                                  
 conv1d_194 (Conv1D)            (None, 25, 5)        2825        ['masking_861[0][0]']            
                                                                                                  
 lstm_1160 (LSTM)               (None, 5)            320         ['bidirectional_858[0][0]']      
                                                                                                  
 lstm_1162 (LSTM)               (None, 5)            320         ['bidirectional_859[0][0]']      
                                                                                                  
 lstm_1164 (LSTM)               (None, 5)            320         ['bidirectional_860[0][0]']      
                                                                                                  
 conv1d_195 (Conv1D)            (None, 25, 5)        155         ['conv1d_194[0][0]']             
                                                                                                  
 dense_708 (Dense)              (None, 64)           384         ['lstm_1160[0][0]']              
                                                                                                  
 dense_709 (Dense)              (None, 64)           384         ['lstm_1162[0][0]']              
                                                                                                  
 dense_710 (Dense)              (None, 64)           384         ['lstm_1164[0][0]']              
                                                                                                  
 bidirectional_861 (Bidirection  (None, 64)          9728        ['conv1d_195[0][0]']             
 al)                                                                                              
                                                                                                  
 dropout_628 (Dropout)          (None, 64)           0           ['dense_708[0][0]']              
                                                                                                  
 dropout_629 (Dropout)          (None, 64)           0           ['dense_709[0][0]']              
                                                                                                  
 dropout_630 (Dropout)          (None, 64)           0           ['dense_710[0][0]']              
                                                                                                  
 dropout_631 (Dropout)          (None, 64)           0           ['bidirectional_861[0][0]']      
                                                                                                  
 concatenate_177 (Concatenate)  (None, 256)          0           ['dropout_628[0][0]',            
                                                                  'dropout_629[0][0]',            
                                                                  'dropout_630[0][0]',            
                                                                  'dropout_631[0][0]']            
                                                                                                  
 dense_711 (Dense)              (None, 1)            257         ['concatenate_177[0][0]']        
                                                                                                  
==================================================================================================
Total params: 15,917
Trainable params: 15,917
Non-trainable params: 0
__________________________________________________________________________________________________
…
 bidirectional_879 (Bidirection  (None, None, 10)    280         ['masking_879[0][0]']            
 al)                                                                                              
                                                                                                  
 bidirectional_880 (Bidirection  (None, None, 10)    280         ['masking_880[0][0]']            
 al)                                                                                              
                                                                                                  
 conv1d_204 (Conv1D)            (None, 25, 5)        3765        ['masking_881[0][0]']            
                                                                                                  
 lstm_1195 (LSTM)               (None, 5)            320         ['bidirectional_878[0][0]']      
                                                                                                  
 lstm_1197 (LSTM)               (None, 5)            320         ['bidirectional_879[0][0]']      
                                                                                                  
 lstm_1199 (LSTM)               (None, 5)            320         ['bidirectional_880[0][0]']      
                                                                                                  
 conv1d_205 (Conv1D)            (None, 25, 5)        205         ['conv1d_204[0][0]']             
                                                                                                  
 dense_728 (Dense)              (None, 64)           384         ['lstm_1195[0][0]']              
                                                                                                  
 dense_729 (Dense)              (None, 64)           384         ['lstm_1197[0][0]']              
                                                                                                  
 dense_730 (Dense)              (None, 64)           384         ['lstm_1199[0][0]']              
                                                                                                  
 bidirectional_881 (Bidirection  (None, 64)          9728        ['conv1d_205[0][0]']             
 al)                                                                                              
                                                                                                  
 dropout_648 (Dropout)          (None, 64)           0           ['dense_728[0][0]']              
                                                                                                  
 dropout_649 (Dropout)          (None, 64)           0           ['dense_729[0][0]']              
                                                                                                  
 dropout_650 (Dropout)          (None, 64)           0           ['dense_730[0][0]']              
                                                                                                  
 dropout_651 (Dropout)          (None, 64)           0           ['bidirectional_881[0][0]']      
                                                                                                  
 concatenate_182 (Concatenate)  (None, 256)          0           ['dropout_648[0][0]',            
                                                                  'dropout_649[0][0]',            
                                                                  'dropout_650[0][0]',            
                                                                  'dropout_651[0][0]']            
                                                                                                  
 dense_731 (Dense)              (None, 1)            257         ['concatenate_182[0][0]']        
                                                                                                  
==================================================================================================
Total params: 16,907
Trainable params: 16,907
Non-trainable params: 0
__________________________________________________________________________________________________
…
 bidirectional_899 (Bidirection  (None, None, 10)    280         ['masking_899[0][0]']            
 al)                                                                                              
                                                                                                  
 bidirectional_900 (Bidirection  (None, None, 10)    280         ['masking_900[0][0]']            
 al)                                                                                              
                                                                                                  
 conv1d_214 (Conv1D)            (None, 25, 5)        1885        ['masking_901[0][0]']            
                                                                                                  
 lstm_1230 (LSTM)               (None, 5)            320         ['bidirectional_898[0][0]']      
                                                                                                  
 lstm_1232 (LSTM)               (None, 5)            320         ['bidirectional_899[0][0]']      
                                                                                                  
 lstm_1234 (LSTM)               (None, 5)            320         ['bidirectional_900[0][0]']      
                                                                                                  
 conv1d_215 (Conv1D)            (None, 25, 5)        105         ['conv1d_214[0][0]']             
                                                                                                  
 dense_748 (Dense)              (None, 96)           576         ['lstm_1230[0][0]']              
                                                                                                  
 dense_749 (Dense)              (None, 96)           576         ['lstm_1232[0][0]']              
                                                                                                  
 dense_750 (Dense)              (None, 96)           576         ['lstm_1234[0][0]']              
                                                                                                  
 bidirectional_901 (Bidirection  (None, 96)          20736       ['conv1d_215[0][0]']             
 al)                                                                                              
                                                                                                  
 dropout_668 (Dropout)          (None, 96)           0           ['dense_748[0][0]']              
                                                                                                  
 dropout_669 (Dropout)          (None, 96)           0           ['dense_749[0][0]']              
                                                                                                  
 dropout_670 (Dropout)          (None, 96)           0           ['dense_750[0][0]']              
                                                                                                  
 dropout_671 (Dropout)          (None, 96)           0           ['bidirectional_901[0][0]']      
                                                                                                  
 concatenate_187 (Concatenate)  (None, 384)          0           ['dropout_668[0][0]',            
                                                                  'dropout_669[0][0]',            
                                                                  'dropout_670[0][0]',            
                                                                  'dropout_671[0][0]']            
                                                                                                  
 dense_751 (Dense)              (None, 1)            385         ['concatenate_187[0][0]']        
                                                                                                  
==================================================================================================
Total params: 26,639
Trainable params: 26,639
Non-trainable params: 0
__________________________________________________________________________________________________
…
 bidirectional_919 (Bidirection  (None, None, 10)    280         ['masking_919[0][0]']            
 al)                                                                                              
                                                                                                  
 bidirectional_920 (Bidirection  (None, None, 10)    280         ['masking_920[0][0]']            
 al)                                                                                              
                                                                                                  
 conv1d_224 (Conv1D)            (None, 25, 5)        2825        ['masking_921[0][0]']            
                                                                                                  
 lstm_1265 (LSTM)               (None, 5)            320         ['bidirectional_918[0][0]']      
                                                                                                  
 lstm_1267 (LSTM)               (None, 5)            320         ['bidirectional_919[0][0]']      
                                                                                                  
 lstm_1269 (LSTM)               (None, 5)            320         ['bidirectional_920[0][0]']      
                                                                                                  
 conv1d_225 (Conv1D)            (None, 25, 5)        155         ['conv1d_224[0][0]']             
                                                                                                  
 dense_768 (Dense)              (None, 96)           576         ['lstm_1265[0][0]']              
                                                                                                  
 dense_769 (Dense)              (None, 96)           576         ['lstm_1267[0][0]']              
                                                                                                  
 dense_770 (Dense)              (None, 96)           576         ['lstm_1269[0][0]']              
                                                                                                  
 bidirectional_921 (Bidirection  (None, 96)          20736       ['conv1d_225[0][0]']             
 al)                                                                                              
                                                                                                  
 dropout_688 (Dropout)          (None, 96)           0           ['dense_768[0][0]']              
                                                                                                  
 dropout_689 (Dropout)          (None, 96)           0           ['dense_769[0][0]']              
                                                                                                  
 dropout_690 (Dropout)          (None, 96)           0           ['dense_770[0][0]']              
                                                                                                  
 dropout_691 (Dropout)          (None, 96)           0           ['bidirectional_921[0][0]']      
                                                                                                  
 concatenate_192 (Concatenate)  (None, 384)          0           ['dropout_688[0][0]',            
                                                                  'dropout_689[0][0]',            
                                                                  'dropout_690[0][0]',            
                                                                  'dropout_691[0][0]']            
                                                                                                  
 dense_771 (Dense)              (None, 1)            385         ['concatenate_192[0][0]']        
                                                                                                  
==================================================================================================
Total params: 27,629
Trainable params: 27,629
Non-trainable params: 0
__________________________________________________________________________________________________
…
 bidirectional_939 (Bidirection  (None, None, 10)    280         ['masking_939[0][0]']            
 al)                                                                                              
                                                                                                  
 bidirectional_940 (Bidirection  (None, None, 10)    280         ['masking_940[0][0]']            
 al)                                                                                              
                                                                                                  
 conv1d_234 (Conv1D)            (None, 25, 5)        3765        ['masking_941[0][0]']            
                                                                                                  
 lstm_1300 (LSTM)               (None, 5)            320         ['bidirectional_938[0][0]']      
                                                                                                  
 lstm_1302 (LSTM)               (None, 5)            320         ['bidirectional_939[0][0]']      
                                                                                                  
 lstm_1304 (LSTM)               (None, 5)            320         ['bidirectional_940[0][0]']      
                                                                                                  
 conv1d_235 (Conv1D)            (None, 25, 5)        205         ['conv1d_234[0][0]']             
                                                                                                  
 dense_788 (Dense)              (None, 96)           576         ['lstm_1300[0][0]']              
                                                                                                  
 dense_789 (Dense)              (None, 96)           576         ['lstm_1302[0][0]']              
                                                                                                  
 dense_790 (Dense)              (None, 96)           576         ['lstm_1304[0][0]']              
                                                                                                  
 bidirectional_941 (Bidirection  (None, 96)          20736       ['conv1d_235[0][0]']             
 al)                                                                                              
                                                                                                  
 dropout_708 (Dropout)          (None, 96)           0           ['dense_788[0][0]']              
                                                                                                  
 dropout_709 (Dropout)          (None, 96)           0           ['dense_789[0][0]']              
                                                                                                  
 dropout_710 (Dropout)          (None, 96)           0           ['dense_790[0][0]']              
                                                                                                  
 dropout_711 (Dropout)          (None, 96)           0           ['bidirectional_941[0][0]']      
                                                                                                  
 concatenate_197 (Concatenate)  (None, 384)          0           ['dropout_708[0][0]',            
                                                                  'dropout_709[0][0]',            
                                                                  'dropout_710[0][0]',            
                                                                  'dropout_711[0][0]']            
                                                                                                  
 dense_791 (Dense)              (None, 1)            385         ['concatenate_197[0][0]']        
                                                                                                  
==================================================================================================
Total params: 28,619
Trainable params: 28,619
Non-trainable params: 0
__________________________________________________________________________________________________
…
 bidirectional_959 (Bidirection  (None, None, 10)    280         ['masking_959[0][0]']            
 al)                                                                                              
                                                                                                  
 bidirectional_960 (Bidirection  (None, None, 10)    280         ['masking_960[0][0]']            
 al)                                                                                              
                                                                                                  
 conv1d_244 (Conv1D)            (None, 25, 5)        1885        ['masking_961[0][0]']            
                                                                                                  
 lstm_1335 (LSTM)               (None, 5)            320         ['bidirectional_958[0][0]']      
                                                                                                  
 lstm_1337 (LSTM)               (None, 5)            320         ['bidirectional_959[0][0]']      
                                                                                                  
 lstm_1339 (LSTM)               (None, 5)            320         ['bidirectional_960[0][0]']      
                                                                                                  
 conv1d_245 (Conv1D)            (None, 25, 5)        105         ['conv1d_244[0][0]']             
                                                                                                  
 dense_808 (Dense)              (None, 128)          768         ['lstm_1335[0][0]']              
                                                                                                  
 dense_809 (Dense)              (None, 128)          768         ['lstm_1337[0][0]']              
                                                                                                  
 dense_810 (Dense)              (None, 128)          768         ['lstm_1339[0][0]']              
                                                                                                  
 bidirectional_961 (Bidirection  (None, 128)         35840       ['conv1d_245[0][0]']             
 al)                                                                                              
                                                                                                  
 dropout_728 (Dropout)          (None, 128)          0           ['dense_808[0][0]']              
                                                                                                  
 dropout_729 (Dropout)          (None, 128)          0           ['dense_809[0][0]']              
                                                                                                  
 dropout_730 (Dropout)          (None, 128)          0           ['dense_810[0][0]']              
                                                                                                  
 dropout_731 (Dropout)          (None, 128)          0           ['bidirectional_961[0][0]']      
                                                                                                  
 concatenate_202 (Concatenate)  (None, 512)          0           ['dropout_728[0][0]',            
                                                                  'dropout_729[0][0]',            
                                                                  'dropout_730[0][0]',            
                                                                  'dropout_731[0][0]']            
                                                                                                  
 dense_811 (Dense)              (None, 1)            513         ['concatenate_202[0][0]']        
                                                                                                  
==================================================================================================
Total params: 42,447
Trainable params: 42,447
Non-trainable params: 0
__________________________________________________________________________________________________
…
 bidirectional_979 (Bidirection  (None, None, 10)    280         ['masking_979[0][0]']            
 al)                                                                                              
                                                                                                  
 bidirectional_980 (Bidirection  (None, None, 10)    280         ['masking_980[0][0]']            
 al)                                                                                              
                                                                                                  
 conv1d_254 (Conv1D)            (None, 25, 5)        2825        ['masking_981[0][0]']            
                                                                                                  
 lstm_1370 (LSTM)               (None, 5)            320         ['bidirectional_978[0][0]']      
                                                                                                  
 lstm_1372 (LSTM)               (None, 5)            320         ['bidirectional_979[0][0]']      
                                                                                                  
 lstm_1374 (LSTM)               (None, 5)            320         ['bidirectional_980[0][0]']      
                                                                                                  
 conv1d_255 (Conv1D)            (None, 25, 5)        155         ['conv1d_254[0][0]']             
                                                                                                  
 dense_828 (Dense)              (None, 128)          768         ['lstm_1370[0][0]']              
                                                                                                  
 dense_829 (Dense)              (None, 128)          768         ['lstm_1372[0][0]']              
                                                                                                  
 dense_830 (Dense)              (None, 128)          768         ['lstm_1374[0][0]']              
                                                                                                  
 bidirectional_981 (Bidirection  (None, 128)         35840       ['conv1d_255[0][0]']             
 al)                                                                                              
                                                                                                  
 dropout_748 (Dropout)          (None, 128)          0           ['dense_828[0][0]']              
                                                                                                  
 dropout_749 (Dropout)          (None, 128)          0           ['dense_829[0][0]']              
                                                                                                  
 dropout_750 (Dropout)          (None, 128)          0           ['dense_830[0][0]']              
                                                                                                  
 dropout_751 (Dropout)          (None, 128)          0           ['bidirectional_981[0][0]']      
                                                                                                  
 concatenate_207 (Concatenate)  (None, 512)          0           ['dropout_748[0][0]',            
                                                                  'dropout_749[0][0]',            
                                                                  'dropout_750[0][0]',            
                                                                  'dropout_751[0][0]']            
                                                                                                  
 dense_831 (Dense)              (None, 1)            513         ['concatenate_207[0][0]']        
                                                                                                  
==================================================================================================
Total params: 43,437
Trainable params: 43,437
Non-trainable params: 0
__________________________________________________________________________________________________
…
 bidirectional_999 (Bidirection  (None, None, 10)    280         ['masking_999[0][0]']            
 al)                                                                                              
                                                                                                  
 bidirectional_1000 (Bidirectio  (None, None, 10)    280         ['masking_1000[0][0]']           
 nal)                                                                                             
                                                                                                  
 conv1d_264 (Conv1D)            (None, 25, 5)        3765        ['masking_1001[0][0]']           
                                                                                                  
 lstm_1405 (LSTM)               (None, 5)            320         ['bidirectional_998[0][0]']      
                                                                                                  
 lstm_1407 (LSTM)               (None, 5)            320         ['bidirectional_999[0][0]']      
                                                                                                  
 lstm_1409 (LSTM)               (None, 5)            320         ['bidirectional_1000[0][0]']     
                                                                                                  
 conv1d_265 (Conv1D)            (None, 25, 5)        205         ['conv1d_264[0][0]']             
                                                                                                  
 dense_848 (Dense)              (None, 128)          768         ['lstm_1405[0][0]']              
                                                                                                  
 dense_849 (Dense)              (None, 128)          768         ['lstm_1407[0][0]']              
                                                                                                  
 dense_850 (Dense)              (None, 128)          768         ['lstm_1409[0][0]']              
                                                                                                  
 bidirectional_1001 (Bidirectio  (None, 128)         35840       ['conv1d_265[0][0]']             
 nal)                                                                                             
                                                                                                  
 dropout_768 (Dropout)          (None, 128)          0           ['dense_848[0][0]']              
                                                                                                  
 dropout_769 (Dropout)          (None, 128)          0           ['dense_849[0][0]']              
                                                                                                  
 dropout_770 (Dropout)          (None, 128)          0           ['dense_850[0][0]']              
                                                                                                  
 dropout_771 (Dropout)          (None, 128)          0           ['bidirectional_1001[0][0]']     
                                                                                                  
 concatenate_212 (Concatenate)  (None, 512)          0           ['dropout_768[0][0]',            
                                                                  'dropout_769[0][0]',            
                                                                  'dropout_770[0][0]',            
                                                                  'dropout_771[0][0]']            
                                                                                                  
 dense_851 (Dense)              (None, 1)            513         ['concatenate_212[0][0]']        
                                                                                                  
==================================================================================================
Total params: 44,427
Trainable params: 44,427
Non-trainable params: 0
__________________________________________________________________________________________________
…
