…
 bidirectional_1805 (Bidirectio  (None, None, 10)    280         ['masking_1805[0][0]']           
 nal)                                                                                             
                                                                                                  
 bidirectional_1806 (Bidirectio  (None, None, 10)    280         ['masking_1806[0][0]']           
 nal)                                                                                             
                                                                                                  
 conv1d_552 (Conv1D)            (None, 24, 5)        65          ['masking_1807[0][0]']           
                                                                                                  
 lstm_2413 (LSTM)               (None, 5)            320         ['bidirectional_1804[0][0]']     
                                                                                                  
 lstm_2415 (LSTM)               (None, 5)            320         ['bidirectional_1805[0][0]']     
                                                                                                  
 lstm_2417 (LSTM)               (None, 5)            320         ['bidirectional_1806[0][0]']     
                                                                                                  
 conv1d_553 (Conv1D)            (None, 24, 5)        105         ['conv1d_552[0][0]']             
                                                                                                  
 dense_1424 (Dense)             (None, 64)           384         ['lstm_2413[0][0]']              
                                                                                                  
 dense_1425 (Dense)             (None, 64)           384         ['lstm_2415[0][0]']              
                                                                                                  
 dense_1426 (Dense)             (None, 64)           384         ['lstm_2417[0][0]']              
                                                                                                  
 bidirectional_1807 (Bidirectio  (None, 64)          9728        ['conv1d_553[0][0]']             
 nal)                                                                                             
                                                                                                  
 dropout_1344 (Dropout)         (None, 64)           0           ['dense_1424[0][0]']             
                                                                                                  
 dropout_1345 (Dropout)         (None, 64)           0           ['dense_1425[0][0]']             
                                                                                                  
 dropout_1346 (Dropout)         (None, 64)           0           ['dense_1426[0][0]']             
                                                                                                  
 dropout_1347 (Dropout)         (None, 64)           0           ['bidirectional_1807[0][0]']     
                                                                                                  
 concatenate_356 (Concatenate)  (None, 256)          0           ['dropout_1344[0][0]',           
                                                                  'dropout_1345[0][0]',           
                                                                  'dropout_1346[0][0]',           
                                                                  'dropout_1347[0][0]']           
                                                                                                  
 dense_1427 (Dense)             (None, 1)            257         ['concatenate_356[0][0]']        
                                                                                                  
==================================================================================================
Total params: 13,107
Trainable params: 13,107
Non-trainable params: 0
__________________________________________________________________________________________________
…
 bidirectional_1825 (Bidirectio  (None, None, 10)    280         ['masking_1825[0][0]']           
 nal)                                                                                             
                                                                                                  
 bidirectional_1826 (Bidirectio  (None, None, 10)    280         ['masking_1826[0][0]']           
 nal)                                                                                             
                                                                                                  
 conv1d_562 (Conv1D)            (None, 24, 5)        95          ['masking_1827[0][0]']           
                                                                                                  
 lstm_2448 (LSTM)               (None, 5)            320         ['bidirectional_1824[0][0]']     
                                                                                                  
 lstm_2450 (LSTM)               (None, 5)            320         ['bidirectional_1825[0][0]']     
                                                                                                  
 lstm_2452 (LSTM)               (None, 5)            320         ['bidirectional_1826[0][0]']     
                                                                                                  
 conv1d_563 (Conv1D)            (None, 24, 5)        155         ['conv1d_562[0][0]']             
                                                                                                  
 dense_1444 (Dense)             (None, 64)           384         ['lstm_2448[0][0]']              
                                                                                                  
 dense_1445 (Dense)             (None, 64)           384         ['lstm_2450[0][0]']              
                                                                                                  
 dense_1446 (Dense)             (None, 64)           384         ['lstm_2452[0][0]']              
                                                                                                  
 bidirectional_1827 (Bidirectio  (None, 64)          9728        ['conv1d_563[0][0]']             
 nal)                                                                                             
                                                                                                  
 dropout_1364 (Dropout)         (None, 64)           0           ['dense_1444[0][0]']             
                                                                                                  
 dropout_1365 (Dropout)         (None, 64)           0           ['dense_1445[0][0]']             
                                                                                                  
 dropout_1366 (Dropout)         (None, 64)           0           ['dense_1446[0][0]']             
                                                                                                  
 dropout_1367 (Dropout)         (None, 64)           0           ['bidirectional_1827[0][0]']     
                                                                                                  
 concatenate_361 (Concatenate)  (None, 256)          0           ['dropout_1364[0][0]',           
                                                                  'dropout_1365[0][0]',           
                                                                  'dropout_1366[0][0]',           
                                                                  'dropout_1367[0][0]']           
                                                                                                  
 dense_1447 (Dense)             (None, 1)            257         ['concatenate_361[0][0]']        
                                                                                                  
==================================================================================================
Total params: 13,187
Trainable params: 13,187
Non-trainable params: 0
__________________________________________________________________________________________________
…
 bidirectional_1845 (Bidirectio  (None, None, 10)    280         ['masking_1845[0][0]']           
 nal)                                                                                             
                                                                                                  
 bidirectional_1846 (Bidirectio  (None, None, 10)    280         ['masking_1846[0][0]']           
 nal)                                                                                             
                                                                                                  
 conv1d_572 (Conv1D)            (None, 24, 5)        125         ['masking_1847[0][0]']           
                                                                                                  
 lstm_2483 (LSTM)               (None, 5)            320         ['bidirectional_1844[0][0]']     
                                                                                                  
 lstm_2485 (LSTM)               (None, 5)            320         ['bidirectional_1845[0][0]']     
                                                                                                  
 lstm_2487 (LSTM)               (None, 5)            320         ['bidirectional_1846[0][0]']     
                                                                                                  
 conv1d_573 (Conv1D)            (None, 24, 5)        205         ['conv1d_572[0][0]']             
                                                                                                  
 dense_1464 (Dense)             (None, 64)           384         ['lstm_2483[0][0]']              
                                                                                                  
 dense_1465 (Dense)             (None, 64)           384         ['lstm_2485[0][0]']              
                                                                                                  
 dense_1466 (Dense)             (None, 64)           384         ['lstm_2487[0][0]']              
                                                                                                  
 bidirectional_1847 (Bidirectio  (None, 64)          9728        ['conv1d_573[0][0]']             
 nal)                                                                                             
                                                                                                  
 dropout_1384 (Dropout)         (None, 64)           0           ['dense_1464[0][0]']             
                                                                                                  
 dropout_1385 (Dropout)         (None, 64)           0           ['dense_1465[0][0]']             
                                                                                                  
 dropout_1386 (Dropout)         (None, 64)           0           ['dense_1466[0][0]']             
                                                                                                  
 dropout_1387 (Dropout)         (None, 64)           0           ['bidirectional_1847[0][0]']     
                                                                                                  
 concatenate_366 (Concatenate)  (None, 256)          0           ['dropout_1384[0][0]',           
                                                                  'dropout_1385[0][0]',           
                                                                  'dropout_1386[0][0]',           
                                                                  'dropout_1387[0][0]']           
                                                                                                  
 dense_1467 (Dense)             (None, 1)            257         ['concatenate_366[0][0]']        
                                                                                                  
==================================================================================================
Total params: 13,267
Trainable params: 13,267
Non-trainable params: 0
__________________________________________________________________________________________________
…
 bidirectional_1865 (Bidirectio  (None, None, 10)    280         ['masking_1865[0][0]']           
 nal)                                                                                             
                                                                                                  
 bidirectional_1866 (Bidirectio  (None, None, 10)    280         ['masking_1866[0][0]']           
 nal)                                                                                             
                                                                                                  
 conv1d_582 (Conv1D)            (None, 24, 5)        65          ['masking_1867[0][0]']           
                                                                                                  
 lstm_2518 (LSTM)               (None, 5)            320         ['bidirectional_1864[0][0]']     
                                                                                                  
 lstm_2520 (LSTM)               (None, 5)            320         ['bidirectional_1865[0][0]']     
                                                                                                  
 lstm_2522 (LSTM)               (None, 5)            320         ['bidirectional_1866[0][0]']     
                                                                                                  
 conv1d_583 (Conv1D)            (None, 24, 5)        105         ['conv1d_582[0][0]']             
                                                                                                  
 dense_1484 (Dense)             (None, 96)           576         ['lstm_2518[0][0]']              
                                                                                                  
 dense_1485 (Dense)             (None, 96)           576         ['lstm_2520[0][0]']              
                                                                                                  
 dense_1486 (Dense)             (None, 96)           576         ['lstm_2522[0][0]']              
                                                                                                  
 bidirectional_1867 (Bidirectio  (None, 96)          20736       ['conv1d_583[0][0]']             
 nal)                                                                                             
                                                                                                  
 dropout_1404 (Dropout)         (None, 96)           0           ['dense_1484[0][0]']             
                                                                                                  
 dropout_1405 (Dropout)         (None, 96)           0           ['dense_1485[0][0]']             
                                                                                                  
 dropout_1406 (Dropout)         (None, 96)           0           ['dense_1486[0][0]']             
                                                                                                  
 dropout_1407 (Dropout)         (None, 96)           0           ['bidirectional_1867[0][0]']     
                                                                                                  
 concatenate_371 (Concatenate)  (None, 384)          0           ['dropout_1404[0][0]',           
                                                                  'dropout_1405[0][0]',           
                                                                  'dropout_1406[0][0]',           
                                                                  'dropout_1407[0][0]']           
                                                                                                  
 dense_1487 (Dense)             (None, 1)            385         ['concatenate_371[0][0]']        
                                                                                                  
==================================================================================================
Total params: 24,819
Trainable params: 24,819
Non-trainable params: 0
__________________________________________________________________________________________________
…
 bidirectional_1885 (Bidirectio  (None, None, 10)    280         ['masking_1885[0][0]']           
 nal)                                                                                             
                                                                                                  
 bidirectional_1886 (Bidirectio  (None, None, 10)    280         ['masking_1886[0][0]']           
 nal)                                                                                             
                                                                                                  
 conv1d_592 (Conv1D)            (None, 24, 5)        95          ['masking_1887[0][0]']           
                                                                                                  
 lstm_2553 (LSTM)               (None, 5)            320         ['bidirectional_1884[0][0]']     
                                                                                                  
 lstm_2555 (LSTM)               (None, 5)            320         ['bidirectional_1885[0][0]']     
                                                                                                  
 lstm_2557 (LSTM)               (None, 5)            320         ['bidirectional_1886[0][0]']     
                                                                                                  
 conv1d_593 (Conv1D)            (None, 24, 5)        155         ['conv1d_592[0][0]']             
                                                                                                  
 dense_1504 (Dense)             (None, 96)           576         ['lstm_2553[0][0]']              
                                                                                                  
 dense_1505 (Dense)             (None, 96)           576         ['lstm_2555[0][0]']              
                                                                                                  
 dense_1506 (Dense)             (None, 96)           576         ['lstm_2557[0][0]']              
                                                                                                  
 bidirectional_1887 (Bidirectio  (None, 96)          20736       ['conv1d_593[0][0]']             
 nal)                                                                                             
                                                                                                  
 dropout_1424 (Dropout)         (None, 96)           0           ['dense_1504[0][0]']             
                                                                                                  
 dropout_1425 (Dropout)         (None, 96)           0           ['dense_1505[0][0]']             
                                                                                                  
 dropout_1426 (Dropout)         (None, 96)           0           ['dense_1506[0][0]']             
                                                                                                  
 dropout_1427 (Dropout)         (None, 96)           0           ['bidirectional_1887[0][0]']     
                                                                                                  
 concatenate_376 (Concatenate)  (None, 384)          0           ['dropout_1424[0][0]',           
                                                                  'dropout_1425[0][0]',           
                                                                  'dropout_1426[0][0]',           
                                                                  'dropout_1427[0][0]']           
                                                                                                  
 dense_1507 (Dense)             (None, 1)            385         ['concatenate_376[0][0]']        
                                                                                                  
==================================================================================================
Total params: 24,899
Trainable params: 24,899
Non-trainable params: 0
__________________________________________________________________________________________________
…
 bidirectional_1905 (Bidirectio  (None, None, 10)    280         ['masking_1905[0][0]']           
 nal)                                                                                             
                                                                                                  
 bidirectional_1906 (Bidirectio  (None, None, 10)    280         ['masking_1906[0][0]']           
 nal)                                                                                             
                                                                                                  
 conv1d_602 (Conv1D)            (None, 24, 5)        125         ['masking_1907[0][0]']           
                                                                                                  
 lstm_2588 (LSTM)               (None, 5)            320         ['bidirectional_1904[0][0]']     
                                                                                                  
 lstm_2590 (LSTM)               (None, 5)            320         ['bidirectional_1905[0][0]']     
                                                                                                  
 lstm_2592 (LSTM)               (None, 5)            320         ['bidirectional_1906[0][0]']     
                                                                                                  
 conv1d_603 (Conv1D)            (None, 24, 5)        205         ['conv1d_602[0][0]']             
                                                                                                  
 dense_1524 (Dense)             (None, 96)           576         ['lstm_2588[0][0]']              
                                                                                                  
 dense_1525 (Dense)             (None, 96)           576         ['lstm_2590[0][0]']              
                                                                                                  
 dense_1526 (Dense)             (None, 96)           576         ['lstm_2592[0][0]']              
                                                                                                  
 bidirectional_1907 (Bidirectio  (None, 96)          20736       ['conv1d_603[0][0]']             
 nal)                                                                                             
                                                                                                  
 dropout_1444 (Dropout)         (None, 96)           0           ['dense_1524[0][0]']             
                                                                                                  
 dropout_1445 (Dropout)         (None, 96)           0           ['dense_1525[0][0]']             
                                                                                                  
 dropout_1446 (Dropout)         (None, 96)           0           ['dense_1526[0][0]']             
                                                                                                  
 dropout_1447 (Dropout)         (None, 96)           0           ['bidirectional_1907[0][0]']     
                                                                                                  
 concatenate_381 (Concatenate)  (None, 384)          0           ['dropout_1444[0][0]',           
                                                                  'dropout_1445[0][0]',           
                                                                  'dropout_1446[0][0]',           
                                                                  'dropout_1447[0][0]']           
                                                                                                  
 dense_1527 (Dense)             (None, 1)            385         ['concatenate_381[0][0]']        
                                                                                                  
==================================================================================================
Total params: 24,979
Trainable params: 24,979
Non-trainable params: 0
__________________________________________________________________________________________________
…
 bidirectional_1925 (Bidirectio  (None, None, 10)    280         ['masking_1925[0][0]']           
 nal)                                                                                             
                                                                                                  
 bidirectional_1926 (Bidirectio  (None, None, 10)    280         ['masking_1926[0][0]']           
 nal)                                                                                             
                                                                                                  
 conv1d_612 (Conv1D)            (None, 24, 5)        65          ['masking_1927[0][0]']           
                                                                                                  
 lstm_2623 (LSTM)               (None, 5)            320         ['bidirectional_1924[0][0]']     
                                                                                                  
 lstm_2625 (LSTM)               (None, 5)            320         ['bidirectional_1925[0][0]']     
                                                                                                  
 lstm_2627 (LSTM)               (None, 5)            320         ['bidirectional_1926[0][0]']     
                                                                                                  
 conv1d_613 (Conv1D)            (None, 24, 5)        105         ['conv1d_612[0][0]']             
                                                                                                  
 dense_1544 (Dense)             (None, 128)          768         ['lstm_2623[0][0]']              
                                                                                                  
 dense_1545 (Dense)             (None, 128)          768         ['lstm_2625[0][0]']              
                                                                                                  
 dense_1546 (Dense)             (None, 128)          768         ['lstm_2627[0][0]']              
                                                                                                  
 bidirectional_1927 (Bidirectio  (None, 128)         35840       ['conv1d_613[0][0]']             
 nal)                                                                                             
                                                                                                  
 dropout_1464 (Dropout)         (None, 128)          0           ['dense_1544[0][0]']             
                                                                                                  
 dropout_1465 (Dropout)         (None, 128)          0           ['dense_1545[0][0]']             
                                                                                                  
 dropout_1466 (Dropout)         (None, 128)          0           ['dense_1546[0][0]']             
                                                                                                  
 dropout_1467 (Dropout)         (None, 128)          0           ['bidirectional_1927[0][0]']     
                                                                                                  
 concatenate_386 (Concatenate)  (None, 512)          0           ['dropout_1464[0][0]',           
                                                                  'dropout_1465[0][0]',           
                                                                  'dropout_1466[0][0]',           
                                                                  'dropout_1467[0][0]']           
                                                                                                  
 dense_1547 (Dense)             (None, 1)            513         ['concatenate_386[0][0]']        
                                                                                                  
==================================================================================================
Total params: 40,627
Trainable params: 40,627
Non-trainable params: 0
__________________________________________________________________________________________________
…
 bidirectional_1945 (Bidirectio  (None, None, 10)    280         ['masking_1945[0][0]']           
 nal)                                                                                             
                                                                                                  
 bidirectional_1946 (Bidirectio  (None, None, 10)    280         ['masking_1946[0][0]']           
 nal)                                                                                             
                                                                                                  
 conv1d_622 (Conv1D)            (None, 24, 5)        95          ['masking_1947[0][0]']           
                                                                                                  
 lstm_2658 (LSTM)               (None, 5)            320         ['bidirectional_1944[0][0]']     
                                                                                                  
 lstm_2660 (LSTM)               (None, 5)            320         ['bidirectional_1945[0][0]']     
                                                                                                  
 lstm_2662 (LSTM)               (None, 5)            320         ['bidirectional_1946[0][0]']     
                                                                                                  
 conv1d_623 (Conv1D)            (None, 24, 5)        155         ['conv1d_622[0][0]']             
                                                                                                  
 dense_1564 (Dense)             (None, 128)          768         ['lstm_2658[0][0]']              
                                                                                                  
 dense_1565 (Dense)             (None, 128)          768         ['lstm_2660[0][0]']              
                                                                                                  
 dense_1566 (Dense)             (None, 128)          768         ['lstm_2662[0][0]']              
                                                                                                  
 bidirectional_1947 (Bidirectio  (None, 128)         35840       ['conv1d_623[0][0]']             
 nal)                                                                                             
                                                                                                  
 dropout_1484 (Dropout)         (None, 128)          0           ['dense_1564[0][0]']             
                                                                                                  
 dropout_1485 (Dropout)         (None, 128)          0           ['dense_1565[0][0]']             
                                                                                                  
 dropout_1486 (Dropout)         (None, 128)          0           ['dense_1566[0][0]']             
                                                                                                  
 dropout_1487 (Dropout)         (None, 128)          0           ['bidirectional_1947[0][0]']     
                                                                                                  
 concatenate_391 (Concatenate)  (None, 512)          0           ['dropout_1484[0][0]',           
                                                                  'dropout_1485[0][0]',           
                                                                  'dropout_1486[0][0]',           
                                                                  'dropout_1487[0][0]']           
                                                                                                  
 dense_1567 (Dense)             (None, 1)            513         ['concatenate_391[0][0]']        
                                                                                                  
==================================================================================================
Total params: 40,707
Trainable params: 40,707
Non-trainable params: 0
__________________________________________________________________________________________________
…
 bidirectional_1965 (Bidirectio  (None, None, 10)    280         ['masking_1965[0][0]']           
 nal)                                                                                             
                                                                                                  
 bidirectional_1966 (Bidirectio  (None, None, 10)    280         ['masking_1966[0][0]']           
 nal)                                                                                             
                                                                                                  
 conv1d_632 (Conv1D)            (None, 24, 5)        125         ['masking_1967[0][0]']           
                                                                                                  
 lstm_2693 (LSTM)               (None, 5)            320         ['bidirectional_1964[0][0]']     
                                                                                                  
 lstm_2695 (LSTM)               (None, 5)            320         ['bidirectional_1965[0][0]']     
                                                                                                  
 lstm_2697 (LSTM)               (None, 5)            320         ['bidirectional_1966[0][0]']     
                                                                                                  
 conv1d_633 (Conv1D)            (None, 24, 5)        205         ['conv1d_632[0][0]']             
                                                                                                  
 dense_1584 (Dense)             (None, 128)          768         ['lstm_2693[0][0]']              
                                                                                                  
 dense_1585 (Dense)             (None, 128)          768         ['lstm_2695[0][0]']              
                                                                                                  
 dense_1586 (Dense)             (None, 128)          768         ['lstm_2697[0][0]']              
                                                                                                  
 bidirectional_1967 (Bidirectio  (None, 128)         35840       ['conv1d_633[0][0]']             
 nal)                                                                                             
                                                                                                  
 dropout_1504 (Dropout)         (None, 128)          0           ['dense_1584[0][0]']             
                                                                                                  
 dropout_1505 (Dropout)         (None, 128)          0           ['dense_1585[0][0]']             
                                                                                                  
 dropout_1506 (Dropout)         (None, 128)          0           ['dense_1586[0][0]']             
                                                                                                  
 dropout_1507 (Dropout)         (None, 128)          0           ['bidirectional_1967[0][0]']     
                                                                                                  
 concatenate_396 (Concatenate)  (None, 512)          0           ['dropout_1504[0][0]',           
                                                                  'dropout_1505[0][0]',           
                                                                  'dropout_1506[0][0]',           
                                                                  'dropout_1507[0][0]']           
                                                                                                  
 dense_1587 (Dense)             (None, 1)            513         ['concatenate_396[0][0]']        
                                                                                                  
==================================================================================================
Total params: 40,787
Trainable params: 40,787
Non-trainable params: 0
__________________________________________________________________________________________________
…
