…
 bidirectional_3747 (Bidirectio  (None, None, 10)    280         ['masking_3747[0][0]']           
 nal)                                                                                             
                                                                                                  
 bidirectional_3748 (Bidirectio  (None, None, 10)    280         ['masking_3748[0][0]']           
 nal)                                                                                             
                                                                                                  
 conv1d_1288 (Conv1D)           (None, 25, 5)        1885        ['masking_3749[0][0]']           
                                                                                                  
 lstm_5469 (LSTM)               (None, 5)            320         ['bidirectional_3746[0][0]']     
                                                                                                  
 lstm_5471 (LSTM)               (None, 5)            320         ['bidirectional_3747[0][0]']     
                                                                                                  
 lstm_5473 (LSTM)               (None, 5)            320         ['bidirectional_3748[0][0]']     
                                                                                                  
 conv1d_1289 (Conv1D)           (None, 25, 5)        105         ['conv1d_1288[0][0]']            
                                                                                                  
 dense_3216 (Dense)             (None, 64)           384         ['lstm_5469[0][0]']              
                                                                                                  
 dense_3217 (Dense)             (None, 64)           384         ['lstm_5471[0][0]']              
                                                                                                  
 dense_3218 (Dense)             (None, 64)           384         ['lstm_5473[0][0]']              
                                                                                                  
 bidirectional_3749 (Bidirectio  (None, 64)          9728        ['conv1d_1289[0][0]']            
 nal)                                                                                             
                                                                                                  
 dropout_3056 (Dropout)         (None, 64)           0           ['dense_3216[0][0]']             
                                                                                                  
 dropout_3057 (Dropout)         (None, 64)           0           ['dense_3217[0][0]']             
                                                                                                  
 dropout_3058 (Dropout)         (None, 64)           0           ['dense_3218[0][0]']             
                                                                                                  
 dropout_3059 (Dropout)         (None, 64)           0           ['bidirectional_3749[0][0]']     
                                                                                                  
 concatenate_804 (Concatenate)  (None, 256)          0           ['dropout_3056[0][0]',           
                                                                  'dropout_3057[0][0]',           
                                                                  'dropout_3058[0][0]',           
                                                                  'dropout_3059[0][0]']           
                                                                                                  
 dense_3219 (Dense)             (None, 1)            257         ['concatenate_804[0][0]']        
                                                                                                  
==================================================================================================
Total params: 14,927
Trainable params: 14,927
Non-trainable params: 0
__________________________________________________________________________________________________
…
 bidirectional_3767 (Bidirectio  (None, None, 10)    280         ['masking_3767[0][0]']           
 nal)                                                                                             
                                                                                                  
 bidirectional_3768 (Bidirectio  (None, None, 10)    280         ['masking_3768[0][0]']           
 nal)                                                                                             
                                                                                                  
 conv1d_1298 (Conv1D)           (None, 25, 5)        2825        ['masking_3769[0][0]']           
                                                                                                  
 lstm_5504 (LSTM)               (None, 5)            320         ['bidirectional_3766[0][0]']     
                                                                                                  
 lstm_5506 (LSTM)               (None, 5)            320         ['bidirectional_3767[0][0]']     
                                                                                                  
 lstm_5508 (LSTM)               (None, 5)            320         ['bidirectional_3768[0][0]']     
                                                                                                  
 conv1d_1299 (Conv1D)           (None, 25, 5)        155         ['conv1d_1298[0][0]']            
                                                                                                  
 dense_3236 (Dense)             (None, 64)           384         ['lstm_5504[0][0]']              
                                                                                                  
 dense_3237 (Dense)             (None, 64)           384         ['lstm_5506[0][0]']              
                                                                                                  
 dense_3238 (Dense)             (None, 64)           384         ['lstm_5508[0][0]']              
                                                                                                  
 bidirectional_3769 (Bidirectio  (None, 64)          9728        ['conv1d_1299[0][0]']            
 nal)                                                                                             
                                                                                                  
 dropout_3076 (Dropout)         (None, 64)           0           ['dense_3236[0][0]']             
                                                                                                  
 dropout_3077 (Dropout)         (None, 64)           0           ['dense_3237[0][0]']             
                                                                                                  
 dropout_3078 (Dropout)         (None, 64)           0           ['dense_3238[0][0]']             
                                                                                                  
 dropout_3079 (Dropout)         (None, 64)           0           ['bidirectional_3769[0][0]']     
                                                                                                  
 concatenate_809 (Concatenate)  (None, 256)          0           ['dropout_3076[0][0]',           
                                                                  'dropout_3077[0][0]',           
                                                                  'dropout_3078[0][0]',           
                                                                  'dropout_3079[0][0]']           
                                                                                                  
 dense_3239 (Dense)             (None, 1)            257         ['concatenate_809[0][0]']        
                                                                                                  
==================================================================================================
Total params: 15,917
Trainable params: 15,917
Non-trainable params: 0
__________________________________________________________________________________________________
…
 bidirectional_3787 (Bidirectio  (None, None, 10)    280         ['masking_3787[0][0]']           
 nal)                                                                                             
                                                                                                  
 bidirectional_3788 (Bidirectio  (None, None, 10)    280         ['masking_3788[0][0]']           
 nal)                                                                                             
                                                                                                  
 conv1d_1308 (Conv1D)           (None, 25, 5)        3765        ['masking_3789[0][0]']           
                                                                                                  
 lstm_5539 (LSTM)               (None, 5)            320         ['bidirectional_3786[0][0]']     
                                                                                                  
 lstm_5541 (LSTM)               (None, 5)            320         ['bidirectional_3787[0][0]']     
                                                                                                  
 lstm_5543 (LSTM)               (None, 5)            320         ['bidirectional_3788[0][0]']     
                                                                                                  
 conv1d_1309 (Conv1D)           (None, 25, 5)        205         ['conv1d_1308[0][0]']            
                                                                                                  
 dense_3256 (Dense)             (None, 64)           384         ['lstm_5539[0][0]']              
                                                                                                  
 dense_3257 (Dense)             (None, 64)           384         ['lstm_5541[0][0]']              
                                                                                                  
 dense_3258 (Dense)             (None, 64)           384         ['lstm_5543[0][0]']              
                                                                                                  
 bidirectional_3789 (Bidirectio  (None, 64)          9728        ['conv1d_1309[0][0]']            
 nal)                                                                                             
                                                                                                  
 dropout_3096 (Dropout)         (None, 64)           0           ['dense_3256[0][0]']             
                                                                                                  
 dropout_3097 (Dropout)         (None, 64)           0           ['dense_3257[0][0]']             
                                                                                                  
 dropout_3098 (Dropout)         (None, 64)           0           ['dense_3258[0][0]']             
                                                                                                  
 dropout_3099 (Dropout)         (None, 64)           0           ['bidirectional_3789[0][0]']     
                                                                                                  
 concatenate_814 (Concatenate)  (None, 256)          0           ['dropout_3096[0][0]',           
                                                                  'dropout_3097[0][0]',           
                                                                  'dropout_3098[0][0]',           
                                                                  'dropout_3099[0][0]']           
                                                                                                  
 dense_3259 (Dense)             (None, 1)            257         ['concatenate_814[0][0]']        
                                                                                                  
==================================================================================================
Total params: 16,907
Trainable params: 16,907
Non-trainable params: 0
__________________________________________________________________________________________________
…
 bidirectional_3807 (Bidirectio  (None, None, 10)    280         ['masking_3807[0][0]']           
 nal)                                                                                             
                                                                                                  
 bidirectional_3808 (Bidirectio  (None, None, 10)    280         ['masking_3808[0][0]']           
 nal)                                                                                             
                                                                                                  
 conv1d_1318 (Conv1D)           (None, 25, 5)        1885        ['masking_3809[0][0]']           
                                                                                                  
 lstm_5574 (LSTM)               (None, 5)            320         ['bidirectional_3806[0][0]']     
                                                                                                  
 lstm_5576 (LSTM)               (None, 5)            320         ['bidirectional_3807[0][0]']     
                                                                                                  
 lstm_5578 (LSTM)               (None, 5)            320         ['bidirectional_3808[0][0]']     
                                                                                                  
 conv1d_1319 (Conv1D)           (None, 25, 5)        105         ['conv1d_1318[0][0]']            
                                                                                                  
 dense_3276 (Dense)             (None, 96)           576         ['lstm_5574[0][0]']              
                                                                                                  
 dense_3277 (Dense)             (None, 96)           576         ['lstm_5576[0][0]']              
                                                                                                  
 dense_3278 (Dense)             (None, 96)           576         ['lstm_5578[0][0]']              
                                                                                                  
 bidirectional_3809 (Bidirectio  (None, 96)          20736       ['conv1d_1319[0][0]']            
 nal)                                                                                             
                                                                                                  
 dropout_3116 (Dropout)         (None, 96)           0           ['dense_3276[0][0]']             
                                                                                                  
 dropout_3117 (Dropout)         (None, 96)           0           ['dense_3277[0][0]']             
                                                                                                  
 dropout_3118 (Dropout)         (None, 96)           0           ['dense_3278[0][0]']             
                                                                                                  
 dropout_3119 (Dropout)         (None, 96)           0           ['bidirectional_3809[0][0]']     
                                                                                                  
 concatenate_819 (Concatenate)  (None, 384)          0           ['dropout_3116[0][0]',           
                                                                  'dropout_3117[0][0]',           
                                                                  'dropout_3118[0][0]',           
                                                                  'dropout_3119[0][0]']           
                                                                                                  
 dense_3279 (Dense)             (None, 1)            385         ['concatenate_819[0][0]']        
                                                                                                  
==================================================================================================
Total params: 26,639
Trainable params: 26,639
Non-trainable params: 0
__________________________________________________________________________________________________
…
 bidirectional_3827 (Bidirectio  (None, None, 10)    280         ['masking_3827[0][0]']           
 nal)                                                                                             
                                                                                                  
 bidirectional_3828 (Bidirectio  (None, None, 10)    280         ['masking_3828[0][0]']           
 nal)                                                                                             
                                                                                                  
 conv1d_1328 (Conv1D)           (None, 25, 5)        2825        ['masking_3829[0][0]']           
                                                                                                  
 lstm_5609 (LSTM)               (None, 5)            320         ['bidirectional_3826[0][0]']     
                                                                                                  
 lstm_5611 (LSTM)               (None, 5)            320         ['bidirectional_3827[0][0]']     
                                                                                                  
 lstm_5613 (LSTM)               (None, 5)            320         ['bidirectional_3828[0][0]']     
                                                                                                  
 conv1d_1329 (Conv1D)           (None, 25, 5)        155         ['conv1d_1328[0][0]']            
                                                                                                  
 dense_3296 (Dense)             (None, 96)           576         ['lstm_5609[0][0]']              
                                                                                                  
 dense_3297 (Dense)             (None, 96)           576         ['lstm_5611[0][0]']              
                                                                                                  
 dense_3298 (Dense)             (None, 96)           576         ['lstm_5613[0][0]']              
                                                                                                  
 bidirectional_3829 (Bidirectio  (None, 96)          20736       ['conv1d_1329[0][0]']            
 nal)                                                                                             
                                                                                                  
 dropout_3136 (Dropout)         (None, 96)           0           ['dense_3296[0][0]']             
                                                                                                  
 dropout_3137 (Dropout)         (None, 96)           0           ['dense_3297[0][0]']             
                                                                                                  
 dropout_3138 (Dropout)         (None, 96)           0           ['dense_3298[0][0]']             
                                                                                                  
 dropout_3139 (Dropout)         (None, 96)           0           ['bidirectional_3829[0][0]']     
                                                                                                  
 concatenate_824 (Concatenate)  (None, 384)          0           ['dropout_3136[0][0]',           
                                                                  'dropout_3137[0][0]',           
                                                                  'dropout_3138[0][0]',           
                                                                  'dropout_3139[0][0]']           
                                                                                                  
 dense_3299 (Dense)             (None, 1)            385         ['concatenate_824[0][0]']        
                                                                                                  
==================================================================================================
Total params: 27,629
Trainable params: 27,629
Non-trainable params: 0
__________________________________________________________________________________________________
…
 bidirectional_3847 (Bidirectio  (None, None, 10)    280         ['masking_3847[0][0]']           
 nal)                                                                                             
                                                                                                  
 bidirectional_3848 (Bidirectio  (None, None, 10)    280         ['masking_3848[0][0]']           
 nal)                                                                                             
                                                                                                  
 conv1d_1338 (Conv1D)           (None, 25, 5)        3765        ['masking_3849[0][0]']           
                                                                                                  
 lstm_5644 (LSTM)               (None, 5)            320         ['bidirectional_3846[0][0]']     
                                                                                                  
 lstm_5646 (LSTM)               (None, 5)            320         ['bidirectional_3847[0][0]']     
                                                                                                  
 lstm_5648 (LSTM)               (None, 5)            320         ['bidirectional_3848[0][0]']     
                                                                                                  
 conv1d_1339 (Conv1D)           (None, 25, 5)        205         ['conv1d_1338[0][0]']            
                                                                                                  
 dense_3316 (Dense)             (None, 96)           576         ['lstm_5644[0][0]']              
                                                                                                  
 dense_3317 (Dense)             (None, 96)           576         ['lstm_5646[0][0]']              
                                                                                                  
 dense_3318 (Dense)             (None, 96)           576         ['lstm_5648[0][0]']              
                                                                                                  
 bidirectional_3849 (Bidirectio  (None, 96)          20736       ['conv1d_1339[0][0]']            
 nal)                                                                                             
                                                                                                  
 dropout_3156 (Dropout)         (None, 96)           0           ['dense_3316[0][0]']             
                                                                                                  
 dropout_3157 (Dropout)         (None, 96)           0           ['dense_3317[0][0]']             
                                                                                                  
 dropout_3158 (Dropout)         (None, 96)           0           ['dense_3318[0][0]']             
                                                                                                  
 dropout_3159 (Dropout)         (None, 96)           0           ['bidirectional_3849[0][0]']     
                                                                                                  
 concatenate_829 (Concatenate)  (None, 384)          0           ['dropout_3156[0][0]',           
                                                                  'dropout_3157[0][0]',           
                                                                  'dropout_3158[0][0]',           
                                                                  'dropout_3159[0][0]']           
                                                                                                  
 dense_3319 (Dense)             (None, 1)            385         ['concatenate_829[0][0]']        
                                                                                                  
==================================================================================================
Total params: 28,619
Trainable params: 28,619
Non-trainable params: 0
__________________________________________________________________________________________________
…
 bidirectional_3867 (Bidirectio  (None, None, 10)    280         ['masking_3867[0][0]']           
 nal)                                                                                             
                                                                                                  
 bidirectional_3868 (Bidirectio  (None, None, 10)    280         ['masking_3868[0][0]']           
 nal)                                                                                             
                                                                                                  
 conv1d_1348 (Conv1D)           (None, 25, 5)        1885        ['masking_3869[0][0]']           
                                                                                                  
 lstm_5679 (LSTM)               (None, 5)            320         ['bidirectional_3866[0][0]']     
                                                                                                  
 lstm_5681 (LSTM)               (None, 5)            320         ['bidirectional_3867[0][0]']     
                                                                                                  
 lstm_5683 (LSTM)               (None, 5)            320         ['bidirectional_3868[0][0]']     
                                                                                                  
 conv1d_1349 (Conv1D)           (None, 25, 5)        105         ['conv1d_1348[0][0]']            
                                                                                                  
 dense_3336 (Dense)             (None, 128)          768         ['lstm_5679[0][0]']              
                                                                                                  
 dense_3337 (Dense)             (None, 128)          768         ['lstm_5681[0][0]']              
                                                                                                  
 dense_3338 (Dense)             (None, 128)          768         ['lstm_5683[0][0]']              
                                                                                                  
 bidirectional_3869 (Bidirectio  (None, 128)         35840       ['conv1d_1349[0][0]']            
 nal)                                                                                             
                                                                                                  
 dropout_3176 (Dropout)         (None, 128)          0           ['dense_3336[0][0]']             
                                                                                                  
 dropout_3177 (Dropout)         (None, 128)          0           ['dense_3337[0][0]']             
                                                                                                  
 dropout_3178 (Dropout)         (None, 128)          0           ['dense_3338[0][0]']             
                                                                                                  
 dropout_3179 (Dropout)         (None, 128)          0           ['bidirectional_3869[0][0]']     
                                                                                                  
 concatenate_834 (Concatenate)  (None, 512)          0           ['dropout_3176[0][0]',           
                                                                  'dropout_3177[0][0]',           
                                                                  'dropout_3178[0][0]',           
                                                                  'dropout_3179[0][0]']           
                                                                                                  
 dense_3339 (Dense)             (None, 1)            513         ['concatenate_834[0][0]']        
                                                                                                  
==================================================================================================
Total params: 42,447
Trainable params: 42,447
Non-trainable params: 0
__________________________________________________________________________________________________
…
 bidirectional_3887 (Bidirectio  (None, None, 10)    280         ['masking_3887[0][0]']           
 nal)                                                                                             
                                                                                                  
 bidirectional_3888 (Bidirectio  (None, None, 10)    280         ['masking_3888[0][0]']           
 nal)                                                                                             
                                                                                                  
 conv1d_1358 (Conv1D)           (None, 25, 5)        2825        ['masking_3889[0][0]']           
                                                                                                  
 lstm_5714 (LSTM)               (None, 5)            320         ['bidirectional_3886[0][0]']     
                                                                                                  
 lstm_5716 (LSTM)               (None, 5)            320         ['bidirectional_3887[0][0]']     
                                                                                                  
 lstm_5718 (LSTM)               (None, 5)            320         ['bidirectional_3888[0][0]']     
                                                                                                  
 conv1d_1359 (Conv1D)           (None, 25, 5)        155         ['conv1d_1358[0][0]']            
                                                                                                  
 dense_3356 (Dense)             (None, 128)          768         ['lstm_5714[0][0]']              
                                                                                                  
 dense_3357 (Dense)             (None, 128)          768         ['lstm_5716[0][0]']              
                                                                                                  
 dense_3358 (Dense)             (None, 128)          768         ['lstm_5718[0][0]']              
                                                                                                  
 bidirectional_3889 (Bidirectio  (None, 128)         35840       ['conv1d_1359[0][0]']            
 nal)                                                                                             
                                                                                                  
 dropout_3196 (Dropout)         (None, 128)          0           ['dense_3356[0][0]']             
                                                                                                  
 dropout_3197 (Dropout)         (None, 128)          0           ['dense_3357[0][0]']             
                                                                                                  
 dropout_3198 (Dropout)         (None, 128)          0           ['dense_3358[0][0]']             
                                                                                                  
 dropout_3199 (Dropout)         (None, 128)          0           ['bidirectional_3889[0][0]']     
                                                                                                  
 concatenate_839 (Concatenate)  (None, 512)          0           ['dropout_3196[0][0]',           
                                                                  'dropout_3197[0][0]',           
                                                                  'dropout_3198[0][0]',           
                                                                  'dropout_3199[0][0]']           
                                                                                                  
 dense_3359 (Dense)             (None, 1)            513         ['concatenate_839[0][0]']        
                                                                                                  
==================================================================================================
Total params: 43,437
Trainable params: 43,437
Non-trainable params: 0
__________________________________________________________________________________________________
…
 bidirectional_3907 (Bidirectio  (None, None, 10)    280         ['masking_3907[0][0]']           
 nal)                                                                                             
                                                                                                  
 bidirectional_3908 (Bidirectio  (None, None, 10)    280         ['masking_3908[0][0]']           
 nal)                                                                                             
                                                                                                  
 conv1d_1368 (Conv1D)           (None, 25, 5)        3765        ['masking_3909[0][0]']           
                                                                                                  
 lstm_5749 (LSTM)               (None, 5)            320         ['bidirectional_3906[0][0]']     
                                                                                                  
 lstm_5751 (LSTM)               (None, 5)            320         ['bidirectional_3907[0][0]']     
                                                                                                  
 lstm_5753 (LSTM)               (None, 5)            320         ['bidirectional_3908[0][0]']     
                                                                                                  
 conv1d_1369 (Conv1D)           (None, 25, 5)        205         ['conv1d_1368[0][0]']            
                                                                                                  
 dense_3376 (Dense)             (None, 128)          768         ['lstm_5749[0][0]']              
                                                                                                  
 dense_3377 (Dense)             (None, 128)          768         ['lstm_5751[0][0]']              
                                                                                                  
 dense_3378 (Dense)             (None, 128)          768         ['lstm_5753[0][0]']              
                                                                                                  
 bidirectional_3909 (Bidirectio  (None, 128)         35840       ['conv1d_1369[0][0]']            
 nal)                                                                                             
                                                                                                  
 dropout_3216 (Dropout)         (None, 128)          0           ['dense_3376[0][0]']             
                                                                                                  
 dropout_3217 (Dropout)         (None, 128)          0           ['dense_3377[0][0]']             
                                                                                                  
 dropout_3218 (Dropout)         (None, 128)          0           ['dense_3378[0][0]']             
                                                                                                  
 dropout_3219 (Dropout)         (None, 128)          0           ['bidirectional_3909[0][0]']     
                                                                                                  
 concatenate_844 (Concatenate)  (None, 512)          0           ['dropout_3216[0][0]',           
                                                                  'dropout_3217[0][0]',           
                                                                  'dropout_3218[0][0]',           
                                                                  'dropout_3219[0][0]']           
                                                                                                  
 dense_3379 (Dense)             (None, 1)            513         ['concatenate_844[0][0]']        
                                                                                                  
==================================================================================================
Total params: 44,427
Trainable params: 44,427
Non-trainable params: 0
__________________________________________________________________________________________________
…
