…
 bidirectional_3195 (Bidirectio  (None, None, 10)    280         ['masking_3195[0][0]']           
 nal)                                                                                             
                                                                                                  
 bidirectional_3196 (Bidirectio  (None, None, 10)    280         ['masking_3196[0][0]']           
 nal)                                                                                             
                                                                                                  
 conv1d_1012 (Conv1D)           (None, 25, 5)        1885        ['masking_3197[0][0]']           
                                                                                                  
 lstm_4503 (LSTM)               (None, 5)            320         ['bidirectional_3194[0][0]']     
                                                                                                  
 lstm_4505 (LSTM)               (None, 5)            320         ['bidirectional_3195[0][0]']     
                                                                                                  
 lstm_4507 (LSTM)               (None, 5)            320         ['bidirectional_3196[0][0]']     
                                                                                                  
 conv1d_1013 (Conv1D)           (None, 25, 5)        105         ['conv1d_1012[0][0]']            
                                                                                                  
 dense_2664 (Dense)             (None, 64)           384         ['lstm_4503[0][0]']              
                                                                                                  
 dense_2665 (Dense)             (None, 64)           384         ['lstm_4505[0][0]']              
                                                                                                  
 dense_2666 (Dense)             (None, 64)           384         ['lstm_4507[0][0]']              
                                                                                                  
 bidirectional_3197 (Bidirectio  (None, 64)          9728        ['conv1d_1013[0][0]']            
 nal)                                                                                             
                                                                                                  
 dropout_2504 (Dropout)         (None, 64)           0           ['dense_2664[0][0]']             
                                                                                                  
 dropout_2505 (Dropout)         (None, 64)           0           ['dense_2665[0][0]']             
                                                                                                  
 dropout_2506 (Dropout)         (None, 64)           0           ['dense_2666[0][0]']             
                                                                                                  
 dropout_2507 (Dropout)         (None, 64)           0           ['bidirectional_3197[0][0]']     
                                                                                                  
 concatenate_666 (Concatenate)  (None, 256)          0           ['dropout_2504[0][0]',           
                                                                  'dropout_2505[0][0]',           
                                                                  'dropout_2506[0][0]',           
                                                                  'dropout_2507[0][0]']           
                                                                                                  
 dense_2667 (Dense)             (None, 1)            257         ['concatenate_666[0][0]']        
                                                                                                  
==================================================================================================
Total params: 14,927
Trainable params: 14,927
Non-trainable params: 0
__________________________________________________________________________________________________
…
 bidirectional_3215 (Bidirectio  (None, None, 10)    280         ['masking_3215[0][0]']           
 nal)                                                                                             
                                                                                                  
 bidirectional_3216 (Bidirectio  (None, None, 10)    280         ['masking_3216[0][0]']           
 nal)                                                                                             
                                                                                                  
 conv1d_1022 (Conv1D)           (None, 25, 5)        2825        ['masking_3217[0][0]']           
                                                                                                  
 lstm_4538 (LSTM)               (None, 5)            320         ['bidirectional_3214[0][0]']     
                                                                                                  
 lstm_4540 (LSTM)               (None, 5)            320         ['bidirectional_3215[0][0]']     
                                                                                                  
 lstm_4542 (LSTM)               (None, 5)            320         ['bidirectional_3216[0][0]']     
                                                                                                  
 conv1d_1023 (Conv1D)           (None, 25, 5)        155         ['conv1d_1022[0][0]']            
                                                                                                  
 dense_2684 (Dense)             (None, 64)           384         ['lstm_4538[0][0]']              
                                                                                                  
 dense_2685 (Dense)             (None, 64)           384         ['lstm_4540[0][0]']              
                                                                                                  
 dense_2686 (Dense)             (None, 64)           384         ['lstm_4542[0][0]']              
                                                                                                  
 bidirectional_3217 (Bidirectio  (None, 64)          9728        ['conv1d_1023[0][0]']            
 nal)                                                                                             
                                                                                                  
 dropout_2524 (Dropout)         (None, 64)           0           ['dense_2684[0][0]']             
                                                                                                  
 dropout_2525 (Dropout)         (None, 64)           0           ['dense_2685[0][0]']             
                                                                                                  
 dropout_2526 (Dropout)         (None, 64)           0           ['dense_2686[0][0]']             
                                                                                                  
 dropout_2527 (Dropout)         (None, 64)           0           ['bidirectional_3217[0][0]']     
                                                                                                  
 concatenate_671 (Concatenate)  (None, 256)          0           ['dropout_2524[0][0]',           
                                                                  'dropout_2525[0][0]',           
                                                                  'dropout_2526[0][0]',           
                                                                  'dropout_2527[0][0]']           
                                                                                                  
 dense_2687 (Dense)             (None, 1)            257         ['concatenate_671[0][0]']        
                                                                                                  
==================================================================================================
Total params: 15,917
Trainable params: 15,917
Non-trainable params: 0
__________________________________________________________________________________________________
…
 bidirectional_3235 (Bidirectio  (None, None, 10)    280         ['masking_3235[0][0]']           
 nal)                                                                                             
                                                                                                  
 bidirectional_3236 (Bidirectio  (None, None, 10)    280         ['masking_3236[0][0]']           
 nal)                                                                                             
                                                                                                  
 conv1d_1032 (Conv1D)           (None, 25, 5)        3765        ['masking_3237[0][0]']           
                                                                                                  
 lstm_4573 (LSTM)               (None, 5)            320         ['bidirectional_3234[0][0]']     
                                                                                                  
 lstm_4575 (LSTM)               (None, 5)            320         ['bidirectional_3235[0][0]']     
                                                                                                  
 lstm_4577 (LSTM)               (None, 5)            320         ['bidirectional_3236[0][0]']     
                                                                                                  
 conv1d_1033 (Conv1D)           (None, 25, 5)        205         ['conv1d_1032[0][0]']            
                                                                                                  
 dense_2704 (Dense)             (None, 64)           384         ['lstm_4573[0][0]']              
                                                                                                  
 dense_2705 (Dense)             (None, 64)           384         ['lstm_4575[0][0]']              
                                                                                                  
 dense_2706 (Dense)             (None, 64)           384         ['lstm_4577[0][0]']              
                                                                                                  
 bidirectional_3237 (Bidirectio  (None, 64)          9728        ['conv1d_1033[0][0]']            
 nal)                                                                                             
                                                                                                  
 dropout_2544 (Dropout)         (None, 64)           0           ['dense_2704[0][0]']             
                                                                                                  
 dropout_2545 (Dropout)         (None, 64)           0           ['dense_2705[0][0]']             
                                                                                                  
 dropout_2546 (Dropout)         (None, 64)           0           ['dense_2706[0][0]']             
                                                                                                  
 dropout_2547 (Dropout)         (None, 64)           0           ['bidirectional_3237[0][0]']     
                                                                                                  
 concatenate_676 (Concatenate)  (None, 256)          0           ['dropout_2544[0][0]',           
                                                                  'dropout_2545[0][0]',           
                                                                  'dropout_2546[0][0]',           
                                                                  'dropout_2547[0][0]']           
                                                                                                  
 dense_2707 (Dense)             (None, 1)            257         ['concatenate_676[0][0]']        
                                                                                                  
==================================================================================================
Total params: 16,907
Trainable params: 16,907
Non-trainable params: 0
__________________________________________________________________________________________________
…
 bidirectional_3255 (Bidirectio  (None, None, 10)    280         ['masking_3255[0][0]']           
 nal)                                                                                             
                                                                                                  
 bidirectional_3256 (Bidirectio  (None, None, 10)    280         ['masking_3256[0][0]']           
 nal)                                                                                             
                                                                                                  
 conv1d_1042 (Conv1D)           (None, 25, 5)        1885        ['masking_3257[0][0]']           
                                                                                                  
 lstm_4608 (LSTM)               (None, 5)            320         ['bidirectional_3254[0][0]']     
                                                                                                  
 lstm_4610 (LSTM)               (None, 5)            320         ['bidirectional_3255[0][0]']     
                                                                                                  
 lstm_4612 (LSTM)               (None, 5)            320         ['bidirectional_3256[0][0]']     
                                                                                                  
 conv1d_1043 (Conv1D)           (None, 25, 5)        105         ['conv1d_1042[0][0]']            
                                                                                                  
 dense_2724 (Dense)             (None, 96)           576         ['lstm_4608[0][0]']              
                                                                                                  
 dense_2725 (Dense)             (None, 96)           576         ['lstm_4610[0][0]']              
                                                                                                  
 dense_2726 (Dense)             (None, 96)           576         ['lstm_4612[0][0]']              
                                                                                                  
 bidirectional_3257 (Bidirectio  (None, 96)          20736       ['conv1d_1043[0][0]']            
 nal)                                                                                             
                                                                                                  
 dropout_2564 (Dropout)         (None, 96)           0           ['dense_2724[0][0]']             
                                                                                                  
 dropout_2565 (Dropout)         (None, 96)           0           ['dense_2725[0][0]']             
                                                                                                  
 dropout_2566 (Dropout)         (None, 96)           0           ['dense_2726[0][0]']             
                                                                                                  
 dropout_2567 (Dropout)         (None, 96)           0           ['bidirectional_3257[0][0]']     
                                                                                                  
 concatenate_681 (Concatenate)  (None, 384)          0           ['dropout_2564[0][0]',           
                                                                  'dropout_2565[0][0]',           
                                                                  'dropout_2566[0][0]',           
                                                                  'dropout_2567[0][0]']           
                                                                                                  
 dense_2727 (Dense)             (None, 1)            385         ['concatenate_681[0][0]']        
                                                                                                  
==================================================================================================
Total params: 26,639
Trainable params: 26,639
Non-trainable params: 0
__________________________________________________________________________________________________
…
 bidirectional_3275 (Bidirectio  (None, None, 10)    280         ['masking_3275[0][0]']           
 nal)                                                                                             
                                                                                                  
 bidirectional_3276 (Bidirectio  (None, None, 10)    280         ['masking_3276[0][0]']           
 nal)                                                                                             
                                                                                                  
 conv1d_1052 (Conv1D)           (None, 25, 5)        2825        ['masking_3277[0][0]']           
                                                                                                  
 lstm_4643 (LSTM)               (None, 5)            320         ['bidirectional_3274[0][0]']     
                                                                                                  
 lstm_4645 (LSTM)               (None, 5)            320         ['bidirectional_3275[0][0]']     
                                                                                                  
 lstm_4647 (LSTM)               (None, 5)            320         ['bidirectional_3276[0][0]']     
                                                                                                  
 conv1d_1053 (Conv1D)           (None, 25, 5)        155         ['conv1d_1052[0][0]']            
                                                                                                  
 dense_2744 (Dense)             (None, 96)           576         ['lstm_4643[0][0]']              
                                                                                                  
 dense_2745 (Dense)             (None, 96)           576         ['lstm_4645[0][0]']              
                                                                                                  
 dense_2746 (Dense)             (None, 96)           576         ['lstm_4647[0][0]']              
                                                                                                  
 bidirectional_3277 (Bidirectio  (None, 96)          20736       ['conv1d_1053[0][0]']            
 nal)                                                                                             
                                                                                                  
 dropout_2584 (Dropout)         (None, 96)           0           ['dense_2744[0][0]']             
                                                                                                  
 dropout_2585 (Dropout)         (None, 96)           0           ['dense_2745[0][0]']             
                                                                                                  
 dropout_2586 (Dropout)         (None, 96)           0           ['dense_2746[0][0]']             
                                                                                                  
 dropout_2587 (Dropout)         (None, 96)           0           ['bidirectional_3277[0][0]']     
                                                                                                  
 concatenate_686 (Concatenate)  (None, 384)          0           ['dropout_2584[0][0]',           
                                                                  'dropout_2585[0][0]',           
                                                                  'dropout_2586[0][0]',           
                                                                  'dropout_2587[0][0]']           
                                                                                                  
 dense_2747 (Dense)             (None, 1)            385         ['concatenate_686[0][0]']        
                                                                                                  
==================================================================================================
Total params: 27,629
Trainable params: 27,629
Non-trainable params: 0
__________________________________________________________________________________________________
…
 bidirectional_3295 (Bidirectio  (None, None, 10)    280         ['masking_3295[0][0]']           
 nal)                                                                                             
                                                                                                  
 bidirectional_3296 (Bidirectio  (None, None, 10)    280         ['masking_3296[0][0]']           
 nal)                                                                                             
                                                                                                  
 conv1d_1062 (Conv1D)           (None, 25, 5)        3765        ['masking_3297[0][0]']           
                                                                                                  
 lstm_4678 (LSTM)               (None, 5)            320         ['bidirectional_3294[0][0]']     
                                                                                                  
 lstm_4680 (LSTM)               (None, 5)            320         ['bidirectional_3295[0][0]']     
                                                                                                  
 lstm_4682 (LSTM)               (None, 5)            320         ['bidirectional_3296[0][0]']     
                                                                                                  
 conv1d_1063 (Conv1D)           (None, 25, 5)        205         ['conv1d_1062[0][0]']            
                                                                                                  
 dense_2764 (Dense)             (None, 96)           576         ['lstm_4678[0][0]']              
                                                                                                  
 dense_2765 (Dense)             (None, 96)           576         ['lstm_4680[0][0]']              
                                                                                                  
 dense_2766 (Dense)             (None, 96)           576         ['lstm_4682[0][0]']              
                                                                                                  
 bidirectional_3297 (Bidirectio  (None, 96)          20736       ['conv1d_1063[0][0]']            
 nal)                                                                                             
                                                                                                  
 dropout_2604 (Dropout)         (None, 96)           0           ['dense_2764[0][0]']             
                                                                                                  
 dropout_2605 (Dropout)         (None, 96)           0           ['dense_2765[0][0]']             
                                                                                                  
 dropout_2606 (Dropout)         (None, 96)           0           ['dense_2766[0][0]']             
                                                                                                  
 dropout_2607 (Dropout)         (None, 96)           0           ['bidirectional_3297[0][0]']     
                                                                                                  
 concatenate_691 (Concatenate)  (None, 384)          0           ['dropout_2604[0][0]',           
                                                                  'dropout_2605[0][0]',           
                                                                  'dropout_2606[0][0]',           
                                                                  'dropout_2607[0][0]']           
                                                                                                  
 dense_2767 (Dense)             (None, 1)            385         ['concatenate_691[0][0]']        
                                                                                                  
==================================================================================================
Total params: 28,619
Trainable params: 28,619
Non-trainable params: 0
__________________________________________________________________________________________________
…
 bidirectional_3315 (Bidirectio  (None, None, 10)    280         ['masking_3315[0][0]']           
 nal)                                                                                             
                                                                                                  
 bidirectional_3316 (Bidirectio  (None, None, 10)    280         ['masking_3316[0][0]']           
 nal)                                                                                             
                                                                                                  
 conv1d_1072 (Conv1D)           (None, 25, 5)        1885        ['masking_3317[0][0]']           
                                                                                                  
 lstm_4713 (LSTM)               (None, 5)            320         ['bidirectional_3314[0][0]']     
                                                                                                  
 lstm_4715 (LSTM)               (None, 5)            320         ['bidirectional_3315[0][0]']     
                                                                                                  
 lstm_4717 (LSTM)               (None, 5)            320         ['bidirectional_3316[0][0]']     
                                                                                                  
 conv1d_1073 (Conv1D)           (None, 25, 5)        105         ['conv1d_1072[0][0]']            
                                                                                                  
 dense_2784 (Dense)             (None, 128)          768         ['lstm_4713[0][0]']              
                                                                                                  
 dense_2785 (Dense)             (None, 128)          768         ['lstm_4715[0][0]']              
                                                                                                  
 dense_2786 (Dense)             (None, 128)          768         ['lstm_4717[0][0]']              
                                                                                                  
 bidirectional_3317 (Bidirectio  (None, 128)         35840       ['conv1d_1073[0][0]']            
 nal)                                                                                             
                                                                                                  
 dropout_2624 (Dropout)         (None, 128)          0           ['dense_2784[0][0]']             
                                                                                                  
 dropout_2625 (Dropout)         (None, 128)          0           ['dense_2785[0][0]']             
                                                                                                  
 dropout_2626 (Dropout)         (None, 128)          0           ['dense_2786[0][0]']             
                                                                                                  
 dropout_2627 (Dropout)         (None, 128)          0           ['bidirectional_3317[0][0]']     
                                                                                                  
 concatenate_696 (Concatenate)  (None, 512)          0           ['dropout_2624[0][0]',           
                                                                  'dropout_2625[0][0]',           
                                                                  'dropout_2626[0][0]',           
                                                                  'dropout_2627[0][0]']           
                                                                                                  
 dense_2787 (Dense)             (None, 1)            513         ['concatenate_696[0][0]']        
                                                                                                  
==================================================================================================
Total params: 42,447
Trainable params: 42,447
Non-trainable params: 0
__________________________________________________________________________________________________
…
 bidirectional_3335 (Bidirectio  (None, None, 10)    280         ['masking_3335[0][0]']           
 nal)                                                                                             
                                                                                                  
 bidirectional_3336 (Bidirectio  (None, None, 10)    280         ['masking_3336[0][0]']           
 nal)                                                                                             
                                                                                                  
 conv1d_1082 (Conv1D)           (None, 25, 5)        2825        ['masking_3337[0][0]']           
                                                                                                  
 lstm_4748 (LSTM)               (None, 5)            320         ['bidirectional_3334[0][0]']     
                                                                                                  
 lstm_4750 (LSTM)               (None, 5)            320         ['bidirectional_3335[0][0]']     
                                                                                                  
 lstm_4752 (LSTM)               (None, 5)            320         ['bidirectional_3336[0][0]']     
                                                                                                  
 conv1d_1083 (Conv1D)           (None, 25, 5)        155         ['conv1d_1082[0][0]']            
                                                                                                  
 dense_2804 (Dense)             (None, 128)          768         ['lstm_4748[0][0]']              
                                                                                                  
 dense_2805 (Dense)             (None, 128)          768         ['lstm_4750[0][0]']              
                                                                                                  
 dense_2806 (Dense)             (None, 128)          768         ['lstm_4752[0][0]']              
                                                                                                  
 bidirectional_3337 (Bidirectio  (None, 128)         35840       ['conv1d_1083[0][0]']            
 nal)                                                                                             
                                                                                                  
 dropout_2644 (Dropout)         (None, 128)          0           ['dense_2804[0][0]']             
                                                                                                  
 dropout_2645 (Dropout)         (None, 128)          0           ['dense_2805[0][0]']             
                                                                                                  
 dropout_2646 (Dropout)         (None, 128)          0           ['dense_2806[0][0]']             
                                                                                                  
 dropout_2647 (Dropout)         (None, 128)          0           ['bidirectional_3337[0][0]']     
                                                                                                  
 concatenate_701 (Concatenate)  (None, 512)          0           ['dropout_2644[0][0]',           
                                                                  'dropout_2645[0][0]',           
                                                                  'dropout_2646[0][0]',           
                                                                  'dropout_2647[0][0]']           
                                                                                                  
 dense_2807 (Dense)             (None, 1)            513         ['concatenate_701[0][0]']        
                                                                                                  
==================================================================================================
Total params: 43,437
Trainable params: 43,437
Non-trainable params: 0
__________________________________________________________________________________________________
…
 bidirectional_3355 (Bidirectio  (None, None, 10)    280         ['masking_3355[0][0]']           
 nal)                                                                                             
                                                                                                  
 bidirectional_3356 (Bidirectio  (None, None, 10)    280         ['masking_3356[0][0]']           
 nal)                                                                                             
                                                                                                  
 conv1d_1092 (Conv1D)           (None, 25, 5)        3765        ['masking_3357[0][0]']           
                                                                                                  
 lstm_4783 (LSTM)               (None, 5)            320         ['bidirectional_3354[0][0]']     
                                                                                                  
 lstm_4785 (LSTM)               (None, 5)            320         ['bidirectional_3355[0][0]']     
                                                                                                  
 lstm_4787 (LSTM)               (None, 5)            320         ['bidirectional_3356[0][0]']     
                                                                                                  
 conv1d_1093 (Conv1D)           (None, 25, 5)        205         ['conv1d_1092[0][0]']            
                                                                                                  
 dense_2824 (Dense)             (None, 128)          768         ['lstm_4783[0][0]']              
                                                                                                  
 dense_2825 (Dense)             (None, 128)          768         ['lstm_4785[0][0]']              
                                                                                                  
 dense_2826 (Dense)             (None, 128)          768         ['lstm_4787[0][0]']              
                                                                                                  
 bidirectional_3357 (Bidirectio  (None, 128)         35840       ['conv1d_1093[0][0]']            
 nal)                                                                                             
                                                                                                  
 dropout_2664 (Dropout)         (None, 128)          0           ['dense_2824[0][0]']             
                                                                                                  
 dropout_2665 (Dropout)         (None, 128)          0           ['dense_2825[0][0]']             
                                                                                                  
 dropout_2666 (Dropout)         (None, 128)          0           ['dense_2826[0][0]']             
                                                                                                  
 dropout_2667 (Dropout)         (None, 128)          0           ['bidirectional_3357[0][0]']     
                                                                                                  
 concatenate_706 (Concatenate)  (None, 512)          0           ['dropout_2664[0][0]',           
                                                                  'dropout_2665[0][0]',           
                                                                  'dropout_2666[0][0]',           
                                                                  'dropout_2667[0][0]']           
                                                                                                  
 dense_2827 (Dense)             (None, 1)            513         ['concatenate_706[0][0]']        
                                                                                                  
==================================================================================================
Total params: 44,427
Trainable params: 44,427
Non-trainable params: 0
__________________________________________________________________________________________________
…
