…
 bidirectional_1621 (Bidirectio  (None, None, 10)    280         ['masking_1621[0][0]']           
 nal)                                                                                             
                                                                                                  
 bidirectional_1622 (Bidirectio  (None, None, 10)    280         ['masking_1622[0][0]']           
 nal)                                                                                             
                                                                                                  
 conv1d_460 (Conv1D)            (None, 24, 5)        65          ['masking_1623[0][0]']           
                                                                                                  
 lstm_2091 (LSTM)               (None, 5)            320         ['bidirectional_1620[0][0]']     
                                                                                                  
 lstm_2093 (LSTM)               (None, 5)            320         ['bidirectional_1621[0][0]']     
                                                                                                  
 lstm_2095 (LSTM)               (None, 5)            320         ['bidirectional_1622[0][0]']     
                                                                                                  
 conv1d_461 (Conv1D)            (None, 24, 5)        105         ['conv1d_460[0][0]']             
                                                                                                  
 dense_1240 (Dense)             (None, 64)           384         ['lstm_2091[0][0]']              
                                                                                                  
 dense_1241 (Dense)             (None, 64)           384         ['lstm_2093[0][0]']              
                                                                                                  
 dense_1242 (Dense)             (None, 64)           384         ['lstm_2095[0][0]']              
                                                                                                  
 bidirectional_1623 (Bidirectio  (None, 64)          9728        ['conv1d_461[0][0]']             
 nal)                                                                                             
                                                                                                  
 dropout_1160 (Dropout)         (None, 64)           0           ['dense_1240[0][0]']             
                                                                                                  
 dropout_1161 (Dropout)         (None, 64)           0           ['dense_1241[0][0]']             
                                                                                                  
 dropout_1162 (Dropout)         (None, 64)           0           ['dense_1242[0][0]']             
                                                                                                  
 dropout_1163 (Dropout)         (None, 64)           0           ['bidirectional_1623[0][0]']     
                                                                                                  
 concatenate_310 (Concatenate)  (None, 256)          0           ['dropout_1160[0][0]',           
                                                                  'dropout_1161[0][0]',           
                                                                  'dropout_1162[0][0]',           
                                                                  'dropout_1163[0][0]']           
                                                                                                  
 dense_1243 (Dense)             (None, 1)            257         ['concatenate_310[0][0]']        
                                                                                                  
==================================================================================================
Total params: 13,107
Trainable params: 13,107
Non-trainable params: 0
__________________________________________________________________________________________________
…
 bidirectional_1641 (Bidirectio  (None, None, 10)    280         ['masking_1641[0][0]']           
 nal)                                                                                             
                                                                                                  
 bidirectional_1642 (Bidirectio  (None, None, 10)    280         ['masking_1642[0][0]']           
 nal)                                                                                             
                                                                                                  
 conv1d_470 (Conv1D)            (None, 24, 5)        95          ['masking_1643[0][0]']           
                                                                                                  
 lstm_2126 (LSTM)               (None, 5)            320         ['bidirectional_1640[0][0]']     
                                                                                                  
 lstm_2128 (LSTM)               (None, 5)            320         ['bidirectional_1641[0][0]']     
                                                                                                  
 lstm_2130 (LSTM)               (None, 5)            320         ['bidirectional_1642[0][0]']     
                                                                                                  
 conv1d_471 (Conv1D)            (None, 24, 5)        155         ['conv1d_470[0][0]']             
                                                                                                  
 dense_1260 (Dense)             (None, 64)           384         ['lstm_2126[0][0]']              
                                                                                                  
 dense_1261 (Dense)             (None, 64)           384         ['lstm_2128[0][0]']              
                                                                                                  
 dense_1262 (Dense)             (None, 64)           384         ['lstm_2130[0][0]']              
                                                                                                  
 bidirectional_1643 (Bidirectio  (None, 64)          9728        ['conv1d_471[0][0]']             
 nal)                                                                                             
                                                                                                  
 dropout_1180 (Dropout)         (None, 64)           0           ['dense_1260[0][0]']             
                                                                                                  
 dropout_1181 (Dropout)         (None, 64)           0           ['dense_1261[0][0]']             
                                                                                                  
 dropout_1182 (Dropout)         (None, 64)           0           ['dense_1262[0][0]']             
                                                                                                  
 dropout_1183 (Dropout)         (None, 64)           0           ['bidirectional_1643[0][0]']     
                                                                                                  
 concatenate_315 (Concatenate)  (None, 256)          0           ['dropout_1180[0][0]',           
                                                                  'dropout_1181[0][0]',           
                                                                  'dropout_1182[0][0]',           
                                                                  'dropout_1183[0][0]']           
                                                                                                  
 dense_1263 (Dense)             (None, 1)            257         ['concatenate_315[0][0]']        
                                                                                                  
==================================================================================================
Total params: 13,187
Trainable params: 13,187
Non-trainable params: 0
__________________________________________________________________________________________________
…
 bidirectional_1661 (Bidirectio  (None, None, 10)    280         ['masking_1661[0][0]']           
 nal)                                                                                             
                                                                                                  
 bidirectional_1662 (Bidirectio  (None, None, 10)    280         ['masking_1662[0][0]']           
 nal)                                                                                             
                                                                                                  
 conv1d_480 (Conv1D)            (None, 24, 5)        125         ['masking_1663[0][0]']           
                                                                                                  
 lstm_2161 (LSTM)               (None, 5)            320         ['bidirectional_1660[0][0]']     
                                                                                                  
 lstm_2163 (LSTM)               (None, 5)            320         ['bidirectional_1661[0][0]']     
                                                                                                  
 lstm_2165 (LSTM)               (None, 5)            320         ['bidirectional_1662[0][0]']     
                                                                                                  
 conv1d_481 (Conv1D)            (None, 24, 5)        205         ['conv1d_480[0][0]']             
                                                                                                  
 dense_1280 (Dense)             (None, 64)           384         ['lstm_2161[0][0]']              
                                                                                                  
 dense_1281 (Dense)             (None, 64)           384         ['lstm_2163[0][0]']              
                                                                                                  
 dense_1282 (Dense)             (None, 64)           384         ['lstm_2165[0][0]']              
                                                                                                  
 bidirectional_1663 (Bidirectio  (None, 64)          9728        ['conv1d_481[0][0]']             
 nal)                                                                                             
                                                                                                  
 dropout_1200 (Dropout)         (None, 64)           0           ['dense_1280[0][0]']             
                                                                                                  
 dropout_1201 (Dropout)         (None, 64)           0           ['dense_1281[0][0]']             
                                                                                                  
 dropout_1202 (Dropout)         (None, 64)           0           ['dense_1282[0][0]']             
                                                                                                  
 dropout_1203 (Dropout)         (None, 64)           0           ['bidirectional_1663[0][0]']     
                                                                                                  
 concatenate_320 (Concatenate)  (None, 256)          0           ['dropout_1200[0][0]',           
                                                                  'dropout_1201[0][0]',           
                                                                  'dropout_1202[0][0]',           
                                                                  'dropout_1203[0][0]']           
                                                                                                  
 dense_1283 (Dense)             (None, 1)            257         ['concatenate_320[0][0]']        
                                                                                                  
==================================================================================================
Total params: 13,267
Trainable params: 13,267
Non-trainable params: 0
__________________________________________________________________________________________________
…
 bidirectional_1681 (Bidirectio  (None, None, 10)    280         ['masking_1681[0][0]']           
 nal)                                                                                             
                                                                                                  
 bidirectional_1682 (Bidirectio  (None, None, 10)    280         ['masking_1682[0][0]']           
 nal)                                                                                             
                                                                                                  
 conv1d_490 (Conv1D)            (None, 24, 5)        65          ['masking_1683[0][0]']           
                                                                                                  
 lstm_2196 (LSTM)               (None, 5)            320         ['bidirectional_1680[0][0]']     
                                                                                                  
 lstm_2198 (LSTM)               (None, 5)            320         ['bidirectional_1681[0][0]']     
                                                                                                  
 lstm_2200 (LSTM)               (None, 5)            320         ['bidirectional_1682[0][0]']     
                                                                                                  
 conv1d_491 (Conv1D)            (None, 24, 5)        105         ['conv1d_490[0][0]']             
                                                                                                  
 dense_1300 (Dense)             (None, 96)           576         ['lstm_2196[0][0]']              
                                                                                                  
 dense_1301 (Dense)             (None, 96)           576         ['lstm_2198[0][0]']              
                                                                                                  
 dense_1302 (Dense)             (None, 96)           576         ['lstm_2200[0][0]']              
                                                                                                  
 bidirectional_1683 (Bidirectio  (None, 96)          20736       ['conv1d_491[0][0]']             
 nal)                                                                                             
                                                                                                  
 dropout_1220 (Dropout)         (None, 96)           0           ['dense_1300[0][0]']             
                                                                                                  
 dropout_1221 (Dropout)         (None, 96)           0           ['dense_1301[0][0]']             
                                                                                                  
 dropout_1222 (Dropout)         (None, 96)           0           ['dense_1302[0][0]']             
                                                                                                  
 dropout_1223 (Dropout)         (None, 96)           0           ['bidirectional_1683[0][0]']     
                                                                                                  
 concatenate_325 (Concatenate)  (None, 384)          0           ['dropout_1220[0][0]',           
                                                                  'dropout_1221[0][0]',           
                                                                  'dropout_1222[0][0]',           
                                                                  'dropout_1223[0][0]']           
                                                                                                  
 dense_1303 (Dense)             (None, 1)            385         ['concatenate_325[0][0]']        
                                                                                                  
==================================================================================================
Total params: 24,819
Trainable params: 24,819
Non-trainable params: 0
__________________________________________________________________________________________________
…
 bidirectional_1701 (Bidirectio  (None, None, 10)    280         ['masking_1701[0][0]']           
 nal)                                                                                             
                                                                                                  
 bidirectional_1702 (Bidirectio  (None, None, 10)    280         ['masking_1702[0][0]']           
 nal)                                                                                             
                                                                                                  
 conv1d_500 (Conv1D)            (None, 24, 5)        95          ['masking_1703[0][0]']           
                                                                                                  
 lstm_2231 (LSTM)               (None, 5)            320         ['bidirectional_1700[0][0]']     
                                                                                                  
 lstm_2233 (LSTM)               (None, 5)            320         ['bidirectional_1701[0][0]']     
                                                                                                  
 lstm_2235 (LSTM)               (None, 5)            320         ['bidirectional_1702[0][0]']     
                                                                                                  
 conv1d_501 (Conv1D)            (None, 24, 5)        155         ['conv1d_500[0][0]']             
                                                                                                  
 dense_1320 (Dense)             (None, 96)           576         ['lstm_2231[0][0]']              
                                                                                                  
 dense_1321 (Dense)             (None, 96)           576         ['lstm_2233[0][0]']              
                                                                                                  
 dense_1322 (Dense)             (None, 96)           576         ['lstm_2235[0][0]']              
                                                                                                  
 bidirectional_1703 (Bidirectio  (None, 96)          20736       ['conv1d_501[0][0]']             
 nal)                                                                                             
                                                                                                  
 dropout_1240 (Dropout)         (None, 96)           0           ['dense_1320[0][0]']             
                                                                                                  
 dropout_1241 (Dropout)         (None, 96)           0           ['dense_1321[0][0]']             
                                                                                                  
 dropout_1242 (Dropout)         (None, 96)           0           ['dense_1322[0][0]']             
                                                                                                  
 dropout_1243 (Dropout)         (None, 96)           0           ['bidirectional_1703[0][0]']     
                                                                                                  
 concatenate_330 (Concatenate)  (None, 384)          0           ['dropout_1240[0][0]',           
                                                                  'dropout_1241[0][0]',           
                                                                  'dropout_1242[0][0]',           
                                                                  'dropout_1243[0][0]']           
                                                                                                  
 dense_1323 (Dense)             (None, 1)            385         ['concatenate_330[0][0]']        
                                                                                                  
==================================================================================================
Total params: 24,899
Trainable params: 24,899
Non-trainable params: 0
__________________________________________________________________________________________________
…
 bidirectional_1721 (Bidirectio  (None, None, 10)    280         ['masking_1721[0][0]']           
 nal)                                                                                             
                                                                                                  
 bidirectional_1722 (Bidirectio  (None, None, 10)    280         ['masking_1722[0][0]']           
 nal)                                                                                             
                                                                                                  
 conv1d_510 (Conv1D)            (None, 24, 5)        125         ['masking_1723[0][0]']           
                                                                                                  
 lstm_2266 (LSTM)               (None, 5)            320         ['bidirectional_1720[0][0]']     
                                                                                                  
 lstm_2268 (LSTM)               (None, 5)            320         ['bidirectional_1721[0][0]']     
                                                                                                  
 lstm_2270 (LSTM)               (None, 5)            320         ['bidirectional_1722[0][0]']     
                                                                                                  
 conv1d_511 (Conv1D)            (None, 24, 5)        205         ['conv1d_510[0][0]']             
                                                                                                  
 dense_1340 (Dense)             (None, 96)           576         ['lstm_2266[0][0]']              
                                                                                                  
 dense_1341 (Dense)             (None, 96)           576         ['lstm_2268[0][0]']              
                                                                                                  
 dense_1342 (Dense)             (None, 96)           576         ['lstm_2270[0][0]']              
                                                                                                  
 bidirectional_1723 (Bidirectio  (None, 96)          20736       ['conv1d_511[0][0]']             
 nal)                                                                                             
                                                                                                  
 dropout_1260 (Dropout)         (None, 96)           0           ['dense_1340[0][0]']             
                                                                                                  
 dropout_1261 (Dropout)         (None, 96)           0           ['dense_1341[0][0]']             
                                                                                                  
 dropout_1262 (Dropout)         (None, 96)           0           ['dense_1342[0][0]']             
                                                                                                  
 dropout_1263 (Dropout)         (None, 96)           0           ['bidirectional_1723[0][0]']     
                                                                                                  
 concatenate_335 (Concatenate)  (None, 384)          0           ['dropout_1260[0][0]',           
                                                                  'dropout_1261[0][0]',           
                                                                  'dropout_1262[0][0]',           
                                                                  'dropout_1263[0][0]']           
                                                                                                  
 dense_1343 (Dense)             (None, 1)            385         ['concatenate_335[0][0]']        
                                                                                                  
==================================================================================================
Total params: 24,979
Trainable params: 24,979
Non-trainable params: 0
__________________________________________________________________________________________________
…
 bidirectional_1741 (Bidirectio  (None, None, 10)    280         ['masking_1741[0][0]']           
 nal)                                                                                             
                                                                                                  
 bidirectional_1742 (Bidirectio  (None, None, 10)    280         ['masking_1742[0][0]']           
 nal)                                                                                             
                                                                                                  
 conv1d_520 (Conv1D)            (None, 24, 5)        65          ['masking_1743[0][0]']           
                                                                                                  
 lstm_2301 (LSTM)               (None, 5)            320         ['bidirectional_1740[0][0]']     
                                                                                                  
 lstm_2303 (LSTM)               (None, 5)            320         ['bidirectional_1741[0][0]']     
                                                                                                  
 lstm_2305 (LSTM)               (None, 5)            320         ['bidirectional_1742[0][0]']     
                                                                                                  
 conv1d_521 (Conv1D)            (None, 24, 5)        105         ['conv1d_520[0][0]']             
                                                                                                  
 dense_1360 (Dense)             (None, 128)          768         ['lstm_2301[0][0]']              
                                                                                                  
 dense_1361 (Dense)             (None, 128)          768         ['lstm_2303[0][0]']              
                                                                                                  
 dense_1362 (Dense)             (None, 128)          768         ['lstm_2305[0][0]']              
                                                                                                  
 bidirectional_1743 (Bidirectio  (None, 128)         35840       ['conv1d_521[0][0]']             
 nal)                                                                                             
                                                                                                  
 dropout_1280 (Dropout)         (None, 128)          0           ['dense_1360[0][0]']             
                                                                                                  
 dropout_1281 (Dropout)         (None, 128)          0           ['dense_1361[0][0]']             
                                                                                                  
 dropout_1282 (Dropout)         (None, 128)          0           ['dense_1362[0][0]']             
                                                                                                  
 dropout_1283 (Dropout)         (None, 128)          0           ['bidirectional_1743[0][0]']     
                                                                                                  
 concatenate_340 (Concatenate)  (None, 512)          0           ['dropout_1280[0][0]',           
                                                                  'dropout_1281[0][0]',           
                                                                  'dropout_1282[0][0]',           
                                                                  'dropout_1283[0][0]']           
                                                                                                  
 dense_1363 (Dense)             (None, 1)            513         ['concatenate_340[0][0]']        
                                                                                                  
==================================================================================================
Total params: 40,627
Trainable params: 40,627
Non-trainable params: 0
__________________________________________________________________________________________________
…
 bidirectional_1761 (Bidirectio  (None, None, 10)    280         ['masking_1761[0][0]']           
 nal)                                                                                             
                                                                                                  
 bidirectional_1762 (Bidirectio  (None, None, 10)    280         ['masking_1762[0][0]']           
 nal)                                                                                             
                                                                                                  
 conv1d_530 (Conv1D)            (None, 24, 5)        95          ['masking_1763[0][0]']           
                                                                                                  
 lstm_2336 (LSTM)               (None, 5)            320         ['bidirectional_1760[0][0]']     
                                                                                                  
 lstm_2338 (LSTM)               (None, 5)            320         ['bidirectional_1761[0][0]']     
                                                                                                  
 lstm_2340 (LSTM)               (None, 5)            320         ['bidirectional_1762[0][0]']     
                                                                                                  
 conv1d_531 (Conv1D)            (None, 24, 5)        155         ['conv1d_530[0][0]']             
                                                                                                  
 dense_1380 (Dense)             (None, 128)          768         ['lstm_2336[0][0]']              
                                                                                                  
 dense_1381 (Dense)             (None, 128)          768         ['lstm_2338[0][0]']              
                                                                                                  
 dense_1382 (Dense)             (None, 128)          768         ['lstm_2340[0][0]']              
                                                                                                  
 bidirectional_1763 (Bidirectio  (None, 128)         35840       ['conv1d_531[0][0]']             
 nal)                                                                                             
                                                                                                  
 dropout_1300 (Dropout)         (None, 128)          0           ['dense_1380[0][0]']             
                                                                                                  
 dropout_1301 (Dropout)         (None, 128)          0           ['dense_1381[0][0]']             
                                                                                                  
 dropout_1302 (Dropout)         (None, 128)          0           ['dense_1382[0][0]']             
                                                                                                  
 dropout_1303 (Dropout)         (None, 128)          0           ['bidirectional_1763[0][0]']     
                                                                                                  
 concatenate_345 (Concatenate)  (None, 512)          0           ['dropout_1300[0][0]',           
                                                                  'dropout_1301[0][0]',           
                                                                  'dropout_1302[0][0]',           
                                                                  'dropout_1303[0][0]']           
                                                                                                  
 dense_1383 (Dense)             (None, 1)            513         ['concatenate_345[0][0]']        
                                                                                                  
==================================================================================================
Total params: 40,707
Trainable params: 40,707
Non-trainable params: 0
__________________________________________________________________________________________________
…
 bidirectional_1781 (Bidirectio  (None, None, 10)    280         ['masking_1781[0][0]']           
 nal)                                                                                             
                                                                                                  
 bidirectional_1782 (Bidirectio  (None, None, 10)    280         ['masking_1782[0][0]']           
 nal)                                                                                             
                                                                                                  
 conv1d_540 (Conv1D)            (None, 24, 5)        125         ['masking_1783[0][0]']           
                                                                                                  
 lstm_2371 (LSTM)               (None, 5)            320         ['bidirectional_1780[0][0]']     
                                                                                                  
 lstm_2373 (LSTM)               (None, 5)            320         ['bidirectional_1781[0][0]']     
                                                                                                  
 lstm_2375 (LSTM)               (None, 5)            320         ['bidirectional_1782[0][0]']     
                                                                                                  
 conv1d_541 (Conv1D)            (None, 24, 5)        205         ['conv1d_540[0][0]']             
                                                                                                  
 dense_1400 (Dense)             (None, 128)          768         ['lstm_2371[0][0]']              
                                                                                                  
 dense_1401 (Dense)             (None, 128)          768         ['lstm_2373[0][0]']              
                                                                                                  
 dense_1402 (Dense)             (None, 128)          768         ['lstm_2375[0][0]']              
                                                                                                  
 bidirectional_1783 (Bidirectio  (None, 128)         35840       ['conv1d_541[0][0]']             
 nal)                                                                                             
                                                                                                  
 dropout_1320 (Dropout)         (None, 128)          0           ['dense_1400[0][0]']             
                                                                                                  
 dropout_1321 (Dropout)         (None, 128)          0           ['dense_1401[0][0]']             
                                                                                                  
 dropout_1322 (Dropout)         (None, 128)          0           ['dense_1402[0][0]']             
                                                                                                  
 dropout_1323 (Dropout)         (None, 128)          0           ['bidirectional_1783[0][0]']     
                                                                                                  
 concatenate_350 (Concatenate)  (None, 512)          0           ['dropout_1320[0][0]',           
                                                                  'dropout_1321[0][0]',           
                                                                  'dropout_1322[0][0]',           
                                                                  'dropout_1323[0][0]']           
                                                                                                  
 dense_1403 (Dense)             (None, 1)            513         ['concatenate_350[0][0]']        
                                                                                                  
==================================================================================================
Total params: 40,787
Trainable params: 40,787
Non-trainable params: 0
__________________________________________________________________________________________________
…
