…
 bidirectional_11781 (Bidirecti  (None, None, 10)    280         ['masking_11781[0][0]']          
 onal)                                                                                            
                                                                                                  
 bidirectional_11782 (Bidirecti  (None, None, 10)    280         ['masking_11782[0][0]']          
 onal)                                                                                            
                                                                                                  
 conv1d_4140 (Conv1D)           (None, 24, 5)        65          ['masking_11783[0][0]']          
                                                                                                  
 lstm_16891 (LSTM)              (None, 5)            320         ['bidirectional_11780[0][0]']    
                                                                                                  
 lstm_16893 (LSTM)              (None, 5)            320         ['bidirectional_11781[0][0]']    
                                                                                                  
 lstm_16895 (LSTM)              (None, 5)            320         ['bidirectional_11782[0][0]']    
                                                                                                  
 conv1d_4141 (Conv1D)           (None, 24, 5)        105         ['conv1d_4140[0][0]']            
                                                                                                  
 dense_9880 (Dense)             (None, 64)           384         ['lstm_16891[0][0]']             
                                                                                                  
 dense_9881 (Dense)             (None, 64)           384         ['lstm_16893[0][0]']             
                                                                                                  
 dense_9882 (Dense)             (None, 64)           384         ['lstm_16895[0][0]']             
                                                                                                  
 bidirectional_11783 (Bidirecti  (None, 64)          9728        ['conv1d_4141[0][0]']            
 onal)                                                                                            
                                                                                                  
 dropout_9480 (Dropout)         (None, 64)           0           ['dense_9880[0][0]']             
                                                                                                  
 dropout_9481 (Dropout)         (None, 64)           0           ['dense_9881[0][0]']             
                                                                                                  
 dropout_9482 (Dropout)         (None, 64)           0           ['dense_9882[0][0]']             
                                                                                                  
 dropout_9483 (Dropout)         (None, 64)           0           ['bidirectional_11783[0][0]']    
                                                                                                  
 concatenate_2470 (Concatenate)  (None, 256)         0           ['dropout_9480[0][0]',           
                                                                  'dropout_9481[0][0]',           
                                                                  'dropout_9482[0][0]',           
                                                                  'dropout_9483[0][0]']           
                                                                                                  
 dense_9883 (Dense)             (None, 1)            257         ['concatenate_2470[0][0]']       
                                                                                                  
==================================================================================================
Total params: 13,107
Trainable params: 13,107
Non-trainable params: 0
__________________________________________________________________________________________________
…
 bidirectional_11801 (Bidirecti  (None, None, 10)    280         ['masking_11801[0][0]']          
 onal)                                                                                            
                                                                                                  
 bidirectional_11802 (Bidirecti  (None, None, 10)    280         ['masking_11802[0][0]']          
 onal)                                                                                            
                                                                                                  
 conv1d_4150 (Conv1D)           (None, 24, 5)        95          ['masking_11803[0][0]']          
                                                                                                  
 lstm_16926 (LSTM)              (None, 5)            320         ['bidirectional_11800[0][0]']    
                                                                                                  
 lstm_16928 (LSTM)              (None, 5)            320         ['bidirectional_11801[0][0]']    
                                                                                                  
 lstm_16930 (LSTM)              (None, 5)            320         ['bidirectional_11802[0][0]']    
                                                                                                  
 conv1d_4151 (Conv1D)           (None, 24, 5)        155         ['conv1d_4150[0][0]']            
                                                                                                  
 dense_9900 (Dense)             (None, 64)           384         ['lstm_16926[0][0]']             
                                                                                                  
 dense_9901 (Dense)             (None, 64)           384         ['lstm_16928[0][0]']             
                                                                                                  
 dense_9902 (Dense)             (None, 64)           384         ['lstm_16930[0][0]']             
                                                                                                  
 bidirectional_11803 (Bidirecti  (None, 64)          9728        ['conv1d_4151[0][0]']            
 onal)                                                                                            
                                                                                                  
 dropout_9500 (Dropout)         (None, 64)           0           ['dense_9900[0][0]']             
                                                                                                  
 dropout_9501 (Dropout)         (None, 64)           0           ['dense_9901[0][0]']             
                                                                                                  
 dropout_9502 (Dropout)         (None, 64)           0           ['dense_9902[0][0]']             
                                                                                                  
 dropout_9503 (Dropout)         (None, 64)           0           ['bidirectional_11803[0][0]']    
                                                                                                  
 concatenate_2475 (Concatenate)  (None, 256)         0           ['dropout_9500[0][0]',           
                                                                  'dropout_9501[0][0]',           
                                                                  'dropout_9502[0][0]',           
                                                                  'dropout_9503[0][0]']           
                                                                                                  
 dense_9903 (Dense)             (None, 1)            257         ['concatenate_2475[0][0]']       
                                                                                                  
==================================================================================================
Total params: 13,187
Trainable params: 13,187
Non-trainable params: 0
__________________________________________________________________________________________________
…
 bidirectional_11821 (Bidirecti  (None, None, 10)    280         ['masking_11821[0][0]']          
 onal)                                                                                            
                                                                                                  
 bidirectional_11822 (Bidirecti  (None, None, 10)    280         ['masking_11822[0][0]']          
 onal)                                                                                            
                                                                                                  
 conv1d_4160 (Conv1D)           (None, 24, 5)        125         ['masking_11823[0][0]']          
                                                                                                  
 lstm_16961 (LSTM)              (None, 5)            320         ['bidirectional_11820[0][0]']    
                                                                                                  
 lstm_16963 (LSTM)              (None, 5)            320         ['bidirectional_11821[0][0]']    
                                                                                                  
 lstm_16965 (LSTM)              (None, 5)            320         ['bidirectional_11822[0][0]']    
                                                                                                  
 conv1d_4161 (Conv1D)           (None, 24, 5)        205         ['conv1d_4160[0][0]']            
                                                                                                  
 dense_9920 (Dense)             (None, 64)           384         ['lstm_16961[0][0]']             
                                                                                                  
 dense_9921 (Dense)             (None, 64)           384         ['lstm_16963[0][0]']             
                                                                                                  
 dense_9922 (Dense)             (None, 64)           384         ['lstm_16965[0][0]']             
                                                                                                  
 bidirectional_11823 (Bidirecti  (None, 64)          9728        ['conv1d_4161[0][0]']            
 onal)                                                                                            
                                                                                                  
 dropout_9520 (Dropout)         (None, 64)           0           ['dense_9920[0][0]']             
                                                                                                  
 dropout_9521 (Dropout)         (None, 64)           0           ['dense_9921[0][0]']             
                                                                                                  
 dropout_9522 (Dropout)         (None, 64)           0           ['dense_9922[0][0]']             
                                                                                                  
 dropout_9523 (Dropout)         (None, 64)           0           ['bidirectional_11823[0][0]']    
                                                                                                  
 concatenate_2480 (Concatenate)  (None, 256)         0           ['dropout_9520[0][0]',           
                                                                  'dropout_9521[0][0]',           
                                                                  'dropout_9522[0][0]',           
                                                                  'dropout_9523[0][0]']           
                                                                                                  
 dense_9923 (Dense)             (None, 1)            257         ['concatenate_2480[0][0]']       
                                                                                                  
==================================================================================================
Total params: 13,267
Trainable params: 13,267
Non-trainable params: 0
__________________________________________________________________________________________________
…
 bidirectional_11841 (Bidirecti  (None, None, 10)    280         ['masking_11841[0][0]']          
 onal)                                                                                            
                                                                                                  
 bidirectional_11842 (Bidirecti  (None, None, 10)    280         ['masking_11842[0][0]']          
 onal)                                                                                            
                                                                                                  
 conv1d_4170 (Conv1D)           (None, 24, 5)        65          ['masking_11843[0][0]']          
                                                                                                  
 lstm_16996 (LSTM)              (None, 5)            320         ['bidirectional_11840[0][0]']    
                                                                                                  
 lstm_16998 (LSTM)              (None, 5)            320         ['bidirectional_11841[0][0]']    
                                                                                                  
 lstm_17000 (LSTM)              (None, 5)            320         ['bidirectional_11842[0][0]']    
                                                                                                  
 conv1d_4171 (Conv1D)           (None, 24, 5)        105         ['conv1d_4170[0][0]']            
                                                                                                  
 dense_9940 (Dense)             (None, 96)           576         ['lstm_16996[0][0]']             
                                                                                                  
 dense_9941 (Dense)             (None, 96)           576         ['lstm_16998[0][0]']             
                                                                                                  
 dense_9942 (Dense)             (None, 96)           576         ['lstm_17000[0][0]']             
                                                                                                  
 bidirectional_11843 (Bidirecti  (None, 96)          20736       ['conv1d_4171[0][0]']            
 onal)                                                                                            
                                                                                                  
 dropout_9540 (Dropout)         (None, 96)           0           ['dense_9940[0][0]']             
                                                                                                  
 dropout_9541 (Dropout)         (None, 96)           0           ['dense_9941[0][0]']             
                                                                                                  
 dropout_9542 (Dropout)         (None, 96)           0           ['dense_9942[0][0]']             
                                                                                                  
 dropout_9543 (Dropout)         (None, 96)           0           ['bidirectional_11843[0][0]']    
                                                                                                  
 concatenate_2485 (Concatenate)  (None, 384)         0           ['dropout_9540[0][0]',           
                                                                  'dropout_9541[0][0]',           
                                                                  'dropout_9542[0][0]',           
                                                                  'dropout_9543[0][0]']           
                                                                                                  
 dense_9943 (Dense)             (None, 1)            385         ['concatenate_2485[0][0]']       
                                                                                                  
==================================================================================================
Total params: 24,819
Trainable params: 24,819
Non-trainable params: 0
__________________________________________________________________________________________________
…
 bidirectional_11861 (Bidirecti  (None, None, 10)    280         ['masking_11861[0][0]']          
 onal)                                                                                            
                                                                                                  
 bidirectional_11862 (Bidirecti  (None, None, 10)    280         ['masking_11862[0][0]']          
 onal)                                                                                            
                                                                                                  
 conv1d_4180 (Conv1D)           (None, 24, 5)        95          ['masking_11863[0][0]']          
                                                                                                  
 lstm_17031 (LSTM)              (None, 5)            320         ['bidirectional_11860[0][0]']    
                                                                                                  
 lstm_17033 (LSTM)              (None, 5)            320         ['bidirectional_11861[0][0]']    
                                                                                                  
 lstm_17035 (LSTM)              (None, 5)            320         ['bidirectional_11862[0][0]']    
                                                                                                  
 conv1d_4181 (Conv1D)           (None, 24, 5)        155         ['conv1d_4180[0][0]']            
                                                                                                  
 dense_9960 (Dense)             (None, 96)           576         ['lstm_17031[0][0]']             
                                                                                                  
 dense_9961 (Dense)             (None, 96)           576         ['lstm_17033[0][0]']             
                                                                                                  
 dense_9962 (Dense)             (None, 96)           576         ['lstm_17035[0][0]']             
                                                                                                  
 bidirectional_11863 (Bidirecti  (None, 96)          20736       ['conv1d_4181[0][0]']            
 onal)                                                                                            
                                                                                                  
 dropout_9560 (Dropout)         (None, 96)           0           ['dense_9960[0][0]']             
                                                                                                  
 dropout_9561 (Dropout)         (None, 96)           0           ['dense_9961[0][0]']             
                                                                                                  
 dropout_9562 (Dropout)         (None, 96)           0           ['dense_9962[0][0]']             
                                                                                                  
 dropout_9563 (Dropout)         (None, 96)           0           ['bidirectional_11863[0][0]']    
                                                                                                  
 concatenate_2490 (Concatenate)  (None, 384)         0           ['dropout_9560[0][0]',           
                                                                  'dropout_9561[0][0]',           
                                                                  'dropout_9562[0][0]',           
                                                                  'dropout_9563[0][0]']           
                                                                                                  
 dense_9963 (Dense)             (None, 1)            385         ['concatenate_2490[0][0]']       
                                                                                                  
==================================================================================================
Total params: 24,899
Trainable params: 24,899
Non-trainable params: 0
__________________________________________________________________________________________________
…
 bidirectional_11881 (Bidirecti  (None, None, 10)    280         ['masking_11881[0][0]']          
 onal)                                                                                            
                                                                                                  
 bidirectional_11882 (Bidirecti  (None, None, 10)    280         ['masking_11882[0][0]']          
 onal)                                                                                            
                                                                                                  
 conv1d_4190 (Conv1D)           (None, 24, 5)        125         ['masking_11883[0][0]']          
                                                                                                  
 lstm_17066 (LSTM)              (None, 5)            320         ['bidirectional_11880[0][0]']    
                                                                                                  
 lstm_17068 (LSTM)              (None, 5)            320         ['bidirectional_11881[0][0]']    
                                                                                                  
 lstm_17070 (LSTM)              (None, 5)            320         ['bidirectional_11882[0][0]']    
                                                                                                  
 conv1d_4191 (Conv1D)           (None, 24, 5)        205         ['conv1d_4190[0][0]']            
                                                                                                  
 dense_9980 (Dense)             (None, 96)           576         ['lstm_17066[0][0]']             
                                                                                                  
 dense_9981 (Dense)             (None, 96)           576         ['lstm_17068[0][0]']             
                                                                                                  
 dense_9982 (Dense)             (None, 96)           576         ['lstm_17070[0][0]']             
                                                                                                  
 bidirectional_11883 (Bidirecti  (None, 96)          20736       ['conv1d_4191[0][0]']            
 onal)                                                                                            
                                                                                                  
 dropout_9580 (Dropout)         (None, 96)           0           ['dense_9980[0][0]']             
                                                                                                  
 dropout_9581 (Dropout)         (None, 96)           0           ['dense_9981[0][0]']             
                                                                                                  
 dropout_9582 (Dropout)         (None, 96)           0           ['dense_9982[0][0]']             
                                                                                                  
 dropout_9583 (Dropout)         (None, 96)           0           ['bidirectional_11883[0][0]']    
                                                                                                  
 concatenate_2495 (Concatenate)  (None, 384)         0           ['dropout_9580[0][0]',           
                                                                  'dropout_9581[0][0]',           
                                                                  'dropout_9582[0][0]',           
                                                                  'dropout_9583[0][0]']           
                                                                                                  
 dense_9983 (Dense)             (None, 1)            385         ['concatenate_2495[0][0]']       
                                                                                                  
==================================================================================================
Total params: 24,979
Trainable params: 24,979
Non-trainable params: 0
__________________________________________________________________________________________________
…
 bidirectional_11901 (Bidirecti  (None, None, 10)    280         ['masking_11901[0][0]']          
 onal)                                                                                            
                                                                                                  
 bidirectional_11902 (Bidirecti  (None, None, 10)    280         ['masking_11902[0][0]']          
 onal)                                                                                            
                                                                                                  
 conv1d_4200 (Conv1D)           (None, 24, 5)        65          ['masking_11903[0][0]']          
                                                                                                  
 lstm_17101 (LSTM)              (None, 5)            320         ['bidirectional_11900[0][0]']    
                                                                                                  
 lstm_17103 (LSTM)              (None, 5)            320         ['bidirectional_11901[0][0]']    
                                                                                                  
 lstm_17105 (LSTM)              (None, 5)            320         ['bidirectional_11902[0][0]']    
                                                                                                  
 conv1d_4201 (Conv1D)           (None, 24, 5)        105         ['conv1d_4200[0][0]']            
                                                                                                  
 dense_10000 (Dense)            (None, 128)          768         ['lstm_17101[0][0]']             
                                                                                                  
 dense_10001 (Dense)            (None, 128)          768         ['lstm_17103[0][0]']             
                                                                                                  
 dense_10002 (Dense)            (None, 128)          768         ['lstm_17105[0][0]']             
                                                                                                  
 bidirectional_11903 (Bidirecti  (None, 128)         35840       ['conv1d_4201[0][0]']            
 onal)                                                                                            
                                                                                                  
 dropout_9600 (Dropout)         (None, 128)          0           ['dense_10000[0][0]']            
                                                                                                  
 dropout_9601 (Dropout)         (None, 128)          0           ['dense_10001[0][0]']            
                                                                                                  
 dropout_9602 (Dropout)         (None, 128)          0           ['dense_10002[0][0]']            
                                                                                                  
 dropout_9603 (Dropout)         (None, 128)          0           ['bidirectional_11903[0][0]']    
                                                                                                  
 concatenate_2500 (Concatenate)  (None, 512)         0           ['dropout_9600[0][0]',           
                                                                  'dropout_9601[0][0]',           
                                                                  'dropout_9602[0][0]',           
                                                                  'dropout_9603[0][0]']           
                                                                                                  
 dense_10003 (Dense)            (None, 1)            513         ['concatenate_2500[0][0]']       
                                                                                                  
==================================================================================================
Total params: 40,627
Trainable params: 40,627
Non-trainable params: 0
__________________________________________________________________________________________________
…
 bidirectional_11921 (Bidirecti  (None, None, 10)    280         ['masking_11921[0][0]']          
 onal)                                                                                            
                                                                                                  
 bidirectional_11922 (Bidirecti  (None, None, 10)    280         ['masking_11922[0][0]']          
 onal)                                                                                            
                                                                                                  
 conv1d_4210 (Conv1D)           (None, 24, 5)        95          ['masking_11923[0][0]']          
                                                                                                  
 lstm_17136 (LSTM)              (None, 5)            320         ['bidirectional_11920[0][0]']    
                                                                                                  
 lstm_17138 (LSTM)              (None, 5)            320         ['bidirectional_11921[0][0]']    
                                                                                                  
 lstm_17140 (LSTM)              (None, 5)            320         ['bidirectional_11922[0][0]']    
                                                                                                  
 conv1d_4211 (Conv1D)           (None, 24, 5)        155         ['conv1d_4210[0][0]']            
                                                                                                  
 dense_10020 (Dense)            (None, 128)          768         ['lstm_17136[0][0]']             
                                                                                                  
 dense_10021 (Dense)            (None, 128)          768         ['lstm_17138[0][0]']             
                                                                                                  
 dense_10022 (Dense)            (None, 128)          768         ['lstm_17140[0][0]']             
                                                                                                  
 bidirectional_11923 (Bidirecti  (None, 128)         35840       ['conv1d_4211[0][0]']            
 onal)                                                                                            
                                                                                                  
 dropout_9620 (Dropout)         (None, 128)          0           ['dense_10020[0][0]']            
                                                                                                  
 dropout_9621 (Dropout)         (None, 128)          0           ['dense_10021[0][0]']            
                                                                                                  
 dropout_9622 (Dropout)         (None, 128)          0           ['dense_10022[0][0]']            
                                                                                                  
 dropout_9623 (Dropout)         (None, 128)          0           ['bidirectional_11923[0][0]']    
                                                                                                  
 concatenate_2505 (Concatenate)  (None, 512)         0           ['dropout_9620[0][0]',           
                                                                  'dropout_9621[0][0]',           
                                                                  'dropout_9622[0][0]',           
                                                                  'dropout_9623[0][0]']           
                                                                                                  
 dense_10023 (Dense)            (None, 1)            513         ['concatenate_2505[0][0]']       
                                                                                                  
==================================================================================================
Total params: 40,707
Trainable params: 40,707
Non-trainable params: 0
__________________________________________________________________________________________________
…
 bidirectional_11941 (Bidirecti  (None, None, 10)    280         ['masking_11941[0][0]']          
 onal)                                                                                            
                                                                                                  
 bidirectional_11942 (Bidirecti  (None, None, 10)    280         ['masking_11942[0][0]']          
 onal)                                                                                            
                                                                                                  
 conv1d_4220 (Conv1D)           (None, 24, 5)        125         ['masking_11943[0][0]']          
                                                                                                  
 lstm_17171 (LSTM)              (None, 5)            320         ['bidirectional_11940[0][0]']    
                                                                                                  
 lstm_17173 (LSTM)              (None, 5)            320         ['bidirectional_11941[0][0]']    
                                                                                                  
 lstm_17175 (LSTM)              (None, 5)            320         ['bidirectional_11942[0][0]']    
                                                                                                  
 conv1d_4221 (Conv1D)           (None, 24, 5)        205         ['conv1d_4220[0][0]']            
                                                                                                  
 dense_10040 (Dense)            (None, 128)          768         ['lstm_17171[0][0]']             
                                                                                                  
 dense_10041 (Dense)            (None, 128)          768         ['lstm_17173[0][0]']             
                                                                                                  
 dense_10042 (Dense)            (None, 128)          768         ['lstm_17175[0][0]']             
                                                                                                  
 bidirectional_11943 (Bidirecti  (None, 128)         35840       ['conv1d_4221[0][0]']            
 onal)                                                                                            
                                                                                                  
 dropout_9640 (Dropout)         (None, 128)          0           ['dense_10040[0][0]']            
                                                                                                  
 dropout_9641 (Dropout)         (None, 128)          0           ['dense_10041[0][0]']            
                                                                                                  
 dropout_9642 (Dropout)         (None, 128)          0           ['dense_10042[0][0]']            
                                                                                                  
 dropout_9643 (Dropout)         (None, 128)          0           ['bidirectional_11943[0][0]']    
                                                                                                  
 concatenate_2510 (Concatenate)  (None, 512)         0           ['dropout_9640[0][0]',           
                                                                  'dropout_9641[0][0]',           
                                                                  'dropout_9642[0][0]',           
                                                                  'dropout_9643[0][0]']           
                                                                                                  
 dense_10043 (Dense)            (None, 1)            513         ['concatenate_2510[0][0]']       
                                                                                                  
==================================================================================================
Total params: 40,787
Trainable params: 40,787
Non-trainable params: 0
__________________________________________________________________________________________________
…
