…
 bidirectional_12333 (Bidirecti  (None, None, 10)    280         ['masking_12333[0][0]']          
 onal)                                                                                            
                                                                                                  
 bidirectional_12334 (Bidirecti  (None, None, 10)    280         ['masking_12334[0][0]']          
 onal)                                                                                            
                                                                                                  
 conv1d_4416 (Conv1D)           (None, 24, 5)        65          ['masking_12335[0][0]']          
                                                                                                  
 lstm_17857 (LSTM)              (None, 5)            320         ['bidirectional_12332[0][0]']    
                                                                                                  
 lstm_17859 (LSTM)              (None, 5)            320         ['bidirectional_12333[0][0]']    
                                                                                                  
 lstm_17861 (LSTM)              (None, 5)            320         ['bidirectional_12334[0][0]']    
                                                                                                  
 conv1d_4417 (Conv1D)           (None, 24, 5)        105         ['conv1d_4416[0][0]']            
                                                                                                  
 dense_10432 (Dense)            (None, 64)           384         ['lstm_17857[0][0]']             
                                                                                                  
 dense_10433 (Dense)            (None, 64)           384         ['lstm_17859[0][0]']             
                                                                                                  
 dense_10434 (Dense)            (None, 64)           384         ['lstm_17861[0][0]']             
                                                                                                  
 bidirectional_12335 (Bidirecti  (None, 64)          9728        ['conv1d_4417[0][0]']            
 onal)                                                                                            
                                                                                                  
 dropout_10032 (Dropout)        (None, 64)           0           ['dense_10432[0][0]']            
                                                                                                  
 dropout_10033 (Dropout)        (None, 64)           0           ['dense_10433[0][0]']            
                                                                                                  
 dropout_10034 (Dropout)        (None, 64)           0           ['dense_10434[0][0]']            
                                                                                                  
 dropout_10035 (Dropout)        (None, 64)           0           ['bidirectional_12335[0][0]']    
                                                                                                  
 concatenate_2608 (Concatenate)  (None, 256)         0           ['dropout_10032[0][0]',          
                                                                  'dropout_10033[0][0]',          
                                                                  'dropout_10034[0][0]',          
                                                                  'dropout_10035[0][0]']          
                                                                                                  
 dense_10435 (Dense)            (None, 1)            257         ['concatenate_2608[0][0]']       
                                                                                                  
==================================================================================================
Total params: 13,107
Trainable params: 13,107
Non-trainable params: 0
__________________________________________________________________________________________________
…
 bidirectional_12353 (Bidirecti  (None, None, 10)    280         ['masking_12353[0][0]']          
 onal)                                                                                            
                                                                                                  
 bidirectional_12354 (Bidirecti  (None, None, 10)    280         ['masking_12354[0][0]']          
 onal)                                                                                            
                                                                                                  
 conv1d_4426 (Conv1D)           (None, 24, 5)        95          ['masking_12355[0][0]']          
                                                                                                  
 lstm_17892 (LSTM)              (None, 5)            320         ['bidirectional_12352[0][0]']    
                                                                                                  
 lstm_17894 (LSTM)              (None, 5)            320         ['bidirectional_12353[0][0]']    
                                                                                                  
 lstm_17896 (LSTM)              (None, 5)            320         ['bidirectional_12354[0][0]']    
                                                                                                  
 conv1d_4427 (Conv1D)           (None, 24, 5)        155         ['conv1d_4426[0][0]']            
                                                                                                  
 dense_10452 (Dense)            (None, 64)           384         ['lstm_17892[0][0]']             
                                                                                                  
 dense_10453 (Dense)            (None, 64)           384         ['lstm_17894[0][0]']             
                                                                                                  
 dense_10454 (Dense)            (None, 64)           384         ['lstm_17896[0][0]']             
                                                                                                  
 bidirectional_12355 (Bidirecti  (None, 64)          9728        ['conv1d_4427[0][0]']            
 onal)                                                                                            
                                                                                                  
 dropout_10052 (Dropout)        (None, 64)           0           ['dense_10452[0][0]']            
                                                                                                  
 dropout_10053 (Dropout)        (None, 64)           0           ['dense_10453[0][0]']            
                                                                                                  
 dropout_10054 (Dropout)        (None, 64)           0           ['dense_10454[0][0]']            
                                                                                                  
 dropout_10055 (Dropout)        (None, 64)           0           ['bidirectional_12355[0][0]']    
                                                                                                  
 concatenate_2613 (Concatenate)  (None, 256)         0           ['dropout_10052[0][0]',          
                                                                  'dropout_10053[0][0]',          
                                                                  'dropout_10054[0][0]',          
                                                                  'dropout_10055[0][0]']          
                                                                                                  
 dense_10455 (Dense)            (None, 1)            257         ['concatenate_2613[0][0]']       
                                                                                                  
==================================================================================================
Total params: 13,187
Trainable params: 13,187
Non-trainable params: 0
__________________________________________________________________________________________________
…
 bidirectional_12373 (Bidirecti  (None, None, 10)    280         ['masking_12373[0][0]']          
 onal)                                                                                            
                                                                                                  
 bidirectional_12374 (Bidirecti  (None, None, 10)    280         ['masking_12374[0][0]']          
 onal)                                                                                            
                                                                                                  
 conv1d_4436 (Conv1D)           (None, 24, 5)        125         ['masking_12375[0][0]']          
                                                                                                  
 lstm_17927 (LSTM)              (None, 5)            320         ['bidirectional_12372[0][0]']    
                                                                                                  
 lstm_17929 (LSTM)              (None, 5)            320         ['bidirectional_12373[0][0]']    
                                                                                                  
 lstm_17931 (LSTM)              (None, 5)            320         ['bidirectional_12374[0][0]']    
                                                                                                  
 conv1d_4437 (Conv1D)           (None, 24, 5)        205         ['conv1d_4436[0][0]']            
                                                                                                  
 dense_10472 (Dense)            (None, 64)           384         ['lstm_17927[0][0]']             
                                                                                                  
 dense_10473 (Dense)            (None, 64)           384         ['lstm_17929[0][0]']             
                                                                                                  
 dense_10474 (Dense)            (None, 64)           384         ['lstm_17931[0][0]']             
                                                                                                  
 bidirectional_12375 (Bidirecti  (None, 64)          9728        ['conv1d_4437[0][0]']            
 onal)                                                                                            
                                                                                                  
 dropout_10072 (Dropout)        (None, 64)           0           ['dense_10472[0][0]']            
                                                                                                  
 dropout_10073 (Dropout)        (None, 64)           0           ['dense_10473[0][0]']            
                                                                                                  
 dropout_10074 (Dropout)        (None, 64)           0           ['dense_10474[0][0]']            
                                                                                                  
 dropout_10075 (Dropout)        (None, 64)           0           ['bidirectional_12375[0][0]']    
                                                                                                  
 concatenate_2618 (Concatenate)  (None, 256)         0           ['dropout_10072[0][0]',          
                                                                  'dropout_10073[0][0]',          
                                                                  'dropout_10074[0][0]',          
                                                                  'dropout_10075[0][0]']          
                                                                                                  
 dense_10475 (Dense)            (None, 1)            257         ['concatenate_2618[0][0]']       
                                                                                                  
==================================================================================================
Total params: 13,267
Trainable params: 13,267
Non-trainable params: 0
__________________________________________________________________________________________________
…
 bidirectional_12393 (Bidirecti  (None, None, 10)    280         ['masking_12393[0][0]']          
 onal)                                                                                            
                                                                                                  
 bidirectional_12394 (Bidirecti  (None, None, 10)    280         ['masking_12394[0][0]']          
 onal)                                                                                            
                                                                                                  
 conv1d_4446 (Conv1D)           (None, 24, 5)        65          ['masking_12395[0][0]']          
                                                                                                  
 lstm_17962 (LSTM)              (None, 5)            320         ['bidirectional_12392[0][0]']    
                                                                                                  
 lstm_17964 (LSTM)              (None, 5)            320         ['bidirectional_12393[0][0]']    
                                                                                                  
 lstm_17966 (LSTM)              (None, 5)            320         ['bidirectional_12394[0][0]']    
                                                                                                  
 conv1d_4447 (Conv1D)           (None, 24, 5)        105         ['conv1d_4446[0][0]']            
                                                                                                  
 dense_10492 (Dense)            (None, 96)           576         ['lstm_17962[0][0]']             
                                                                                                  
 dense_10493 (Dense)            (None, 96)           576         ['lstm_17964[0][0]']             
                                                                                                  
 dense_10494 (Dense)            (None, 96)           576         ['lstm_17966[0][0]']             
                                                                                                  
 bidirectional_12395 (Bidirecti  (None, 96)          20736       ['conv1d_4447[0][0]']            
 onal)                                                                                            
                                                                                                  
 dropout_10092 (Dropout)        (None, 96)           0           ['dense_10492[0][0]']            
                                                                                                  
 dropout_10093 (Dropout)        (None, 96)           0           ['dense_10493[0][0]']            
                                                                                                  
 dropout_10094 (Dropout)        (None, 96)           0           ['dense_10494[0][0]']            
                                                                                                  
 dropout_10095 (Dropout)        (None, 96)           0           ['bidirectional_12395[0][0]']    
                                                                                                  
 concatenate_2623 (Concatenate)  (None, 384)         0           ['dropout_10092[0][0]',          
                                                                  'dropout_10093[0][0]',          
                                                                  'dropout_10094[0][0]',          
                                                                  'dropout_10095[0][0]']          
                                                                                                  
 dense_10495 (Dense)            (None, 1)            385         ['concatenate_2623[0][0]']       
                                                                                                  
==================================================================================================
Total params: 24,819
Trainable params: 24,819
Non-trainable params: 0
__________________________________________________________________________________________________
…
 bidirectional_12413 (Bidirecti  (None, None, 10)    280         ['masking_12413[0][0]']          
 onal)                                                                                            
                                                                                                  
 bidirectional_12414 (Bidirecti  (None, None, 10)    280         ['masking_12414[0][0]']          
 onal)                                                                                            
                                                                                                  
 conv1d_4456 (Conv1D)           (None, 24, 5)        95          ['masking_12415[0][0]']          
                                                                                                  
 lstm_17997 (LSTM)              (None, 5)            320         ['bidirectional_12412[0][0]']    
                                                                                                  
 lstm_17999 (LSTM)              (None, 5)            320         ['bidirectional_12413[0][0]']    
                                                                                                  
 lstm_18001 (LSTM)              (None, 5)            320         ['bidirectional_12414[0][0]']    
                                                                                                  
 conv1d_4457 (Conv1D)           (None, 24, 5)        155         ['conv1d_4456[0][0]']            
                                                                                                  
 dense_10512 (Dense)            (None, 96)           576         ['lstm_17997[0][0]']             
                                                                                                  
 dense_10513 (Dense)            (None, 96)           576         ['lstm_17999[0][0]']             
                                                                                                  
 dense_10514 (Dense)            (None, 96)           576         ['lstm_18001[0][0]']             
                                                                                                  
 bidirectional_12415 (Bidirecti  (None, 96)          20736       ['conv1d_4457[0][0]']            
 onal)                                                                                            
                                                                                                  
 dropout_10112 (Dropout)        (None, 96)           0           ['dense_10512[0][0]']            
                                                                                                  
 dropout_10113 (Dropout)        (None, 96)           0           ['dense_10513[0][0]']            
                                                                                                  
 dropout_10114 (Dropout)        (None, 96)           0           ['dense_10514[0][0]']            
                                                                                                  
 dropout_10115 (Dropout)        (None, 96)           0           ['bidirectional_12415[0][0]']    
                                                                                                  
 concatenate_2628 (Concatenate)  (None, 384)         0           ['dropout_10112[0][0]',          
                                                                  'dropout_10113[0][0]',          
                                                                  'dropout_10114[0][0]',          
                                                                  'dropout_10115[0][0]']          
                                                                                                  
 dense_10515 (Dense)            (None, 1)            385         ['concatenate_2628[0][0]']       
                                                                                                  
==================================================================================================
Total params: 24,899
Trainable params: 24,899
Non-trainable params: 0
__________________________________________________________________________________________________
…
 bidirectional_12433 (Bidirecti  (None, None, 10)    280         ['masking_12433[0][0]']          
 onal)                                                                                            
                                                                                                  
 bidirectional_12434 (Bidirecti  (None, None, 10)    280         ['masking_12434[0][0]']          
 onal)                                                                                            
                                                                                                  
 conv1d_4466 (Conv1D)           (None, 24, 5)        125         ['masking_12435[0][0]']          
                                                                                                  
 lstm_18032 (LSTM)              (None, 5)            320         ['bidirectional_12432[0][0]']    
                                                                                                  
 lstm_18034 (LSTM)              (None, 5)            320         ['bidirectional_12433[0][0]']    
                                                                                                  
 lstm_18036 (LSTM)              (None, 5)            320         ['bidirectional_12434[0][0]']    
                                                                                                  
 conv1d_4467 (Conv1D)           (None, 24, 5)        205         ['conv1d_4466[0][0]']            
                                                                                                  
 dense_10532 (Dense)            (None, 96)           576         ['lstm_18032[0][0]']             
                                                                                                  
 dense_10533 (Dense)            (None, 96)           576         ['lstm_18034[0][0]']             
                                                                                                  
 dense_10534 (Dense)            (None, 96)           576         ['lstm_18036[0][0]']             
                                                                                                  
 bidirectional_12435 (Bidirecti  (None, 96)          20736       ['conv1d_4467[0][0]']            
 onal)                                                                                            
                                                                                                  
 dropout_10132 (Dropout)        (None, 96)           0           ['dense_10532[0][0]']            
                                                                                                  
 dropout_10133 (Dropout)        (None, 96)           0           ['dense_10533[0][0]']            
                                                                                                  
 dropout_10134 (Dropout)        (None, 96)           0           ['dense_10534[0][0]']            
                                                                                                  
 dropout_10135 (Dropout)        (None, 96)           0           ['bidirectional_12435[0][0]']    
                                                                                                  
 concatenate_2633 (Concatenate)  (None, 384)         0           ['dropout_10132[0][0]',          
                                                                  'dropout_10133[0][0]',          
                                                                  'dropout_10134[0][0]',          
                                                                  'dropout_10135[0][0]']          
                                                                                                  
 dense_10535 (Dense)            (None, 1)            385         ['concatenate_2633[0][0]']       
                                                                                                  
==================================================================================================
Total params: 24,979
Trainable params: 24,979
Non-trainable params: 0
__________________________________________________________________________________________________
…
 bidirectional_12453 (Bidirecti  (None, None, 10)    280         ['masking_12453[0][0]']          
 onal)                                                                                            
                                                                                                  
 bidirectional_12454 (Bidirecti  (None, None, 10)    280         ['masking_12454[0][0]']          
 onal)                                                                                            
                                                                                                  
 conv1d_4476 (Conv1D)           (None, 24, 5)        65          ['masking_12455[0][0]']          
                                                                                                  
 lstm_18067 (LSTM)              (None, 5)            320         ['bidirectional_12452[0][0]']    
                                                                                                  
 lstm_18069 (LSTM)              (None, 5)            320         ['bidirectional_12453[0][0]']    
                                                                                                  
 lstm_18071 (LSTM)              (None, 5)            320         ['bidirectional_12454[0][0]']    
                                                                                                  
 conv1d_4477 (Conv1D)           (None, 24, 5)        105         ['conv1d_4476[0][0]']            
                                                                                                  
 dense_10552 (Dense)            (None, 128)          768         ['lstm_18067[0][0]']             
                                                                                                  
 dense_10553 (Dense)            (None, 128)          768         ['lstm_18069[0][0]']             
                                                                                                  
 dense_10554 (Dense)            (None, 128)          768         ['lstm_18071[0][0]']             
                                                                                                  
 bidirectional_12455 (Bidirecti  (None, 128)         35840       ['conv1d_4477[0][0]']            
 onal)                                                                                            
                                                                                                  
 dropout_10152 (Dropout)        (None, 128)          0           ['dense_10552[0][0]']            
                                                                                                  
 dropout_10153 (Dropout)        (None, 128)          0           ['dense_10553[0][0]']            
                                                                                                  
 dropout_10154 (Dropout)        (None, 128)          0           ['dense_10554[0][0]']            
                                                                                                  
 dropout_10155 (Dropout)        (None, 128)          0           ['bidirectional_12455[0][0]']    
                                                                                                  
 concatenate_2638 (Concatenate)  (None, 512)         0           ['dropout_10152[0][0]',          
                                                                  'dropout_10153[0][0]',          
                                                                  'dropout_10154[0][0]',          
                                                                  'dropout_10155[0][0]']          
                                                                                                  
 dense_10555 (Dense)            (None, 1)            513         ['concatenate_2638[0][0]']       
                                                                                                  
==================================================================================================
Total params: 40,627
Trainable params: 40,627
Non-trainable params: 0
__________________________________________________________________________________________________
…
 bidirectional_12473 (Bidirecti  (None, None, 10)    280         ['masking_12473[0][0]']          
 onal)                                                                                            
                                                                                                  
 bidirectional_12474 (Bidirecti  (None, None, 10)    280         ['masking_12474[0][0]']          
 onal)                                                                                            
                                                                                                  
 conv1d_4486 (Conv1D)           (None, 24, 5)        95          ['masking_12475[0][0]']          
                                                                                                  
 lstm_18102 (LSTM)              (None, 5)            320         ['bidirectional_12472[0][0]']    
                                                                                                  
 lstm_18104 (LSTM)              (None, 5)            320         ['bidirectional_12473[0][0]']    
                                                                                                  
 lstm_18106 (LSTM)              (None, 5)            320         ['bidirectional_12474[0][0]']    
                                                                                                  
 conv1d_4487 (Conv1D)           (None, 24, 5)        155         ['conv1d_4486[0][0]']            
                                                                                                  
 dense_10572 (Dense)            (None, 128)          768         ['lstm_18102[0][0]']             
                                                                                                  
 dense_10573 (Dense)            (None, 128)          768         ['lstm_18104[0][0]']             
                                                                                                  
 dense_10574 (Dense)            (None, 128)          768         ['lstm_18106[0][0]']             
                                                                                                  
 bidirectional_12475 (Bidirecti  (None, 128)         35840       ['conv1d_4487[0][0]']            
 onal)                                                                                            
                                                                                                  
 dropout_10172 (Dropout)        (None, 128)          0           ['dense_10572[0][0]']            
                                                                                                  
 dropout_10173 (Dropout)        (None, 128)          0           ['dense_10573[0][0]']            
                                                                                                  
 dropout_10174 (Dropout)        (None, 128)          0           ['dense_10574[0][0]']            
                                                                                                  
 dropout_10175 (Dropout)        (None, 128)          0           ['bidirectional_12475[0][0]']    
                                                                                                  
 concatenate_2643 (Concatenate)  (None, 512)         0           ['dropout_10172[0][0]',          
                                                                  'dropout_10173[0][0]',          
                                                                  'dropout_10174[0][0]',          
                                                                  'dropout_10175[0][0]']          
                                                                                                  
 dense_10575 (Dense)            (None, 1)            513         ['concatenate_2643[0][0]']       
                                                                                                  
==================================================================================================
Total params: 40,707
Trainable params: 40,707
Non-trainable params: 0
__________________________________________________________________________________________________
…
 bidirectional_12493 (Bidirecti  (None, None, 10)    280         ['masking_12493[0][0]']          
 onal)                                                                                            
                                                                                                  
 bidirectional_12494 (Bidirecti  (None, None, 10)    280         ['masking_12494[0][0]']          
 onal)                                                                                            
                                                                                                  
 conv1d_4496 (Conv1D)           (None, 24, 5)        125         ['masking_12495[0][0]']          
                                                                                                  
 lstm_18137 (LSTM)              (None, 5)            320         ['bidirectional_12492[0][0]']    
                                                                                                  
 lstm_18139 (LSTM)              (None, 5)            320         ['bidirectional_12493[0][0]']    
                                                                                                  
 lstm_18141 (LSTM)              (None, 5)            320         ['bidirectional_12494[0][0]']    
                                                                                                  
 conv1d_4497 (Conv1D)           (None, 24, 5)        205         ['conv1d_4496[0][0]']            
                                                                                                  
 dense_10592 (Dense)            (None, 128)          768         ['lstm_18137[0][0]']             
                                                                                                  
 dense_10593 (Dense)            (None, 128)          768         ['lstm_18139[0][0]']             
                                                                                                  
 dense_10594 (Dense)            (None, 128)          768         ['lstm_18141[0][0]']             
                                                                                                  
 bidirectional_12495 (Bidirecti  (None, 128)         35840       ['conv1d_4497[0][0]']            
 onal)                                                                                            
                                                                                                  
 dropout_10192 (Dropout)        (None, 128)          0           ['dense_10592[0][0]']            
                                                                                                  
 dropout_10193 (Dropout)        (None, 128)          0           ['dense_10593[0][0]']            
                                                                                                  
 dropout_10194 (Dropout)        (None, 128)          0           ['dense_10594[0][0]']            
                                                                                                  
 dropout_10195 (Dropout)        (None, 128)          0           ['bidirectional_12495[0][0]']    
                                                                                                  
 concatenate_2648 (Concatenate)  (None, 512)         0           ['dropout_10192[0][0]',          
                                                                  'dropout_10193[0][0]',          
                                                                  'dropout_10194[0][0]',          
                                                                  'dropout_10195[0][0]']          
                                                                                                  
 dense_10595 (Dense)            (None, 1)            513         ['concatenate_2648[0][0]']       
                                                                                                  
==================================================================================================
Total params: 40,787
Trainable params: 40,787
Non-trainable params: 0
__________________________________________________________________________________________________
…
