…
 bidirectional_5919 (Bidirectio  (None, None, 10)    280         ['masking_5919[0][0]']           
 nal)                                                                                             
                                                                                                  
 bidirectional_5920 (Bidirectio  (None, None, 10)    280         ['masking_5920[0][0]']           
 nal)                                                                                             
                                                                                                  
 conv1d_2024 (Conv1D)           (None, 25, 5)        1885        ['masking_5921[0][0]']           
                                                                                                  
 lstm_8525 (LSTM)               (None, 5)            320         ['bidirectional_5918[0][0]']     
                                                                                                  
 lstm_8527 (LSTM)               (None, 5)            320         ['bidirectional_5919[0][0]']     
                                                                                                  
 lstm_8529 (LSTM)               (None, 5)            320         ['bidirectional_5920[0][0]']     
                                                                                                  
 conv1d_2025 (Conv1D)           (None, 25, 5)        105         ['conv1d_2024[0][0]']            
                                                                                                  
 dense_5008 (Dense)             (None, 64)           384         ['lstm_8525[0][0]']              
                                                                                                  
 dense_5009 (Dense)             (None, 64)           384         ['lstm_8527[0][0]']              
                                                                                                  
 dense_5010 (Dense)             (None, 64)           384         ['lstm_8529[0][0]']              
                                                                                                  
 bidirectional_5921 (Bidirectio  (None, 64)          9728        ['conv1d_2025[0][0]']            
 nal)                                                                                             
                                                                                                  
 dropout_4768 (Dropout)         (None, 64)           0           ['dense_5008[0][0]']             
                                                                                                  
 dropout_4769 (Dropout)         (None, 64)           0           ['dense_5009[0][0]']             
                                                                                                  
 dropout_4770 (Dropout)         (None, 64)           0           ['dense_5010[0][0]']             
                                                                                                  
 dropout_4771 (Dropout)         (None, 64)           0           ['bidirectional_5921[0][0]']     
                                                                                                  
 concatenate_1252 (Concatenate)  (None, 256)         0           ['dropout_4768[0][0]',           
                                                                  'dropout_4769[0][0]',           
                                                                  'dropout_4770[0][0]',           
                                                                  'dropout_4771[0][0]']           
                                                                                                  
 dense_5011 (Dense)             (None, 1)            257         ['concatenate_1252[0][0]']       
                                                                                                  
==================================================================================================
Total params: 14,927
Trainable params: 14,927
Non-trainable params: 0
__________________________________________________________________________________________________
…
 bidirectional_5939 (Bidirectio  (None, None, 10)    280         ['masking_5939[0][0]']           
 nal)                                                                                             
                                                                                                  
 bidirectional_5940 (Bidirectio  (None, None, 10)    280         ['masking_5940[0][0]']           
 nal)                                                                                             
                                                                                                  
 conv1d_2034 (Conv1D)           (None, 25, 5)        2825        ['masking_5941[0][0]']           
                                                                                                  
 lstm_8560 (LSTM)               (None, 5)            320         ['bidirectional_5938[0][0]']     
                                                                                                  
 lstm_8562 (LSTM)               (None, 5)            320         ['bidirectional_5939[0][0]']     
                                                                                                  
 lstm_8564 (LSTM)               (None, 5)            320         ['bidirectional_5940[0][0]']     
                                                                                                  
 conv1d_2035 (Conv1D)           (None, 25, 5)        155         ['conv1d_2034[0][0]']            
                                                                                                  
 dense_5028 (Dense)             (None, 64)           384         ['lstm_8560[0][0]']              
                                                                                                  
 dense_5029 (Dense)             (None, 64)           384         ['lstm_8562[0][0]']              
                                                                                                  
 dense_5030 (Dense)             (None, 64)           384         ['lstm_8564[0][0]']              
                                                                                                  
 bidirectional_5941 (Bidirectio  (None, 64)          9728        ['conv1d_2035[0][0]']            
 nal)                                                                                             
                                                                                                  
 dropout_4788 (Dropout)         (None, 64)           0           ['dense_5028[0][0]']             
                                                                                                  
 dropout_4789 (Dropout)         (None, 64)           0           ['dense_5029[0][0]']             
                                                                                                  
 dropout_4790 (Dropout)         (None, 64)           0           ['dense_5030[0][0]']             
                                                                                                  
 dropout_4791 (Dropout)         (None, 64)           0           ['bidirectional_5941[0][0]']     
                                                                                                  
 concatenate_1257 (Concatenate)  (None, 256)         0           ['dropout_4788[0][0]',           
                                                                  'dropout_4789[0][0]',           
                                                                  'dropout_4790[0][0]',           
                                                                  'dropout_4791[0][0]']           
                                                                                                  
 dense_5031 (Dense)             (None, 1)            257         ['concatenate_1257[0][0]']       
                                                                                                  
==================================================================================================
Total params: 15,917
Trainable params: 15,917
Non-trainable params: 0
__________________________________________________________________________________________________
…
 bidirectional_5959 (Bidirectio  (None, None, 10)    280         ['masking_5959[0][0]']           
 nal)                                                                                             
                                                                                                  
 bidirectional_5960 (Bidirectio  (None, None, 10)    280         ['masking_5960[0][0]']           
 nal)                                                                                             
                                                                                                  
 conv1d_2044 (Conv1D)           (None, 25, 5)        3765        ['masking_5961[0][0]']           
                                                                                                  
 lstm_8595 (LSTM)               (None, 5)            320         ['bidirectional_5958[0][0]']     
                                                                                                  
 lstm_8597 (LSTM)               (None, 5)            320         ['bidirectional_5959[0][0]']     
                                                                                                  
 lstm_8599 (LSTM)               (None, 5)            320         ['bidirectional_5960[0][0]']     
                                                                                                  
 conv1d_2045 (Conv1D)           (None, 25, 5)        205         ['conv1d_2044[0][0]']            
                                                                                                  
 dense_5048 (Dense)             (None, 64)           384         ['lstm_8595[0][0]']              
                                                                                                  
 dense_5049 (Dense)             (None, 64)           384         ['lstm_8597[0][0]']              
                                                                                                  
 dense_5050 (Dense)             (None, 64)           384         ['lstm_8599[0][0]']              
                                                                                                  
 bidirectional_5961 (Bidirectio  (None, 64)          9728        ['conv1d_2045[0][0]']            
 nal)                                                                                             
                                                                                                  
 dropout_4808 (Dropout)         (None, 64)           0           ['dense_5048[0][0]']             
                                                                                                  
 dropout_4809 (Dropout)         (None, 64)           0           ['dense_5049[0][0]']             
                                                                                                  
 dropout_4810 (Dropout)         (None, 64)           0           ['dense_5050[0][0]']             
                                                                                                  
 dropout_4811 (Dropout)         (None, 64)           0           ['bidirectional_5961[0][0]']     
                                                                                                  
 concatenate_1262 (Concatenate)  (None, 256)         0           ['dropout_4808[0][0]',           
                                                                  'dropout_4809[0][0]',           
                                                                  'dropout_4810[0][0]',           
                                                                  'dropout_4811[0][0]']           
                                                                                                  
 dense_5051 (Dense)             (None, 1)            257         ['concatenate_1262[0][0]']       
                                                                                                  
==================================================================================================
Total params: 16,907
Trainable params: 16,907
Non-trainable params: 0
__________________________________________________________________________________________________
…
 bidirectional_5979 (Bidirectio  (None, None, 10)    280         ['masking_5979[0][0]']           
 nal)                                                                                             
                                                                                                  
 bidirectional_5980 (Bidirectio  (None, None, 10)    280         ['masking_5980[0][0]']           
 nal)                                                                                             
                                                                                                  
 conv1d_2054 (Conv1D)           (None, 25, 5)        1885        ['masking_5981[0][0]']           
                                                                                                  
 lstm_8630 (LSTM)               (None, 5)            320         ['bidirectional_5978[0][0]']     
                                                                                                  
 lstm_8632 (LSTM)               (None, 5)            320         ['bidirectional_5979[0][0]']     
                                                                                                  
 lstm_8634 (LSTM)               (None, 5)            320         ['bidirectional_5980[0][0]']     
                                                                                                  
 conv1d_2055 (Conv1D)           (None, 25, 5)        105         ['conv1d_2054[0][0]']            
                                                                                                  
 dense_5068 (Dense)             (None, 96)           576         ['lstm_8630[0][0]']              
                                                                                                  
 dense_5069 (Dense)             (None, 96)           576         ['lstm_8632[0][0]']              
                                                                                                  
 dense_5070 (Dense)             (None, 96)           576         ['lstm_8634[0][0]']              
                                                                                                  
 bidirectional_5981 (Bidirectio  (None, 96)          20736       ['conv1d_2055[0][0]']            
 nal)                                                                                             
                                                                                                  
 dropout_4828 (Dropout)         (None, 96)           0           ['dense_5068[0][0]']             
                                                                                                  
 dropout_4829 (Dropout)         (None, 96)           0           ['dense_5069[0][0]']             
                                                                                                  
 dropout_4830 (Dropout)         (None, 96)           0           ['dense_5070[0][0]']             
                                                                                                  
 dropout_4831 (Dropout)         (None, 96)           0           ['bidirectional_5981[0][0]']     
                                                                                                  
 concatenate_1267 (Concatenate)  (None, 384)         0           ['dropout_4828[0][0]',           
                                                                  'dropout_4829[0][0]',           
                                                                  'dropout_4830[0][0]',           
                                                                  'dropout_4831[0][0]']           
                                                                                                  
 dense_5071 (Dense)             (None, 1)            385         ['concatenate_1267[0][0]']       
                                                                                                  
==================================================================================================
Total params: 26,639
Trainable params: 26,639
Non-trainable params: 0
__________________________________________________________________________________________________
…
 bidirectional_5999 (Bidirectio  (None, None, 10)    280         ['masking_5999[0][0]']           
 nal)                                                                                             
                                                                                                  
 bidirectional_6000 (Bidirectio  (None, None, 10)    280         ['masking_6000[0][0]']           
 nal)                                                                                             
                                                                                                  
 conv1d_2064 (Conv1D)           (None, 25, 5)        2825        ['masking_6001[0][0]']           
                                                                                                  
 lstm_8665 (LSTM)               (None, 5)            320         ['bidirectional_5998[0][0]']     
                                                                                                  
 lstm_8667 (LSTM)               (None, 5)            320         ['bidirectional_5999[0][0]']     
                                                                                                  
 lstm_8669 (LSTM)               (None, 5)            320         ['bidirectional_6000[0][0]']     
                                                                                                  
 conv1d_2065 (Conv1D)           (None, 25, 5)        155         ['conv1d_2064[0][0]']            
                                                                                                  
 dense_5088 (Dense)             (None, 96)           576         ['lstm_8665[0][0]']              
                                                                                                  
 dense_5089 (Dense)             (None, 96)           576         ['lstm_8667[0][0]']              
                                                                                                  
 dense_5090 (Dense)             (None, 96)           576         ['lstm_8669[0][0]']              
                                                                                                  
 bidirectional_6001 (Bidirectio  (None, 96)          20736       ['conv1d_2065[0][0]']            
 nal)                                                                                             
                                                                                                  
 dropout_4848 (Dropout)         (None, 96)           0           ['dense_5088[0][0]']             
                                                                                                  
 dropout_4849 (Dropout)         (None, 96)           0           ['dense_5089[0][0]']             
                                                                                                  
 dropout_4850 (Dropout)         (None, 96)           0           ['dense_5090[0][0]']             
                                                                                                  
 dropout_4851 (Dropout)         (None, 96)           0           ['bidirectional_6001[0][0]']     
                                                                                                  
 concatenate_1272 (Concatenate)  (None, 384)         0           ['dropout_4848[0][0]',           
                                                                  'dropout_4849[0][0]',           
                                                                  'dropout_4850[0][0]',           
                                                                  'dropout_4851[0][0]']           
                                                                                                  
 dense_5091 (Dense)             (None, 1)            385         ['concatenate_1272[0][0]']       
                                                                                                  
==================================================================================================
Total params: 27,629
Trainable params: 27,629
Non-trainable params: 0
__________________________________________________________________________________________________
…
 bidirectional_6019 (Bidirectio  (None, None, 10)    280         ['masking_6019[0][0]']           
 nal)                                                                                             
                                                                                                  
 bidirectional_6020 (Bidirectio  (None, None, 10)    280         ['masking_6020[0][0]']           
 nal)                                                                                             
                                                                                                  
 conv1d_2074 (Conv1D)           (None, 25, 5)        3765        ['masking_6021[0][0]']           
                                                                                                  
 lstm_8700 (LSTM)               (None, 5)            320         ['bidirectional_6018[0][0]']     
                                                                                                  
 lstm_8702 (LSTM)               (None, 5)            320         ['bidirectional_6019[0][0]']     
                                                                                                  
 lstm_8704 (LSTM)               (None, 5)            320         ['bidirectional_6020[0][0]']     
                                                                                                  
 conv1d_2075 (Conv1D)           (None, 25, 5)        205         ['conv1d_2074[0][0]']            
                                                                                                  
 dense_5108 (Dense)             (None, 96)           576         ['lstm_8700[0][0]']              
                                                                                                  
 dense_5109 (Dense)             (None, 96)           576         ['lstm_8702[0][0]']              
                                                                                                  
 dense_5110 (Dense)             (None, 96)           576         ['lstm_8704[0][0]']              
                                                                                                  
 bidirectional_6021 (Bidirectio  (None, 96)          20736       ['conv1d_2075[0][0]']            
 nal)                                                                                             
                                                                                                  
 dropout_4868 (Dropout)         (None, 96)           0           ['dense_5108[0][0]']             
                                                                                                  
 dropout_4869 (Dropout)         (None, 96)           0           ['dense_5109[0][0]']             
                                                                                                  
 dropout_4870 (Dropout)         (None, 96)           0           ['dense_5110[0][0]']             
                                                                                                  
 dropout_4871 (Dropout)         (None, 96)           0           ['bidirectional_6021[0][0]']     
                                                                                                  
 concatenate_1277 (Concatenate)  (None, 384)         0           ['dropout_4868[0][0]',           
                                                                  'dropout_4869[0][0]',           
                                                                  'dropout_4870[0][0]',           
                                                                  'dropout_4871[0][0]']           
                                                                                                  
 dense_5111 (Dense)             (None, 1)            385         ['concatenate_1277[0][0]']       
                                                                                                  
==================================================================================================
Total params: 28,619
Trainable params: 28,619
Non-trainable params: 0
__________________________________________________________________________________________________
…
 bidirectional_6039 (Bidirectio  (None, None, 10)    280         ['masking_6039[0][0]']           
 nal)                                                                                             
                                                                                                  
 bidirectional_6040 (Bidirectio  (None, None, 10)    280         ['masking_6040[0][0]']           
 nal)                                                                                             
                                                                                                  
 conv1d_2084 (Conv1D)           (None, 25, 5)        1885        ['masking_6041[0][0]']           
                                                                                                  
 lstm_8735 (LSTM)               (None, 5)            320         ['bidirectional_6038[0][0]']     
                                                                                                  
 lstm_8737 (LSTM)               (None, 5)            320         ['bidirectional_6039[0][0]']     
                                                                                                  
 lstm_8739 (LSTM)               (None, 5)            320         ['bidirectional_6040[0][0]']     
                                                                                                  
 conv1d_2085 (Conv1D)           (None, 25, 5)        105         ['conv1d_2084[0][0]']            
                                                                                                  
 dense_5128 (Dense)             (None, 128)          768         ['lstm_8735[0][0]']              
                                                                                                  
 dense_5129 (Dense)             (None, 128)          768         ['lstm_8737[0][0]']              
                                                                                                  
 dense_5130 (Dense)             (None, 128)          768         ['lstm_8739[0][0]']              
                                                                                                  
 bidirectional_6041 (Bidirectio  (None, 128)         35840       ['conv1d_2085[0][0]']            
 nal)                                                                                             
                                                                                                  
 dropout_4888 (Dropout)         (None, 128)          0           ['dense_5128[0][0]']             
                                                                                                  
 dropout_4889 (Dropout)         (None, 128)          0           ['dense_5129[0][0]']             
                                                                                                  
 dropout_4890 (Dropout)         (None, 128)          0           ['dense_5130[0][0]']             
                                                                                                  
 dropout_4891 (Dropout)         (None, 128)          0           ['bidirectional_6041[0][0]']     
                                                                                                  
 concatenate_1282 (Concatenate)  (None, 512)         0           ['dropout_4888[0][0]',           
                                                                  'dropout_4889[0][0]',           
                                                                  'dropout_4890[0][0]',           
                                                                  'dropout_4891[0][0]']           
                                                                                                  
 dense_5131 (Dense)             (None, 1)            513         ['concatenate_1282[0][0]']       
                                                                                                  
==================================================================================================
Total params: 42,447
Trainable params: 42,447
Non-trainable params: 0
__________________________________________________________________________________________________
…
 bidirectional_6059 (Bidirectio  (None, None, 10)    280         ['masking_6059[0][0]']           
 nal)                                                                                             
                                                                                                  
 bidirectional_6060 (Bidirectio  (None, None, 10)    280         ['masking_6060[0][0]']           
 nal)                                                                                             
                                                                                                  
 conv1d_2094 (Conv1D)           (None, 25, 5)        2825        ['masking_6061[0][0]']           
                                                                                                  
 lstm_8770 (LSTM)               (None, 5)            320         ['bidirectional_6058[0][0]']     
                                                                                                  
 lstm_8772 (LSTM)               (None, 5)            320         ['bidirectional_6059[0][0]']     
                                                                                                  
 lstm_8774 (LSTM)               (None, 5)            320         ['bidirectional_6060[0][0]']     
                                                                                                  
 conv1d_2095 (Conv1D)           (None, 25, 5)        155         ['conv1d_2094[0][0]']            
                                                                                                  
 dense_5148 (Dense)             (None, 128)          768         ['lstm_8770[0][0]']              
                                                                                                  
 dense_5149 (Dense)             (None, 128)          768         ['lstm_8772[0][0]']              
                                                                                                  
 dense_5150 (Dense)             (None, 128)          768         ['lstm_8774[0][0]']              
                                                                                                  
 bidirectional_6061 (Bidirectio  (None, 128)         35840       ['conv1d_2095[0][0]']            
 nal)                                                                                             
                                                                                                  
 dropout_4908 (Dropout)         (None, 128)          0           ['dense_5148[0][0]']             
                                                                                                  
 dropout_4909 (Dropout)         (None, 128)          0           ['dense_5149[0][0]']             
                                                                                                  
 dropout_4910 (Dropout)         (None, 128)          0           ['dense_5150[0][0]']             
                                                                                                  
 dropout_4911 (Dropout)         (None, 128)          0           ['bidirectional_6061[0][0]']     
                                                                                                  
 concatenate_1287 (Concatenate)  (None, 512)         0           ['dropout_4908[0][0]',           
                                                                  'dropout_4909[0][0]',           
                                                                  'dropout_4910[0][0]',           
                                                                  'dropout_4911[0][0]']           
                                                                                                  
 dense_5151 (Dense)             (None, 1)            513         ['concatenate_1287[0][0]']       
                                                                                                  
==================================================================================================
Total params: 43,437
Trainable params: 43,437
Non-trainable params: 0
__________________________________________________________________________________________________
…
 bidirectional_6079 (Bidirectio  (None, None, 10)    280         ['masking_6079[0][0]']           
 nal)                                                                                             
                                                                                                  
 bidirectional_6080 (Bidirectio  (None, None, 10)    280         ['masking_6080[0][0]']           
 nal)                                                                                             
                                                                                                  
 conv1d_2104 (Conv1D)           (None, 25, 5)        3765        ['masking_6081[0][0]']           
                                                                                                  
 lstm_8805 (LSTM)               (None, 5)            320         ['bidirectional_6078[0][0]']     
                                                                                                  
 lstm_8807 (LSTM)               (None, 5)            320         ['bidirectional_6079[0][0]']     
                                                                                                  
 lstm_8809 (LSTM)               (None, 5)            320         ['bidirectional_6080[0][0]']     
                                                                                                  
 conv1d_2105 (Conv1D)           (None, 25, 5)        205         ['conv1d_2104[0][0]']            
                                                                                                  
 dense_5168 (Dense)             (None, 128)          768         ['lstm_8805[0][0]']              
                                                                                                  
 dense_5169 (Dense)             (None, 128)          768         ['lstm_8807[0][0]']              
                                                                                                  
 dense_5170 (Dense)             (None, 128)          768         ['lstm_8809[0][0]']              
                                                                                                  
 bidirectional_6081 (Bidirectio  (None, 128)         35840       ['conv1d_2105[0][0]']            
 nal)                                                                                             
                                                                                                  
 dropout_4928 (Dropout)         (None, 128)          0           ['dense_5168[0][0]']             
                                                                                                  
 dropout_4929 (Dropout)         (None, 128)          0           ['dense_5169[0][0]']             
                                                                                                  
 dropout_4930 (Dropout)         (None, 128)          0           ['dense_5170[0][0]']             
                                                                                                  
 dropout_4931 (Dropout)         (None, 128)          0           ['bidirectional_6081[0][0]']     
                                                                                                  
 concatenate_1292 (Concatenate)  (None, 512)         0           ['dropout_4928[0][0]',           
                                                                  'dropout_4929[0][0]',           
                                                                  'dropout_4930[0][0]',           
                                                                  'dropout_4931[0][0]']           
                                                                                                  
 dense_5171 (Dense)             (None, 1)            513         ['concatenate_1292[0][0]']       
                                                                                                  
==================================================================================================
Total params: 44,427
Trainable params: 44,427
Non-trainable params: 0
__________________________________________________________________________________________________
…
