…
 bidirectional_4897 (Bidirectio  (None, None, 10)    280         ['masking_4897[0][0]']           
 nal)                                                                                             
                                                                                                  
 bidirectional_4898 (Bidirectio  (None, None, 10)    280         ['masking_4898[0][0]']           
 nal)                                                                                             
                                                                                                  
 conv1d_1748 (Conv1D)           (None, 24, 5)        65          ['masking_4899[0][0]']           
                                                                                                  
 lstm_7079 (LSTM)               (None, 5)            320         ['bidirectional_4896[0][0]']     
                                                                                                  
 lstm_7081 (LSTM)               (None, 5)            320         ['bidirectional_4897[0][0]']     
                                                                                                  
 lstm_7083 (LSTM)               (None, 5)            320         ['bidirectional_4898[0][0]']     
                                                                                                  
 conv1d_1749 (Conv1D)           (None, 24, 5)        105         ['conv1d_1748[0][0]']            
                                                                                                  
 dense_4136 (Dense)             (None, 64)           384         ['lstm_7079[0][0]']              
                                                                                                  
 dense_4137 (Dense)             (None, 64)           384         ['lstm_7081[0][0]']              
                                                                                                  
 dense_4138 (Dense)             (None, 64)           384         ['lstm_7083[0][0]']              
                                                                                                  
 bidirectional_4899 (Bidirectio  (None, 64)          9728        ['conv1d_1749[0][0]']            
 nal)                                                                                             
                                                                                                  
 dropout_3976 (Dropout)         (None, 64)           0           ['dense_4136[0][0]']             
                                                                                                  
 dropout_3977 (Dropout)         (None, 64)           0           ['dense_4137[0][0]']             
                                                                                                  
 dropout_3978 (Dropout)         (None, 64)           0           ['dense_4138[0][0]']             
                                                                                                  
 dropout_3979 (Dropout)         (None, 64)           0           ['bidirectional_4899[0][0]']     
                                                                                                  
 concatenate_1034 (Concatenate)  (None, 256)         0           ['dropout_3976[0][0]',           
                                                                  'dropout_3977[0][0]',           
                                                                  'dropout_3978[0][0]',           
                                                                  'dropout_3979[0][0]']           
                                                                                                  
 dense_4139 (Dense)             (None, 1)            257         ['concatenate_1034[0][0]']       
                                                                                                  
==================================================================================================
Total params: 13,107
Trainable params: 13,107
Non-trainable params: 0
__________________________________________________________________________________________________
…
 bidirectional_4917 (Bidirectio  (None, None, 10)    280         ['masking_4917[0][0]']           
 nal)                                                                                             
                                                                                                  
 bidirectional_4918 (Bidirectio  (None, None, 10)    280         ['masking_4918[0][0]']           
 nal)                                                                                             
                                                                                                  
 conv1d_1758 (Conv1D)           (None, 24, 5)        95          ['masking_4919[0][0]']           
                                                                                                  
 lstm_7114 (LSTM)               (None, 5)            320         ['bidirectional_4916[0][0]']     
                                                                                                  
 lstm_7116 (LSTM)               (None, 5)            320         ['bidirectional_4917[0][0]']     
                                                                                                  
 lstm_7118 (LSTM)               (None, 5)            320         ['bidirectional_4918[0][0]']     
                                                                                                  
 conv1d_1759 (Conv1D)           (None, 24, 5)        155         ['conv1d_1758[0][0]']            
                                                                                                  
 dense_4156 (Dense)             (None, 64)           384         ['lstm_7114[0][0]']              
                                                                                                  
 dense_4157 (Dense)             (None, 64)           384         ['lstm_7116[0][0]']              
                                                                                                  
 dense_4158 (Dense)             (None, 64)           384         ['lstm_7118[0][0]']              
                                                                                                  
 bidirectional_4919 (Bidirectio  (None, 64)          9728        ['conv1d_1759[0][0]']            
 nal)                                                                                             
                                                                                                  
 dropout_3996 (Dropout)         (None, 64)           0           ['dense_4156[0][0]']             
                                                                                                  
 dropout_3997 (Dropout)         (None, 64)           0           ['dense_4157[0][0]']             
                                                                                                  
 dropout_3998 (Dropout)         (None, 64)           0           ['dense_4158[0][0]']             
                                                                                                  
 dropout_3999 (Dropout)         (None, 64)           0           ['bidirectional_4919[0][0]']     
                                                                                                  
 concatenate_1039 (Concatenate)  (None, 256)         0           ['dropout_3996[0][0]',           
                                                                  'dropout_3997[0][0]',           
                                                                  'dropout_3998[0][0]',           
                                                                  'dropout_3999[0][0]']           
                                                                                                  
 dense_4159 (Dense)             (None, 1)            257         ['concatenate_1039[0][0]']       
                                                                                                  
==================================================================================================
Total params: 13,187
Trainable params: 13,187
Non-trainable params: 0
__________________________________________________________________________________________________
…
 bidirectional_4937 (Bidirectio  (None, None, 10)    280         ['masking_4937[0][0]']           
 nal)                                                                                             
                                                                                                  
 bidirectional_4938 (Bidirectio  (None, None, 10)    280         ['masking_4938[0][0]']           
 nal)                                                                                             
                                                                                                  
 conv1d_1768 (Conv1D)           (None, 24, 5)        125         ['masking_4939[0][0]']           
                                                                                                  
 lstm_7149 (LSTM)               (None, 5)            320         ['bidirectional_4936[0][0]']     
                                                                                                  
 lstm_7151 (LSTM)               (None, 5)            320         ['bidirectional_4937[0][0]']     
                                                                                                  
 lstm_7153 (LSTM)               (None, 5)            320         ['bidirectional_4938[0][0]']     
                                                                                                  
 conv1d_1769 (Conv1D)           (None, 24, 5)        205         ['conv1d_1768[0][0]']            
                                                                                                  
 dense_4176 (Dense)             (None, 64)           384         ['lstm_7149[0][0]']              
                                                                                                  
 dense_4177 (Dense)             (None, 64)           384         ['lstm_7151[0][0]']              
                                                                                                  
 dense_4178 (Dense)             (None, 64)           384         ['lstm_7153[0][0]']              
                                                                                                  
 bidirectional_4939 (Bidirectio  (None, 64)          9728        ['conv1d_1769[0][0]']            
 nal)                                                                                             
                                                                                                  
 dropout_4016 (Dropout)         (None, 64)           0           ['dense_4176[0][0]']             
                                                                                                  
 dropout_4017 (Dropout)         (None, 64)           0           ['dense_4177[0][0]']             
                                                                                                  
 dropout_4018 (Dropout)         (None, 64)           0           ['dense_4178[0][0]']             
                                                                                                  
 dropout_4019 (Dropout)         (None, 64)           0           ['bidirectional_4939[0][0]']     
                                                                                                  
 concatenate_1044 (Concatenate)  (None, 256)         0           ['dropout_4016[0][0]',           
                                                                  'dropout_4017[0][0]',           
                                                                  'dropout_4018[0][0]',           
                                                                  'dropout_4019[0][0]']           
                                                                                                  
 dense_4179 (Dense)             (None, 1)            257         ['concatenate_1044[0][0]']       
                                                                                                  
==================================================================================================
Total params: 13,267
Trainable params: 13,267
Non-trainable params: 0
__________________________________________________________________________________________________
…
 bidirectional_4957 (Bidirectio  (None, None, 10)    280         ['masking_4957[0][0]']           
 nal)                                                                                             
                                                                                                  
 bidirectional_4958 (Bidirectio  (None, None, 10)    280         ['masking_4958[0][0]']           
 nal)                                                                                             
                                                                                                  
 conv1d_1778 (Conv1D)           (None, 24, 5)        65          ['masking_4959[0][0]']           
                                                                                                  
 lstm_7184 (LSTM)               (None, 5)            320         ['bidirectional_4956[0][0]']     
                                                                                                  
 lstm_7186 (LSTM)               (None, 5)            320         ['bidirectional_4957[0][0]']     
                                                                                                  
 lstm_7188 (LSTM)               (None, 5)            320         ['bidirectional_4958[0][0]']     
                                                                                                  
 conv1d_1779 (Conv1D)           (None, 24, 5)        105         ['conv1d_1778[0][0]']            
                                                                                                  
 dense_4196 (Dense)             (None, 96)           576         ['lstm_7184[0][0]']              
                                                                                                  
 dense_4197 (Dense)             (None, 96)           576         ['lstm_7186[0][0]']              
                                                                                                  
 dense_4198 (Dense)             (None, 96)           576         ['lstm_7188[0][0]']              
                                                                                                  
 bidirectional_4959 (Bidirectio  (None, 96)          20736       ['conv1d_1779[0][0]']            
 nal)                                                                                             
                                                                                                  
 dropout_4036 (Dropout)         (None, 96)           0           ['dense_4196[0][0]']             
                                                                                                  
 dropout_4037 (Dropout)         (None, 96)           0           ['dense_4197[0][0]']             
                                                                                                  
 dropout_4038 (Dropout)         (None, 96)           0           ['dense_4198[0][0]']             
                                                                                                  
 dropout_4039 (Dropout)         (None, 96)           0           ['bidirectional_4959[0][0]']     
                                                                                                  
 concatenate_1049 (Concatenate)  (None, 384)         0           ['dropout_4036[0][0]',           
                                                                  'dropout_4037[0][0]',           
                                                                  'dropout_4038[0][0]',           
                                                                  'dropout_4039[0][0]']           
                                                                                                  
 dense_4199 (Dense)             (None, 1)            385         ['concatenate_1049[0][0]']       
                                                                                                  
==================================================================================================
Total params: 24,819
Trainable params: 24,819
Non-trainable params: 0
__________________________________________________________________________________________________
…
 bidirectional_4977 (Bidirectio  (None, None, 10)    280         ['masking_4977[0][0]']           
 nal)                                                                                             
                                                                                                  
 bidirectional_4978 (Bidirectio  (None, None, 10)    280         ['masking_4978[0][0]']           
 nal)                                                                                             
                                                                                                  
 conv1d_1788 (Conv1D)           (None, 24, 5)        95          ['masking_4979[0][0]']           
                                                                                                  
 lstm_7219 (LSTM)               (None, 5)            320         ['bidirectional_4976[0][0]']     
                                                                                                  
 lstm_7221 (LSTM)               (None, 5)            320         ['bidirectional_4977[0][0]']     
                                                                                                  
 lstm_7223 (LSTM)               (None, 5)            320         ['bidirectional_4978[0][0]']     
                                                                                                  
 conv1d_1789 (Conv1D)           (None, 24, 5)        155         ['conv1d_1788[0][0]']            
                                                                                                  
 dense_4216 (Dense)             (None, 96)           576         ['lstm_7219[0][0]']              
                                                                                                  
 dense_4217 (Dense)             (None, 96)           576         ['lstm_7221[0][0]']              
                                                                                                  
 dense_4218 (Dense)             (None, 96)           576         ['lstm_7223[0][0]']              
                                                                                                  
 bidirectional_4979 (Bidirectio  (None, 96)          20736       ['conv1d_1789[0][0]']            
 nal)                                                                                             
                                                                                                  
 dropout_4056 (Dropout)         (None, 96)           0           ['dense_4216[0][0]']             
                                                                                                  
 dropout_4057 (Dropout)         (None, 96)           0           ['dense_4217[0][0]']             
                                                                                                  
 dropout_4058 (Dropout)         (None, 96)           0           ['dense_4218[0][0]']             
                                                                                                  
 dropout_4059 (Dropout)         (None, 96)           0           ['bidirectional_4979[0][0]']     
                                                                                                  
 concatenate_1054 (Concatenate)  (None, 384)         0           ['dropout_4056[0][0]',           
                                                                  'dropout_4057[0][0]',           
                                                                  'dropout_4058[0][0]',           
                                                                  'dropout_4059[0][0]']           
                                                                                                  
 dense_4219 (Dense)             (None, 1)            385         ['concatenate_1054[0][0]']       
                                                                                                  
==================================================================================================
Total params: 24,899
Trainable params: 24,899
Non-trainable params: 0
__________________________________________________________________________________________________
…
 bidirectional_4997 (Bidirectio  (None, None, 10)    280         ['masking_4997[0][0]']           
 nal)                                                                                             
                                                                                                  
 bidirectional_4998 (Bidirectio  (None, None, 10)    280         ['masking_4998[0][0]']           
 nal)                                                                                             
                                                                                                  
 conv1d_1798 (Conv1D)           (None, 24, 5)        125         ['masking_4999[0][0]']           
                                                                                                  
 lstm_7254 (LSTM)               (None, 5)            320         ['bidirectional_4996[0][0]']     
                                                                                                  
 lstm_7256 (LSTM)               (None, 5)            320         ['bidirectional_4997[0][0]']     
                                                                                                  
 lstm_7258 (LSTM)               (None, 5)            320         ['bidirectional_4998[0][0]']     
                                                                                                  
 conv1d_1799 (Conv1D)           (None, 24, 5)        205         ['conv1d_1798[0][0]']            
                                                                                                  
 dense_4236 (Dense)             (None, 96)           576         ['lstm_7254[0][0]']              
                                                                                                  
 dense_4237 (Dense)             (None, 96)           576         ['lstm_7256[0][0]']              
                                                                                                  
 dense_4238 (Dense)             (None, 96)           576         ['lstm_7258[0][0]']              
                                                                                                  
 bidirectional_4999 (Bidirectio  (None, 96)          20736       ['conv1d_1799[0][0]']            
 nal)                                                                                             
                                                                                                  
 dropout_4076 (Dropout)         (None, 96)           0           ['dense_4236[0][0]']             
                                                                                                  
 dropout_4077 (Dropout)         (None, 96)           0           ['dense_4237[0][0]']             
                                                                                                  
 dropout_4078 (Dropout)         (None, 96)           0           ['dense_4238[0][0]']             
                                                                                                  
 dropout_4079 (Dropout)         (None, 96)           0           ['bidirectional_4999[0][0]']     
                                                                                                  
 concatenate_1059 (Concatenate)  (None, 384)         0           ['dropout_4076[0][0]',           
                                                                  'dropout_4077[0][0]',           
                                                                  'dropout_4078[0][0]',           
                                                                  'dropout_4079[0][0]']           
                                                                                                  
 dense_4239 (Dense)             (None, 1)            385         ['concatenate_1059[0][0]']       
                                                                                                  
==================================================================================================
Total params: 24,979
Trainable params: 24,979
Non-trainable params: 0
__________________________________________________________________________________________________
…
 bidirectional_5017 (Bidirectio  (None, None, 10)    280         ['masking_5017[0][0]']           
 nal)                                                                                             
                                                                                                  
 bidirectional_5018 (Bidirectio  (None, None, 10)    280         ['masking_5018[0][0]']           
 nal)                                                                                             
                                                                                                  
 conv1d_1808 (Conv1D)           (None, 24, 5)        65          ['masking_5019[0][0]']           
                                                                                                  
 lstm_7289 (LSTM)               (None, 5)            320         ['bidirectional_5016[0][0]']     
                                                                                                  
 lstm_7291 (LSTM)               (None, 5)            320         ['bidirectional_5017[0][0]']     
                                                                                                  
 lstm_7293 (LSTM)               (None, 5)            320         ['bidirectional_5018[0][0]']     
                                                                                                  
 conv1d_1809 (Conv1D)           (None, 24, 5)        105         ['conv1d_1808[0][0]']            
                                                                                                  
 dense_4256 (Dense)             (None, 128)          768         ['lstm_7289[0][0]']              
                                                                                                  
 dense_4257 (Dense)             (None, 128)          768         ['lstm_7291[0][0]']              
                                                                                                  
 dense_4258 (Dense)             (None, 128)          768         ['lstm_7293[0][0]']              
                                                                                                  
 bidirectional_5019 (Bidirectio  (None, 128)         35840       ['conv1d_1809[0][0]']            
 nal)                                                                                             
                                                                                                  
 dropout_4096 (Dropout)         (None, 128)          0           ['dense_4256[0][0]']             
                                                                                                  
 dropout_4097 (Dropout)         (None, 128)          0           ['dense_4257[0][0]']             
                                                                                                  
 dropout_4098 (Dropout)         (None, 128)          0           ['dense_4258[0][0]']             
                                                                                                  
 dropout_4099 (Dropout)         (None, 128)          0           ['bidirectional_5019[0][0]']     
                                                                                                  
 concatenate_1064 (Concatenate)  (None, 512)         0           ['dropout_4096[0][0]',           
                                                                  'dropout_4097[0][0]',           
                                                                  'dropout_4098[0][0]',           
                                                                  'dropout_4099[0][0]']           
                                                                                                  
 dense_4259 (Dense)             (None, 1)            513         ['concatenate_1064[0][0]']       
                                                                                                  
==================================================================================================
Total params: 40,627
Trainable params: 40,627
Non-trainable params: 0
__________________________________________________________________________________________________
…
 bidirectional_5037 (Bidirectio  (None, None, 10)    280         ['masking_5037[0][0]']           
 nal)                                                                                             
                                                                                                  
 bidirectional_5038 (Bidirectio  (None, None, 10)    280         ['masking_5038[0][0]']           
 nal)                                                                                             
                                                                                                  
 conv1d_1818 (Conv1D)           (None, 24, 5)        95          ['masking_5039[0][0]']           
                                                                                                  
 lstm_7324 (LSTM)               (None, 5)            320         ['bidirectional_5036[0][0]']     
                                                                                                  
 lstm_7326 (LSTM)               (None, 5)            320         ['bidirectional_5037[0][0]']     
                                                                                                  
 lstm_7328 (LSTM)               (None, 5)            320         ['bidirectional_5038[0][0]']     
                                                                                                  
 conv1d_1819 (Conv1D)           (None, 24, 5)        155         ['conv1d_1818[0][0]']            
                                                                                                  
 dense_4276 (Dense)             (None, 128)          768         ['lstm_7324[0][0]']              
                                                                                                  
 dense_4277 (Dense)             (None, 128)          768         ['lstm_7326[0][0]']              
                                                                                                  
 dense_4278 (Dense)             (None, 128)          768         ['lstm_7328[0][0]']              
                                                                                                  
 bidirectional_5039 (Bidirectio  (None, 128)         35840       ['conv1d_1819[0][0]']            
 nal)                                                                                             
                                                                                                  
 dropout_4116 (Dropout)         (None, 128)          0           ['dense_4276[0][0]']             
                                                                                                  
 dropout_4117 (Dropout)         (None, 128)          0           ['dense_4277[0][0]']             
                                                                                                  
 dropout_4118 (Dropout)         (None, 128)          0           ['dense_4278[0][0]']             
                                                                                                  
 dropout_4119 (Dropout)         (None, 128)          0           ['bidirectional_5039[0][0]']     
                                                                                                  
 concatenate_1069 (Concatenate)  (None, 512)         0           ['dropout_4116[0][0]',           
                                                                  'dropout_4117[0][0]',           
                                                                  'dropout_4118[0][0]',           
                                                                  'dropout_4119[0][0]']           
                                                                                                  
 dense_4279 (Dense)             (None, 1)            513         ['concatenate_1069[0][0]']       
                                                                                                  
==================================================================================================
Total params: 40,707
Trainable params: 40,707
Non-trainable params: 0
__________________________________________________________________________________________________
…
 bidirectional_5057 (Bidirectio  (None, None, 10)    280         ['masking_5057[0][0]']           
 nal)                                                                                             
                                                                                                  
 bidirectional_5058 (Bidirectio  (None, None, 10)    280         ['masking_5058[0][0]']           
 nal)                                                                                             
                                                                                                  
 conv1d_1828 (Conv1D)           (None, 24, 5)        125         ['masking_5059[0][0]']           
                                                                                                  
 lstm_7359 (LSTM)               (None, 5)            320         ['bidirectional_5056[0][0]']     
                                                                                                  
 lstm_7361 (LSTM)               (None, 5)            320         ['bidirectional_5057[0][0]']     
                                                                                                  
 lstm_7363 (LSTM)               (None, 5)            320         ['bidirectional_5058[0][0]']     
                                                                                                  
 conv1d_1829 (Conv1D)           (None, 24, 5)        205         ['conv1d_1828[0][0]']            
                                                                                                  
 dense_4296 (Dense)             (None, 128)          768         ['lstm_7359[0][0]']              
                                                                                                  
 dense_4297 (Dense)             (None, 128)          768         ['lstm_7361[0][0]']              
                                                                                                  
 dense_4298 (Dense)             (None, 128)          768         ['lstm_7363[0][0]']              
                                                                                                  
 bidirectional_5059 (Bidirectio  (None, 128)         35840       ['conv1d_1829[0][0]']            
 nal)                                                                                             
                                                                                                  
 dropout_4136 (Dropout)         (None, 128)          0           ['dense_4296[0][0]']             
                                                                                                  
 dropout_4137 (Dropout)         (None, 128)          0           ['dense_4297[0][0]']             
                                                                                                  
 dropout_4138 (Dropout)         (None, 128)          0           ['dense_4298[0][0]']             
                                                                                                  
 dropout_4139 (Dropout)         (None, 128)          0           ['bidirectional_5059[0][0]']     
                                                                                                  
 concatenate_1074 (Concatenate)  (None, 512)         0           ['dropout_4136[0][0]',           
                                                                  'dropout_4137[0][0]',           
                                                                  'dropout_4138[0][0]',           
                                                                  'dropout_4139[0][0]']           
                                                                                                  
 dense_4299 (Dense)             (None, 1)            513         ['concatenate_1074[0][0]']       
                                                                                                  
==================================================================================================
Total params: 40,787
Trainable params: 40,787
Non-trainable params: 0
__________________________________________________________________________________________________
…
