…
 bidirectional_6103 (Bidirectio  (None, None, 10)    280         ['masking_6103[0][0]']           
 nal)                                                                                             
                                                                                                  
 bidirectional_6104 (Bidirectio  (None, None, 10)    280         ['masking_6104[0][0]']           
 nal)                                                                                             
                                                                                                  
 conv1d_2116 (Conv1D)           (None, 25, 5)        1885        ['masking_6105[0][0]']           
                                                                                                  
 lstm_8847 (LSTM)               (None, 5)            320         ['bidirectional_6102[0][0]']     
                                                                                                  
 lstm_8849 (LSTM)               (None, 5)            320         ['bidirectional_6103[0][0]']     
                                                                                                  
 lstm_8851 (LSTM)               (None, 5)            320         ['bidirectional_6104[0][0]']     
                                                                                                  
 conv1d_2117 (Conv1D)           (None, 25, 5)        105         ['conv1d_2116[0][0]']            
                                                                                                  
 dense_5192 (Dense)             (None, 64)           384         ['lstm_8847[0][0]']              
                                                                                                  
 dense_5193 (Dense)             (None, 64)           384         ['lstm_8849[0][0]']              
                                                                                                  
 dense_5194 (Dense)             (None, 64)           384         ['lstm_8851[0][0]']              
                                                                                                  
 bidirectional_6105 (Bidirectio  (None, 64)          9728        ['conv1d_2117[0][0]']            
 nal)                                                                                             
                                                                                                  
 dropout_4952 (Dropout)         (None, 64)           0           ['dense_5192[0][0]']             
                                                                                                  
 dropout_4953 (Dropout)         (None, 64)           0           ['dense_5193[0][0]']             
                                                                                                  
 dropout_4954 (Dropout)         (None, 64)           0           ['dense_5194[0][0]']             
                                                                                                  
 dropout_4955 (Dropout)         (None, 64)           0           ['bidirectional_6105[0][0]']     
                                                                                                  
 concatenate_1298 (Concatenate)  (None, 256)         0           ['dropout_4952[0][0]',           
                                                                  'dropout_4953[0][0]',           
                                                                  'dropout_4954[0][0]',           
                                                                  'dropout_4955[0][0]']           
                                                                                                  
 dense_5195 (Dense)             (None, 1)            257         ['concatenate_1298[0][0]']       
                                                                                                  
==================================================================================================
Total params: 14,927
Trainable params: 14,927
Non-trainable params: 0
__________________________________________________________________________________________________
…
 bidirectional_6123 (Bidirectio  (None, None, 10)    280         ['masking_6123[0][0]']           
 nal)                                                                                             
                                                                                                  
 bidirectional_6124 (Bidirectio  (None, None, 10)    280         ['masking_6124[0][0]']           
 nal)                                                                                             
                                                                                                  
 conv1d_2126 (Conv1D)           (None, 25, 5)        2825        ['masking_6125[0][0]']           
                                                                                                  
 lstm_8882 (LSTM)               (None, 5)            320         ['bidirectional_6122[0][0]']     
                                                                                                  
 lstm_8884 (LSTM)               (None, 5)            320         ['bidirectional_6123[0][0]']     
                                                                                                  
 lstm_8886 (LSTM)               (None, 5)            320         ['bidirectional_6124[0][0]']     
                                                                                                  
 conv1d_2127 (Conv1D)           (None, 25, 5)        155         ['conv1d_2126[0][0]']            
                                                                                                  
 dense_5212 (Dense)             (None, 64)           384         ['lstm_8882[0][0]']              
                                                                                                  
 dense_5213 (Dense)             (None, 64)           384         ['lstm_8884[0][0]']              
                                                                                                  
 dense_5214 (Dense)             (None, 64)           384         ['lstm_8886[0][0]']              
                                                                                                  
 bidirectional_6125 (Bidirectio  (None, 64)          9728        ['conv1d_2127[0][0]']            
 nal)                                                                                             
                                                                                                  
 dropout_4972 (Dropout)         (None, 64)           0           ['dense_5212[0][0]']             
                                                                                                  
 dropout_4973 (Dropout)         (None, 64)           0           ['dense_5213[0][0]']             
                                                                                                  
 dropout_4974 (Dropout)         (None, 64)           0           ['dense_5214[0][0]']             
                                                                                                  
 dropout_4975 (Dropout)         (None, 64)           0           ['bidirectional_6125[0][0]']     
                                                                                                  
 concatenate_1303 (Concatenate)  (None, 256)         0           ['dropout_4972[0][0]',           
                                                                  'dropout_4973[0][0]',           
                                                                  'dropout_4974[0][0]',           
                                                                  'dropout_4975[0][0]']           
                                                                                                  
 dense_5215 (Dense)             (None, 1)            257         ['concatenate_1303[0][0]']       
                                                                                                  
==================================================================================================
Total params: 15,917
Trainable params: 15,917
Non-trainable params: 0
__________________________________________________________________________________________________
…
 bidirectional_6143 (Bidirectio  (None, None, 10)    280         ['masking_6143[0][0]']           
 nal)                                                                                             
                                                                                                  
 bidirectional_6144 (Bidirectio  (None, None, 10)    280         ['masking_6144[0][0]']           
 nal)                                                                                             
                                                                                                  
 conv1d_2136 (Conv1D)           (None, 25, 5)        3765        ['masking_6145[0][0]']           
                                                                                                  
 lstm_8917 (LSTM)               (None, 5)            320         ['bidirectional_6142[0][0]']     
                                                                                                  
 lstm_8919 (LSTM)               (None, 5)            320         ['bidirectional_6143[0][0]']     
                                                                                                  
 lstm_8921 (LSTM)               (None, 5)            320         ['bidirectional_6144[0][0]']     
                                                                                                  
 conv1d_2137 (Conv1D)           (None, 25, 5)        205         ['conv1d_2136[0][0]']            
                                                                                                  
 dense_5232 (Dense)             (None, 64)           384         ['lstm_8917[0][0]']              
                                                                                                  
 dense_5233 (Dense)             (None, 64)           384         ['lstm_8919[0][0]']              
                                                                                                  
 dense_5234 (Dense)             (None, 64)           384         ['lstm_8921[0][0]']              
                                                                                                  
 bidirectional_6145 (Bidirectio  (None, 64)          9728        ['conv1d_2137[0][0]']            
 nal)                                                                                             
                                                                                                  
 dropout_4992 (Dropout)         (None, 64)           0           ['dense_5232[0][0]']             
                                                                                                  
 dropout_4993 (Dropout)         (None, 64)           0           ['dense_5233[0][0]']             
                                                                                                  
 dropout_4994 (Dropout)         (None, 64)           0           ['dense_5234[0][0]']             
                                                                                                  
 dropout_4995 (Dropout)         (None, 64)           0           ['bidirectional_6145[0][0]']     
                                                                                                  
 concatenate_1308 (Concatenate)  (None, 256)         0           ['dropout_4992[0][0]',           
                                                                  'dropout_4993[0][0]',           
                                                                  'dropout_4994[0][0]',           
                                                                  'dropout_4995[0][0]']           
                                                                                                  
 dense_5235 (Dense)             (None, 1)            257         ['concatenate_1308[0][0]']       
                                                                                                  
==================================================================================================
Total params: 16,907
Trainable params: 16,907
Non-trainable params: 0
__________________________________________________________________________________________________
…
 bidirectional_6163 (Bidirectio  (None, None, 10)    280         ['masking_6163[0][0]']           
 nal)                                                                                             
                                                                                                  
 bidirectional_6164 (Bidirectio  (None, None, 10)    280         ['masking_6164[0][0]']           
 nal)                                                                                             
                                                                                                  
 conv1d_2146 (Conv1D)           (None, 25, 5)        1885        ['masking_6165[0][0]']           
                                                                                                  
 lstm_8952 (LSTM)               (None, 5)            320         ['bidirectional_6162[0][0]']     
                                                                                                  
 lstm_8954 (LSTM)               (None, 5)            320         ['bidirectional_6163[0][0]']     
                                                                                                  
 lstm_8956 (LSTM)               (None, 5)            320         ['bidirectional_6164[0][0]']     
                                                                                                  
 conv1d_2147 (Conv1D)           (None, 25, 5)        105         ['conv1d_2146[0][0]']            
                                                                                                  
 dense_5252 (Dense)             (None, 96)           576         ['lstm_8952[0][0]']              
                                                                                                  
 dense_5253 (Dense)             (None, 96)           576         ['lstm_8954[0][0]']              
                                                                                                  
 dense_5254 (Dense)             (None, 96)           576         ['lstm_8956[0][0]']              
                                                                                                  
 bidirectional_6165 (Bidirectio  (None, 96)          20736       ['conv1d_2147[0][0]']            
 nal)                                                                                             
                                                                                                  
 dropout_5012 (Dropout)         (None, 96)           0           ['dense_5252[0][0]']             
                                                                                                  
 dropout_5013 (Dropout)         (None, 96)           0           ['dense_5253[0][0]']             
                                                                                                  
 dropout_5014 (Dropout)         (None, 96)           0           ['dense_5254[0][0]']             
                                                                                                  
 dropout_5015 (Dropout)         (None, 96)           0           ['bidirectional_6165[0][0]']     
                                                                                                  
 concatenate_1313 (Concatenate)  (None, 384)         0           ['dropout_5012[0][0]',           
                                                                  'dropout_5013[0][0]',           
                                                                  'dropout_5014[0][0]',           
                                                                  'dropout_5015[0][0]']           
                                                                                                  
 dense_5255 (Dense)             (None, 1)            385         ['concatenate_1313[0][0]']       
                                                                                                  
==================================================================================================
Total params: 26,639
Trainable params: 26,639
Non-trainable params: 0
__________________________________________________________________________________________________
…
 bidirectional_6183 (Bidirectio  (None, None, 10)    280         ['masking_6183[0][0]']           
 nal)                                                                                             
                                                                                                  
 bidirectional_6184 (Bidirectio  (None, None, 10)    280         ['masking_6184[0][0]']           
 nal)                                                                                             
                                                                                                  
 conv1d_2156 (Conv1D)           (None, 25, 5)        2825        ['masking_6185[0][0]']           
                                                                                                  
 lstm_8987 (LSTM)               (None, 5)            320         ['bidirectional_6182[0][0]']     
                                                                                                  
 lstm_8989 (LSTM)               (None, 5)            320         ['bidirectional_6183[0][0]']     
                                                                                                  
 lstm_8991 (LSTM)               (None, 5)            320         ['bidirectional_6184[0][0]']     
                                                                                                  
 conv1d_2157 (Conv1D)           (None, 25, 5)        155         ['conv1d_2156[0][0]']            
                                                                                                  
 dense_5272 (Dense)             (None, 96)           576         ['lstm_8987[0][0]']              
                                                                                                  
 dense_5273 (Dense)             (None, 96)           576         ['lstm_8989[0][0]']              
                                                                                                  
 dense_5274 (Dense)             (None, 96)           576         ['lstm_8991[0][0]']              
                                                                                                  
 bidirectional_6185 (Bidirectio  (None, 96)          20736       ['conv1d_2157[0][0]']            
 nal)                                                                                             
                                                                                                  
 dropout_5032 (Dropout)         (None, 96)           0           ['dense_5272[0][0]']             
                                                                                                  
 dropout_5033 (Dropout)         (None, 96)           0           ['dense_5273[0][0]']             
                                                                                                  
 dropout_5034 (Dropout)         (None, 96)           0           ['dense_5274[0][0]']             
                                                                                                  
 dropout_5035 (Dropout)         (None, 96)           0           ['bidirectional_6185[0][0]']     
                                                                                                  
 concatenate_1318 (Concatenate)  (None, 384)         0           ['dropout_5032[0][0]',           
                                                                  'dropout_5033[0][0]',           
                                                                  'dropout_5034[0][0]',           
                                                                  'dropout_5035[0][0]']           
                                                                                                  
 dense_5275 (Dense)             (None, 1)            385         ['concatenate_1318[0][0]']       
                                                                                                  
==================================================================================================
Total params: 27,629
Trainable params: 27,629
Non-trainable params: 0
__________________________________________________________________________________________________
…
 bidirectional_6203 (Bidirectio  (None, None, 10)    280         ['masking_6203[0][0]']           
 nal)                                                                                             
                                                                                                  
 bidirectional_6204 (Bidirectio  (None, None, 10)    280         ['masking_6204[0][0]']           
 nal)                                                                                             
                                                                                                  
 conv1d_2166 (Conv1D)           (None, 25, 5)        3765        ['masking_6205[0][0]']           
                                                                                                  
 lstm_9022 (LSTM)               (None, 5)            320         ['bidirectional_6202[0][0]']     
                                                                                                  
 lstm_9024 (LSTM)               (None, 5)            320         ['bidirectional_6203[0][0]']     
                                                                                                  
 lstm_9026 (LSTM)               (None, 5)            320         ['bidirectional_6204[0][0]']     
                                                                                                  
 conv1d_2167 (Conv1D)           (None, 25, 5)        205         ['conv1d_2166[0][0]']            
                                                                                                  
 dense_5292 (Dense)             (None, 96)           576         ['lstm_9022[0][0]']              
                                                                                                  
 dense_5293 (Dense)             (None, 96)           576         ['lstm_9024[0][0]']              
                                                                                                  
 dense_5294 (Dense)             (None, 96)           576         ['lstm_9026[0][0]']              
                                                                                                  
 bidirectional_6205 (Bidirectio  (None, 96)          20736       ['conv1d_2167[0][0]']            
 nal)                                                                                             
                                                                                                  
 dropout_5052 (Dropout)         (None, 96)           0           ['dense_5292[0][0]']             
                                                                                                  
 dropout_5053 (Dropout)         (None, 96)           0           ['dense_5293[0][0]']             
                                                                                                  
 dropout_5054 (Dropout)         (None, 96)           0           ['dense_5294[0][0]']             
                                                                                                  
 dropout_5055 (Dropout)         (None, 96)           0           ['bidirectional_6205[0][0]']     
                                                                                                  
 concatenate_1323 (Concatenate)  (None, 384)         0           ['dropout_5052[0][0]',           
                                                                  'dropout_5053[0][0]',           
                                                                  'dropout_5054[0][0]',           
                                                                  'dropout_5055[0][0]']           
                                                                                                  
 dense_5295 (Dense)             (None, 1)            385         ['concatenate_1323[0][0]']       
                                                                                                  
==================================================================================================
Total params: 28,619
Trainable params: 28,619
Non-trainable params: 0
__________________________________________________________________________________________________
…
 bidirectional_6223 (Bidirectio  (None, None, 10)    280         ['masking_6223[0][0]']           
 nal)                                                                                             
                                                                                                  
 bidirectional_6224 (Bidirectio  (None, None, 10)    280         ['masking_6224[0][0]']           
 nal)                                                                                             
                                                                                                  
 conv1d_2176 (Conv1D)           (None, 25, 5)        1885        ['masking_6225[0][0]']           
                                                                                                  
 lstm_9057 (LSTM)               (None, 5)            320         ['bidirectional_6222[0][0]']     
                                                                                                  
 lstm_9059 (LSTM)               (None, 5)            320         ['bidirectional_6223[0][0]']     
                                                                                                  
 lstm_9061 (LSTM)               (None, 5)            320         ['bidirectional_6224[0][0]']     
                                                                                                  
 conv1d_2177 (Conv1D)           (None, 25, 5)        105         ['conv1d_2176[0][0]']            
                                                                                                  
 dense_5312 (Dense)             (None, 128)          768         ['lstm_9057[0][0]']              
                                                                                                  
 dense_5313 (Dense)             (None, 128)          768         ['lstm_9059[0][0]']              
                                                                                                  
 dense_5314 (Dense)             (None, 128)          768         ['lstm_9061[0][0]']              
                                                                                                  
 bidirectional_6225 (Bidirectio  (None, 128)         35840       ['conv1d_2177[0][0]']            
 nal)                                                                                             
                                                                                                  
 dropout_5072 (Dropout)         (None, 128)          0           ['dense_5312[0][0]']             
                                                                                                  
 dropout_5073 (Dropout)         (None, 128)          0           ['dense_5313[0][0]']             
                                                                                                  
 dropout_5074 (Dropout)         (None, 128)          0           ['dense_5314[0][0]']             
                                                                                                  
 dropout_5075 (Dropout)         (None, 128)          0           ['bidirectional_6225[0][0]']     
                                                                                                  
 concatenate_1328 (Concatenate)  (None, 512)         0           ['dropout_5072[0][0]',           
                                                                  'dropout_5073[0][0]',           
                                                                  'dropout_5074[0][0]',           
                                                                  'dropout_5075[0][0]']           
                                                                                                  
 dense_5315 (Dense)             (None, 1)            513         ['concatenate_1328[0][0]']       
                                                                                                  
==================================================================================================
Total params: 42,447
Trainable params: 42,447
Non-trainable params: 0
__________________________________________________________________________________________________
…
 bidirectional_6243 (Bidirectio  (None, None, 10)    280         ['masking_6243[0][0]']           
 nal)                                                                                             
                                                                                                  
 bidirectional_6244 (Bidirectio  (None, None, 10)    280         ['masking_6244[0][0]']           
 nal)                                                                                             
                                                                                                  
 conv1d_2186 (Conv1D)           (None, 25, 5)        2825        ['masking_6245[0][0]']           
                                                                                                  
 lstm_9092 (LSTM)               (None, 5)            320         ['bidirectional_6242[0][0]']     
                                                                                                  
 lstm_9094 (LSTM)               (None, 5)            320         ['bidirectional_6243[0][0]']     
                                                                                                  
 lstm_9096 (LSTM)               (None, 5)            320         ['bidirectional_6244[0][0]']     
                                                                                                  
 conv1d_2187 (Conv1D)           (None, 25, 5)        155         ['conv1d_2186[0][0]']            
                                                                                                  
 dense_5332 (Dense)             (None, 128)          768         ['lstm_9092[0][0]']              
                                                                                                  
 dense_5333 (Dense)             (None, 128)          768         ['lstm_9094[0][0]']              
                                                                                                  
 dense_5334 (Dense)             (None, 128)          768         ['lstm_9096[0][0]']              
                                                                                                  
 bidirectional_6245 (Bidirectio  (None, 128)         35840       ['conv1d_2187[0][0]']            
 nal)                                                                                             
                                                                                                  
 dropout_5092 (Dropout)         (None, 128)          0           ['dense_5332[0][0]']             
                                                                                                  
 dropout_5093 (Dropout)         (None, 128)          0           ['dense_5333[0][0]']             
                                                                                                  
 dropout_5094 (Dropout)         (None, 128)          0           ['dense_5334[0][0]']             
                                                                                                  
 dropout_5095 (Dropout)         (None, 128)          0           ['bidirectional_6245[0][0]']     
                                                                                                  
 concatenate_1333 (Concatenate)  (None, 512)         0           ['dropout_5092[0][0]',           
                                                                  'dropout_5093[0][0]',           
                                                                  'dropout_5094[0][0]',           
                                                                  'dropout_5095[0][0]']           
                                                                                                  
 dense_5335 (Dense)             (None, 1)            513         ['concatenate_1333[0][0]']       
                                                                                                  
==================================================================================================
Total params: 43,437
Trainable params: 43,437
Non-trainable params: 0
__________________________________________________________________________________________________
…
 bidirectional_6263 (Bidirectio  (None, None, 10)    280         ['masking_6263[0][0]']           
 nal)                                                                                             
                                                                                                  
 bidirectional_6264 (Bidirectio  (None, None, 10)    280         ['masking_6264[0][0]']           
 nal)                                                                                             
                                                                                                  
 conv1d_2196 (Conv1D)           (None, 25, 5)        3765        ['masking_6265[0][0]']           
                                                                                                  
 lstm_9127 (LSTM)               (None, 5)            320         ['bidirectional_6262[0][0]']     
                                                                                                  
 lstm_9129 (LSTM)               (None, 5)            320         ['bidirectional_6263[0][0]']     
                                                                                                  
 lstm_9131 (LSTM)               (None, 5)            320         ['bidirectional_6264[0][0]']     
                                                                                                  
 conv1d_2197 (Conv1D)           (None, 25, 5)        205         ['conv1d_2196[0][0]']            
                                                                                                  
 dense_5352 (Dense)             (None, 128)          768         ['lstm_9127[0][0]']              
                                                                                                  
 dense_5353 (Dense)             (None, 128)          768         ['lstm_9129[0][0]']              
                                                                                                  
 dense_5354 (Dense)             (None, 128)          768         ['lstm_9131[0][0]']              
                                                                                                  
 bidirectional_6265 (Bidirectio  (None, 128)         35840       ['conv1d_2197[0][0]']            
 nal)                                                                                             
                                                                                                  
 dropout_5112 (Dropout)         (None, 128)          0           ['dense_5352[0][0]']             
                                                                                                  
 dropout_5113 (Dropout)         (None, 128)          0           ['dense_5353[0][0]']             
                                                                                                  
 dropout_5114 (Dropout)         (None, 128)          0           ['dense_5354[0][0]']             
                                                                                                  
 dropout_5115 (Dropout)         (None, 128)          0           ['bidirectional_6265[0][0]']     
                                                                                                  
 concatenate_1338 (Concatenate)  (None, 512)         0           ['dropout_5112[0][0]',           
                                                                  'dropout_5113[0][0]',           
                                                                  'dropout_5114[0][0]',           
                                                                  'dropout_5115[0][0]']           
                                                                                                  
 dense_5355 (Dense)             (None, 1)            513         ['concatenate_1338[0][0]']       
                                                                                                  
==================================================================================================
Total params: 44,427
Trainable params: 44,427
Non-trainable params: 0
__________________________________________________________________________________________________
…
