…
 bidirectional_12149 (Bidirecti  (None, None, 10)    280         ['masking_12149[0][0]']          
 onal)                                                                                            
                                                                                                  
 bidirectional_12150 (Bidirecti  (None, None, 10)    280         ['masking_12150[0][0]']          
 onal)                                                                                            
                                                                                                  
 conv1d_4324 (Conv1D)           (None, 24, 5)        65          ['masking_12151[0][0]']          
                                                                                                  
 lstm_17535 (LSTM)              (None, 5)            320         ['bidirectional_12148[0][0]']    
                                                                                                  
 lstm_17537 (LSTM)              (None, 5)            320         ['bidirectional_12149[0][0]']    
                                                                                                  
 lstm_17539 (LSTM)              (None, 5)            320         ['bidirectional_12150[0][0]']    
                                                                                                  
 conv1d_4325 (Conv1D)           (None, 24, 5)        105         ['conv1d_4324[0][0]']            
                                                                                                  
 dense_10248 (Dense)            (None, 64)           384         ['lstm_17535[0][0]']             
                                                                                                  
 dense_10249 (Dense)            (None, 64)           384         ['lstm_17537[0][0]']             
                                                                                                  
 dense_10250 (Dense)            (None, 64)           384         ['lstm_17539[0][0]']             
                                                                                                  
 bidirectional_12151 (Bidirecti  (None, 64)          9728        ['conv1d_4325[0][0]']            
 onal)                                                                                            
                                                                                                  
 dropout_9848 (Dropout)         (None, 64)           0           ['dense_10248[0][0]']            
                                                                                                  
 dropout_9849 (Dropout)         (None, 64)           0           ['dense_10249[0][0]']            
                                                                                                  
 dropout_9850 (Dropout)         (None, 64)           0           ['dense_10250[0][0]']            
                                                                                                  
 dropout_9851 (Dropout)         (None, 64)           0           ['bidirectional_12151[0][0]']    
                                                                                                  
 concatenate_2562 (Concatenate)  (None, 256)         0           ['dropout_9848[0][0]',           
                                                                  'dropout_9849[0][0]',           
                                                                  'dropout_9850[0][0]',           
                                                                  'dropout_9851[0][0]']           
                                                                                                  
 dense_10251 (Dense)            (None, 1)            257         ['concatenate_2562[0][0]']       
                                                                                                  
==================================================================================================
Total params: 13,107
Trainable params: 13,107
Non-trainable params: 0
__________________________________________________________________________________________________
…
 bidirectional_12169 (Bidirecti  (None, None, 10)    280         ['masking_12169[0][0]']          
 onal)                                                                                            
                                                                                                  
 bidirectional_12170 (Bidirecti  (None, None, 10)    280         ['masking_12170[0][0]']          
 onal)                                                                                            
                                                                                                  
 conv1d_4334 (Conv1D)           (None, 24, 5)        95          ['masking_12171[0][0]']          
                                                                                                  
 lstm_17570 (LSTM)              (None, 5)            320         ['bidirectional_12168[0][0]']    
                                                                                                  
 lstm_17572 (LSTM)              (None, 5)            320         ['bidirectional_12169[0][0]']    
                                                                                                  
 lstm_17574 (LSTM)              (None, 5)            320         ['bidirectional_12170[0][0]']    
                                                                                                  
 conv1d_4335 (Conv1D)           (None, 24, 5)        155         ['conv1d_4334[0][0]']            
                                                                                                  
 dense_10268 (Dense)            (None, 64)           384         ['lstm_17570[0][0]']             
                                                                                                  
 dense_10269 (Dense)            (None, 64)           384         ['lstm_17572[0][0]']             
                                                                                                  
 dense_10270 (Dense)            (None, 64)           384         ['lstm_17574[0][0]']             
                                                                                                  
 bidirectional_12171 (Bidirecti  (None, 64)          9728        ['conv1d_4335[0][0]']            
 onal)                                                                                            
                                                                                                  
 dropout_9868 (Dropout)         (None, 64)           0           ['dense_10268[0][0]']            
                                                                                                  
 dropout_9869 (Dropout)         (None, 64)           0           ['dense_10269[0][0]']            
                                                                                                  
 dropout_9870 (Dropout)         (None, 64)           0           ['dense_10270[0][0]']            
                                                                                                  
 dropout_9871 (Dropout)         (None, 64)           0           ['bidirectional_12171[0][0]']    
                                                                                                  
 concatenate_2567 (Concatenate)  (None, 256)         0           ['dropout_9868[0][0]',           
                                                                  'dropout_9869[0][0]',           
                                                                  'dropout_9870[0][0]',           
                                                                  'dropout_9871[0][0]']           
                                                                                                  
 dense_10271 (Dense)            (None, 1)            257         ['concatenate_2567[0][0]']       
                                                                                                  
==================================================================================================
Total params: 13,187
Trainable params: 13,187
Non-trainable params: 0
__________________________________________________________________________________________________
…
 bidirectional_12189 (Bidirecti  (None, None, 10)    280         ['masking_12189[0][0]']          
 onal)                                                                                            
                                                                                                  
 bidirectional_12190 (Bidirecti  (None, None, 10)    280         ['masking_12190[0][0]']          
 onal)                                                                                            
                                                                                                  
 conv1d_4344 (Conv1D)           (None, 24, 5)        125         ['masking_12191[0][0]']          
                                                                                                  
 lstm_17605 (LSTM)              (None, 5)            320         ['bidirectional_12188[0][0]']    
                                                                                                  
 lstm_17607 (LSTM)              (None, 5)            320         ['bidirectional_12189[0][0]']    
                                                                                                  
 lstm_17609 (LSTM)              (None, 5)            320         ['bidirectional_12190[0][0]']    
                                                                                                  
 conv1d_4345 (Conv1D)           (None, 24, 5)        205         ['conv1d_4344[0][0]']            
                                                                                                  
 dense_10288 (Dense)            (None, 64)           384         ['lstm_17605[0][0]']             
                                                                                                  
 dense_10289 (Dense)            (None, 64)           384         ['lstm_17607[0][0]']             
                                                                                                  
 dense_10290 (Dense)            (None, 64)           384         ['lstm_17609[0][0]']             
                                                                                                  
 bidirectional_12191 (Bidirecti  (None, 64)          9728        ['conv1d_4345[0][0]']            
 onal)                                                                                            
                                                                                                  
 dropout_9888 (Dropout)         (None, 64)           0           ['dense_10288[0][0]']            
                                                                                                  
 dropout_9889 (Dropout)         (None, 64)           0           ['dense_10289[0][0]']            
                                                                                                  
 dropout_9890 (Dropout)         (None, 64)           0           ['dense_10290[0][0]']            
                                                                                                  
 dropout_9891 (Dropout)         (None, 64)           0           ['bidirectional_12191[0][0]']    
                                                                                                  
 concatenate_2572 (Concatenate)  (None, 256)         0           ['dropout_9888[0][0]',           
                                                                  'dropout_9889[0][0]',           
                                                                  'dropout_9890[0][0]',           
                                                                  'dropout_9891[0][0]']           
                                                                                                  
 dense_10291 (Dense)            (None, 1)            257         ['concatenate_2572[0][0]']       
                                                                                                  
==================================================================================================
Total params: 13,267
Trainable params: 13,267
Non-trainable params: 0
__________________________________________________________________________________________________
…
 bidirectional_12209 (Bidirecti  (None, None, 10)    280         ['masking_12209[0][0]']          
 onal)                                                                                            
                                                                                                  
 bidirectional_12210 (Bidirecti  (None, None, 10)    280         ['masking_12210[0][0]']          
 onal)                                                                                            
                                                                                                  
 conv1d_4354 (Conv1D)           (None, 24, 5)        65          ['masking_12211[0][0]']          
                                                                                                  
 lstm_17640 (LSTM)              (None, 5)            320         ['bidirectional_12208[0][0]']    
                                                                                                  
 lstm_17642 (LSTM)              (None, 5)            320         ['bidirectional_12209[0][0]']    
                                                                                                  
 lstm_17644 (LSTM)              (None, 5)            320         ['bidirectional_12210[0][0]']    
                                                                                                  
 conv1d_4355 (Conv1D)           (None, 24, 5)        105         ['conv1d_4354[0][0]']            
                                                                                                  
 dense_10308 (Dense)            (None, 96)           576         ['lstm_17640[0][0]']             
                                                                                                  
 dense_10309 (Dense)            (None, 96)           576         ['lstm_17642[0][0]']             
                                                                                                  
 dense_10310 (Dense)            (None, 96)           576         ['lstm_17644[0][0]']             
                                                                                                  
 bidirectional_12211 (Bidirecti  (None, 96)          20736       ['conv1d_4355[0][0]']            
 onal)                                                                                            
                                                                                                  
 dropout_9908 (Dropout)         (None, 96)           0           ['dense_10308[0][0]']            
                                                                                                  
 dropout_9909 (Dropout)         (None, 96)           0           ['dense_10309[0][0]']            
                                                                                                  
 dropout_9910 (Dropout)         (None, 96)           0           ['dense_10310[0][0]']            
                                                                                                  
 dropout_9911 (Dropout)         (None, 96)           0           ['bidirectional_12211[0][0]']    
                                                                                                  
 concatenate_2577 (Concatenate)  (None, 384)         0           ['dropout_9908[0][0]',           
                                                                  'dropout_9909[0][0]',           
                                                                  'dropout_9910[0][0]',           
                                                                  'dropout_9911[0][0]']           
                                                                                                  
 dense_10311 (Dense)            (None, 1)            385         ['concatenate_2577[0][0]']       
                                                                                                  
==================================================================================================
Total params: 24,819
Trainable params: 24,819
Non-trainable params: 0
__________________________________________________________________________________________________
…
 bidirectional_12229 (Bidirecti  (None, None, 10)    280         ['masking_12229[0][0]']          
 onal)                                                                                            
                                                                                                  
 bidirectional_12230 (Bidirecti  (None, None, 10)    280         ['masking_12230[0][0]']          
 onal)                                                                                            
                                                                                                  
 conv1d_4364 (Conv1D)           (None, 24, 5)        95          ['masking_12231[0][0]']          
                                                                                                  
 lstm_17675 (LSTM)              (None, 5)            320         ['bidirectional_12228[0][0]']    
                                                                                                  
 lstm_17677 (LSTM)              (None, 5)            320         ['bidirectional_12229[0][0]']    
                                                                                                  
 lstm_17679 (LSTM)              (None, 5)            320         ['bidirectional_12230[0][0]']    
                                                                                                  
 conv1d_4365 (Conv1D)           (None, 24, 5)        155         ['conv1d_4364[0][0]']            
                                                                                                  
 dense_10328 (Dense)            (None, 96)           576         ['lstm_17675[0][0]']             
                                                                                                  
 dense_10329 (Dense)            (None, 96)           576         ['lstm_17677[0][0]']             
                                                                                                  
 dense_10330 (Dense)            (None, 96)           576         ['lstm_17679[0][0]']             
                                                                                                  
 bidirectional_12231 (Bidirecti  (None, 96)          20736       ['conv1d_4365[0][0]']            
 onal)                                                                                            
                                                                                                  
 dropout_9928 (Dropout)         (None, 96)           0           ['dense_10328[0][0]']            
                                                                                                  
 dropout_9929 (Dropout)         (None, 96)           0           ['dense_10329[0][0]']            
                                                                                                  
 dropout_9930 (Dropout)         (None, 96)           0           ['dense_10330[0][0]']            
                                                                                                  
 dropout_9931 (Dropout)         (None, 96)           0           ['bidirectional_12231[0][0]']    
                                                                                                  
 concatenate_2582 (Concatenate)  (None, 384)         0           ['dropout_9928[0][0]',           
                                                                  'dropout_9929[0][0]',           
                                                                  'dropout_9930[0][0]',           
                                                                  'dropout_9931[0][0]']           
                                                                                                  
 dense_10331 (Dense)            (None, 1)            385         ['concatenate_2582[0][0]']       
                                                                                                  
==================================================================================================
Total params: 24,899
Trainable params: 24,899
Non-trainable params: 0
__________________________________________________________________________________________________
…
 bidirectional_12249 (Bidirecti  (None, None, 10)    280         ['masking_12249[0][0]']          
 onal)                                                                                            
                                                                                                  
 bidirectional_12250 (Bidirecti  (None, None, 10)    280         ['masking_12250[0][0]']          
 onal)                                                                                            
                                                                                                  
 conv1d_4374 (Conv1D)           (None, 24, 5)        125         ['masking_12251[0][0]']          
                                                                                                  
 lstm_17710 (LSTM)              (None, 5)            320         ['bidirectional_12248[0][0]']    
                                                                                                  
 lstm_17712 (LSTM)              (None, 5)            320         ['bidirectional_12249[0][0]']    
                                                                                                  
 lstm_17714 (LSTM)              (None, 5)            320         ['bidirectional_12250[0][0]']    
                                                                                                  
 conv1d_4375 (Conv1D)           (None, 24, 5)        205         ['conv1d_4374[0][0]']            
                                                                                                  
 dense_10348 (Dense)            (None, 96)           576         ['lstm_17710[0][0]']             
                                                                                                  
 dense_10349 (Dense)            (None, 96)           576         ['lstm_17712[0][0]']             
                                                                                                  
 dense_10350 (Dense)            (None, 96)           576         ['lstm_17714[0][0]']             
                                                                                                  
 bidirectional_12251 (Bidirecti  (None, 96)          20736       ['conv1d_4375[0][0]']            
 onal)                                                                                            
                                                                                                  
 dropout_9948 (Dropout)         (None, 96)           0           ['dense_10348[0][0]']            
                                                                                                  
 dropout_9949 (Dropout)         (None, 96)           0           ['dense_10349[0][0]']            
                                                                                                  
 dropout_9950 (Dropout)         (None, 96)           0           ['dense_10350[0][0]']            
                                                                                                  
 dropout_9951 (Dropout)         (None, 96)           0           ['bidirectional_12251[0][0]']    
                                                                                                  
 concatenate_2587 (Concatenate)  (None, 384)         0           ['dropout_9948[0][0]',           
                                                                  'dropout_9949[0][0]',           
                                                                  'dropout_9950[0][0]',           
                                                                  'dropout_9951[0][0]']           
                                                                                                  
 dense_10351 (Dense)            (None, 1)            385         ['concatenate_2587[0][0]']       
                                                                                                  
==================================================================================================
Total params: 24,979
Trainable params: 24,979
Non-trainable params: 0
__________________________________________________________________________________________________
…
 bidirectional_12269 (Bidirecti  (None, None, 10)    280         ['masking_12269[0][0]']          
 onal)                                                                                            
                                                                                                  
 bidirectional_12270 (Bidirecti  (None, None, 10)    280         ['masking_12270[0][0]']          
 onal)                                                                                            
                                                                                                  
 conv1d_4384 (Conv1D)           (None, 24, 5)        65          ['masking_12271[0][0]']          
                                                                                                  
 lstm_17745 (LSTM)              (None, 5)            320         ['bidirectional_12268[0][0]']    
                                                                                                  
 lstm_17747 (LSTM)              (None, 5)            320         ['bidirectional_12269[0][0]']    
                                                                                                  
 lstm_17749 (LSTM)              (None, 5)            320         ['bidirectional_12270[0][0]']    
                                                                                                  
 conv1d_4385 (Conv1D)           (None, 24, 5)        105         ['conv1d_4384[0][0]']            
                                                                                                  
 dense_10368 (Dense)            (None, 128)          768         ['lstm_17745[0][0]']             
                                                                                                  
 dense_10369 (Dense)            (None, 128)          768         ['lstm_17747[0][0]']             
                                                                                                  
 dense_10370 (Dense)            (None, 128)          768         ['lstm_17749[0][0]']             
                                                                                                  
 bidirectional_12271 (Bidirecti  (None, 128)         35840       ['conv1d_4385[0][0]']            
 onal)                                                                                            
                                                                                                  
 dropout_9968 (Dropout)         (None, 128)          0           ['dense_10368[0][0]']            
                                                                                                  
 dropout_9969 (Dropout)         (None, 128)          0           ['dense_10369[0][0]']            
                                                                                                  
 dropout_9970 (Dropout)         (None, 128)          0           ['dense_10370[0][0]']            
                                                                                                  
 dropout_9971 (Dropout)         (None, 128)          0           ['bidirectional_12271[0][0]']    
                                                                                                  
 concatenate_2592 (Concatenate)  (None, 512)         0           ['dropout_9968[0][0]',           
                                                                  'dropout_9969[0][0]',           
                                                                  'dropout_9970[0][0]',           
                                                                  'dropout_9971[0][0]']           
                                                                                                  
 dense_10371 (Dense)            (None, 1)            513         ['concatenate_2592[0][0]']       
                                                                                                  
==================================================================================================
Total params: 40,627
Trainable params: 40,627
Non-trainable params: 0
__________________________________________________________________________________________________
…
 bidirectional_12289 (Bidirecti  (None, None, 10)    280         ['masking_12289[0][0]']          
 onal)                                                                                            
                                                                                                  
 bidirectional_12290 (Bidirecti  (None, None, 10)    280         ['masking_12290[0][0]']          
 onal)                                                                                            
                                                                                                  
 conv1d_4394 (Conv1D)           (None, 24, 5)        95          ['masking_12291[0][0]']          
                                                                                                  
 lstm_17780 (LSTM)              (None, 5)            320         ['bidirectional_12288[0][0]']    
                                                                                                  
 lstm_17782 (LSTM)              (None, 5)            320         ['bidirectional_12289[0][0]']    
                                                                                                  
 lstm_17784 (LSTM)              (None, 5)            320         ['bidirectional_12290[0][0]']    
                                                                                                  
 conv1d_4395 (Conv1D)           (None, 24, 5)        155         ['conv1d_4394[0][0]']            
                                                                                                  
 dense_10388 (Dense)            (None, 128)          768         ['lstm_17780[0][0]']             
                                                                                                  
 dense_10389 (Dense)            (None, 128)          768         ['lstm_17782[0][0]']             
                                                                                                  
 dense_10390 (Dense)            (None, 128)          768         ['lstm_17784[0][0]']             
                                                                                                  
 bidirectional_12291 (Bidirecti  (None, 128)         35840       ['conv1d_4395[0][0]']            
 onal)                                                                                            
                                                                                                  
 dropout_9988 (Dropout)         (None, 128)          0           ['dense_10388[0][0]']            
                                                                                                  
 dropout_9989 (Dropout)         (None, 128)          0           ['dense_10389[0][0]']            
                                                                                                  
 dropout_9990 (Dropout)         (None, 128)          0           ['dense_10390[0][0]']            
                                                                                                  
 dropout_9991 (Dropout)         (None, 128)          0           ['bidirectional_12291[0][0]']    
                                                                                                  
 concatenate_2597 (Concatenate)  (None, 512)         0           ['dropout_9988[0][0]',           
                                                                  'dropout_9989[0][0]',           
                                                                  'dropout_9990[0][0]',           
                                                                  'dropout_9991[0][0]']           
                                                                                                  
 dense_10391 (Dense)            (None, 1)            513         ['concatenate_2597[0][0]']       
                                                                                                  
==================================================================================================
Total params: 40,707
Trainable params: 40,707
Non-trainable params: 0
__________________________________________________________________________________________________
…
 bidirectional_12309 (Bidirecti  (None, None, 10)    280         ['masking_12309[0][0]']          
 onal)                                                                                            
                                                                                                  
 bidirectional_12310 (Bidirecti  (None, None, 10)    280         ['masking_12310[0][0]']          
 onal)                                                                                            
                                                                                                  
 conv1d_4404 (Conv1D)           (None, 24, 5)        125         ['masking_12311[0][0]']          
                                                                                                  
 lstm_17815 (LSTM)              (None, 5)            320         ['bidirectional_12308[0][0]']    
                                                                                                  
 lstm_17817 (LSTM)              (None, 5)            320         ['bidirectional_12309[0][0]']    
                                                                                                  
 lstm_17819 (LSTM)              (None, 5)            320         ['bidirectional_12310[0][0]']    
                                                                                                  
 conv1d_4405 (Conv1D)           (None, 24, 5)        205         ['conv1d_4404[0][0]']            
                                                                                                  
 dense_10408 (Dense)            (None, 128)          768         ['lstm_17815[0][0]']             
                                                                                                  
 dense_10409 (Dense)            (None, 128)          768         ['lstm_17817[0][0]']             
                                                                                                  
 dense_10410 (Dense)            (None, 128)          768         ['lstm_17819[0][0]']             
                                                                                                  
 bidirectional_12311 (Bidirecti  (None, 128)         35840       ['conv1d_4405[0][0]']            
 onal)                                                                                            
                                                                                                  
 dropout_10008 (Dropout)        (None, 128)          0           ['dense_10408[0][0]']            
                                                                                                  
 dropout_10009 (Dropout)        (None, 128)          0           ['dense_10409[0][0]']            
                                                                                                  
 dropout_10010 (Dropout)        (None, 128)          0           ['dense_10410[0][0]']            
                                                                                                  
 dropout_10011 (Dropout)        (None, 128)          0           ['bidirectional_12311[0][0]']    
                                                                                                  
 concatenate_2602 (Concatenate)  (None, 512)         0           ['dropout_10008[0][0]',          
                                                                  'dropout_10009[0][0]',          
                                                                  'dropout_10010[0][0]',          
                                                                  'dropout_10011[0][0]']          
                                                                                                  
 dense_10411 (Dense)            (None, 1)            513         ['concatenate_2602[0][0]']       
                                                                                                  
==================================================================================================
Total params: 40,787
Trainable params: 40,787
Non-trainable params: 0
__________________________________________________________________________________________________
…
