…
 bidirectional_8275 (Bidirectio  (None, None, 10)    280         ['masking_8275[0][0]']           
 nal)                                                                                             
                                                                                                  
 bidirectional_8276 (Bidirectio  (None, None, 10)    280         ['masking_8276[0][0]']           
 nal)                                                                                             
                                                                                                  
 conv1d_2852 (Conv1D)           (None, 25, 5)        1885        ['masking_8277[0][0]']           
                                                                                                  
 lstm_11903 (LSTM)              (None, 5)            320         ['bidirectional_8274[0][0]']     
                                                                                                  
 lstm_11905 (LSTM)              (None, 5)            320         ['bidirectional_8275[0][0]']     
                                                                                                  
 lstm_11907 (LSTM)              (None, 5)            320         ['bidirectional_8276[0][0]']     
                                                                                                  
 conv1d_2853 (Conv1D)           (None, 25, 5)        105         ['conv1d_2852[0][0]']            
                                                                                                  
 dense_6984 (Dense)             (None, 64)           384         ['lstm_11903[0][0]']             
                                                                                                  
 dense_6985 (Dense)             (None, 64)           384         ['lstm_11905[0][0]']             
                                                                                                  
 dense_6986 (Dense)             (None, 64)           384         ['lstm_11907[0][0]']             
                                                                                                  
 bidirectional_8277 (Bidirectio  (None, 64)          9728        ['conv1d_2853[0][0]']            
 nal)                                                                                             
                                                                                                  
 dropout_6664 (Dropout)         (None, 64)           0           ['dense_6984[0][0]']             
                                                                                                  
 dropout_6665 (Dropout)         (None, 64)           0           ['dense_6985[0][0]']             
                                                                                                  
 dropout_6666 (Dropout)         (None, 64)           0           ['dense_6986[0][0]']             
                                                                                                  
 dropout_6667 (Dropout)         (None, 64)           0           ['bidirectional_8277[0][0]']     
                                                                                                  
 concatenate_1746 (Concatenate)  (None, 256)         0           ['dropout_6664[0][0]',           
                                                                  'dropout_6665[0][0]',           
                                                                  'dropout_6666[0][0]',           
                                                                  'dropout_6667[0][0]']           
                                                                                                  
 dense_6987 (Dense)             (None, 1)            257         ['concatenate_1746[0][0]']       
                                                                                                  
==================================================================================================
Total params: 14,927
Trainable params: 14,927
Non-trainable params: 0
__________________________________________________________________________________________________
…
 bidirectional_8295 (Bidirectio  (None, None, 10)    280         ['masking_8295[0][0]']           
 nal)                                                                                             
                                                                                                  
 bidirectional_8296 (Bidirectio  (None, None, 10)    280         ['masking_8296[0][0]']           
 nal)                                                                                             
                                                                                                  
 conv1d_2862 (Conv1D)           (None, 25, 5)        2825        ['masking_8297[0][0]']           
                                                                                                  
 lstm_11938 (LSTM)              (None, 5)            320         ['bidirectional_8294[0][0]']     
                                                                                                  
 lstm_11940 (LSTM)              (None, 5)            320         ['bidirectional_8295[0][0]']     
                                                                                                  
 lstm_11942 (LSTM)              (None, 5)            320         ['bidirectional_8296[0][0]']     
                                                                                                  
 conv1d_2863 (Conv1D)           (None, 25, 5)        155         ['conv1d_2862[0][0]']            
                                                                                                  
 dense_7004 (Dense)             (None, 64)           384         ['lstm_11938[0][0]']             
                                                                                                  
 dense_7005 (Dense)             (None, 64)           384         ['lstm_11940[0][0]']             
                                                                                                  
 dense_7006 (Dense)             (None, 64)           384         ['lstm_11942[0][0]']             
                                                                                                  
 bidirectional_8297 (Bidirectio  (None, 64)          9728        ['conv1d_2863[0][0]']            
 nal)                                                                                             
                                                                                                  
 dropout_6684 (Dropout)         (None, 64)           0           ['dense_7004[0][0]']             
                                                                                                  
 dropout_6685 (Dropout)         (None, 64)           0           ['dense_7005[0][0]']             
                                                                                                  
 dropout_6686 (Dropout)         (None, 64)           0           ['dense_7006[0][0]']             
                                                                                                  
 dropout_6687 (Dropout)         (None, 64)           0           ['bidirectional_8297[0][0]']     
                                                                                                  
 concatenate_1751 (Concatenate)  (None, 256)         0           ['dropout_6684[0][0]',           
                                                                  'dropout_6685[0][0]',           
                                                                  'dropout_6686[0][0]',           
                                                                  'dropout_6687[0][0]']           
                                                                                                  
 dense_7007 (Dense)             (None, 1)            257         ['concatenate_1751[0][0]']       
                                                                                                  
==================================================================================================
Total params: 15,917
Trainable params: 15,917
Non-trainable params: 0
__________________________________________________________________________________________________
…
 bidirectional_8315 (Bidirectio  (None, None, 10)    280         ['masking_8315[0][0]']           
 nal)                                                                                             
                                                                                                  
 bidirectional_8316 (Bidirectio  (None, None, 10)    280         ['masking_8316[0][0]']           
 nal)                                                                                             
                                                                                                  
 conv1d_2872 (Conv1D)           (None, 25, 5)        3765        ['masking_8317[0][0]']           
                                                                                                  
 lstm_11973 (LSTM)              (None, 5)            320         ['bidirectional_8314[0][0]']     
                                                                                                  
 lstm_11975 (LSTM)              (None, 5)            320         ['bidirectional_8315[0][0]']     
                                                                                                  
 lstm_11977 (LSTM)              (None, 5)            320         ['bidirectional_8316[0][0]']     
                                                                                                  
 conv1d_2873 (Conv1D)           (None, 25, 5)        205         ['conv1d_2872[0][0]']            
                                                                                                  
 dense_7024 (Dense)             (None, 64)           384         ['lstm_11973[0][0]']             
                                                                                                  
 dense_7025 (Dense)             (None, 64)           384         ['lstm_11975[0][0]']             
                                                                                                  
 dense_7026 (Dense)             (None, 64)           384         ['lstm_11977[0][0]']             
                                                                                                  
 bidirectional_8317 (Bidirectio  (None, 64)          9728        ['conv1d_2873[0][0]']            
 nal)                                                                                             
                                                                                                  
 dropout_6704 (Dropout)         (None, 64)           0           ['dense_7024[0][0]']             
                                                                                                  
 dropout_6705 (Dropout)         (None, 64)           0           ['dense_7025[0][0]']             
                                                                                                  
 dropout_6706 (Dropout)         (None, 64)           0           ['dense_7026[0][0]']             
                                                                                                  
 dropout_6707 (Dropout)         (None, 64)           0           ['bidirectional_8317[0][0]']     
                                                                                                  
 concatenate_1756 (Concatenate)  (None, 256)         0           ['dropout_6704[0][0]',           
                                                                  'dropout_6705[0][0]',           
                                                                  'dropout_6706[0][0]',           
                                                                  'dropout_6707[0][0]']           
                                                                                                  
 dense_7027 (Dense)             (None, 1)            257         ['concatenate_1756[0][0]']       
                                                                                                  
==================================================================================================
Total params: 16,907
Trainable params: 16,907
Non-trainable params: 0
__________________________________________________________________________________________________
…
 bidirectional_8335 (Bidirectio  (None, None, 10)    280         ['masking_8335[0][0]']           
 nal)                                                                                             
                                                                                                  
 bidirectional_8336 (Bidirectio  (None, None, 10)    280         ['masking_8336[0][0]']           
 nal)                                                                                             
                                                                                                  
 conv1d_2882 (Conv1D)           (None, 25, 5)        1885        ['masking_8337[0][0]']           
                                                                                                  
 lstm_12008 (LSTM)              (None, 5)            320         ['bidirectional_8334[0][0]']     
                                                                                                  
 lstm_12010 (LSTM)              (None, 5)            320         ['bidirectional_8335[0][0]']     
                                                                                                  
 lstm_12012 (LSTM)              (None, 5)            320         ['bidirectional_8336[0][0]']     
                                                                                                  
 conv1d_2883 (Conv1D)           (None, 25, 5)        105         ['conv1d_2882[0][0]']            
                                                                                                  
 dense_7044 (Dense)             (None, 96)           576         ['lstm_12008[0][0]']             
                                                                                                  
 dense_7045 (Dense)             (None, 96)           576         ['lstm_12010[0][0]']             
                                                                                                  
 dense_7046 (Dense)             (None, 96)           576         ['lstm_12012[0][0]']             
                                                                                                  
 bidirectional_8337 (Bidirectio  (None, 96)          20736       ['conv1d_2883[0][0]']            
 nal)                                                                                             
                                                                                                  
 dropout_6724 (Dropout)         (None, 96)           0           ['dense_7044[0][0]']             
                                                                                                  
 dropout_6725 (Dropout)         (None, 96)           0           ['dense_7045[0][0]']             
                                                                                                  
 dropout_6726 (Dropout)         (None, 96)           0           ['dense_7046[0][0]']             
                                                                                                  
 dropout_6727 (Dropout)         (None, 96)           0           ['bidirectional_8337[0][0]']     
                                                                                                  
 concatenate_1761 (Concatenate)  (None, 384)         0           ['dropout_6724[0][0]',           
                                                                  'dropout_6725[0][0]',           
                                                                  'dropout_6726[0][0]',           
                                                                  'dropout_6727[0][0]']           
                                                                                                  
 dense_7047 (Dense)             (None, 1)            385         ['concatenate_1761[0][0]']       
                                                                                                  
==================================================================================================
Total params: 26,639
Trainable params: 26,639
Non-trainable params: 0
__________________________________________________________________________________________________
…
 bidirectional_8355 (Bidirectio  (None, None, 10)    280         ['masking_8355[0][0]']           
 nal)                                                                                             
                                                                                                  
 bidirectional_8356 (Bidirectio  (None, None, 10)    280         ['masking_8356[0][0]']           
 nal)                                                                                             
                                                                                                  
 conv1d_2892 (Conv1D)           (None, 25, 5)        2825        ['masking_8357[0][0]']           
                                                                                                  
 lstm_12043 (LSTM)              (None, 5)            320         ['bidirectional_8354[0][0]']     
                                                                                                  
 lstm_12045 (LSTM)              (None, 5)            320         ['bidirectional_8355[0][0]']     
                                                                                                  
 lstm_12047 (LSTM)              (None, 5)            320         ['bidirectional_8356[0][0]']     
                                                                                                  
 conv1d_2893 (Conv1D)           (None, 25, 5)        155         ['conv1d_2892[0][0]']            
                                                                                                  
 dense_7064 (Dense)             (None, 96)           576         ['lstm_12043[0][0]']             
                                                                                                  
 dense_7065 (Dense)             (None, 96)           576         ['lstm_12045[0][0]']             
                                                                                                  
 dense_7066 (Dense)             (None, 96)           576         ['lstm_12047[0][0]']             
                                                                                                  
 bidirectional_8357 (Bidirectio  (None, 96)          20736       ['conv1d_2893[0][0]']            
 nal)                                                                                             
                                                                                                  
 dropout_6744 (Dropout)         (None, 96)           0           ['dense_7064[0][0]']             
                                                                                                  
 dropout_6745 (Dropout)         (None, 96)           0           ['dense_7065[0][0]']             
                                                                                                  
 dropout_6746 (Dropout)         (None, 96)           0           ['dense_7066[0][0]']             
                                                                                                  
 dropout_6747 (Dropout)         (None, 96)           0           ['bidirectional_8357[0][0]']     
                                                                                                  
 concatenate_1766 (Concatenate)  (None, 384)         0           ['dropout_6744[0][0]',           
                                                                  'dropout_6745[0][0]',           
                                                                  'dropout_6746[0][0]',           
                                                                  'dropout_6747[0][0]']           
                                                                                                  
 dense_7067 (Dense)             (None, 1)            385         ['concatenate_1766[0][0]']       
                                                                                                  
==================================================================================================
Total params: 27,629
Trainable params: 27,629
Non-trainable params: 0
__________________________________________________________________________________________________
…
 bidirectional_8375 (Bidirectio  (None, None, 10)    280         ['masking_8375[0][0]']           
 nal)                                                                                             
                                                                                                  
 bidirectional_8376 (Bidirectio  (None, None, 10)    280         ['masking_8376[0][0]']           
 nal)                                                                                             
                                                                                                  
 conv1d_2902 (Conv1D)           (None, 25, 5)        3765        ['masking_8377[0][0]']           
                                                                                                  
 lstm_12078 (LSTM)              (None, 5)            320         ['bidirectional_8374[0][0]']     
                                                                                                  
 lstm_12080 (LSTM)              (None, 5)            320         ['bidirectional_8375[0][0]']     
                                                                                                  
 lstm_12082 (LSTM)              (None, 5)            320         ['bidirectional_8376[0][0]']     
                                                                                                  
 conv1d_2903 (Conv1D)           (None, 25, 5)        205         ['conv1d_2902[0][0]']            
                                                                                                  
 dense_7084 (Dense)             (None, 96)           576         ['lstm_12078[0][0]']             
                                                                                                  
 dense_7085 (Dense)             (None, 96)           576         ['lstm_12080[0][0]']             
                                                                                                  
 dense_7086 (Dense)             (None, 96)           576         ['lstm_12082[0][0]']             
                                                                                                  
 bidirectional_8377 (Bidirectio  (None, 96)          20736       ['conv1d_2903[0][0]']            
 nal)                                                                                             
                                                                                                  
 dropout_6764 (Dropout)         (None, 96)           0           ['dense_7084[0][0]']             
                                                                                                  
 dropout_6765 (Dropout)         (None, 96)           0           ['dense_7085[0][0]']             
                                                                                                  
 dropout_6766 (Dropout)         (None, 96)           0           ['dense_7086[0][0]']             
                                                                                                  
 dropout_6767 (Dropout)         (None, 96)           0           ['bidirectional_8377[0][0]']     
                                                                                                  
 concatenate_1771 (Concatenate)  (None, 384)         0           ['dropout_6764[0][0]',           
                                                                  'dropout_6765[0][0]',           
                                                                  'dropout_6766[0][0]',           
                                                                  'dropout_6767[0][0]']           
                                                                                                  
 dense_7087 (Dense)             (None, 1)            385         ['concatenate_1771[0][0]']       
                                                                                                  
==================================================================================================
Total params: 28,619
Trainable params: 28,619
Non-trainable params: 0
__________________________________________________________________________________________________
…
 bidirectional_8395 (Bidirectio  (None, None, 10)    280         ['masking_8395[0][0]']           
 nal)                                                                                             
                                                                                                  
 bidirectional_8396 (Bidirectio  (None, None, 10)    280         ['masking_8396[0][0]']           
 nal)                                                                                             
                                                                                                  
 conv1d_2912 (Conv1D)           (None, 25, 5)        1885        ['masking_8397[0][0]']           
                                                                                                  
 lstm_12113 (LSTM)              (None, 5)            320         ['bidirectional_8394[0][0]']     
                                                                                                  
 lstm_12115 (LSTM)              (None, 5)            320         ['bidirectional_8395[0][0]']     
                                                                                                  
 lstm_12117 (LSTM)              (None, 5)            320         ['bidirectional_8396[0][0]']     
                                                                                                  
 conv1d_2913 (Conv1D)           (None, 25, 5)        105         ['conv1d_2912[0][0]']            
                                                                                                  
 dense_7104 (Dense)             (None, 128)          768         ['lstm_12113[0][0]']             
                                                                                                  
 dense_7105 (Dense)             (None, 128)          768         ['lstm_12115[0][0]']             
                                                                                                  
 dense_7106 (Dense)             (None, 128)          768         ['lstm_12117[0][0]']             
                                                                                                  
 bidirectional_8397 (Bidirectio  (None, 128)         35840       ['conv1d_2913[0][0]']            
 nal)                                                                                             
                                                                                                  
 dropout_6784 (Dropout)         (None, 128)          0           ['dense_7104[0][0]']             
                                                                                                  
 dropout_6785 (Dropout)         (None, 128)          0           ['dense_7105[0][0]']             
                                                                                                  
 dropout_6786 (Dropout)         (None, 128)          0           ['dense_7106[0][0]']             
                                                                                                  
 dropout_6787 (Dropout)         (None, 128)          0           ['bidirectional_8397[0][0]']     
                                                                                                  
 concatenate_1776 (Concatenate)  (None, 512)         0           ['dropout_6784[0][0]',           
                                                                  'dropout_6785[0][0]',           
                                                                  'dropout_6786[0][0]',           
                                                                  'dropout_6787[0][0]']           
                                                                                                  
 dense_7107 (Dense)             (None, 1)            513         ['concatenate_1776[0][0]']       
                                                                                                  
==================================================================================================
Total params: 42,447
Trainable params: 42,447
Non-trainable params: 0
__________________________________________________________________________________________________
…
 bidirectional_8415 (Bidirectio  (None, None, 10)    280         ['masking_8415[0][0]']           
 nal)                                                                                             
                                                                                                  
 bidirectional_8416 (Bidirectio  (None, None, 10)    280         ['masking_8416[0][0]']           
 nal)                                                                                             
                                                                                                  
 conv1d_2922 (Conv1D)           (None, 25, 5)        2825        ['masking_8417[0][0]']           
                                                                                                  
 lstm_12148 (LSTM)              (None, 5)            320         ['bidirectional_8414[0][0]']     
                                                                                                  
 lstm_12150 (LSTM)              (None, 5)            320         ['bidirectional_8415[0][0]']     
                                                                                                  
 lstm_12152 (LSTM)              (None, 5)            320         ['bidirectional_8416[0][0]']     
                                                                                                  
 conv1d_2923 (Conv1D)           (None, 25, 5)        155         ['conv1d_2922[0][0]']            
                                                                                                  
 dense_7124 (Dense)             (None, 128)          768         ['lstm_12148[0][0]']             
                                                                                                  
 dense_7125 (Dense)             (None, 128)          768         ['lstm_12150[0][0]']             
                                                                                                  
 dense_7126 (Dense)             (None, 128)          768         ['lstm_12152[0][0]']             
                                                                                                  
 bidirectional_8417 (Bidirectio  (None, 128)         35840       ['conv1d_2923[0][0]']            
 nal)                                                                                             
                                                                                                  
 dropout_6804 (Dropout)         (None, 128)          0           ['dense_7124[0][0]']             
                                                                                                  
 dropout_6805 (Dropout)         (None, 128)          0           ['dense_7125[0][0]']             
                                                                                                  
 dropout_6806 (Dropout)         (None, 128)          0           ['dense_7126[0][0]']             
                                                                                                  
 dropout_6807 (Dropout)         (None, 128)          0           ['bidirectional_8417[0][0]']     
                                                                                                  
 concatenate_1781 (Concatenate)  (None, 512)         0           ['dropout_6804[0][0]',           
                                                                  'dropout_6805[0][0]',           
                                                                  'dropout_6806[0][0]',           
                                                                  'dropout_6807[0][0]']           
                                                                                                  
 dense_7127 (Dense)             (None, 1)            513         ['concatenate_1781[0][0]']       
                                                                                                  
==================================================================================================
Total params: 43,437
Trainable params: 43,437
Non-trainable params: 0
__________________________________________________________________________________________________
…
 bidirectional_8435 (Bidirectio  (None, None, 10)    280         ['masking_8435[0][0]']           
 nal)                                                                                             
                                                                                                  
 bidirectional_8436 (Bidirectio  (None, None, 10)    280         ['masking_8436[0][0]']           
 nal)                                                                                             
                                                                                                  
 conv1d_2932 (Conv1D)           (None, 25, 5)        3765        ['masking_8437[0][0]']           
                                                                                                  
 lstm_12183 (LSTM)              (None, 5)            320         ['bidirectional_8434[0][0]']     
                                                                                                  
 lstm_12185 (LSTM)              (None, 5)            320         ['bidirectional_8435[0][0]']     
                                                                                                  
 lstm_12187 (LSTM)              (None, 5)            320         ['bidirectional_8436[0][0]']     
                                                                                                  
 conv1d_2933 (Conv1D)           (None, 25, 5)        205         ['conv1d_2932[0][0]']            
                                                                                                  
 dense_7144 (Dense)             (None, 128)          768         ['lstm_12183[0][0]']             
                                                                                                  
 dense_7145 (Dense)             (None, 128)          768         ['lstm_12185[0][0]']             
                                                                                                  
 dense_7146 (Dense)             (None, 128)          768         ['lstm_12187[0][0]']             
                                                                                                  
 bidirectional_8437 (Bidirectio  (None, 128)         35840       ['conv1d_2933[0][0]']            
 nal)                                                                                             
                                                                                                  
 dropout_6824 (Dropout)         (None, 128)          0           ['dense_7144[0][0]']             
                                                                                                  
 dropout_6825 (Dropout)         (None, 128)          0           ['dense_7145[0][0]']             
                                                                                                  
 dropout_6826 (Dropout)         (None, 128)          0           ['dense_7146[0][0]']             
                                                                                                  
 dropout_6827 (Dropout)         (None, 128)          0           ['bidirectional_8437[0][0]']     
                                                                                                  
 concatenate_1786 (Concatenate)  (None, 512)         0           ['dropout_6824[0][0]',           
                                                                  'dropout_6825[0][0]',           
                                                                  'dropout_6826[0][0]',           
                                                                  'dropout_6827[0][0]']           
                                                                                                  
 dense_7147 (Dense)             (None, 1)            513         ['concatenate_1786[0][0]']       
                                                                                                  
==================================================================================================
Total params: 44,427
Trainable params: 44,427
Non-trainable params: 0
__________________________________________________________________________________________________
…
