…
 bidirectional_3563 (Bidirectio  (None, None, 10)    280         ['masking_3563[0][0]']           
 nal)                                                                                             
                                                                                                  
 bidirectional_3564 (Bidirectio  (None, None, 10)    280         ['masking_3564[0][0]']           
 nal)                                                                                             
                                                                                                  
 conv1d_1196 (Conv1D)           (None, 25, 5)        1885        ['masking_3565[0][0]']           
                                                                                                  
 lstm_5147 (LSTM)               (None, 5)            320         ['bidirectional_3562[0][0]']     
                                                                                                  
 lstm_5149 (LSTM)               (None, 5)            320         ['bidirectional_3563[0][0]']     
                                                                                                  
 lstm_5151 (LSTM)               (None, 5)            320         ['bidirectional_3564[0][0]']     
                                                                                                  
 conv1d_1197 (Conv1D)           (None, 25, 5)        105         ['conv1d_1196[0][0]']            
                                                                                                  
 dense_3032 (Dense)             (None, 64)           384         ['lstm_5147[0][0]']              
                                                                                                  
 dense_3033 (Dense)             (None, 64)           384         ['lstm_5149[0][0]']              
                                                                                                  
 dense_3034 (Dense)             (None, 64)           384         ['lstm_5151[0][0]']              
                                                                                                  
 bidirectional_3565 (Bidirectio  (None, 64)          9728        ['conv1d_1197[0][0]']            
 nal)                                                                                             
                                                                                                  
 dropout_2872 (Dropout)         (None, 64)           0           ['dense_3032[0][0]']             
                                                                                                  
 dropout_2873 (Dropout)         (None, 64)           0           ['dense_3033[0][0]']             
                                                                                                  
 dropout_2874 (Dropout)         (None, 64)           0           ['dense_3034[0][0]']             
                                                                                                  
 dropout_2875 (Dropout)         (None, 64)           0           ['bidirectional_3565[0][0]']     
                                                                                                  
 concatenate_758 (Concatenate)  (None, 256)          0           ['dropout_2872[0][0]',           
                                                                  'dropout_2873[0][0]',           
                                                                  'dropout_2874[0][0]',           
                                                                  'dropout_2875[0][0]']           
                                                                                                  
 dense_3035 (Dense)             (None, 1)            257         ['concatenate_758[0][0]']        
                                                                                                  
==================================================================================================
Total params: 14,927
Trainable params: 14,927
Non-trainable params: 0
__________________________________________________________________________________________________
…
 bidirectional_3583 (Bidirectio  (None, None, 10)    280         ['masking_3583[0][0]']           
 nal)                                                                                             
                                                                                                  
 bidirectional_3584 (Bidirectio  (None, None, 10)    280         ['masking_3584[0][0]']           
 nal)                                                                                             
                                                                                                  
 conv1d_1206 (Conv1D)           (None, 25, 5)        2825        ['masking_3585[0][0]']           
                                                                                                  
 lstm_5182 (LSTM)               (None, 5)            320         ['bidirectional_3582[0][0]']     
                                                                                                  
 lstm_5184 (LSTM)               (None, 5)            320         ['bidirectional_3583[0][0]']     
                                                                                                  
 lstm_5186 (LSTM)               (None, 5)            320         ['bidirectional_3584[0][0]']     
                                                                                                  
 conv1d_1207 (Conv1D)           (None, 25, 5)        155         ['conv1d_1206[0][0]']            
                                                                                                  
 dense_3052 (Dense)             (None, 64)           384         ['lstm_5182[0][0]']              
                                                                                                  
 dense_3053 (Dense)             (None, 64)           384         ['lstm_5184[0][0]']              
                                                                                                  
 dense_3054 (Dense)             (None, 64)           384         ['lstm_5186[0][0]']              
                                                                                                  
 bidirectional_3585 (Bidirectio  (None, 64)          9728        ['conv1d_1207[0][0]']            
 nal)                                                                                             
                                                                                                  
 dropout_2892 (Dropout)         (None, 64)           0           ['dense_3052[0][0]']             
                                                                                                  
 dropout_2893 (Dropout)         (None, 64)           0           ['dense_3053[0][0]']             
                                                                                                  
 dropout_2894 (Dropout)         (None, 64)           0           ['dense_3054[0][0]']             
                                                                                                  
 dropout_2895 (Dropout)         (None, 64)           0           ['bidirectional_3585[0][0]']     
                                                                                                  
 concatenate_763 (Concatenate)  (None, 256)          0           ['dropout_2892[0][0]',           
                                                                  'dropout_2893[0][0]',           
                                                                  'dropout_2894[0][0]',           
                                                                  'dropout_2895[0][0]']           
                                                                                                  
 dense_3055 (Dense)             (None, 1)            257         ['concatenate_763[0][0]']        
                                                                                                  
==================================================================================================
Total params: 15,917
Trainable params: 15,917
Non-trainable params: 0
__________________________________________________________________________________________________
…
 bidirectional_3603 (Bidirectio  (None, None, 10)    280         ['masking_3603[0][0]']           
 nal)                                                                                             
                                                                                                  
 bidirectional_3604 (Bidirectio  (None, None, 10)    280         ['masking_3604[0][0]']           
 nal)                                                                                             
                                                                                                  
 conv1d_1216 (Conv1D)           (None, 25, 5)        3765        ['masking_3605[0][0]']           
                                                                                                  
 lstm_5217 (LSTM)               (None, 5)            320         ['bidirectional_3602[0][0]']     
                                                                                                  
 lstm_5219 (LSTM)               (None, 5)            320         ['bidirectional_3603[0][0]']     
                                                                                                  
 lstm_5221 (LSTM)               (None, 5)            320         ['bidirectional_3604[0][0]']     
                                                                                                  
 conv1d_1217 (Conv1D)           (None, 25, 5)        205         ['conv1d_1216[0][0]']            
                                                                                                  
 dense_3072 (Dense)             (None, 64)           384         ['lstm_5217[0][0]']              
                                                                                                  
 dense_3073 (Dense)             (None, 64)           384         ['lstm_5219[0][0]']              
                                                                                                  
 dense_3074 (Dense)             (None, 64)           384         ['lstm_5221[0][0]']              
                                                                                                  
 bidirectional_3605 (Bidirectio  (None, 64)          9728        ['conv1d_1217[0][0]']            
 nal)                                                                                             
                                                                                                  
 dropout_2912 (Dropout)         (None, 64)           0           ['dense_3072[0][0]']             
                                                                                                  
 dropout_2913 (Dropout)         (None, 64)           0           ['dense_3073[0][0]']             
                                                                                                  
 dropout_2914 (Dropout)         (None, 64)           0           ['dense_3074[0][0]']             
                                                                                                  
 dropout_2915 (Dropout)         (None, 64)           0           ['bidirectional_3605[0][0]']     
                                                                                                  
 concatenate_768 (Concatenate)  (None, 256)          0           ['dropout_2912[0][0]',           
                                                                  'dropout_2913[0][0]',           
                                                                  'dropout_2914[0][0]',           
                                                                  'dropout_2915[0][0]']           
                                                                                                  
 dense_3075 (Dense)             (None, 1)            257         ['concatenate_768[0][0]']        
                                                                                                  
==================================================================================================
Total params: 16,907
Trainable params: 16,907
Non-trainable params: 0
__________________________________________________________________________________________________
…
 bidirectional_3623 (Bidirectio  (None, None, 10)    280         ['masking_3623[0][0]']           
 nal)                                                                                             
                                                                                                  
 bidirectional_3624 (Bidirectio  (None, None, 10)    280         ['masking_3624[0][0]']           
 nal)                                                                                             
                                                                                                  
 conv1d_1226 (Conv1D)           (None, 25, 5)        1885        ['masking_3625[0][0]']           
                                                                                                  
 lstm_5252 (LSTM)               (None, 5)            320         ['bidirectional_3622[0][0]']     
                                                                                                  
 lstm_5254 (LSTM)               (None, 5)            320         ['bidirectional_3623[0][0]']     
                                                                                                  
 lstm_5256 (LSTM)               (None, 5)            320         ['bidirectional_3624[0][0]']     
                                                                                                  
 conv1d_1227 (Conv1D)           (None, 25, 5)        105         ['conv1d_1226[0][0]']            
                                                                                                  
 dense_3092 (Dense)             (None, 96)           576         ['lstm_5252[0][0]']              
                                                                                                  
 dense_3093 (Dense)             (None, 96)           576         ['lstm_5254[0][0]']              
                                                                                                  
 dense_3094 (Dense)             (None, 96)           576         ['lstm_5256[0][0]']              
                                                                                                  
 bidirectional_3625 (Bidirectio  (None, 96)          20736       ['conv1d_1227[0][0]']            
 nal)                                                                                             
                                                                                                  
 dropout_2932 (Dropout)         (None, 96)           0           ['dense_3092[0][0]']             
                                                                                                  
 dropout_2933 (Dropout)         (None, 96)           0           ['dense_3093[0][0]']             
                                                                                                  
 dropout_2934 (Dropout)         (None, 96)           0           ['dense_3094[0][0]']             
                                                                                                  
 dropout_2935 (Dropout)         (None, 96)           0           ['bidirectional_3625[0][0]']     
                                                                                                  
 concatenate_773 (Concatenate)  (None, 384)          0           ['dropout_2932[0][0]',           
                                                                  'dropout_2933[0][0]',           
                                                                  'dropout_2934[0][0]',           
                                                                  'dropout_2935[0][0]']           
                                                                                                  
 dense_3095 (Dense)             (None, 1)            385         ['concatenate_773[0][0]']        
                                                                                                  
==================================================================================================
Total params: 26,639
Trainable params: 26,639
Non-trainable params: 0
__________________________________________________________________________________________________
…
 bidirectional_3643 (Bidirectio  (None, None, 10)    280         ['masking_3643[0][0]']           
 nal)                                                                                             
                                                                                                  
 bidirectional_3644 (Bidirectio  (None, None, 10)    280         ['masking_3644[0][0]']           
 nal)                                                                                             
                                                                                                  
 conv1d_1236 (Conv1D)           (None, 25, 5)        2825        ['masking_3645[0][0]']           
                                                                                                  
 lstm_5287 (LSTM)               (None, 5)            320         ['bidirectional_3642[0][0]']     
                                                                                                  
 lstm_5289 (LSTM)               (None, 5)            320         ['bidirectional_3643[0][0]']     
                                                                                                  
 lstm_5291 (LSTM)               (None, 5)            320         ['bidirectional_3644[0][0]']     
                                                                                                  
 conv1d_1237 (Conv1D)           (None, 25, 5)        155         ['conv1d_1236[0][0]']            
                                                                                                  
 dense_3112 (Dense)             (None, 96)           576         ['lstm_5287[0][0]']              
                                                                                                  
 dense_3113 (Dense)             (None, 96)           576         ['lstm_5289[0][0]']              
                                                                                                  
 dense_3114 (Dense)             (None, 96)           576         ['lstm_5291[0][0]']              
                                                                                                  
 bidirectional_3645 (Bidirectio  (None, 96)          20736       ['conv1d_1237[0][0]']            
 nal)                                                                                             
                                                                                                  
 dropout_2952 (Dropout)         (None, 96)           0           ['dense_3112[0][0]']             
                                                                                                  
 dropout_2953 (Dropout)         (None, 96)           0           ['dense_3113[0][0]']             
                                                                                                  
 dropout_2954 (Dropout)         (None, 96)           0           ['dense_3114[0][0]']             
                                                                                                  
 dropout_2955 (Dropout)         (None, 96)           0           ['bidirectional_3645[0][0]']     
                                                                                                  
 concatenate_778 (Concatenate)  (None, 384)          0           ['dropout_2952[0][0]',           
                                                                  'dropout_2953[0][0]',           
                                                                  'dropout_2954[0][0]',           
                                                                  'dropout_2955[0][0]']           
                                                                                                  
 dense_3115 (Dense)             (None, 1)            385         ['concatenate_778[0][0]']        
                                                                                                  
==================================================================================================
Total params: 27,629
Trainable params: 27,629
Non-trainable params: 0
__________________________________________________________________________________________________
…
 bidirectional_3663 (Bidirectio  (None, None, 10)    280         ['masking_3663[0][0]']           
 nal)                                                                                             
                                                                                                  
 bidirectional_3664 (Bidirectio  (None, None, 10)    280         ['masking_3664[0][0]']           
 nal)                                                                                             
                                                                                                  
 conv1d_1246 (Conv1D)           (None, 25, 5)        3765        ['masking_3665[0][0]']           
                                                                                                  
 lstm_5322 (LSTM)               (None, 5)            320         ['bidirectional_3662[0][0]']     
                                                                                                  
 lstm_5324 (LSTM)               (None, 5)            320         ['bidirectional_3663[0][0]']     
                                                                                                  
 lstm_5326 (LSTM)               (None, 5)            320         ['bidirectional_3664[0][0]']     
                                                                                                  
 conv1d_1247 (Conv1D)           (None, 25, 5)        205         ['conv1d_1246[0][0]']            
                                                                                                  
 dense_3132 (Dense)             (None, 96)           576         ['lstm_5322[0][0]']              
                                                                                                  
 dense_3133 (Dense)             (None, 96)           576         ['lstm_5324[0][0]']              
                                                                                                  
 dense_3134 (Dense)             (None, 96)           576         ['lstm_5326[0][0]']              
                                                                                                  
 bidirectional_3665 (Bidirectio  (None, 96)          20736       ['conv1d_1247[0][0]']            
 nal)                                                                                             
                                                                                                  
 dropout_2972 (Dropout)         (None, 96)           0           ['dense_3132[0][0]']             
                                                                                                  
 dropout_2973 (Dropout)         (None, 96)           0           ['dense_3133[0][0]']             
                                                                                                  
 dropout_2974 (Dropout)         (None, 96)           0           ['dense_3134[0][0]']             
                                                                                                  
 dropout_2975 (Dropout)         (None, 96)           0           ['bidirectional_3665[0][0]']     
                                                                                                  
 concatenate_783 (Concatenate)  (None, 384)          0           ['dropout_2972[0][0]',           
                                                                  'dropout_2973[0][0]',           
                                                                  'dropout_2974[0][0]',           
                                                                  'dropout_2975[0][0]']           
                                                                                                  
 dense_3135 (Dense)             (None, 1)            385         ['concatenate_783[0][0]']        
                                                                                                  
==================================================================================================
Total params: 28,619
Trainable params: 28,619
Non-trainable params: 0
__________________________________________________________________________________________________
…
 bidirectional_3683 (Bidirectio  (None, None, 10)    280         ['masking_3683[0][0]']           
 nal)                                                                                             
                                                                                                  
 bidirectional_3684 (Bidirectio  (None, None, 10)    280         ['masking_3684[0][0]']           
 nal)                                                                                             
                                                                                                  
 conv1d_1256 (Conv1D)           (None, 25, 5)        1885        ['masking_3685[0][0]']           
                                                                                                  
 lstm_5357 (LSTM)               (None, 5)            320         ['bidirectional_3682[0][0]']     
                                                                                                  
 lstm_5359 (LSTM)               (None, 5)            320         ['bidirectional_3683[0][0]']     
                                                                                                  
 lstm_5361 (LSTM)               (None, 5)            320         ['bidirectional_3684[0][0]']     
                                                                                                  
 conv1d_1257 (Conv1D)           (None, 25, 5)        105         ['conv1d_1256[0][0]']            
                                                                                                  
 dense_3152 (Dense)             (None, 128)          768         ['lstm_5357[0][0]']              
                                                                                                  
 dense_3153 (Dense)             (None, 128)          768         ['lstm_5359[0][0]']              
                                                                                                  
 dense_3154 (Dense)             (None, 128)          768         ['lstm_5361[0][0]']              
                                                                                                  
 bidirectional_3685 (Bidirectio  (None, 128)         35840       ['conv1d_1257[0][0]']            
 nal)                                                                                             
                                                                                                  
 dropout_2992 (Dropout)         (None, 128)          0           ['dense_3152[0][0]']             
                                                                                                  
 dropout_2993 (Dropout)         (None, 128)          0           ['dense_3153[0][0]']             
                                                                                                  
 dropout_2994 (Dropout)         (None, 128)          0           ['dense_3154[0][0]']             
                                                                                                  
 dropout_2995 (Dropout)         (None, 128)          0           ['bidirectional_3685[0][0]']     
                                                                                                  
 concatenate_788 (Concatenate)  (None, 512)          0           ['dropout_2992[0][0]',           
                                                                  'dropout_2993[0][0]',           
                                                                  'dropout_2994[0][0]',           
                                                                  'dropout_2995[0][0]']           
                                                                                                  
 dense_3155 (Dense)             (None, 1)            513         ['concatenate_788[0][0]']        
                                                                                                  
==================================================================================================
Total params: 42,447
Trainable params: 42,447
Non-trainable params: 0
__________________________________________________________________________________________________
…
 bidirectional_3703 (Bidirectio  (None, None, 10)    280         ['masking_3703[0][0]']           
 nal)                                                                                             
                                                                                                  
 bidirectional_3704 (Bidirectio  (None, None, 10)    280         ['masking_3704[0][0]']           
 nal)                                                                                             
                                                                                                  
 conv1d_1266 (Conv1D)           (None, 25, 5)        2825        ['masking_3705[0][0]']           
                                                                                                  
 lstm_5392 (LSTM)               (None, 5)            320         ['bidirectional_3702[0][0]']     
                                                                                                  
 lstm_5394 (LSTM)               (None, 5)            320         ['bidirectional_3703[0][0]']     
                                                                                                  
 lstm_5396 (LSTM)               (None, 5)            320         ['bidirectional_3704[0][0]']     
                                                                                                  
 conv1d_1267 (Conv1D)           (None, 25, 5)        155         ['conv1d_1266[0][0]']            
                                                                                                  
 dense_3172 (Dense)             (None, 128)          768         ['lstm_5392[0][0]']              
                                                                                                  
 dense_3173 (Dense)             (None, 128)          768         ['lstm_5394[0][0]']              
                                                                                                  
 dense_3174 (Dense)             (None, 128)          768         ['lstm_5396[0][0]']              
                                                                                                  
 bidirectional_3705 (Bidirectio  (None, 128)         35840       ['conv1d_1267[0][0]']            
 nal)                                                                                             
                                                                                                  
 dropout_3012 (Dropout)         (None, 128)          0           ['dense_3172[0][0]']             
                                                                                                  
 dropout_3013 (Dropout)         (None, 128)          0           ['dense_3173[0][0]']             
                                                                                                  
 dropout_3014 (Dropout)         (None, 128)          0           ['dense_3174[0][0]']             
                                                                                                  
 dropout_3015 (Dropout)         (None, 128)          0           ['bidirectional_3705[0][0]']     
                                                                                                  
 concatenate_793 (Concatenate)  (None, 512)          0           ['dropout_3012[0][0]',           
                                                                  'dropout_3013[0][0]',           
                                                                  'dropout_3014[0][0]',           
                                                                  'dropout_3015[0][0]']           
                                                                                                  
 dense_3175 (Dense)             (None, 1)            513         ['concatenate_793[0][0]']        
                                                                                                  
==================================================================================================
Total params: 43,437
Trainable params: 43,437
Non-trainable params: 0
__________________________________________________________________________________________________
…
 bidirectional_3723 (Bidirectio  (None, None, 10)    280         ['masking_3723[0][0]']           
 nal)                                                                                             
                                                                                                  
 bidirectional_3724 (Bidirectio  (None, None, 10)    280         ['masking_3724[0][0]']           
 nal)                                                                                             
                                                                                                  
 conv1d_1276 (Conv1D)           (None, 25, 5)        3765        ['masking_3725[0][0]']           
                                                                                                  
 lstm_5427 (LSTM)               (None, 5)            320         ['bidirectional_3722[0][0]']     
                                                                                                  
 lstm_5429 (LSTM)               (None, 5)            320         ['bidirectional_3723[0][0]']     
                                                                                                  
 lstm_5431 (LSTM)               (None, 5)            320         ['bidirectional_3724[0][0]']     
                                                                                                  
 conv1d_1277 (Conv1D)           (None, 25, 5)        205         ['conv1d_1276[0][0]']            
                                                                                                  
 dense_3192 (Dense)             (None, 128)          768         ['lstm_5427[0][0]']              
                                                                                                  
 dense_3193 (Dense)             (None, 128)          768         ['lstm_5429[0][0]']              
                                                                                                  
 dense_3194 (Dense)             (None, 128)          768         ['lstm_5431[0][0]']              
                                                                                                  
 bidirectional_3725 (Bidirectio  (None, 128)         35840       ['conv1d_1277[0][0]']            
 nal)                                                                                             
                                                                                                  
 dropout_3032 (Dropout)         (None, 128)          0           ['dense_3192[0][0]']             
                                                                                                  
 dropout_3033 (Dropout)         (None, 128)          0           ['dense_3193[0][0]']             
                                                                                                  
 dropout_3034 (Dropout)         (None, 128)          0           ['dense_3194[0][0]']             
                                                                                                  
 dropout_3035 (Dropout)         (None, 128)          0           ['bidirectional_3725[0][0]']     
                                                                                                  
 concatenate_798 (Concatenate)  (None, 512)          0           ['dropout_3032[0][0]',           
                                                                  'dropout_3033[0][0]',           
                                                                  'dropout_3034[0][0]',           
                                                                  'dropout_3035[0][0]']           
                                                                                                  
 dense_3195 (Dense)             (None, 1)            513         ['concatenate_798[0][0]']        
                                                                                                  
==================================================================================================
Total params: 44,427
Trainable params: 44,427
Non-trainable params: 0
__________________________________________________________________________________________________
…
