…
 bidirectional_8643 (Bidirectio  (None, None, 10)    280         ['masking_8643[0][0]']           
 nal)                                                                                             
                                                                                                  
 bidirectional_8644 (Bidirectio  (None, None, 10)    280         ['masking_8644[0][0]']           
 nal)                                                                                             
                                                                                                  
 conv1d_3036 (Conv1D)           (None, 25, 5)        1885        ['masking_8645[0][0]']           
                                                                                                  
 lstm_12547 (LSTM)              (None, 5)            320         ['bidirectional_8642[0][0]']     
                                                                                                  
 lstm_12549 (LSTM)              (None, 5)            320         ['bidirectional_8643[0][0]']     
                                                                                                  
 lstm_12551 (LSTM)              (None, 5)            320         ['bidirectional_8644[0][0]']     
                                                                                                  
 conv1d_3037 (Conv1D)           (None, 25, 5)        105         ['conv1d_3036[0][0]']            
                                                                                                  
 dense_7352 (Dense)             (None, 64)           384         ['lstm_12547[0][0]']             
                                                                                                  
 dense_7353 (Dense)             (None, 64)           384         ['lstm_12549[0][0]']             
                                                                                                  
 dense_7354 (Dense)             (None, 64)           384         ['lstm_12551[0][0]']             
                                                                                                  
 bidirectional_8645 (Bidirectio  (None, 64)          9728        ['conv1d_3037[0][0]']            
 nal)                                                                                             
                                                                                                  
 dropout_7032 (Dropout)         (None, 64)           0           ['dense_7352[0][0]']             
                                                                                                  
 dropout_7033 (Dropout)         (None, 64)           0           ['dense_7353[0][0]']             
                                                                                                  
 dropout_7034 (Dropout)         (None, 64)           0           ['dense_7354[0][0]']             
                                                                                                  
 dropout_7035 (Dropout)         (None, 64)           0           ['bidirectional_8645[0][0]']     
                                                                                                  
 concatenate_1838 (Concatenate)  (None, 256)         0           ['dropout_7032[0][0]',           
                                                                  'dropout_7033[0][0]',           
                                                                  'dropout_7034[0][0]',           
                                                                  'dropout_7035[0][0]']           
                                                                                                  
 dense_7355 (Dense)             (None, 1)            257         ['concatenate_1838[0][0]']       
                                                                                                  
==================================================================================================
Total params: 14,927
Trainable params: 14,927
Non-trainable params: 0
__________________________________________________________________________________________________
…
 bidirectional_8663 (Bidirectio  (None, None, 10)    280         ['masking_8663[0][0]']           
 nal)                                                                                             
                                                                                                  
 bidirectional_8664 (Bidirectio  (None, None, 10)    280         ['masking_8664[0][0]']           
 nal)                                                                                             
                                                                                                  
 conv1d_3046 (Conv1D)           (None, 25, 5)        2825        ['masking_8665[0][0]']           
                                                                                                  
 lstm_12582 (LSTM)              (None, 5)            320         ['bidirectional_8662[0][0]']     
                                                                                                  
 lstm_12584 (LSTM)              (None, 5)            320         ['bidirectional_8663[0][0]']     
                                                                                                  
 lstm_12586 (LSTM)              (None, 5)            320         ['bidirectional_8664[0][0]']     
                                                                                                  
 conv1d_3047 (Conv1D)           (None, 25, 5)        155         ['conv1d_3046[0][0]']            
                                                                                                  
 dense_7372 (Dense)             (None, 64)           384         ['lstm_12582[0][0]']             
                                                                                                  
 dense_7373 (Dense)             (None, 64)           384         ['lstm_12584[0][0]']             
                                                                                                  
 dense_7374 (Dense)             (None, 64)           384         ['lstm_12586[0][0]']             
                                                                                                  
 bidirectional_8665 (Bidirectio  (None, 64)          9728        ['conv1d_3047[0][0]']            
 nal)                                                                                             
                                                                                                  
 dropout_7052 (Dropout)         (None, 64)           0           ['dense_7372[0][0]']             
                                                                                                  
 dropout_7053 (Dropout)         (None, 64)           0           ['dense_7373[0][0]']             
                                                                                                  
 dropout_7054 (Dropout)         (None, 64)           0           ['dense_7374[0][0]']             
                                                                                                  
 dropout_7055 (Dropout)         (None, 64)           0           ['bidirectional_8665[0][0]']     
                                                                                                  
 concatenate_1843 (Concatenate)  (None, 256)         0           ['dropout_7052[0][0]',           
                                                                  'dropout_7053[0][0]',           
                                                                  'dropout_7054[0][0]',           
                                                                  'dropout_7055[0][0]']           
                                                                                                  
 dense_7375 (Dense)             (None, 1)            257         ['concatenate_1843[0][0]']       
                                                                                                  
==================================================================================================
Total params: 15,917
Trainable params: 15,917
Non-trainable params: 0
__________________________________________________________________________________________________
…
 bidirectional_8683 (Bidirectio  (None, None, 10)    280         ['masking_8683[0][0]']           
 nal)                                                                                             
                                                                                                  
 bidirectional_8684 (Bidirectio  (None, None, 10)    280         ['masking_8684[0][0]']           
 nal)                                                                                             
                                                                                                  
 conv1d_3056 (Conv1D)           (None, 25, 5)        3765        ['masking_8685[0][0]']           
                                                                                                  
 lstm_12617 (LSTM)              (None, 5)            320         ['bidirectional_8682[0][0]']     
                                                                                                  
 lstm_12619 (LSTM)              (None, 5)            320         ['bidirectional_8683[0][0]']     
                                                                                                  
 lstm_12621 (LSTM)              (None, 5)            320         ['bidirectional_8684[0][0]']     
                                                                                                  
 conv1d_3057 (Conv1D)           (None, 25, 5)        205         ['conv1d_3056[0][0]']            
                                                                                                  
 dense_7392 (Dense)             (None, 64)           384         ['lstm_12617[0][0]']             
                                                                                                  
 dense_7393 (Dense)             (None, 64)           384         ['lstm_12619[0][0]']             
                                                                                                  
 dense_7394 (Dense)             (None, 64)           384         ['lstm_12621[0][0]']             
                                                                                                  
 bidirectional_8685 (Bidirectio  (None, 64)          9728        ['conv1d_3057[0][0]']            
 nal)                                                                                             
                                                                                                  
 dropout_7072 (Dropout)         (None, 64)           0           ['dense_7392[0][0]']             
                                                                                                  
 dropout_7073 (Dropout)         (None, 64)           0           ['dense_7393[0][0]']             
                                                                                                  
 dropout_7074 (Dropout)         (None, 64)           0           ['dense_7394[0][0]']             
                                                                                                  
 dropout_7075 (Dropout)         (None, 64)           0           ['bidirectional_8685[0][0]']     
                                                                                                  
 concatenate_1848 (Concatenate)  (None, 256)         0           ['dropout_7072[0][0]',           
                                                                  'dropout_7073[0][0]',           
                                                                  'dropout_7074[0][0]',           
                                                                  'dropout_7075[0][0]']           
                                                                                                  
 dense_7395 (Dense)             (None, 1)            257         ['concatenate_1848[0][0]']       
                                                                                                  
==================================================================================================
Total params: 16,907
Trainable params: 16,907
Non-trainable params: 0
__________________________________________________________________________________________________
…
 bidirectional_8703 (Bidirectio  (None, None, 10)    280         ['masking_8703[0][0]']           
 nal)                                                                                             
                                                                                                  
 bidirectional_8704 (Bidirectio  (None, None, 10)    280         ['masking_8704[0][0]']           
 nal)                                                                                             
                                                                                                  
 conv1d_3066 (Conv1D)           (None, 25, 5)        1885        ['masking_8705[0][0]']           
                                                                                                  
 lstm_12652 (LSTM)              (None, 5)            320         ['bidirectional_8702[0][0]']     
                                                                                                  
 lstm_12654 (LSTM)              (None, 5)            320         ['bidirectional_8703[0][0]']     
                                                                                                  
 lstm_12656 (LSTM)              (None, 5)            320         ['bidirectional_8704[0][0]']     
                                                                                                  
 conv1d_3067 (Conv1D)           (None, 25, 5)        105         ['conv1d_3066[0][0]']            
                                                                                                  
 dense_7412 (Dense)             (None, 96)           576         ['lstm_12652[0][0]']             
                                                                                                  
 dense_7413 (Dense)             (None, 96)           576         ['lstm_12654[0][0]']             
                                                                                                  
 dense_7414 (Dense)             (None, 96)           576         ['lstm_12656[0][0]']             
                                                                                                  
 bidirectional_8705 (Bidirectio  (None, 96)          20736       ['conv1d_3067[0][0]']            
 nal)                                                                                             
                                                                                                  
 dropout_7092 (Dropout)         (None, 96)           0           ['dense_7412[0][0]']             
                                                                                                  
 dropout_7093 (Dropout)         (None, 96)           0           ['dense_7413[0][0]']             
                                                                                                  
 dropout_7094 (Dropout)         (None, 96)           0           ['dense_7414[0][0]']             
                                                                                                  
 dropout_7095 (Dropout)         (None, 96)           0           ['bidirectional_8705[0][0]']     
                                                                                                  
 concatenate_1853 (Concatenate)  (None, 384)         0           ['dropout_7092[0][0]',           
                                                                  'dropout_7093[0][0]',           
                                                                  'dropout_7094[0][0]',           
                                                                  'dropout_7095[0][0]']           
                                                                                                  
 dense_7415 (Dense)             (None, 1)            385         ['concatenate_1853[0][0]']       
                                                                                                  
==================================================================================================
Total params: 26,639
Trainable params: 26,639
Non-trainable params: 0
__________________________________________________________________________________________________
…
 bidirectional_8723 (Bidirectio  (None, None, 10)    280         ['masking_8723[0][0]']           
 nal)                                                                                             
                                                                                                  
 bidirectional_8724 (Bidirectio  (None, None, 10)    280         ['masking_8724[0][0]']           
 nal)                                                                                             
                                                                                                  
 conv1d_3076 (Conv1D)           (None, 25, 5)        2825        ['masking_8725[0][0]']           
                                                                                                  
 lstm_12687 (LSTM)              (None, 5)            320         ['bidirectional_8722[0][0]']     
                                                                                                  
 lstm_12689 (LSTM)              (None, 5)            320         ['bidirectional_8723[0][0]']     
                                                                                                  
 lstm_12691 (LSTM)              (None, 5)            320         ['bidirectional_8724[0][0]']     
                                                                                                  
 conv1d_3077 (Conv1D)           (None, 25, 5)        155         ['conv1d_3076[0][0]']            
                                                                                                  
 dense_7432 (Dense)             (None, 96)           576         ['lstm_12687[0][0]']             
                                                                                                  
 dense_7433 (Dense)             (None, 96)           576         ['lstm_12689[0][0]']             
                                                                                                  
 dense_7434 (Dense)             (None, 96)           576         ['lstm_12691[0][0]']             
                                                                                                  
 bidirectional_8725 (Bidirectio  (None, 96)          20736       ['conv1d_3077[0][0]']            
 nal)                                                                                             
                                                                                                  
 dropout_7112 (Dropout)         (None, 96)           0           ['dense_7432[0][0]']             
                                                                                                  
 dropout_7113 (Dropout)         (None, 96)           0           ['dense_7433[0][0]']             
                                                                                                  
 dropout_7114 (Dropout)         (None, 96)           0           ['dense_7434[0][0]']             
                                                                                                  
 dropout_7115 (Dropout)         (None, 96)           0           ['bidirectional_8725[0][0]']     
                                                                                                  
 concatenate_1858 (Concatenate)  (None, 384)         0           ['dropout_7112[0][0]',           
                                                                  'dropout_7113[0][0]',           
                                                                  'dropout_7114[0][0]',           
                                                                  'dropout_7115[0][0]']           
                                                                                                  
 dense_7435 (Dense)             (None, 1)            385         ['concatenate_1858[0][0]']       
                                                                                                  
==================================================================================================
Total params: 27,629
Trainable params: 27,629
Non-trainable params: 0
__________________________________________________________________________________________________
…
 bidirectional_8743 (Bidirectio  (None, None, 10)    280         ['masking_8743[0][0]']           
 nal)                                                                                             
                                                                                                  
 bidirectional_8744 (Bidirectio  (None, None, 10)    280         ['masking_8744[0][0]']           
 nal)                                                                                             
                                                                                                  
 conv1d_3086 (Conv1D)           (None, 25, 5)        3765        ['masking_8745[0][0]']           
                                                                                                  
 lstm_12722 (LSTM)              (None, 5)            320         ['bidirectional_8742[0][0]']     
                                                                                                  
 lstm_12724 (LSTM)              (None, 5)            320         ['bidirectional_8743[0][0]']     
                                                                                                  
 lstm_12726 (LSTM)              (None, 5)            320         ['bidirectional_8744[0][0]']     
                                                                                                  
 conv1d_3087 (Conv1D)           (None, 25, 5)        205         ['conv1d_3086[0][0]']            
                                                                                                  
 dense_7452 (Dense)             (None, 96)           576         ['lstm_12722[0][0]']             
                                                                                                  
 dense_7453 (Dense)             (None, 96)           576         ['lstm_12724[0][0]']             
                                                                                                  
 dense_7454 (Dense)             (None, 96)           576         ['lstm_12726[0][0]']             
                                                                                                  
 bidirectional_8745 (Bidirectio  (None, 96)          20736       ['conv1d_3087[0][0]']            
 nal)                                                                                             
                                                                                                  
 dropout_7132 (Dropout)         (None, 96)           0           ['dense_7452[0][0]']             
                                                                                                  
 dropout_7133 (Dropout)         (None, 96)           0           ['dense_7453[0][0]']             
                                                                                                  
 dropout_7134 (Dropout)         (None, 96)           0           ['dense_7454[0][0]']             
                                                                                                  
 dropout_7135 (Dropout)         (None, 96)           0           ['bidirectional_8745[0][0]']     
                                                                                                  
 concatenate_1863 (Concatenate)  (None, 384)         0           ['dropout_7132[0][0]',           
                                                                  'dropout_7133[0][0]',           
                                                                  'dropout_7134[0][0]',           
                                                                  'dropout_7135[0][0]']           
                                                                                                  
 dense_7455 (Dense)             (None, 1)            385         ['concatenate_1863[0][0]']       
                                                                                                  
==================================================================================================
Total params: 28,619
Trainable params: 28,619
Non-trainable params: 0
__________________________________________________________________________________________________
…
 bidirectional_8763 (Bidirectio  (None, None, 10)    280         ['masking_8763[0][0]']           
 nal)                                                                                             
                                                                                                  
 bidirectional_8764 (Bidirectio  (None, None, 10)    280         ['masking_8764[0][0]']           
 nal)                                                                                             
                                                                                                  
 conv1d_3096 (Conv1D)           (None, 25, 5)        1885        ['masking_8765[0][0]']           
                                                                                                  
 lstm_12757 (LSTM)              (None, 5)            320         ['bidirectional_8762[0][0]']     
                                                                                                  
 lstm_12759 (LSTM)              (None, 5)            320         ['bidirectional_8763[0][0]']     
                                                                                                  
 lstm_12761 (LSTM)              (None, 5)            320         ['bidirectional_8764[0][0]']     
                                                                                                  
 conv1d_3097 (Conv1D)           (None, 25, 5)        105         ['conv1d_3096[0][0]']            
                                                                                                  
 dense_7472 (Dense)             (None, 128)          768         ['lstm_12757[0][0]']             
                                                                                                  
 dense_7473 (Dense)             (None, 128)          768         ['lstm_12759[0][0]']             
                                                                                                  
 dense_7474 (Dense)             (None, 128)          768         ['lstm_12761[0][0]']             
                                                                                                  
 bidirectional_8765 (Bidirectio  (None, 128)         35840       ['conv1d_3097[0][0]']            
 nal)                                                                                             
                                                                                                  
 dropout_7152 (Dropout)         (None, 128)          0           ['dense_7472[0][0]']             
                                                                                                  
 dropout_7153 (Dropout)         (None, 128)          0           ['dense_7473[0][0]']             
                                                                                                  
 dropout_7154 (Dropout)         (None, 128)          0           ['dense_7474[0][0]']             
                                                                                                  
 dropout_7155 (Dropout)         (None, 128)          0           ['bidirectional_8765[0][0]']     
                                                                                                  
 concatenate_1868 (Concatenate)  (None, 512)         0           ['dropout_7152[0][0]',           
                                                                  'dropout_7153[0][0]',           
                                                                  'dropout_7154[0][0]',           
                                                                  'dropout_7155[0][0]']           
                                                                                                  
 dense_7475 (Dense)             (None, 1)            513         ['concatenate_1868[0][0]']       
                                                                                                  
==================================================================================================
Total params: 42,447
Trainable params: 42,447
Non-trainable params: 0
__________________________________________________________________________________________________
…
 bidirectional_8783 (Bidirectio  (None, None, 10)    280         ['masking_8783[0][0]']           
 nal)                                                                                             
                                                                                                  
 bidirectional_8784 (Bidirectio  (None, None, 10)    280         ['masking_8784[0][0]']           
 nal)                                                                                             
                                                                                                  
 conv1d_3106 (Conv1D)           (None, 25, 5)        2825        ['masking_8785[0][0]']           
                                                                                                  
 lstm_12792 (LSTM)              (None, 5)            320         ['bidirectional_8782[0][0]']     
                                                                                                  
 lstm_12794 (LSTM)              (None, 5)            320         ['bidirectional_8783[0][0]']     
                                                                                                  
 lstm_12796 (LSTM)              (None, 5)            320         ['bidirectional_8784[0][0]']     
                                                                                                  
 conv1d_3107 (Conv1D)           (None, 25, 5)        155         ['conv1d_3106[0][0]']            
                                                                                                  
 dense_7492 (Dense)             (None, 128)          768         ['lstm_12792[0][0]']             
                                                                                                  
 dense_7493 (Dense)             (None, 128)          768         ['lstm_12794[0][0]']             
                                                                                                  
 dense_7494 (Dense)             (None, 128)          768         ['lstm_12796[0][0]']             
                                                                                                  
 bidirectional_8785 (Bidirectio  (None, 128)         35840       ['conv1d_3107[0][0]']            
 nal)                                                                                             
                                                                                                  
 dropout_7172 (Dropout)         (None, 128)          0           ['dense_7492[0][0]']             
                                                                                                  
 dropout_7173 (Dropout)         (None, 128)          0           ['dense_7493[0][0]']             
                                                                                                  
 dropout_7174 (Dropout)         (None, 128)          0           ['dense_7494[0][0]']             
                                                                                                  
 dropout_7175 (Dropout)         (None, 128)          0           ['bidirectional_8785[0][0]']     
                                                                                                  
 concatenate_1873 (Concatenate)  (None, 512)         0           ['dropout_7172[0][0]',           
                                                                  'dropout_7173[0][0]',           
                                                                  'dropout_7174[0][0]',           
                                                                  'dropout_7175[0][0]']           
                                                                                                  
 dense_7495 (Dense)             (None, 1)            513         ['concatenate_1873[0][0]']       
                                                                                                  
==================================================================================================
Total params: 43,437
Trainable params: 43,437
Non-trainable params: 0
__________________________________________________________________________________________________
…
 bidirectional_8803 (Bidirectio  (None, None, 10)    280         ['masking_8803[0][0]']           
 nal)                                                                                             
                                                                                                  
 bidirectional_8804 (Bidirectio  (None, None, 10)    280         ['masking_8804[0][0]']           
 nal)                                                                                             
                                                                                                  
 conv1d_3116 (Conv1D)           (None, 25, 5)        3765        ['masking_8805[0][0]']           
                                                                                                  
 lstm_12827 (LSTM)              (None, 5)            320         ['bidirectional_8802[0][0]']     
                                                                                                  
 lstm_12829 (LSTM)              (None, 5)            320         ['bidirectional_8803[0][0]']     
                                                                                                  
 lstm_12831 (LSTM)              (None, 5)            320         ['bidirectional_8804[0][0]']     
                                                                                                  
 conv1d_3117 (Conv1D)           (None, 25, 5)        205         ['conv1d_3116[0][0]']            
                                                                                                  
 dense_7512 (Dense)             (None, 128)          768         ['lstm_12827[0][0]']             
                                                                                                  
 dense_7513 (Dense)             (None, 128)          768         ['lstm_12829[0][0]']             
                                                                                                  
 dense_7514 (Dense)             (None, 128)          768         ['lstm_12831[0][0]']             
                                                                                                  
 bidirectional_8805 (Bidirectio  (None, 128)         35840       ['conv1d_3117[0][0]']            
 nal)                                                                                             
                                                                                                  
 dropout_7192 (Dropout)         (None, 128)          0           ['dense_7512[0][0]']             
                                                                                                  
 dropout_7193 (Dropout)         (None, 128)          0           ['dense_7513[0][0]']             
                                                                                                  
 dropout_7194 (Dropout)         (None, 128)          0           ['dense_7514[0][0]']             
                                                                                                  
 dropout_7195 (Dropout)         (None, 128)          0           ['bidirectional_8805[0][0]']     
                                                                                                  
 concatenate_1878 (Concatenate)  (None, 512)         0           ['dropout_7192[0][0]',           
                                                                  'dropout_7193[0][0]',           
                                                                  'dropout_7194[0][0]',           
                                                                  'dropout_7195[0][0]']           
                                                                                                  
 dense_7515 (Dense)             (None, 1)            513         ['concatenate_1878[0][0]']       
                                                                                                  
==================================================================================================
Total params: 44,427
Trainable params: 44,427
Non-trainable params: 0
__________________________________________________________________________________________________
…
