…
 bidirectional_11965 (Bidirecti  (None, None, 10)    280         ['masking_11965[0][0]']          
 onal)                                                                                            
                                                                                                  
 bidirectional_11966 (Bidirecti  (None, None, 10)    280         ['masking_11966[0][0]']          
 onal)                                                                                            
                                                                                                  
 conv1d_4232 (Conv1D)           (None, 24, 5)        65          ['masking_11967[0][0]']          
                                                                                                  
 lstm_17213 (LSTM)              (None, 5)            320         ['bidirectional_11964[0][0]']    
                                                                                                  
 lstm_17215 (LSTM)              (None, 5)            320         ['bidirectional_11965[0][0]']    
                                                                                                  
 lstm_17217 (LSTM)              (None, 5)            320         ['bidirectional_11966[0][0]']    
                                                                                                  
 conv1d_4233 (Conv1D)           (None, 24, 5)        105         ['conv1d_4232[0][0]']            
                                                                                                  
 dense_10064 (Dense)            (None, 64)           384         ['lstm_17213[0][0]']             
                                                                                                  
 dense_10065 (Dense)            (None, 64)           384         ['lstm_17215[0][0]']             
                                                                                                  
 dense_10066 (Dense)            (None, 64)           384         ['lstm_17217[0][0]']             
                                                                                                  
 bidirectional_11967 (Bidirecti  (None, 64)          9728        ['conv1d_4233[0][0]']            
 onal)                                                                                            
                                                                                                  
 dropout_9664 (Dropout)         (None, 64)           0           ['dense_10064[0][0]']            
                                                                                                  
 dropout_9665 (Dropout)         (None, 64)           0           ['dense_10065[0][0]']            
                                                                                                  
 dropout_9666 (Dropout)         (None, 64)           0           ['dense_10066[0][0]']            
                                                                                                  
 dropout_9667 (Dropout)         (None, 64)           0           ['bidirectional_11967[0][0]']    
                                                                                                  
 concatenate_2516 (Concatenate)  (None, 256)         0           ['dropout_9664[0][0]',           
                                                                  'dropout_9665[0][0]',           
                                                                  'dropout_9666[0][0]',           
                                                                  'dropout_9667[0][0]']           
                                                                                                  
 dense_10067 (Dense)            (None, 1)            257         ['concatenate_2516[0][0]']       
                                                                                                  
==================================================================================================
Total params: 13,107
Trainable params: 13,107
Non-trainable params: 0
__________________________________________________________________________________________________
…
 bidirectional_11985 (Bidirecti  (None, None, 10)    280         ['masking_11985[0][0]']          
 onal)                                                                                            
                                                                                                  
 bidirectional_11986 (Bidirecti  (None, None, 10)    280         ['masking_11986[0][0]']          
 onal)                                                                                            
                                                                                                  
 conv1d_4242 (Conv1D)           (None, 24, 5)        95          ['masking_11987[0][0]']          
                                                                                                  
 lstm_17248 (LSTM)              (None, 5)            320         ['bidirectional_11984[0][0]']    
                                                                                                  
 lstm_17250 (LSTM)              (None, 5)            320         ['bidirectional_11985[0][0]']    
                                                                                                  
 lstm_17252 (LSTM)              (None, 5)            320         ['bidirectional_11986[0][0]']    
                                                                                                  
 conv1d_4243 (Conv1D)           (None, 24, 5)        155         ['conv1d_4242[0][0]']            
                                                                                                  
 dense_10084 (Dense)            (None, 64)           384         ['lstm_17248[0][0]']             
                                                                                                  
 dense_10085 (Dense)            (None, 64)           384         ['lstm_17250[0][0]']             
                                                                                                  
 dense_10086 (Dense)            (None, 64)           384         ['lstm_17252[0][0]']             
                                                                                                  
 bidirectional_11987 (Bidirecti  (None, 64)          9728        ['conv1d_4243[0][0]']            
 onal)                                                                                            
                                                                                                  
 dropout_9684 (Dropout)         (None, 64)           0           ['dense_10084[0][0]']            
                                                                                                  
 dropout_9685 (Dropout)         (None, 64)           0           ['dense_10085[0][0]']            
                                                                                                  
 dropout_9686 (Dropout)         (None, 64)           0           ['dense_10086[0][0]']            
                                                                                                  
 dropout_9687 (Dropout)         (None, 64)           0           ['bidirectional_11987[0][0]']    
                                                                                                  
 concatenate_2521 (Concatenate)  (None, 256)         0           ['dropout_9684[0][0]',           
                                                                  'dropout_9685[0][0]',           
                                                                  'dropout_9686[0][0]',           
                                                                  'dropout_9687[0][0]']           
                                                                                                  
 dense_10087 (Dense)            (None, 1)            257         ['concatenate_2521[0][0]']       
                                                                                                  
==================================================================================================
Total params: 13,187
Trainable params: 13,187
Non-trainable params: 0
__________________________________________________________________________________________________
…
 bidirectional_12005 (Bidirecti  (None, None, 10)    280         ['masking_12005[0][0]']          
 onal)                                                                                            
                                                                                                  
 bidirectional_12006 (Bidirecti  (None, None, 10)    280         ['masking_12006[0][0]']          
 onal)                                                                                            
                                                                                                  
 conv1d_4252 (Conv1D)           (None, 24, 5)        125         ['masking_12007[0][0]']          
                                                                                                  
 lstm_17283 (LSTM)              (None, 5)            320         ['bidirectional_12004[0][0]']    
                                                                                                  
 lstm_17285 (LSTM)              (None, 5)            320         ['bidirectional_12005[0][0]']    
                                                                                                  
 lstm_17287 (LSTM)              (None, 5)            320         ['bidirectional_12006[0][0]']    
                                                                                                  
 conv1d_4253 (Conv1D)           (None, 24, 5)        205         ['conv1d_4252[0][0]']            
                                                                                                  
 dense_10104 (Dense)            (None, 64)           384         ['lstm_17283[0][0]']             
                                                                                                  
 dense_10105 (Dense)            (None, 64)           384         ['lstm_17285[0][0]']             
                                                                                                  
 dense_10106 (Dense)            (None, 64)           384         ['lstm_17287[0][0]']             
                                                                                                  
 bidirectional_12007 (Bidirecti  (None, 64)          9728        ['conv1d_4253[0][0]']            
 onal)                                                                                            
                                                                                                  
 dropout_9704 (Dropout)         (None, 64)           0           ['dense_10104[0][0]']            
                                                                                                  
 dropout_9705 (Dropout)         (None, 64)           0           ['dense_10105[0][0]']            
                                                                                                  
 dropout_9706 (Dropout)         (None, 64)           0           ['dense_10106[0][0]']            
                                                                                                  
 dropout_9707 (Dropout)         (None, 64)           0           ['bidirectional_12007[0][0]']    
                                                                                                  
 concatenate_2526 (Concatenate)  (None, 256)         0           ['dropout_9704[0][0]',           
                                                                  'dropout_9705[0][0]',           
                                                                  'dropout_9706[0][0]',           
                                                                  'dropout_9707[0][0]']           
                                                                                                  
 dense_10107 (Dense)            (None, 1)            257         ['concatenate_2526[0][0]']       
                                                                                                  
==================================================================================================
Total params: 13,267
Trainable params: 13,267
Non-trainable params: 0
__________________________________________________________________________________________________
…
 bidirectional_12025 (Bidirecti  (None, None, 10)    280         ['masking_12025[0][0]']          
 onal)                                                                                            
                                                                                                  
 bidirectional_12026 (Bidirecti  (None, None, 10)    280         ['masking_12026[0][0]']          
 onal)                                                                                            
                                                                                                  
 conv1d_4262 (Conv1D)           (None, 24, 5)        65          ['masking_12027[0][0]']          
                                                                                                  
 lstm_17318 (LSTM)              (None, 5)            320         ['bidirectional_12024[0][0]']    
                                                                                                  
 lstm_17320 (LSTM)              (None, 5)            320         ['bidirectional_12025[0][0]']    
                                                                                                  
 lstm_17322 (LSTM)              (None, 5)            320         ['bidirectional_12026[0][0]']    
                                                                                                  
 conv1d_4263 (Conv1D)           (None, 24, 5)        105         ['conv1d_4262[0][0]']            
                                                                                                  
 dense_10124 (Dense)            (None, 96)           576         ['lstm_17318[0][0]']             
                                                                                                  
 dense_10125 (Dense)            (None, 96)           576         ['lstm_17320[0][0]']             
                                                                                                  
 dense_10126 (Dense)            (None, 96)           576         ['lstm_17322[0][0]']             
                                                                                                  
 bidirectional_12027 (Bidirecti  (None, 96)          20736       ['conv1d_4263[0][0]']            
 onal)                                                                                            
                                                                                                  
 dropout_9724 (Dropout)         (None, 96)           0           ['dense_10124[0][0]']            
                                                                                                  
 dropout_9725 (Dropout)         (None, 96)           0           ['dense_10125[0][0]']            
                                                                                                  
 dropout_9726 (Dropout)         (None, 96)           0           ['dense_10126[0][0]']            
                                                                                                  
 dropout_9727 (Dropout)         (None, 96)           0           ['bidirectional_12027[0][0]']    
                                                                                                  
 concatenate_2531 (Concatenate)  (None, 384)         0           ['dropout_9724[0][0]',           
                                                                  'dropout_9725[0][0]',           
                                                                  'dropout_9726[0][0]',           
                                                                  'dropout_9727[0][0]']           
                                                                                                  
 dense_10127 (Dense)            (None, 1)            385         ['concatenate_2531[0][0]']       
                                                                                                  
==================================================================================================
Total params: 24,819
Trainable params: 24,819
Non-trainable params: 0
__________________________________________________________________________________________________
…
 bidirectional_12045 (Bidirecti  (None, None, 10)    280         ['masking_12045[0][0]']          
 onal)                                                                                            
                                                                                                  
 bidirectional_12046 (Bidirecti  (None, None, 10)    280         ['masking_12046[0][0]']          
 onal)                                                                                            
                                                                                                  
 conv1d_4272 (Conv1D)           (None, 24, 5)        95          ['masking_12047[0][0]']          
                                                                                                  
 lstm_17353 (LSTM)              (None, 5)            320         ['bidirectional_12044[0][0]']    
                                                                                                  
 lstm_17355 (LSTM)              (None, 5)            320         ['bidirectional_12045[0][0]']    
                                                                                                  
 lstm_17357 (LSTM)              (None, 5)            320         ['bidirectional_12046[0][0]']    
                                                                                                  
 conv1d_4273 (Conv1D)           (None, 24, 5)        155         ['conv1d_4272[0][0]']            
                                                                                                  
 dense_10144 (Dense)            (None, 96)           576         ['lstm_17353[0][0]']             
                                                                                                  
 dense_10145 (Dense)            (None, 96)           576         ['lstm_17355[0][0]']             
                                                                                                  
 dense_10146 (Dense)            (None, 96)           576         ['lstm_17357[0][0]']             
                                                                                                  
 bidirectional_12047 (Bidirecti  (None, 96)          20736       ['conv1d_4273[0][0]']            
 onal)                                                                                            
                                                                                                  
 dropout_9744 (Dropout)         (None, 96)           0           ['dense_10144[0][0]']            
                                                                                                  
 dropout_9745 (Dropout)         (None, 96)           0           ['dense_10145[0][0]']            
                                                                                                  
 dropout_9746 (Dropout)         (None, 96)           0           ['dense_10146[0][0]']            
                                                                                                  
 dropout_9747 (Dropout)         (None, 96)           0           ['bidirectional_12047[0][0]']    
                                                                                                  
 concatenate_2536 (Concatenate)  (None, 384)         0           ['dropout_9744[0][0]',           
                                                                  'dropout_9745[0][0]',           
                                                                  'dropout_9746[0][0]',           
                                                                  'dropout_9747[0][0]']           
                                                                                                  
 dense_10147 (Dense)            (None, 1)            385         ['concatenate_2536[0][0]']       
                                                                                                  
==================================================================================================
Total params: 24,899
Trainable params: 24,899
Non-trainable params: 0
__________________________________________________________________________________________________
…
 bidirectional_12065 (Bidirecti  (None, None, 10)    280         ['masking_12065[0][0]']          
 onal)                                                                                            
                                                                                                  
 bidirectional_12066 (Bidirecti  (None, None, 10)    280         ['masking_12066[0][0]']          
 onal)                                                                                            
                                                                                                  
 conv1d_4282 (Conv1D)           (None, 24, 5)        125         ['masking_12067[0][0]']          
                                                                                                  
 lstm_17388 (LSTM)              (None, 5)            320         ['bidirectional_12064[0][0]']    
                                                                                                  
 lstm_17390 (LSTM)              (None, 5)            320         ['bidirectional_12065[0][0]']    
                                                                                                  
 lstm_17392 (LSTM)              (None, 5)            320         ['bidirectional_12066[0][0]']    
                                                                                                  
 conv1d_4283 (Conv1D)           (None, 24, 5)        205         ['conv1d_4282[0][0]']            
                                                                                                  
 dense_10164 (Dense)            (None, 96)           576         ['lstm_17388[0][0]']             
                                                                                                  
 dense_10165 (Dense)            (None, 96)           576         ['lstm_17390[0][0]']             
                                                                                                  
 dense_10166 (Dense)            (None, 96)           576         ['lstm_17392[0][0]']             
                                                                                                  
 bidirectional_12067 (Bidirecti  (None, 96)          20736       ['conv1d_4283[0][0]']            
 onal)                                                                                            
                                                                                                  
 dropout_9764 (Dropout)         (None, 96)           0           ['dense_10164[0][0]']            
                                                                                                  
 dropout_9765 (Dropout)         (None, 96)           0           ['dense_10165[0][0]']            
                                                                                                  
 dropout_9766 (Dropout)         (None, 96)           0           ['dense_10166[0][0]']            
                                                                                                  
 dropout_9767 (Dropout)         (None, 96)           0           ['bidirectional_12067[0][0]']    
                                                                                                  
 concatenate_2541 (Concatenate)  (None, 384)         0           ['dropout_9764[0][0]',           
                                                                  'dropout_9765[0][0]',           
                                                                  'dropout_9766[0][0]',           
                                                                  'dropout_9767[0][0]']           
                                                                                                  
 dense_10167 (Dense)            (None, 1)            385         ['concatenate_2541[0][0]']       
                                                                                                  
==================================================================================================
Total params: 24,979
Trainable params: 24,979
Non-trainable params: 0
__________________________________________________________________________________________________
…
 bidirectional_12085 (Bidirecti  (None, None, 10)    280         ['masking_12085[0][0]']          
 onal)                                                                                            
                                                                                                  
 bidirectional_12086 (Bidirecti  (None, None, 10)    280         ['masking_12086[0][0]']          
 onal)                                                                                            
                                                                                                  
 conv1d_4292 (Conv1D)           (None, 24, 5)        65          ['masking_12087[0][0]']          
                                                                                                  
 lstm_17423 (LSTM)              (None, 5)            320         ['bidirectional_12084[0][0]']    
                                                                                                  
 lstm_17425 (LSTM)              (None, 5)            320         ['bidirectional_12085[0][0]']    
                                                                                                  
 lstm_17427 (LSTM)              (None, 5)            320         ['bidirectional_12086[0][0]']    
                                                                                                  
 conv1d_4293 (Conv1D)           (None, 24, 5)        105         ['conv1d_4292[0][0]']            
                                                                                                  
 dense_10184 (Dense)            (None, 128)          768         ['lstm_17423[0][0]']             
                                                                                                  
 dense_10185 (Dense)            (None, 128)          768         ['lstm_17425[0][0]']             
                                                                                                  
 dense_10186 (Dense)            (None, 128)          768         ['lstm_17427[0][0]']             
                                                                                                  
 bidirectional_12087 (Bidirecti  (None, 128)         35840       ['conv1d_4293[0][0]']            
 onal)                                                                                            
                                                                                                  
 dropout_9784 (Dropout)         (None, 128)          0           ['dense_10184[0][0]']            
                                                                                                  
 dropout_9785 (Dropout)         (None, 128)          0           ['dense_10185[0][0]']            
                                                                                                  
 dropout_9786 (Dropout)         (None, 128)          0           ['dense_10186[0][0]']            
                                                                                                  
 dropout_9787 (Dropout)         (None, 128)          0           ['bidirectional_12087[0][0]']    
                                                                                                  
 concatenate_2546 (Concatenate)  (None, 512)         0           ['dropout_9784[0][0]',           
                                                                  'dropout_9785[0][0]',           
                                                                  'dropout_9786[0][0]',           
                                                                  'dropout_9787[0][0]']           
                                                                                                  
 dense_10187 (Dense)            (None, 1)            513         ['concatenate_2546[0][0]']       
                                                                                                  
==================================================================================================
Total params: 40,627
Trainable params: 40,627
Non-trainable params: 0
__________________________________________________________________________________________________
…
 bidirectional_12105 (Bidirecti  (None, None, 10)    280         ['masking_12105[0][0]']          
 onal)                                                                                            
                                                                                                  
 bidirectional_12106 (Bidirecti  (None, None, 10)    280         ['masking_12106[0][0]']          
 onal)                                                                                            
                                                                                                  
 conv1d_4302 (Conv1D)           (None, 24, 5)        95          ['masking_12107[0][0]']          
                                                                                                  
 lstm_17458 (LSTM)              (None, 5)            320         ['bidirectional_12104[0][0]']    
                                                                                                  
 lstm_17460 (LSTM)              (None, 5)            320         ['bidirectional_12105[0][0]']    
                                                                                                  
 lstm_17462 (LSTM)              (None, 5)            320         ['bidirectional_12106[0][0]']    
                                                                                                  
 conv1d_4303 (Conv1D)           (None, 24, 5)        155         ['conv1d_4302[0][0]']            
                                                                                                  
 dense_10204 (Dense)            (None, 128)          768         ['lstm_17458[0][0]']             
                                                                                                  
 dense_10205 (Dense)            (None, 128)          768         ['lstm_17460[0][0]']             
                                                                                                  
 dense_10206 (Dense)            (None, 128)          768         ['lstm_17462[0][0]']             
                                                                                                  
 bidirectional_12107 (Bidirecti  (None, 128)         35840       ['conv1d_4303[0][0]']            
 onal)                                                                                            
                                                                                                  
 dropout_9804 (Dropout)         (None, 128)          0           ['dense_10204[0][0]']            
                                                                                                  
 dropout_9805 (Dropout)         (None, 128)          0           ['dense_10205[0][0]']            
                                                                                                  
 dropout_9806 (Dropout)         (None, 128)          0           ['dense_10206[0][0]']            
                                                                                                  
 dropout_9807 (Dropout)         (None, 128)          0           ['bidirectional_12107[0][0]']    
                                                                                                  
 concatenate_2551 (Concatenate)  (None, 512)         0           ['dropout_9804[0][0]',           
                                                                  'dropout_9805[0][0]',           
                                                                  'dropout_9806[0][0]',           
                                                                  'dropout_9807[0][0]']           
                                                                                                  
 dense_10207 (Dense)            (None, 1)            513         ['concatenate_2551[0][0]']       
                                                                                                  
==================================================================================================
Total params: 40,707
Trainable params: 40,707
Non-trainable params: 0
__________________________________________________________________________________________________
…
 bidirectional_12125 (Bidirecti  (None, None, 10)    280         ['masking_12125[0][0]']          
 onal)                                                                                            
                                                                                                  
 bidirectional_12126 (Bidirecti  (None, None, 10)    280         ['masking_12126[0][0]']          
 onal)                                                                                            
                                                                                                  
 conv1d_4312 (Conv1D)           (None, 24, 5)        125         ['masking_12127[0][0]']          
                                                                                                  
 lstm_17493 (LSTM)              (None, 5)            320         ['bidirectional_12124[0][0]']    
                                                                                                  
 lstm_17495 (LSTM)              (None, 5)            320         ['bidirectional_12125[0][0]']    
                                                                                                  
 lstm_17497 (LSTM)              (None, 5)            320         ['bidirectional_12126[0][0]']    
                                                                                                  
 conv1d_4313 (Conv1D)           (None, 24, 5)        205         ['conv1d_4312[0][0]']            
                                                                                                  
 dense_10224 (Dense)            (None, 128)          768         ['lstm_17493[0][0]']             
                                                                                                  
 dense_10225 (Dense)            (None, 128)          768         ['lstm_17495[0][0]']             
                                                                                                  
 dense_10226 (Dense)            (None, 128)          768         ['lstm_17497[0][0]']             
                                                                                                  
 bidirectional_12127 (Bidirecti  (None, 128)         35840       ['conv1d_4313[0][0]']            
 onal)                                                                                            
                                                                                                  
 dropout_9824 (Dropout)         (None, 128)          0           ['dense_10224[0][0]']            
                                                                                                  
 dropout_9825 (Dropout)         (None, 128)          0           ['dense_10225[0][0]']            
                                                                                                  
 dropout_9826 (Dropout)         (None, 128)          0           ['dense_10226[0][0]']            
                                                                                                  
 dropout_9827 (Dropout)         (None, 128)          0           ['bidirectional_12127[0][0]']    
                                                                                                  
 concatenate_2556 (Concatenate)  (None, 512)         0           ['dropout_9824[0][0]',           
                                                                  'dropout_9825[0][0]',           
                                                                  'dropout_9826[0][0]',           
                                                                  'dropout_9827[0][0]']           
                                                                                                  
 dense_10227 (Dense)            (None, 1)            513         ['concatenate_2556[0][0]']       
                                                                                                  
==================================================================================================
Total params: 40,787
Trainable params: 40,787
Non-trainable params: 0
__________________________________________________________________________________________________
…
