…
 bidirectional_1989 (Bidirectio  (None, None, 10)    280         ['masking_1989[0][0]']           
 nal)                                                                                             
                                                                                                  
 bidirectional_1990 (Bidirectio  (None, None, 10)    280         ['masking_1990[0][0]']           
 nal)                                                                                             
                                                                                                  
 conv1d_644 (Conv1D)            (None, 24, 5)        65          ['masking_1991[0][0]']           
                                                                                                  
 lstm_2735 (LSTM)               (None, 5)            320         ['bidirectional_1988[0][0]']     
                                                                                                  
 lstm_2737 (LSTM)               (None, 5)            320         ['bidirectional_1989[0][0]']     
                                                                                                  
 lstm_2739 (LSTM)               (None, 5)            320         ['bidirectional_1990[0][0]']     
                                                                                                  
 conv1d_645 (Conv1D)            (None, 24, 5)        105         ['conv1d_644[0][0]']             
                                                                                                  
 dense_1608 (Dense)             (None, 64)           384         ['lstm_2735[0][0]']              
                                                                                                  
 dense_1609 (Dense)             (None, 64)           384         ['lstm_2737[0][0]']              
                                                                                                  
 dense_1610 (Dense)             (None, 64)           384         ['lstm_2739[0][0]']              
                                                                                                  
 bidirectional_1991 (Bidirectio  (None, 64)          9728        ['conv1d_645[0][0]']             
 nal)                                                                                             
                                                                                                  
 dropout_1528 (Dropout)         (None, 64)           0           ['dense_1608[0][0]']             
                                                                                                  
 dropout_1529 (Dropout)         (None, 64)           0           ['dense_1609[0][0]']             
                                                                                                  
 dropout_1530 (Dropout)         (None, 64)           0           ['dense_1610[0][0]']             
                                                                                                  
 dropout_1531 (Dropout)         (None, 64)           0           ['bidirectional_1991[0][0]']     
                                                                                                  
 concatenate_402 (Concatenate)  (None, 256)          0           ['dropout_1528[0][0]',           
                                                                  'dropout_1529[0][0]',           
                                                                  'dropout_1530[0][0]',           
                                                                  'dropout_1531[0][0]']           
                                                                                                  
 dense_1611 (Dense)             (None, 1)            257         ['concatenate_402[0][0]']        
                                                                                                  
==================================================================================================
Total params: 13,107
Trainable params: 13,107
Non-trainable params: 0
__________________________________________________________________________________________________
…
 bidirectional_2009 (Bidirectio  (None, None, 10)    280         ['masking_2009[0][0]']           
 nal)                                                                                             
                                                                                                  
 bidirectional_2010 (Bidirectio  (None, None, 10)    280         ['masking_2010[0][0]']           
 nal)                                                                                             
                                                                                                  
 conv1d_654 (Conv1D)            (None, 24, 5)        95          ['masking_2011[0][0]']           
                                                                                                  
 lstm_2770 (LSTM)               (None, 5)            320         ['bidirectional_2008[0][0]']     
                                                                                                  
 lstm_2772 (LSTM)               (None, 5)            320         ['bidirectional_2009[0][0]']     
                                                                                                  
 lstm_2774 (LSTM)               (None, 5)            320         ['bidirectional_2010[0][0]']     
                                                                                                  
 conv1d_655 (Conv1D)            (None, 24, 5)        155         ['conv1d_654[0][0]']             
                                                                                                  
 dense_1628 (Dense)             (None, 64)           384         ['lstm_2770[0][0]']              
                                                                                                  
 dense_1629 (Dense)             (None, 64)           384         ['lstm_2772[0][0]']              
                                                                                                  
 dense_1630 (Dense)             (None, 64)           384         ['lstm_2774[0][0]']              
                                                                                                  
 bidirectional_2011 (Bidirectio  (None, 64)          9728        ['conv1d_655[0][0]']             
 nal)                                                                                             
                                                                                                  
 dropout_1548 (Dropout)         (None, 64)           0           ['dense_1628[0][0]']             
                                                                                                  
 dropout_1549 (Dropout)         (None, 64)           0           ['dense_1629[0][0]']             
                                                                                                  
 dropout_1550 (Dropout)         (None, 64)           0           ['dense_1630[0][0]']             
                                                                                                  
 dropout_1551 (Dropout)         (None, 64)           0           ['bidirectional_2011[0][0]']     
                                                                                                  
 concatenate_407 (Concatenate)  (None, 256)          0           ['dropout_1548[0][0]',           
                                                                  'dropout_1549[0][0]',           
                                                                  'dropout_1550[0][0]',           
                                                                  'dropout_1551[0][0]']           
                                                                                                  
 dense_1631 (Dense)             (None, 1)            257         ['concatenate_407[0][0]']        
                                                                                                  
==================================================================================================
Total params: 13,187
Trainable params: 13,187
Non-trainable params: 0
__________________________________________________________________________________________________
…
 bidirectional_2029 (Bidirectio  (None, None, 10)    280         ['masking_2029[0][0]']           
 nal)                                                                                             
                                                                                                  
 bidirectional_2030 (Bidirectio  (None, None, 10)    280         ['masking_2030[0][0]']           
 nal)                                                                                             
                                                                                                  
 conv1d_664 (Conv1D)            (None, 24, 5)        125         ['masking_2031[0][0]']           
                                                                                                  
 lstm_2805 (LSTM)               (None, 5)            320         ['bidirectional_2028[0][0]']     
                                                                                                  
 lstm_2807 (LSTM)               (None, 5)            320         ['bidirectional_2029[0][0]']     
                                                                                                  
 lstm_2809 (LSTM)               (None, 5)            320         ['bidirectional_2030[0][0]']     
                                                                                                  
 conv1d_665 (Conv1D)            (None, 24, 5)        205         ['conv1d_664[0][0]']             
                                                                                                  
 dense_1648 (Dense)             (None, 64)           384         ['lstm_2805[0][0]']              
                                                                                                  
 dense_1649 (Dense)             (None, 64)           384         ['lstm_2807[0][0]']              
                                                                                                  
 dense_1650 (Dense)             (None, 64)           384         ['lstm_2809[0][0]']              
                                                                                                  
 bidirectional_2031 (Bidirectio  (None, 64)          9728        ['conv1d_665[0][0]']             
 nal)                                                                                             
                                                                                                  
 dropout_1568 (Dropout)         (None, 64)           0           ['dense_1648[0][0]']             
                                                                                                  
 dropout_1569 (Dropout)         (None, 64)           0           ['dense_1649[0][0]']             
                                                                                                  
 dropout_1570 (Dropout)         (None, 64)           0           ['dense_1650[0][0]']             
                                                                                                  
 dropout_1571 (Dropout)         (None, 64)           0           ['bidirectional_2031[0][0]']     
                                                                                                  
 concatenate_412 (Concatenate)  (None, 256)          0           ['dropout_1568[0][0]',           
                                                                  'dropout_1569[0][0]',           
                                                                  'dropout_1570[0][0]',           
                                                                  'dropout_1571[0][0]']           
                                                                                                  
 dense_1651 (Dense)             (None, 1)            257         ['concatenate_412[0][0]']        
                                                                                                  
==================================================================================================
Total params: 13,267
Trainable params: 13,267
Non-trainable params: 0
__________________________________________________________________________________________________
…
 bidirectional_2049 (Bidirectio  (None, None, 10)    280         ['masking_2049[0][0]']           
 nal)                                                                                             
                                                                                                  
 bidirectional_2050 (Bidirectio  (None, None, 10)    280         ['masking_2050[0][0]']           
 nal)                                                                                             
                                                                                                  
 conv1d_674 (Conv1D)            (None, 24, 5)        65          ['masking_2051[0][0]']           
                                                                                                  
 lstm_2840 (LSTM)               (None, 5)            320         ['bidirectional_2048[0][0]']     
                                                                                                  
 lstm_2842 (LSTM)               (None, 5)            320         ['bidirectional_2049[0][0]']     
                                                                                                  
 lstm_2844 (LSTM)               (None, 5)            320         ['bidirectional_2050[0][0]']     
                                                                                                  
 conv1d_675 (Conv1D)            (None, 24, 5)        105         ['conv1d_674[0][0]']             
                                                                                                  
 dense_1668 (Dense)             (None, 96)           576         ['lstm_2840[0][0]']              
                                                                                                  
 dense_1669 (Dense)             (None, 96)           576         ['lstm_2842[0][0]']              
                                                                                                  
 dense_1670 (Dense)             (None, 96)           576         ['lstm_2844[0][0]']              
                                                                                                  
 bidirectional_2051 (Bidirectio  (None, 96)          20736       ['conv1d_675[0][0]']             
 nal)                                                                                             
                                                                                                  
 dropout_1588 (Dropout)         (None, 96)           0           ['dense_1668[0][0]']             
                                                                                                  
 dropout_1589 (Dropout)         (None, 96)           0           ['dense_1669[0][0]']             
                                                                                                  
 dropout_1590 (Dropout)         (None, 96)           0           ['dense_1670[0][0]']             
                                                                                                  
 dropout_1591 (Dropout)         (None, 96)           0           ['bidirectional_2051[0][0]']     
                                                                                                  
 concatenate_417 (Concatenate)  (None, 384)          0           ['dropout_1588[0][0]',           
                                                                  'dropout_1589[0][0]',           
                                                                  'dropout_1590[0][0]',           
                                                                  'dropout_1591[0][0]']           
                                                                                                  
 dense_1671 (Dense)             (None, 1)            385         ['concatenate_417[0][0]']        
                                                                                                  
==================================================================================================
Total params: 24,819
Trainable params: 24,819
Non-trainable params: 0
__________________________________________________________________________________________________
…
 bidirectional_2069 (Bidirectio  (None, None, 10)    280         ['masking_2069[0][0]']           
 nal)                                                                                             
                                                                                                  
 bidirectional_2070 (Bidirectio  (None, None, 10)    280         ['masking_2070[0][0]']           
 nal)                                                                                             
                                                                                                  
 conv1d_684 (Conv1D)            (None, 24, 5)        95          ['masking_2071[0][0]']           
                                                                                                  
 lstm_2875 (LSTM)               (None, 5)            320         ['bidirectional_2068[0][0]']     
                                                                                                  
 lstm_2877 (LSTM)               (None, 5)            320         ['bidirectional_2069[0][0]']     
                                                                                                  
 lstm_2879 (LSTM)               (None, 5)            320         ['bidirectional_2070[0][0]']     
                                                                                                  
 conv1d_685 (Conv1D)            (None, 24, 5)        155         ['conv1d_684[0][0]']             
                                                                                                  
 dense_1688 (Dense)             (None, 96)           576         ['lstm_2875[0][0]']              
                                                                                                  
 dense_1689 (Dense)             (None, 96)           576         ['lstm_2877[0][0]']              
                                                                                                  
 dense_1690 (Dense)             (None, 96)           576         ['lstm_2879[0][0]']              
                                                                                                  
 bidirectional_2071 (Bidirectio  (None, 96)          20736       ['conv1d_685[0][0]']             
 nal)                                                                                             
                                                                                                  
 dropout_1608 (Dropout)         (None, 96)           0           ['dense_1688[0][0]']             
                                                                                                  
 dropout_1609 (Dropout)         (None, 96)           0           ['dense_1689[0][0]']             
                                                                                                  
 dropout_1610 (Dropout)         (None, 96)           0           ['dense_1690[0][0]']             
                                                                                                  
 dropout_1611 (Dropout)         (None, 96)           0           ['bidirectional_2071[0][0]']     
                                                                                                  
 concatenate_422 (Concatenate)  (None, 384)          0           ['dropout_1608[0][0]',           
                                                                  'dropout_1609[0][0]',           
                                                                  'dropout_1610[0][0]',           
                                                                  'dropout_1611[0][0]']           
                                                                                                  
 dense_1691 (Dense)             (None, 1)            385         ['concatenate_422[0][0]']        
                                                                                                  
==================================================================================================
Total params: 24,899
Trainable params: 24,899
Non-trainable params: 0
__________________________________________________________________________________________________
…
 bidirectional_2089 (Bidirectio  (None, None, 10)    280         ['masking_2089[0][0]']           
 nal)                                                                                             
                                                                                                  
 bidirectional_2090 (Bidirectio  (None, None, 10)    280         ['masking_2090[0][0]']           
 nal)                                                                                             
                                                                                                  
 conv1d_694 (Conv1D)            (None, 24, 5)        125         ['masking_2091[0][0]']           
                                                                                                  
 lstm_2910 (LSTM)               (None, 5)            320         ['bidirectional_2088[0][0]']     
                                                                                                  
 lstm_2912 (LSTM)               (None, 5)            320         ['bidirectional_2089[0][0]']     
                                                                                                  
 lstm_2914 (LSTM)               (None, 5)            320         ['bidirectional_2090[0][0]']     
                                                                                                  
 conv1d_695 (Conv1D)            (None, 24, 5)        205         ['conv1d_694[0][0]']             
                                                                                                  
 dense_1708 (Dense)             (None, 96)           576         ['lstm_2910[0][0]']              
                                                                                                  
 dense_1709 (Dense)             (None, 96)           576         ['lstm_2912[0][0]']              
                                                                                                  
 dense_1710 (Dense)             (None, 96)           576         ['lstm_2914[0][0]']              
                                                                                                  
 bidirectional_2091 (Bidirectio  (None, 96)          20736       ['conv1d_695[0][0]']             
 nal)                                                                                             
                                                                                                  
 dropout_1628 (Dropout)         (None, 96)           0           ['dense_1708[0][0]']             
                                                                                                  
 dropout_1629 (Dropout)         (None, 96)           0           ['dense_1709[0][0]']             
                                                                                                  
 dropout_1630 (Dropout)         (None, 96)           0           ['dense_1710[0][0]']             
                                                                                                  
 dropout_1631 (Dropout)         (None, 96)           0           ['bidirectional_2091[0][0]']     
                                                                                                  
 concatenate_427 (Concatenate)  (None, 384)          0           ['dropout_1628[0][0]',           
                                                                  'dropout_1629[0][0]',           
                                                                  'dropout_1630[0][0]',           
                                                                  'dropout_1631[0][0]']           
                                                                                                  
 dense_1711 (Dense)             (None, 1)            385         ['concatenate_427[0][0]']        
                                                                                                  
==================================================================================================
Total params: 24,979
Trainable params: 24,979
Non-trainable params: 0
__________________________________________________________________________________________________
…
 bidirectional_2109 (Bidirectio  (None, None, 10)    280         ['masking_2109[0][0]']           
 nal)                                                                                             
                                                                                                  
 bidirectional_2110 (Bidirectio  (None, None, 10)    280         ['masking_2110[0][0]']           
 nal)                                                                                             
                                                                                                  
 conv1d_704 (Conv1D)            (None, 24, 5)        65          ['masking_2111[0][0]']           
                                                                                                  
 lstm_2945 (LSTM)               (None, 5)            320         ['bidirectional_2108[0][0]']     
                                                                                                  
 lstm_2947 (LSTM)               (None, 5)            320         ['bidirectional_2109[0][0]']     
                                                                                                  
 lstm_2949 (LSTM)               (None, 5)            320         ['bidirectional_2110[0][0]']     
                                                                                                  
 conv1d_705 (Conv1D)            (None, 24, 5)        105         ['conv1d_704[0][0]']             
                                                                                                  
 dense_1728 (Dense)             (None, 128)          768         ['lstm_2945[0][0]']              
                                                                                                  
 dense_1729 (Dense)             (None, 128)          768         ['lstm_2947[0][0]']              
                                                                                                  
 dense_1730 (Dense)             (None, 128)          768         ['lstm_2949[0][0]']              
                                                                                                  
 bidirectional_2111 (Bidirectio  (None, 128)         35840       ['conv1d_705[0][0]']             
 nal)                                                                                             
                                                                                                  
 dropout_1648 (Dropout)         (None, 128)          0           ['dense_1728[0][0]']             
                                                                                                  
 dropout_1649 (Dropout)         (None, 128)          0           ['dense_1729[0][0]']             
                                                                                                  
 dropout_1650 (Dropout)         (None, 128)          0           ['dense_1730[0][0]']             
                                                                                                  
 dropout_1651 (Dropout)         (None, 128)          0           ['bidirectional_2111[0][0]']     
                                                                                                  
 concatenate_432 (Concatenate)  (None, 512)          0           ['dropout_1648[0][0]',           
                                                                  'dropout_1649[0][0]',           
                                                                  'dropout_1650[0][0]',           
                                                                  'dropout_1651[0][0]']           
                                                                                                  
 dense_1731 (Dense)             (None, 1)            513         ['concatenate_432[0][0]']        
                                                                                                  
==================================================================================================
Total params: 40,627
Trainable params: 40,627
Non-trainable params: 0
__________________________________________________________________________________________________
…
 bidirectional_2129 (Bidirectio  (None, None, 10)    280         ['masking_2129[0][0]']           
 nal)                                                                                             
                                                                                                  
 bidirectional_2130 (Bidirectio  (None, None, 10)    280         ['masking_2130[0][0]']           
 nal)                                                                                             
                                                                                                  
 conv1d_714 (Conv1D)            (None, 24, 5)        95          ['masking_2131[0][0]']           
                                                                                                  
 lstm_2980 (LSTM)               (None, 5)            320         ['bidirectional_2128[0][0]']     
                                                                                                  
 lstm_2982 (LSTM)               (None, 5)            320         ['bidirectional_2129[0][0]']     
                                                                                                  
 lstm_2984 (LSTM)               (None, 5)            320         ['bidirectional_2130[0][0]']     
                                                                                                  
 conv1d_715 (Conv1D)            (None, 24, 5)        155         ['conv1d_714[0][0]']             
                                                                                                  
 dense_1748 (Dense)             (None, 128)          768         ['lstm_2980[0][0]']              
                                                                                                  
 dense_1749 (Dense)             (None, 128)          768         ['lstm_2982[0][0]']              
                                                                                                  
 dense_1750 (Dense)             (None, 128)          768         ['lstm_2984[0][0]']              
                                                                                                  
 bidirectional_2131 (Bidirectio  (None, 128)         35840       ['conv1d_715[0][0]']             
 nal)                                                                                             
                                                                                                  
 dropout_1668 (Dropout)         (None, 128)          0           ['dense_1748[0][0]']             
                                                                                                  
 dropout_1669 (Dropout)         (None, 128)          0           ['dense_1749[0][0]']             
                                                                                                  
 dropout_1670 (Dropout)         (None, 128)          0           ['dense_1750[0][0]']             
                                                                                                  
 dropout_1671 (Dropout)         (None, 128)          0           ['bidirectional_2131[0][0]']     
                                                                                                  
 concatenate_437 (Concatenate)  (None, 512)          0           ['dropout_1668[0][0]',           
                                                                  'dropout_1669[0][0]',           
                                                                  'dropout_1670[0][0]',           
                                                                  'dropout_1671[0][0]']           
                                                                                                  
 dense_1751 (Dense)             (None, 1)            513         ['concatenate_437[0][0]']        
                                                                                                  
==================================================================================================
Total params: 40,707
Trainable params: 40,707
Non-trainable params: 0
__________________________________________________________________________________________________
…
 bidirectional_2149 (Bidirectio  (None, None, 10)    280         ['masking_2149[0][0]']           
 nal)                                                                                             
                                                                                                  
 bidirectional_2150 (Bidirectio  (None, None, 10)    280         ['masking_2150[0][0]']           
 nal)                                                                                             
                                                                                                  
 conv1d_724 (Conv1D)            (None, 24, 5)        125         ['masking_2151[0][0]']           
                                                                                                  
 lstm_3015 (LSTM)               (None, 5)            320         ['bidirectional_2148[0][0]']     
                                                                                                  
 lstm_3017 (LSTM)               (None, 5)            320         ['bidirectional_2149[0][0]']     
                                                                                                  
 lstm_3019 (LSTM)               (None, 5)            320         ['bidirectional_2150[0][0]']     
                                                                                                  
 conv1d_725 (Conv1D)            (None, 24, 5)        205         ['conv1d_724[0][0]']             
                                                                                                  
 dense_1768 (Dense)             (None, 128)          768         ['lstm_3015[0][0]']              
                                                                                                  
 dense_1769 (Dense)             (None, 128)          768         ['lstm_3017[0][0]']              
                                                                                                  
 dense_1770 (Dense)             (None, 128)          768         ['lstm_3019[0][0]']              
                                                                                                  
 bidirectional_2151 (Bidirectio  (None, 128)         35840       ['conv1d_725[0][0]']             
 nal)                                                                                             
                                                                                                  
 dropout_1688 (Dropout)         (None, 128)          0           ['dense_1768[0][0]']             
                                                                                                  
 dropout_1689 (Dropout)         (None, 128)          0           ['dense_1769[0][0]']             
                                                                                                  
 dropout_1690 (Dropout)         (None, 128)          0           ['dense_1770[0][0]']             
                                                                                                  
 dropout_1691 (Dropout)         (None, 128)          0           ['bidirectional_2151[0][0]']     
                                                                                                  
 concatenate_442 (Concatenate)  (None, 512)          0           ['dropout_1688[0][0]',           
                                                                  'dropout_1689[0][0]',           
                                                                  'dropout_1690[0][0]',           
                                                                  'dropout_1691[0][0]']           
                                                                                                  
 dense_1771 (Dense)             (None, 1)            513         ['concatenate_442[0][0]']        
                                                                                                  
==================================================================================================
Total params: 40,787
Trainable params: 40,787
Non-trainable params: 0
__________________________________________________________________________________________________
…
