…
 bidirectional_3011 (Bidirectio  (None, None, 10)    280         ['masking_3011[0][0]']           
 nal)                                                                                             
                                                                                                  
 bidirectional_3012 (Bidirectio  (None, None, 10)    280         ['masking_3012[0][0]']           
 nal)                                                                                             
                                                                                                  
 conv1d_920 (Conv1D)            (None, 25, 5)        1885        ['masking_3013[0][0]']           
                                                                                                  
 lstm_4181 (LSTM)               (None, 5)            320         ['bidirectional_3010[0][0]']     
                                                                                                  
 lstm_4183 (LSTM)               (None, 5)            320         ['bidirectional_3011[0][0]']     
                                                                                                  
 lstm_4185 (LSTM)               (None, 5)            320         ['bidirectional_3012[0][0]']     
                                                                                                  
 conv1d_921 (Conv1D)            (None, 25, 5)        105         ['conv1d_920[0][0]']             
                                                                                                  
 dense_2480 (Dense)             (None, 64)           384         ['lstm_4181[0][0]']              
                                                                                                  
 dense_2481 (Dense)             (None, 64)           384         ['lstm_4183[0][0]']              
                                                                                                  
 dense_2482 (Dense)             (None, 64)           384         ['lstm_4185[0][0]']              
                                                                                                  
 bidirectional_3013 (Bidirectio  (None, 64)          9728        ['conv1d_921[0][0]']             
 nal)                                                                                             
                                                                                                  
 dropout_2320 (Dropout)         (None, 64)           0           ['dense_2480[0][0]']             
                                                                                                  
 dropout_2321 (Dropout)         (None, 64)           0           ['dense_2481[0][0]']             
                                                                                                  
 dropout_2322 (Dropout)         (None, 64)           0           ['dense_2482[0][0]']             
                                                                                                  
 dropout_2323 (Dropout)         (None, 64)           0           ['bidirectional_3013[0][0]']     
                                                                                                  
 concatenate_620 (Concatenate)  (None, 256)          0           ['dropout_2320[0][0]',           
                                                                  'dropout_2321[0][0]',           
                                                                  'dropout_2322[0][0]',           
                                                                  'dropout_2323[0][0]']           
                                                                                                  
 dense_2483 (Dense)             (None, 1)            257         ['concatenate_620[0][0]']        
                                                                                                  
==================================================================================================
Total params: 14,927
Trainable params: 14,927
Non-trainable params: 0
__________________________________________________________________________________________________
…
 bidirectional_3031 (Bidirectio  (None, None, 10)    280         ['masking_3031[0][0]']           
 nal)                                                                                             
                                                                                                  
 bidirectional_3032 (Bidirectio  (None, None, 10)    280         ['masking_3032[0][0]']           
 nal)                                                                                             
                                                                                                  
 conv1d_930 (Conv1D)            (None, 25, 5)        2825        ['masking_3033[0][0]']           
                                                                                                  
 lstm_4216 (LSTM)               (None, 5)            320         ['bidirectional_3030[0][0]']     
                                                                                                  
 lstm_4218 (LSTM)               (None, 5)            320         ['bidirectional_3031[0][0]']     
                                                                                                  
 lstm_4220 (LSTM)               (None, 5)            320         ['bidirectional_3032[0][0]']     
                                                                                                  
 conv1d_931 (Conv1D)            (None, 25, 5)        155         ['conv1d_930[0][0]']             
                                                                                                  
 dense_2500 (Dense)             (None, 64)           384         ['lstm_4216[0][0]']              
                                                                                                  
 dense_2501 (Dense)             (None, 64)           384         ['lstm_4218[0][0]']              
                                                                                                  
 dense_2502 (Dense)             (None, 64)           384         ['lstm_4220[0][0]']              
                                                                                                  
 bidirectional_3033 (Bidirectio  (None, 64)          9728        ['conv1d_931[0][0]']             
 nal)                                                                                             
                                                                                                  
 dropout_2340 (Dropout)         (None, 64)           0           ['dense_2500[0][0]']             
                                                                                                  
 dropout_2341 (Dropout)         (None, 64)           0           ['dense_2501[0][0]']             
                                                                                                  
 dropout_2342 (Dropout)         (None, 64)           0           ['dense_2502[0][0]']             
                                                                                                  
 dropout_2343 (Dropout)         (None, 64)           0           ['bidirectional_3033[0][0]']     
                                                                                                  
 concatenate_625 (Concatenate)  (None, 256)          0           ['dropout_2340[0][0]',           
                                                                  'dropout_2341[0][0]',           
                                                                  'dropout_2342[0][0]',           
                                                                  'dropout_2343[0][0]']           
                                                                                                  
 dense_2503 (Dense)             (None, 1)            257         ['concatenate_625[0][0]']        
                                                                                                  
==================================================================================================
Total params: 15,917
Trainable params: 15,917
Non-trainable params: 0
__________________________________________________________________________________________________
…
 bidirectional_3051 (Bidirectio  (None, None, 10)    280         ['masking_3051[0][0]']           
 nal)                                                                                             
                                                                                                  
 bidirectional_3052 (Bidirectio  (None, None, 10)    280         ['masking_3052[0][0]']           
 nal)                                                                                             
                                                                                                  
 conv1d_940 (Conv1D)            (None, 25, 5)        3765        ['masking_3053[0][0]']           
                                                                                                  
 lstm_4251 (LSTM)               (None, 5)            320         ['bidirectional_3050[0][0]']     
                                                                                                  
 lstm_4253 (LSTM)               (None, 5)            320         ['bidirectional_3051[0][0]']     
                                                                                                  
 lstm_4255 (LSTM)               (None, 5)            320         ['bidirectional_3052[0][0]']     
                                                                                                  
 conv1d_941 (Conv1D)            (None, 25, 5)        205         ['conv1d_940[0][0]']             
                                                                                                  
 dense_2520 (Dense)             (None, 64)           384         ['lstm_4251[0][0]']              
                                                                                                  
 dense_2521 (Dense)             (None, 64)           384         ['lstm_4253[0][0]']              
                                                                                                  
 dense_2522 (Dense)             (None, 64)           384         ['lstm_4255[0][0]']              
                                                                                                  
 bidirectional_3053 (Bidirectio  (None, 64)          9728        ['conv1d_941[0][0]']             
 nal)                                                                                             
                                                                                                  
 dropout_2360 (Dropout)         (None, 64)           0           ['dense_2520[0][0]']             
                                                                                                  
 dropout_2361 (Dropout)         (None, 64)           0           ['dense_2521[0][0]']             
                                                                                                  
 dropout_2362 (Dropout)         (None, 64)           0           ['dense_2522[0][0]']             
                                                                                                  
 dropout_2363 (Dropout)         (None, 64)           0           ['bidirectional_3053[0][0]']     
                                                                                                  
 concatenate_630 (Concatenate)  (None, 256)          0           ['dropout_2360[0][0]',           
                                                                  'dropout_2361[0][0]',           
                                                                  'dropout_2362[0][0]',           
                                                                  'dropout_2363[0][0]']           
                                                                                                  
 dense_2523 (Dense)             (None, 1)            257         ['concatenate_630[0][0]']        
                                                                                                  
==================================================================================================
Total params: 16,907
Trainable params: 16,907
Non-trainable params: 0
__________________________________________________________________________________________________
…
 bidirectional_3071 (Bidirectio  (None, None, 10)    280         ['masking_3071[0][0]']           
 nal)                                                                                             
                                                                                                  
 bidirectional_3072 (Bidirectio  (None, None, 10)    280         ['masking_3072[0][0]']           
 nal)                                                                                             
                                                                                                  
 conv1d_950 (Conv1D)            (None, 25, 5)        1885        ['masking_3073[0][0]']           
                                                                                                  
 lstm_4286 (LSTM)               (None, 5)            320         ['bidirectional_3070[0][0]']     
                                                                                                  
 lstm_4288 (LSTM)               (None, 5)            320         ['bidirectional_3071[0][0]']     
                                                                                                  
 lstm_4290 (LSTM)               (None, 5)            320         ['bidirectional_3072[0][0]']     
                                                                                                  
 conv1d_951 (Conv1D)            (None, 25, 5)        105         ['conv1d_950[0][0]']             
                                                                                                  
 dense_2540 (Dense)             (None, 96)           576         ['lstm_4286[0][0]']              
                                                                                                  
 dense_2541 (Dense)             (None, 96)           576         ['lstm_4288[0][0]']              
                                                                                                  
 dense_2542 (Dense)             (None, 96)           576         ['lstm_4290[0][0]']              
                                                                                                  
 bidirectional_3073 (Bidirectio  (None, 96)          20736       ['conv1d_951[0][0]']             
 nal)                                                                                             
                                                                                                  
 dropout_2380 (Dropout)         (None, 96)           0           ['dense_2540[0][0]']             
                                                                                                  
 dropout_2381 (Dropout)         (None, 96)           0           ['dense_2541[0][0]']             
                                                                                                  
 dropout_2382 (Dropout)         (None, 96)           0           ['dense_2542[0][0]']             
                                                                                                  
 dropout_2383 (Dropout)         (None, 96)           0           ['bidirectional_3073[0][0]']     
                                                                                                  
 concatenate_635 (Concatenate)  (None, 384)          0           ['dropout_2380[0][0]',           
                                                                  'dropout_2381[0][0]',           
                                                                  'dropout_2382[0][0]',           
                                                                  'dropout_2383[0][0]']           
                                                                                                  
 dense_2543 (Dense)             (None, 1)            385         ['concatenate_635[0][0]']        
                                                                                                  
==================================================================================================
Total params: 26,639
Trainable params: 26,639
Non-trainable params: 0
__________________________________________________________________________________________________
…
 bidirectional_3091 (Bidirectio  (None, None, 10)    280         ['masking_3091[0][0]']           
 nal)                                                                                             
                                                                                                  
 bidirectional_3092 (Bidirectio  (None, None, 10)    280         ['masking_3092[0][0]']           
 nal)                                                                                             
                                                                                                  
 conv1d_960 (Conv1D)            (None, 25, 5)        2825        ['masking_3093[0][0]']           
                                                                                                  
 lstm_4321 (LSTM)               (None, 5)            320         ['bidirectional_3090[0][0]']     
                                                                                                  
 lstm_4323 (LSTM)               (None, 5)            320         ['bidirectional_3091[0][0]']     
                                                                                                  
 lstm_4325 (LSTM)               (None, 5)            320         ['bidirectional_3092[0][0]']     
                                                                                                  
 conv1d_961 (Conv1D)            (None, 25, 5)        155         ['conv1d_960[0][0]']             
                                                                                                  
 dense_2560 (Dense)             (None, 96)           576         ['lstm_4321[0][0]']              
                                                                                                  
 dense_2561 (Dense)             (None, 96)           576         ['lstm_4323[0][0]']              
                                                                                                  
 dense_2562 (Dense)             (None, 96)           576         ['lstm_4325[0][0]']              
                                                                                                  
 bidirectional_3093 (Bidirectio  (None, 96)          20736       ['conv1d_961[0][0]']             
 nal)                                                                                             
                                                                                                  
 dropout_2400 (Dropout)         (None, 96)           0           ['dense_2560[0][0]']             
                                                                                                  
 dropout_2401 (Dropout)         (None, 96)           0           ['dense_2561[0][0]']             
                                                                                                  
 dropout_2402 (Dropout)         (None, 96)           0           ['dense_2562[0][0]']             
                                                                                                  
 dropout_2403 (Dropout)         (None, 96)           0           ['bidirectional_3093[0][0]']     
                                                                                                  
 concatenate_640 (Concatenate)  (None, 384)          0           ['dropout_2400[0][0]',           
                                                                  'dropout_2401[0][0]',           
                                                                  'dropout_2402[0][0]',           
                                                                  'dropout_2403[0][0]']           
                                                                                                  
 dense_2563 (Dense)             (None, 1)            385         ['concatenate_640[0][0]']        
                                                                                                  
==================================================================================================
Total params: 27,629
Trainable params: 27,629
Non-trainable params: 0
__________________________________________________________________________________________________
…
 bidirectional_3111 (Bidirectio  (None, None, 10)    280         ['masking_3111[0][0]']           
 nal)                                                                                             
                                                                                                  
 bidirectional_3112 (Bidirectio  (None, None, 10)    280         ['masking_3112[0][0]']           
 nal)                                                                                             
                                                                                                  
 conv1d_970 (Conv1D)            (None, 25, 5)        3765        ['masking_3113[0][0]']           
                                                                                                  
 lstm_4356 (LSTM)               (None, 5)            320         ['bidirectional_3110[0][0]']     
                                                                                                  
 lstm_4358 (LSTM)               (None, 5)            320         ['bidirectional_3111[0][0]']     
                                                                                                  
 lstm_4360 (LSTM)               (None, 5)            320         ['bidirectional_3112[0][0]']     
                                                                                                  
 conv1d_971 (Conv1D)            (None, 25, 5)        205         ['conv1d_970[0][0]']             
                                                                                                  
 dense_2580 (Dense)             (None, 96)           576         ['lstm_4356[0][0]']              
                                                                                                  
 dense_2581 (Dense)             (None, 96)           576         ['lstm_4358[0][0]']              
                                                                                                  
 dense_2582 (Dense)             (None, 96)           576         ['lstm_4360[0][0]']              
                                                                                                  
 bidirectional_3113 (Bidirectio  (None, 96)          20736       ['conv1d_971[0][0]']             
 nal)                                                                                             
                                                                                                  
 dropout_2420 (Dropout)         (None, 96)           0           ['dense_2580[0][0]']             
                                                                                                  
 dropout_2421 (Dropout)         (None, 96)           0           ['dense_2581[0][0]']             
                                                                                                  
 dropout_2422 (Dropout)         (None, 96)           0           ['dense_2582[0][0]']             
                                                                                                  
 dropout_2423 (Dropout)         (None, 96)           0           ['bidirectional_3113[0][0]']     
                                                                                                  
 concatenate_645 (Concatenate)  (None, 384)          0           ['dropout_2420[0][0]',           
                                                                  'dropout_2421[0][0]',           
                                                                  'dropout_2422[0][0]',           
                                                                  'dropout_2423[0][0]']           
                                                                                                  
 dense_2583 (Dense)             (None, 1)            385         ['concatenate_645[0][0]']        
                                                                                                  
==================================================================================================
Total params: 28,619
Trainable params: 28,619
Non-trainable params: 0
__________________________________________________________________________________________________
…
 bidirectional_3131 (Bidirectio  (None, None, 10)    280         ['masking_3131[0][0]']           
 nal)                                                                                             
                                                                                                  
 bidirectional_3132 (Bidirectio  (None, None, 10)    280         ['masking_3132[0][0]']           
 nal)                                                                                             
                                                                                                  
 conv1d_980 (Conv1D)            (None, 25, 5)        1885        ['masking_3133[0][0]']           
                                                                                                  
 lstm_4391 (LSTM)               (None, 5)            320         ['bidirectional_3130[0][0]']     
                                                                                                  
 lstm_4393 (LSTM)               (None, 5)            320         ['bidirectional_3131[0][0]']     
                                                                                                  
 lstm_4395 (LSTM)               (None, 5)            320         ['bidirectional_3132[0][0]']     
                                                                                                  
 conv1d_981 (Conv1D)            (None, 25, 5)        105         ['conv1d_980[0][0]']             
                                                                                                  
 dense_2600 (Dense)             (None, 128)          768         ['lstm_4391[0][0]']              
                                                                                                  
 dense_2601 (Dense)             (None, 128)          768         ['lstm_4393[0][0]']              
                                                                                                  
 dense_2602 (Dense)             (None, 128)          768         ['lstm_4395[0][0]']              
                                                                                                  
 bidirectional_3133 (Bidirectio  (None, 128)         35840       ['conv1d_981[0][0]']             
 nal)                                                                                             
                                                                                                  
 dropout_2440 (Dropout)         (None, 128)          0           ['dense_2600[0][0]']             
                                                                                                  
 dropout_2441 (Dropout)         (None, 128)          0           ['dense_2601[0][0]']             
                                                                                                  
 dropout_2442 (Dropout)         (None, 128)          0           ['dense_2602[0][0]']             
                                                                                                  
 dropout_2443 (Dropout)         (None, 128)          0           ['bidirectional_3133[0][0]']     
                                                                                                  
 concatenate_650 (Concatenate)  (None, 512)          0           ['dropout_2440[0][0]',           
                                                                  'dropout_2441[0][0]',           
                                                                  'dropout_2442[0][0]',           
                                                                  'dropout_2443[0][0]']           
                                                                                                  
 dense_2603 (Dense)             (None, 1)            513         ['concatenate_650[0][0]']        
                                                                                                  
==================================================================================================
Total params: 42,447
Trainable params: 42,447
Non-trainable params: 0
__________________________________________________________________________________________________
…
 bidirectional_3151 (Bidirectio  (None, None, 10)    280         ['masking_3151[0][0]']           
 nal)                                                                                             
                                                                                                  
 bidirectional_3152 (Bidirectio  (None, None, 10)    280         ['masking_3152[0][0]']           
 nal)                                                                                             
                                                                                                  
 conv1d_990 (Conv1D)            (None, 25, 5)        2825        ['masking_3153[0][0]']           
                                                                                                  
 lstm_4426 (LSTM)               (None, 5)            320         ['bidirectional_3150[0][0]']     
                                                                                                  
 lstm_4428 (LSTM)               (None, 5)            320         ['bidirectional_3151[0][0]']     
                                                                                                  
 lstm_4430 (LSTM)               (None, 5)            320         ['bidirectional_3152[0][0]']     
                                                                                                  
 conv1d_991 (Conv1D)            (None, 25, 5)        155         ['conv1d_990[0][0]']             
                                                                                                  
 dense_2620 (Dense)             (None, 128)          768         ['lstm_4426[0][0]']              
                                                                                                  
 dense_2621 (Dense)             (None, 128)          768         ['lstm_4428[0][0]']              
                                                                                                  
 dense_2622 (Dense)             (None, 128)          768         ['lstm_4430[0][0]']              
                                                                                                  
 bidirectional_3153 (Bidirectio  (None, 128)         35840       ['conv1d_991[0][0]']             
 nal)                                                                                             
                                                                                                  
 dropout_2460 (Dropout)         (None, 128)          0           ['dense_2620[0][0]']             
                                                                                                  
 dropout_2461 (Dropout)         (None, 128)          0           ['dense_2621[0][0]']             
                                                                                                  
 dropout_2462 (Dropout)         (None, 128)          0           ['dense_2622[0][0]']             
                                                                                                  
 dropout_2463 (Dropout)         (None, 128)          0           ['bidirectional_3153[0][0]']     
                                                                                                  
 concatenate_655 (Concatenate)  (None, 512)          0           ['dropout_2460[0][0]',           
                                                                  'dropout_2461[0][0]',           
                                                                  'dropout_2462[0][0]',           
                                                                  'dropout_2463[0][0]']           
                                                                                                  
 dense_2623 (Dense)             (None, 1)            513         ['concatenate_655[0][0]']        
                                                                                                  
==================================================================================================
Total params: 43,437
Trainable params: 43,437
Non-trainable params: 0
__________________________________________________________________________________________________
…
 bidirectional_3171 (Bidirectio  (None, None, 10)    280         ['masking_3171[0][0]']           
 nal)                                                                                             
                                                                                                  
 bidirectional_3172 (Bidirectio  (None, None, 10)    280         ['masking_3172[0][0]']           
 nal)                                                                                             
                                                                                                  
 conv1d_1000 (Conv1D)           (None, 25, 5)        3765        ['masking_3173[0][0]']           
                                                                                                  
 lstm_4461 (LSTM)               (None, 5)            320         ['bidirectional_3170[0][0]']     
                                                                                                  
 lstm_4463 (LSTM)               (None, 5)            320         ['bidirectional_3171[0][0]']     
                                                                                                  
 lstm_4465 (LSTM)               (None, 5)            320         ['bidirectional_3172[0][0]']     
                                                                                                  
 conv1d_1001 (Conv1D)           (None, 25, 5)        205         ['conv1d_1000[0][0]']            
                                                                                                  
 dense_2640 (Dense)             (None, 128)          768         ['lstm_4461[0][0]']              
                                                                                                  
 dense_2641 (Dense)             (None, 128)          768         ['lstm_4463[0][0]']              
                                                                                                  
 dense_2642 (Dense)             (None, 128)          768         ['lstm_4465[0][0]']              
                                                                                                  
 bidirectional_3173 (Bidirectio  (None, 128)         35840       ['conv1d_1001[0][0]']            
 nal)                                                                                             
                                                                                                  
 dropout_2480 (Dropout)         (None, 128)          0           ['dense_2640[0][0]']             
                                                                                                  
 dropout_2481 (Dropout)         (None, 128)          0           ['dense_2641[0][0]']             
                                                                                                  
 dropout_2482 (Dropout)         (None, 128)          0           ['dense_2642[0][0]']             
                                                                                                  
 dropout_2483 (Dropout)         (None, 128)          0           ['bidirectional_3173[0][0]']     
                                                                                                  
 concatenate_660 (Concatenate)  (None, 512)          0           ['dropout_2480[0][0]',           
                                                                  'dropout_2481[0][0]',           
                                                                  'dropout_2482[0][0]',           
                                                                  'dropout_2483[0][0]']           
                                                                                                  
 dense_2643 (Dense)             (None, 1)            513         ['concatenate_660[0][0]']        
                                                                                                  
==================================================================================================
Total params: 44,427
Trainable params: 44,427
Non-trainable params: 0
__________________________________________________________________________________________________
…
