…
 bidirectional_10999 (Bidirecti  (None, None, 10)    280         ['masking_10999[0][0]']          
 onal)                                                                                            
                                                                                                  
 bidirectional_11000 (Bidirecti  (None, None, 10)    280         ['masking_11000[0][0]']          
 onal)                                                                                            
                                                                                                  
 conv1d_3864 (Conv1D)           (None, 25, 5)        1885        ['masking_11001[0][0]']          
                                                                                                  
 lstm_15925 (LSTM)              (None, 5)            320         ['bidirectional_10998[0][0]']    
                                                                                                  
 lstm_15927 (LSTM)              (None, 5)            320         ['bidirectional_10999[0][0]']    
                                                                                                  
 lstm_15929 (LSTM)              (None, 5)            320         ['bidirectional_11000[0][0]']    
                                                                                                  
 conv1d_3865 (Conv1D)           (None, 25, 5)        105         ['conv1d_3864[0][0]']            
                                                                                                  
 dense_9328 (Dense)             (None, 64)           384         ['lstm_15925[0][0]']             
                                                                                                  
 dense_9329 (Dense)             (None, 64)           384         ['lstm_15927[0][0]']             
                                                                                                  
 dense_9330 (Dense)             (None, 64)           384         ['lstm_15929[0][0]']             
                                                                                                  
 bidirectional_11001 (Bidirecti  (None, 64)          9728        ['conv1d_3865[0][0]']            
 onal)                                                                                            
                                                                                                  
 dropout_8928 (Dropout)         (None, 64)           0           ['dense_9328[0][0]']             
                                                                                                  
 dropout_8929 (Dropout)         (None, 64)           0           ['dense_9329[0][0]']             
                                                                                                  
 dropout_8930 (Dropout)         (None, 64)           0           ['dense_9330[0][0]']             
                                                                                                  
 dropout_8931 (Dropout)         (None, 64)           0           ['bidirectional_11001[0][0]']    
                                                                                                  
 concatenate_2332 (Concatenate)  (None, 256)         0           ['dropout_8928[0][0]',           
                                                                  'dropout_8929[0][0]',           
                                                                  'dropout_8930[0][0]',           
                                                                  'dropout_8931[0][0]']           
                                                                                                  
 dense_9331 (Dense)             (None, 1)            257         ['concatenate_2332[0][0]']       
                                                                                                  
==================================================================================================
Total params: 14,927
Trainable params: 14,927
Non-trainable params: 0
__________________________________________________________________________________________________
…
 bidirectional_11019 (Bidirecti  (None, None, 10)    280         ['masking_11019[0][0]']          
 onal)                                                                                            
                                                                                                  
 bidirectional_11020 (Bidirecti  (None, None, 10)    280         ['masking_11020[0][0]']          
 onal)                                                                                            
                                                                                                  
 conv1d_3874 (Conv1D)           (None, 25, 5)        2825        ['masking_11021[0][0]']          
                                                                                                  
 lstm_15960 (LSTM)              (None, 5)            320         ['bidirectional_11018[0][0]']    
                                                                                                  
 lstm_15962 (LSTM)              (None, 5)            320         ['bidirectional_11019[0][0]']    
                                                                                                  
 lstm_15964 (LSTM)              (None, 5)            320         ['bidirectional_11020[0][0]']    
                                                                                                  
 conv1d_3875 (Conv1D)           (None, 25, 5)        155         ['conv1d_3874[0][0]']            
                                                                                                  
 dense_9348 (Dense)             (None, 64)           384         ['lstm_15960[0][0]']             
                                                                                                  
 dense_9349 (Dense)             (None, 64)           384         ['lstm_15962[0][0]']             
                                                                                                  
 dense_9350 (Dense)             (None, 64)           384         ['lstm_15964[0][0]']             
                                                                                                  
 bidirectional_11021 (Bidirecti  (None, 64)          9728        ['conv1d_3875[0][0]']            
 onal)                                                                                            
                                                                                                  
 dropout_8948 (Dropout)         (None, 64)           0           ['dense_9348[0][0]']             
                                                                                                  
 dropout_8949 (Dropout)         (None, 64)           0           ['dense_9349[0][0]']             
                                                                                                  
 dropout_8950 (Dropout)         (None, 64)           0           ['dense_9350[0][0]']             
                                                                                                  
 dropout_8951 (Dropout)         (None, 64)           0           ['bidirectional_11021[0][0]']    
                                                                                                  
 concatenate_2337 (Concatenate)  (None, 256)         0           ['dropout_8948[0][0]',           
                                                                  'dropout_8949[0][0]',           
                                                                  'dropout_8950[0][0]',           
                                                                  'dropout_8951[0][0]']           
                                                                                                  
 dense_9351 (Dense)             (None, 1)            257         ['concatenate_2337[0][0]']       
                                                                                                  
==================================================================================================
Total params: 15,917
Trainable params: 15,917
Non-trainable params: 0
__________________________________________________________________________________________________
…
 bidirectional_11039 (Bidirecti  (None, None, 10)    280         ['masking_11039[0][0]']          
 onal)                                                                                            
                                                                                                  
 bidirectional_11040 (Bidirecti  (None, None, 10)    280         ['masking_11040[0][0]']          
 onal)                                                                                            
                                                                                                  
 conv1d_3884 (Conv1D)           (None, 25, 5)        3765        ['masking_11041[0][0]']          
                                                                                                  
 lstm_15995 (LSTM)              (None, 5)            320         ['bidirectional_11038[0][0]']    
                                                                                                  
 lstm_15997 (LSTM)              (None, 5)            320         ['bidirectional_11039[0][0]']    
                                                                                                  
 lstm_15999 (LSTM)              (None, 5)            320         ['bidirectional_11040[0][0]']    
                                                                                                  
 conv1d_3885 (Conv1D)           (None, 25, 5)        205         ['conv1d_3884[0][0]']            
                                                                                                  
 dense_9368 (Dense)             (None, 64)           384         ['lstm_15995[0][0]']             
                                                                                                  
 dense_9369 (Dense)             (None, 64)           384         ['lstm_15997[0][0]']             
                                                                                                  
 dense_9370 (Dense)             (None, 64)           384         ['lstm_15999[0][0]']             
                                                                                                  
 bidirectional_11041 (Bidirecti  (None, 64)          9728        ['conv1d_3885[0][0]']            
 onal)                                                                                            
                                                                                                  
 dropout_8968 (Dropout)         (None, 64)           0           ['dense_9368[0][0]']             
                                                                                                  
 dropout_8969 (Dropout)         (None, 64)           0           ['dense_9369[0][0]']             
                                                                                                  
 dropout_8970 (Dropout)         (None, 64)           0           ['dense_9370[0][0]']             
                                                                                                  
 dropout_8971 (Dropout)         (None, 64)           0           ['bidirectional_11041[0][0]']    
                                                                                                  
 concatenate_2342 (Concatenate)  (None, 256)         0           ['dropout_8968[0][0]',           
                                                                  'dropout_8969[0][0]',           
                                                                  'dropout_8970[0][0]',           
                                                                  'dropout_8971[0][0]']           
                                                                                                  
 dense_9371 (Dense)             (None, 1)            257         ['concatenate_2342[0][0]']       
                                                                                                  
==================================================================================================
Total params: 16,907
Trainable params: 16,907
Non-trainable params: 0
__________________________________________________________________________________________________
…
 bidirectional_11059 (Bidirecti  (None, None, 10)    280         ['masking_11059[0][0]']          
 onal)                                                                                            
                                                                                                  
 bidirectional_11060 (Bidirecti  (None, None, 10)    280         ['masking_11060[0][0]']          
 onal)                                                                                            
                                                                                                  
 conv1d_3894 (Conv1D)           (None, 25, 5)        1885        ['masking_11061[0][0]']          
                                                                                                  
 lstm_16030 (LSTM)              (None, 5)            320         ['bidirectional_11058[0][0]']    
                                                                                                  
 lstm_16032 (LSTM)              (None, 5)            320         ['bidirectional_11059[0][0]']    
                                                                                                  
 lstm_16034 (LSTM)              (None, 5)            320         ['bidirectional_11060[0][0]']    
                                                                                                  
 conv1d_3895 (Conv1D)           (None, 25, 5)        105         ['conv1d_3894[0][0]']            
                                                                                                  
 dense_9388 (Dense)             (None, 96)           576         ['lstm_16030[0][0]']             
                                                                                                  
 dense_9389 (Dense)             (None, 96)           576         ['lstm_16032[0][0]']             
                                                                                                  
 dense_9390 (Dense)             (None, 96)           576         ['lstm_16034[0][0]']             
                                                                                                  
 bidirectional_11061 (Bidirecti  (None, 96)          20736       ['conv1d_3895[0][0]']            
 onal)                                                                                            
                                                                                                  
 dropout_8988 (Dropout)         (None, 96)           0           ['dense_9388[0][0]']             
                                                                                                  
 dropout_8989 (Dropout)         (None, 96)           0           ['dense_9389[0][0]']             
                                                                                                  
 dropout_8990 (Dropout)         (None, 96)           0           ['dense_9390[0][0]']             
                                                                                                  
 dropout_8991 (Dropout)         (None, 96)           0           ['bidirectional_11061[0][0]']    
                                                                                                  
 concatenate_2347 (Concatenate)  (None, 384)         0           ['dropout_8988[0][0]',           
                                                                  'dropout_8989[0][0]',           
                                                                  'dropout_8990[0][0]',           
                                                                  'dropout_8991[0][0]']           
                                                                                                  
 dense_9391 (Dense)             (None, 1)            385         ['concatenate_2347[0][0]']       
                                                                                                  
==================================================================================================
Total params: 26,639
Trainable params: 26,639
Non-trainable params: 0
__________________________________________________________________________________________________
…
 bidirectional_11079 (Bidirecti  (None, None, 10)    280         ['masking_11079[0][0]']          
 onal)                                                                                            
                                                                                                  
 bidirectional_11080 (Bidirecti  (None, None, 10)    280         ['masking_11080[0][0]']          
 onal)                                                                                            
                                                                                                  
 conv1d_3904 (Conv1D)           (None, 25, 5)        2825        ['masking_11081[0][0]']          
                                                                                                  
 lstm_16065 (LSTM)              (None, 5)            320         ['bidirectional_11078[0][0]']    
                                                                                                  
 lstm_16067 (LSTM)              (None, 5)            320         ['bidirectional_11079[0][0]']    
                                                                                                  
 lstm_16069 (LSTM)              (None, 5)            320         ['bidirectional_11080[0][0]']    
                                                                                                  
 conv1d_3905 (Conv1D)           (None, 25, 5)        155         ['conv1d_3904[0][0]']            
                                                                                                  
 dense_9408 (Dense)             (None, 96)           576         ['lstm_16065[0][0]']             
                                                                                                  
 dense_9409 (Dense)             (None, 96)           576         ['lstm_16067[0][0]']             
                                                                                                  
 dense_9410 (Dense)             (None, 96)           576         ['lstm_16069[0][0]']             
                                                                                                  
 bidirectional_11081 (Bidirecti  (None, 96)          20736       ['conv1d_3905[0][0]']            
 onal)                                                                                            
                                                                                                  
 dropout_9008 (Dropout)         (None, 96)           0           ['dense_9408[0][0]']             
                                                                                                  
 dropout_9009 (Dropout)         (None, 96)           0           ['dense_9409[0][0]']             
                                                                                                  
 dropout_9010 (Dropout)         (None, 96)           0           ['dense_9410[0][0]']             
                                                                                                  
 dropout_9011 (Dropout)         (None, 96)           0           ['bidirectional_11081[0][0]']    
                                                                                                  
 concatenate_2352 (Concatenate)  (None, 384)         0           ['dropout_9008[0][0]',           
                                                                  'dropout_9009[0][0]',           
                                                                  'dropout_9010[0][0]',           
                                                                  'dropout_9011[0][0]']           
                                                                                                  
 dense_9411 (Dense)             (None, 1)            385         ['concatenate_2352[0][0]']       
                                                                                                  
==================================================================================================
Total params: 27,629
Trainable params: 27,629
Non-trainable params: 0
__________________________________________________________________________________________________
…
 bidirectional_11099 (Bidirecti  (None, None, 10)    280         ['masking_11099[0][0]']          
 onal)                                                                                            
                                                                                                  
 bidirectional_11100 (Bidirecti  (None, None, 10)    280         ['masking_11100[0][0]']          
 onal)                                                                                            
                                                                                                  
 conv1d_3914 (Conv1D)           (None, 25, 5)        3765        ['masking_11101[0][0]']          
                                                                                                  
 lstm_16100 (LSTM)              (None, 5)            320         ['bidirectional_11098[0][0]']    
                                                                                                  
 lstm_16102 (LSTM)              (None, 5)            320         ['bidirectional_11099[0][0]']    
                                                                                                  
 lstm_16104 (LSTM)              (None, 5)            320         ['bidirectional_11100[0][0]']    
                                                                                                  
 conv1d_3915 (Conv1D)           (None, 25, 5)        205         ['conv1d_3914[0][0]']            
                                                                                                  
 dense_9428 (Dense)             (None, 96)           576         ['lstm_16100[0][0]']             
                                                                                                  
 dense_9429 (Dense)             (None, 96)           576         ['lstm_16102[0][0]']             
                                                                                                  
 dense_9430 (Dense)             (None, 96)           576         ['lstm_16104[0][0]']             
                                                                                                  
 bidirectional_11101 (Bidirecti  (None, 96)          20736       ['conv1d_3915[0][0]']            
 onal)                                                                                            
                                                                                                  
 dropout_9028 (Dropout)         (None, 96)           0           ['dense_9428[0][0]']             
                                                                                                  
 dropout_9029 (Dropout)         (None, 96)           0           ['dense_9429[0][0]']             
                                                                                                  
 dropout_9030 (Dropout)         (None, 96)           0           ['dense_9430[0][0]']             
                                                                                                  
 dropout_9031 (Dropout)         (None, 96)           0           ['bidirectional_11101[0][0]']    
                                                                                                  
 concatenate_2357 (Concatenate)  (None, 384)         0           ['dropout_9028[0][0]',           
                                                                  'dropout_9029[0][0]',           
                                                                  'dropout_9030[0][0]',           
                                                                  'dropout_9031[0][0]']           
                                                                                                  
 dense_9431 (Dense)             (None, 1)            385         ['concatenate_2357[0][0]']       
                                                                                                  
==================================================================================================
Total params: 28,619
Trainable params: 28,619
Non-trainable params: 0
__________________________________________________________________________________________________
…
 bidirectional_11119 (Bidirecti  (None, None, 10)    280         ['masking_11119[0][0]']          
 onal)                                                                                            
                                                                                                  
 bidirectional_11120 (Bidirecti  (None, None, 10)    280         ['masking_11120[0][0]']          
 onal)                                                                                            
                                                                                                  
 conv1d_3924 (Conv1D)           (None, 25, 5)        1885        ['masking_11121[0][0]']          
                                                                                                  
 lstm_16135 (LSTM)              (None, 5)            320         ['bidirectional_11118[0][0]']    
                                                                                                  
 lstm_16137 (LSTM)              (None, 5)            320         ['bidirectional_11119[0][0]']    
                                                                                                  
 lstm_16139 (LSTM)              (None, 5)            320         ['bidirectional_11120[0][0]']    
                                                                                                  
 conv1d_3925 (Conv1D)           (None, 25, 5)        105         ['conv1d_3924[0][0]']            
                                                                                                  
 dense_9448 (Dense)             (None, 128)          768         ['lstm_16135[0][0]']             
                                                                                                  
 dense_9449 (Dense)             (None, 128)          768         ['lstm_16137[0][0]']             
                                                                                                  
 dense_9450 (Dense)             (None, 128)          768         ['lstm_16139[0][0]']             
                                                                                                  
 bidirectional_11121 (Bidirecti  (None, 128)         35840       ['conv1d_3925[0][0]']            
 onal)                                                                                            
                                                                                                  
 dropout_9048 (Dropout)         (None, 128)          0           ['dense_9448[0][0]']             
                                                                                                  
 dropout_9049 (Dropout)         (None, 128)          0           ['dense_9449[0][0]']             
                                                                                                  
 dropout_9050 (Dropout)         (None, 128)          0           ['dense_9450[0][0]']             
                                                                                                  
 dropout_9051 (Dropout)         (None, 128)          0           ['bidirectional_11121[0][0]']    
                                                                                                  
 concatenate_2362 (Concatenate)  (None, 512)         0           ['dropout_9048[0][0]',           
                                                                  'dropout_9049[0][0]',           
                                                                  'dropout_9050[0][0]',           
                                                                  'dropout_9051[0][0]']           
                                                                                                  
 dense_9451 (Dense)             (None, 1)            513         ['concatenate_2362[0][0]']       
                                                                                                  
==================================================================================================
Total params: 42,447
Trainable params: 42,447
Non-trainable params: 0
__________________________________________________________________________________________________
…
 bidirectional_11139 (Bidirecti  (None, None, 10)    280         ['masking_11139[0][0]']          
 onal)                                                                                            
                                                                                                  
 bidirectional_11140 (Bidirecti  (None, None, 10)    280         ['masking_11140[0][0]']          
 onal)                                                                                            
                                                                                                  
 conv1d_3934 (Conv1D)           (None, 25, 5)        2825        ['masking_11141[0][0]']          
                                                                                                  
 lstm_16170 (LSTM)              (None, 5)            320         ['bidirectional_11138[0][0]']    
                                                                                                  
 lstm_16172 (LSTM)              (None, 5)            320         ['bidirectional_11139[0][0]']    
                                                                                                  
 lstm_16174 (LSTM)              (None, 5)            320         ['bidirectional_11140[0][0]']    
                                                                                                  
 conv1d_3935 (Conv1D)           (None, 25, 5)        155         ['conv1d_3934[0][0]']            
                                                                                                  
 dense_9468 (Dense)             (None, 128)          768         ['lstm_16170[0][0]']             
                                                                                                  
 dense_9469 (Dense)             (None, 128)          768         ['lstm_16172[0][0]']             
                                                                                                  
 dense_9470 (Dense)             (None, 128)          768         ['lstm_16174[0][0]']             
                                                                                                  
 bidirectional_11141 (Bidirecti  (None, 128)         35840       ['conv1d_3935[0][0]']            
 onal)                                                                                            
                                                                                                  
 dropout_9068 (Dropout)         (None, 128)          0           ['dense_9468[0][0]']             
                                                                                                  
 dropout_9069 (Dropout)         (None, 128)          0           ['dense_9469[0][0]']             
                                                                                                  
 dropout_9070 (Dropout)         (None, 128)          0           ['dense_9470[0][0]']             
                                                                                                  
 dropout_9071 (Dropout)         (None, 128)          0           ['bidirectional_11141[0][0]']    
                                                                                                  
 concatenate_2367 (Concatenate)  (None, 512)         0           ['dropout_9068[0][0]',           
                                                                  'dropout_9069[0][0]',           
                                                                  'dropout_9070[0][0]',           
                                                                  'dropout_9071[0][0]']           
                                                                                                  
 dense_9471 (Dense)             (None, 1)            513         ['concatenate_2367[0][0]']       
                                                                                                  
==================================================================================================
Total params: 43,437
Trainable params: 43,437
Non-trainable params: 0
__________________________________________________________________________________________________
…
 bidirectional_11159 (Bidirecti  (None, None, 10)    280         ['masking_11159[0][0]']          
 onal)                                                                                            
                                                                                                  
 bidirectional_11160 (Bidirecti  (None, None, 10)    280         ['masking_11160[0][0]']          
 onal)                                                                                            
                                                                                                  
 conv1d_3944 (Conv1D)           (None, 25, 5)        3765        ['masking_11161[0][0]']          
                                                                                                  
 lstm_16205 (LSTM)              (None, 5)            320         ['bidirectional_11158[0][0]']    
                                                                                                  
 lstm_16207 (LSTM)              (None, 5)            320         ['bidirectional_11159[0][0]']    
                                                                                                  
 lstm_16209 (LSTM)              (None, 5)            320         ['bidirectional_11160[0][0]']    
                                                                                                  
 conv1d_3945 (Conv1D)           (None, 25, 5)        205         ['conv1d_3944[0][0]']            
                                                                                                  
 dense_9488 (Dense)             (None, 128)          768         ['lstm_16205[0][0]']             
                                                                                                  
 dense_9489 (Dense)             (None, 128)          768         ['lstm_16207[0][0]']             
                                                                                                  
 dense_9490 (Dense)             (None, 128)          768         ['lstm_16209[0][0]']             
                                                                                                  
 bidirectional_11161 (Bidirecti  (None, 128)         35840       ['conv1d_3945[0][0]']            
 onal)                                                                                            
                                                                                                  
 dropout_9088 (Dropout)         (None, 128)          0           ['dense_9488[0][0]']             
                                                                                                  
 dropout_9089 (Dropout)         (None, 128)          0           ['dense_9489[0][0]']             
                                                                                                  
 dropout_9090 (Dropout)         (None, 128)          0           ['dense_9490[0][0]']             
                                                                                                  
 dropout_9091 (Dropout)         (None, 128)          0           ['bidirectional_11161[0][0]']    
                                                                                                  
 concatenate_2372 (Concatenate)  (None, 512)         0           ['dropout_9088[0][0]',           
                                                                  'dropout_9089[0][0]',           
                                                                  'dropout_9090[0][0]',           
                                                                  'dropout_9091[0][0]']           
                                                                                                  
 dense_9491 (Dense)             (None, 1)            513         ['concatenate_2372[0][0]']       
                                                                                                  
==================================================================================================
Total params: 44,427
Trainable params: 44,427
Non-trainable params: 0
__________________________________________________________________________________________________
…
