Model: "model_3"
_________________________________________________________________
 Layer (type)                Output Shape              Param #   
=================================================================
 input_1 (InputLayer)        [(None, 3, 24)]           0         
                                                                 
 masking_8 (Masking)         (None, 3, 24)             0         
                                                                 
 conv1d_1 (Conv1D)           (None, 3, 5)              725       
                                                                 
 conv1d_2 (Conv1D)           (None, 3, 5)              155       
                                                                 
 bidirectional_8 (Bidirectio  (None, 96)               20736     
 nal)                                                            
                                                                 
 dropout (Dropout)           (None, 96)                0         
                                                                 
 output_dense (Dense)        (None, 1)                 97        
                                                                 
=================================================================
Total params: 21,713
Trainable params: 21,713
Non-trainable params: 0
_________________________________________________________________
Epoch 1/70
1/1 [==============================] - ETA: 0s - loss: 0.9530 - accuracy: 0.64351/1 [==============================] - 2s 2s/step - loss: 0.9530 - accuracy: 0.6435 - lr: 0.0100
…
