…
 bidirectional_9241 (Bidirectio  (None, None, 10)    280         ['masking_9241[0][0]']           
 nal)                                                                                             
                                                                                                  
 bidirectional_9242 (Bidirectio  (None, None, 10)    280         ['masking_9242[0][0]']           
 nal)                                                                                             
                                                                                                  
 conv1d_3220 (Conv1D)           (None, 24, 5)        65          ['masking_9243[0][0]']           
                                                                                                  
 lstm_13191 (LSTM)              (None, 5)            320         ['bidirectional_9240[0][0]']     
                                                                                                  
 lstm_13193 (LSTM)              (None, 5)            320         ['bidirectional_9241[0][0]']     
                                                                                                  
 lstm_13195 (LSTM)              (None, 5)            320         ['bidirectional_9242[0][0]']     
                                                                                                  
 conv1d_3221 (Conv1D)           (None, 24, 5)        105         ['conv1d_3220[0][0]']            
                                                                                                  
 dense_7720 (Dense)             (None, 64)           384         ['lstm_13191[0][0]']             
                                                                                                  
 dense_7721 (Dense)             (None, 64)           384         ['lstm_13193[0][0]']             
                                                                                                  
 dense_7722 (Dense)             (None, 64)           384         ['lstm_13195[0][0]']             
                                                                                                  
 bidirectional_9243 (Bidirectio  (None, 64)          9728        ['conv1d_3221[0][0]']            
 nal)                                                                                             
                                                                                                  
 dropout_7400 (Dropout)         (None, 64)           0           ['dense_7720[0][0]']             
                                                                                                  
 dropout_7401 (Dropout)         (None, 64)           0           ['dense_7721[0][0]']             
                                                                                                  
 dropout_7402 (Dropout)         (None, 64)           0           ['dense_7722[0][0]']             
                                                                                                  
 dropout_7403 (Dropout)         (None, 64)           0           ['bidirectional_9243[0][0]']     
                                                                                                  
 concatenate_1930 (Concatenate)  (None, 256)         0           ['dropout_7400[0][0]',           
                                                                  'dropout_7401[0][0]',           
                                                                  'dropout_7402[0][0]',           
                                                                  'dropout_7403[0][0]']           
                                                                                                  
 dense_7723 (Dense)             (None, 1)            257         ['concatenate_1930[0][0]']       
                                                                                                  
==================================================================================================
Total params: 13,107
Trainable params: 13,107
Non-trainable params: 0
__________________________________________________________________________________________________
…
 bidirectional_9261 (Bidirectio  (None, None, 10)    280         ['masking_9261[0][0]']           
 nal)                                                                                             
                                                                                                  
 bidirectional_9262 (Bidirectio  (None, None, 10)    280         ['masking_9262[0][0]']           
 nal)                                                                                             
                                                                                                  
 conv1d_3230 (Conv1D)           (None, 24, 5)        95          ['masking_9263[0][0]']           
                                                                                                  
 lstm_13226 (LSTM)              (None, 5)            320         ['bidirectional_9260[0][0]']     
                                                                                                  
 lstm_13228 (LSTM)              (None, 5)            320         ['bidirectional_9261[0][0]']     
                                                                                                  
 lstm_13230 (LSTM)              (None, 5)            320         ['bidirectional_9262[0][0]']     
                                                                                                  
 conv1d_3231 (Conv1D)           (None, 24, 5)        155         ['conv1d_3230[0][0]']            
                                                                                                  
 dense_7740 (Dense)             (None, 64)           384         ['lstm_13226[0][0]']             
                                                                                                  
 dense_7741 (Dense)             (None, 64)           384         ['lstm_13228[0][0]']             
                                                                                                  
 dense_7742 (Dense)             (None, 64)           384         ['lstm_13230[0][0]']             
                                                                                                  
 bidirectional_9263 (Bidirectio  (None, 64)          9728        ['conv1d_3231[0][0]']            
 nal)                                                                                             
                                                                                                  
 dropout_7420 (Dropout)         (None, 64)           0           ['dense_7740[0][0]']             
                                                                                                  
 dropout_7421 (Dropout)         (None, 64)           0           ['dense_7741[0][0]']             
                                                                                                  
 dropout_7422 (Dropout)         (None, 64)           0           ['dense_7742[0][0]']             
                                                                                                  
 dropout_7423 (Dropout)         (None, 64)           0           ['bidirectional_9263[0][0]']     
                                                                                                  
 concatenate_1935 (Concatenate)  (None, 256)         0           ['dropout_7420[0][0]',           
                                                                  'dropout_7421[0][0]',           
                                                                  'dropout_7422[0][0]',           
                                                                  'dropout_7423[0][0]']           
                                                                                                  
 dense_7743 (Dense)             (None, 1)            257         ['concatenate_1935[0][0]']       
                                                                                                  
==================================================================================================
Total params: 13,187
Trainable params: 13,187
Non-trainable params: 0
__________________________________________________________________________________________________
…
 bidirectional_9281 (Bidirectio  (None, None, 10)    280         ['masking_9281[0][0]']           
 nal)                                                                                             
                                                                                                  
 bidirectional_9282 (Bidirectio  (None, None, 10)    280         ['masking_9282[0][0]']           
 nal)                                                                                             
                                                                                                  
 conv1d_3240 (Conv1D)           (None, 24, 5)        125         ['masking_9283[0][0]']           
                                                                                                  
 lstm_13261 (LSTM)              (None, 5)            320         ['bidirectional_9280[0][0]']     
                                                                                                  
 lstm_13263 (LSTM)              (None, 5)            320         ['bidirectional_9281[0][0]']     
                                                                                                  
 lstm_13265 (LSTM)              (None, 5)            320         ['bidirectional_9282[0][0]']     
                                                                                                  
 conv1d_3241 (Conv1D)           (None, 24, 5)        205         ['conv1d_3240[0][0]']            
                                                                                                  
 dense_7760 (Dense)             (None, 64)           384         ['lstm_13261[0][0]']             
                                                                                                  
 dense_7761 (Dense)             (None, 64)           384         ['lstm_13263[0][0]']             
                                                                                                  
 dense_7762 (Dense)             (None, 64)           384         ['lstm_13265[0][0]']             
                                                                                                  
 bidirectional_9283 (Bidirectio  (None, 64)          9728        ['conv1d_3241[0][0]']            
 nal)                                                                                             
                                                                                                  
 dropout_7440 (Dropout)         (None, 64)           0           ['dense_7760[0][0]']             
                                                                                                  
 dropout_7441 (Dropout)         (None, 64)           0           ['dense_7761[0][0]']             
                                                                                                  
 dropout_7442 (Dropout)         (None, 64)           0           ['dense_7762[0][0]']             
                                                                                                  
 dropout_7443 (Dropout)         (None, 64)           0           ['bidirectional_9283[0][0]']     
                                                                                                  
 concatenate_1940 (Concatenate)  (None, 256)         0           ['dropout_7440[0][0]',           
                                                                  'dropout_7441[0][0]',           
                                                                  'dropout_7442[0][0]',           
                                                                  'dropout_7443[0][0]']           
                                                                                                  
 dense_7763 (Dense)             (None, 1)            257         ['concatenate_1940[0][0]']       
                                                                                                  
==================================================================================================
Total params: 13,267
Trainable params: 13,267
Non-trainable params: 0
__________________________________________________________________________________________________
…
 bidirectional_9301 (Bidirectio  (None, None, 10)    280         ['masking_9301[0][0]']           
 nal)                                                                                             
                                                                                                  
 bidirectional_9302 (Bidirectio  (None, None, 10)    280         ['masking_9302[0][0]']           
 nal)                                                                                             
                                                                                                  
 conv1d_3250 (Conv1D)           (None, 24, 5)        65          ['masking_9303[0][0]']           
                                                                                                  
 lstm_13296 (LSTM)              (None, 5)            320         ['bidirectional_9300[0][0]']     
                                                                                                  
 lstm_13298 (LSTM)              (None, 5)            320         ['bidirectional_9301[0][0]']     
                                                                                                  
 lstm_13300 (LSTM)              (None, 5)            320         ['bidirectional_9302[0][0]']     
                                                                                                  
 conv1d_3251 (Conv1D)           (None, 24, 5)        105         ['conv1d_3250[0][0]']            
                                                                                                  
 dense_7780 (Dense)             (None, 96)           576         ['lstm_13296[0][0]']             
                                                                                                  
 dense_7781 (Dense)             (None, 96)           576         ['lstm_13298[0][0]']             
                                                                                                  
 dense_7782 (Dense)             (None, 96)           576         ['lstm_13300[0][0]']             
                                                                                                  
 bidirectional_9303 (Bidirectio  (None, 96)          20736       ['conv1d_3251[0][0]']            
 nal)                                                                                             
                                                                                                  
 dropout_7460 (Dropout)         (None, 96)           0           ['dense_7780[0][0]']             
                                                                                                  
 dropout_7461 (Dropout)         (None, 96)           0           ['dense_7781[0][0]']             
                                                                                                  
 dropout_7462 (Dropout)         (None, 96)           0           ['dense_7782[0][0]']             
                                                                                                  
 dropout_7463 (Dropout)         (None, 96)           0           ['bidirectional_9303[0][0]']     
                                                                                                  
 concatenate_1945 (Concatenate)  (None, 384)         0           ['dropout_7460[0][0]',           
                                                                  'dropout_7461[0][0]',           
                                                                  'dropout_7462[0][0]',           
                                                                  'dropout_7463[0][0]']           
                                                                                                  
 dense_7783 (Dense)             (None, 1)            385         ['concatenate_1945[0][0]']       
                                                                                                  
==================================================================================================
Total params: 24,819
Trainable params: 24,819
Non-trainable params: 0
__________________________________________________________________________________________________
…
 bidirectional_9321 (Bidirectio  (None, None, 10)    280         ['masking_9321[0][0]']           
 nal)                                                                                             
                                                                                                  
 bidirectional_9322 (Bidirectio  (None, None, 10)    280         ['masking_9322[0][0]']           
 nal)                                                                                             
                                                                                                  
 conv1d_3260 (Conv1D)           (None, 24, 5)        95          ['masking_9323[0][0]']           
                                                                                                  
 lstm_13331 (LSTM)              (None, 5)            320         ['bidirectional_9320[0][0]']     
                                                                                                  
 lstm_13333 (LSTM)              (None, 5)            320         ['bidirectional_9321[0][0]']     
                                                                                                  
 lstm_13335 (LSTM)              (None, 5)            320         ['bidirectional_9322[0][0]']     
                                                                                                  
 conv1d_3261 (Conv1D)           (None, 24, 5)        155         ['conv1d_3260[0][0]']            
                                                                                                  
 dense_7800 (Dense)             (None, 96)           576         ['lstm_13331[0][0]']             
                                                                                                  
 dense_7801 (Dense)             (None, 96)           576         ['lstm_13333[0][0]']             
                                                                                                  
 dense_7802 (Dense)             (None, 96)           576         ['lstm_13335[0][0]']             
                                                                                                  
 bidirectional_9323 (Bidirectio  (None, 96)          20736       ['conv1d_3261[0][0]']            
 nal)                                                                                             
                                                                                                  
 dropout_7480 (Dropout)         (None, 96)           0           ['dense_7800[0][0]']             
                                                                                                  
 dropout_7481 (Dropout)         (None, 96)           0           ['dense_7801[0][0]']             
                                                                                                  
 dropout_7482 (Dropout)         (None, 96)           0           ['dense_7802[0][0]']             
                                                                                                  
 dropout_7483 (Dropout)         (None, 96)           0           ['bidirectional_9323[0][0]']     
                                                                                                  
 concatenate_1950 (Concatenate)  (None, 384)         0           ['dropout_7480[0][0]',           
                                                                  'dropout_7481[0][0]',           
                                                                  'dropout_7482[0][0]',           
                                                                  'dropout_7483[0][0]']           
                                                                                                  
 dense_7803 (Dense)             (None, 1)            385         ['concatenate_1950[0][0]']       
                                                                                                  
==================================================================================================
Total params: 24,899
Trainable params: 24,899
Non-trainable params: 0
__________________________________________________________________________________________________
…
 bidirectional_9341 (Bidirectio  (None, None, 10)    280         ['masking_9341[0][0]']           
 nal)                                                                                             
                                                                                                  
 bidirectional_9342 (Bidirectio  (None, None, 10)    280         ['masking_9342[0][0]']           
 nal)                                                                                             
                                                                                                  
 conv1d_3270 (Conv1D)           (None, 24, 5)        125         ['masking_9343[0][0]']           
                                                                                                  
 lstm_13366 (LSTM)              (None, 5)            320         ['bidirectional_9340[0][0]']     
                                                                                                  
 lstm_13368 (LSTM)              (None, 5)            320         ['bidirectional_9341[0][0]']     
                                                                                                  
 lstm_13370 (LSTM)              (None, 5)            320         ['bidirectional_9342[0][0]']     
                                                                                                  
 conv1d_3271 (Conv1D)           (None, 24, 5)        205         ['conv1d_3270[0][0]']            
                                                                                                  
 dense_7820 (Dense)             (None, 96)           576         ['lstm_13366[0][0]']             
                                                                                                  
 dense_7821 (Dense)             (None, 96)           576         ['lstm_13368[0][0]']             
                                                                                                  
 dense_7822 (Dense)             (None, 96)           576         ['lstm_13370[0][0]']             
                                                                                                  
 bidirectional_9343 (Bidirectio  (None, 96)          20736       ['conv1d_3271[0][0]']            
 nal)                                                                                             
                                                                                                  
 dropout_7500 (Dropout)         (None, 96)           0           ['dense_7820[0][0]']             
                                                                                                  
 dropout_7501 (Dropout)         (None, 96)           0           ['dense_7821[0][0]']             
                                                                                                  
 dropout_7502 (Dropout)         (None, 96)           0           ['dense_7822[0][0]']             
                                                                                                  
 dropout_7503 (Dropout)         (None, 96)           0           ['bidirectional_9343[0][0]']     
                                                                                                  
 concatenate_1955 (Concatenate)  (None, 384)         0           ['dropout_7500[0][0]',           
                                                                  'dropout_7501[0][0]',           
                                                                  'dropout_7502[0][0]',           
                                                                  'dropout_7503[0][0]']           
                                                                                                  
 dense_7823 (Dense)             (None, 1)            385         ['concatenate_1955[0][0]']       
                                                                                                  
==================================================================================================
Total params: 24,979
Trainable params: 24,979
Non-trainable params: 0
__________________________________________________________________________________________________
…
 bidirectional_9361 (Bidirectio  (None, None, 10)    280         ['masking_9361[0][0]']           
 nal)                                                                                             
                                                                                                  
 bidirectional_9362 (Bidirectio  (None, None, 10)    280         ['masking_9362[0][0]']           
 nal)                                                                                             
                                                                                                  
 conv1d_3280 (Conv1D)           (None, 24, 5)        65          ['masking_9363[0][0]']           
                                                                                                  
 lstm_13401 (LSTM)              (None, 5)            320         ['bidirectional_9360[0][0]']     
                                                                                                  
 lstm_13403 (LSTM)              (None, 5)            320         ['bidirectional_9361[0][0]']     
                                                                                                  
 lstm_13405 (LSTM)              (None, 5)            320         ['bidirectional_9362[0][0]']     
                                                                                                  
 conv1d_3281 (Conv1D)           (None, 24, 5)        105         ['conv1d_3280[0][0]']            
                                                                                                  
 dense_7840 (Dense)             (None, 128)          768         ['lstm_13401[0][0]']             
                                                                                                  
 dense_7841 (Dense)             (None, 128)          768         ['lstm_13403[0][0]']             
                                                                                                  
 dense_7842 (Dense)             (None, 128)          768         ['lstm_13405[0][0]']             
                                                                                                  
 bidirectional_9363 (Bidirectio  (None, 128)         35840       ['conv1d_3281[0][0]']            
 nal)                                                                                             
                                                                                                  
 dropout_7520 (Dropout)         (None, 128)          0           ['dense_7840[0][0]']             
                                                                                                  
 dropout_7521 (Dropout)         (None, 128)          0           ['dense_7841[0][0]']             
                                                                                                  
 dropout_7522 (Dropout)         (None, 128)          0           ['dense_7842[0][0]']             
                                                                                                  
 dropout_7523 (Dropout)         (None, 128)          0           ['bidirectional_9363[0][0]']     
                                                                                                  
 concatenate_1960 (Concatenate)  (None, 512)         0           ['dropout_7520[0][0]',           
                                                                  'dropout_7521[0][0]',           
                                                                  'dropout_7522[0][0]',           
                                                                  'dropout_7523[0][0]']           
                                                                                                  
 dense_7843 (Dense)             (None, 1)            513         ['concatenate_1960[0][0]']       
                                                                                                  
==================================================================================================
Total params: 40,627
Trainable params: 40,627
Non-trainable params: 0
__________________________________________________________________________________________________
…
 bidirectional_9381 (Bidirectio  (None, None, 10)    280         ['masking_9381[0][0]']           
 nal)                                                                                             
                                                                                                  
 bidirectional_9382 (Bidirectio  (None, None, 10)    280         ['masking_9382[0][0]']           
 nal)                                                                                             
                                                                                                  
 conv1d_3290 (Conv1D)           (None, 24, 5)        95          ['masking_9383[0][0]']           
                                                                                                  
 lstm_13436 (LSTM)              (None, 5)            320         ['bidirectional_9380[0][0]']     
                                                                                                  
 lstm_13438 (LSTM)              (None, 5)            320         ['bidirectional_9381[0][0]']     
                                                                                                  
 lstm_13440 (LSTM)              (None, 5)            320         ['bidirectional_9382[0][0]']     
                                                                                                  
 conv1d_3291 (Conv1D)           (None, 24, 5)        155         ['conv1d_3290[0][0]']            
                                                                                                  
 dense_7860 (Dense)             (None, 128)          768         ['lstm_13436[0][0]']             
                                                                                                  
 dense_7861 (Dense)             (None, 128)          768         ['lstm_13438[0][0]']             
                                                                                                  
 dense_7862 (Dense)             (None, 128)          768         ['lstm_13440[0][0]']             
                                                                                                  
 bidirectional_9383 (Bidirectio  (None, 128)         35840       ['conv1d_3291[0][0]']            
 nal)                                                                                             
                                                                                                  
 dropout_7540 (Dropout)         (None, 128)          0           ['dense_7860[0][0]']             
                                                                                                  
 dropout_7541 (Dropout)         (None, 128)          0           ['dense_7861[0][0]']             
                                                                                                  
 dropout_7542 (Dropout)         (None, 128)          0           ['dense_7862[0][0]']             
                                                                                                  
 dropout_7543 (Dropout)         (None, 128)          0           ['bidirectional_9383[0][0]']     
                                                                                                  
 concatenate_1965 (Concatenate)  (None, 512)         0           ['dropout_7540[0][0]',           
                                                                  'dropout_7541[0][0]',           
                                                                  'dropout_7542[0][0]',           
                                                                  'dropout_7543[0][0]']           
                                                                                                  
 dense_7863 (Dense)             (None, 1)            513         ['concatenate_1965[0][0]']       
                                                                                                  
==================================================================================================
Total params: 40,707
Trainable params: 40,707
Non-trainable params: 0
__________________________________________________________________________________________________
…
 bidirectional_9401 (Bidirectio  (None, None, 10)    280         ['masking_9401[0][0]']           
 nal)                                                                                             
                                                                                                  
 bidirectional_9402 (Bidirectio  (None, None, 10)    280         ['masking_9402[0][0]']           
 nal)                                                                                             
                                                                                                  
 conv1d_3300 (Conv1D)           (None, 24, 5)        125         ['masking_9403[0][0]']           
                                                                                                  
 lstm_13471 (LSTM)              (None, 5)            320         ['bidirectional_9400[0][0]']     
                                                                                                  
 lstm_13473 (LSTM)              (None, 5)            320         ['bidirectional_9401[0][0]']     
                                                                                                  
 lstm_13475 (LSTM)              (None, 5)            320         ['bidirectional_9402[0][0]']     
                                                                                                  
 conv1d_3301 (Conv1D)           (None, 24, 5)        205         ['conv1d_3300[0][0]']            
                                                                                                  
 dense_7880 (Dense)             (None, 128)          768         ['lstm_13471[0][0]']             
                                                                                                  
 dense_7881 (Dense)             (None, 128)          768         ['lstm_13473[0][0]']             
                                                                                                  
 dense_7882 (Dense)             (None, 128)          768         ['lstm_13475[0][0]']             
                                                                                                  
 bidirectional_9403 (Bidirectio  (None, 128)         35840       ['conv1d_3301[0][0]']            
 nal)                                                                                             
                                                                                                  
 dropout_7560 (Dropout)         (None, 128)          0           ['dense_7880[0][0]']             
                                                                                                  
 dropout_7561 (Dropout)         (None, 128)          0           ['dense_7881[0][0]']             
                                                                                                  
 dropout_7562 (Dropout)         (None, 128)          0           ['dense_7882[0][0]']             
                                                                                                  
 dropout_7563 (Dropout)         (None, 128)          0           ['bidirectional_9403[0][0]']     
                                                                                                  
 concatenate_1970 (Concatenate)  (None, 512)         0           ['dropout_7560[0][0]',           
                                                                  'dropout_7561[0][0]',           
                                                                  'dropout_7562[0][0]',           
                                                                  'dropout_7563[0][0]']           
                                                                                                  
 dense_7883 (Dense)             (None, 1)            513         ['concatenate_1970[0][0]']       
                                                                                                  
==================================================================================================
Total params: 40,787
Trainable params: 40,787
Non-trainable params: 0
__________________________________________________________________________________________________
…
