…
 bidirectional_9977 (Bidirectio  (None, None, 10)    280         ['masking_9977[0][0]']           
 nal)                                                                                             
                                                                                                  
 bidirectional_9978 (Bidirectio  (None, None, 10)    280         ['masking_9978[0][0]']           
 nal)                                                                                             
                                                                                                  
 conv1d_3588 (Conv1D)           (None, 24, 5)        65          ['masking_9979[0][0]']           
                                                                                                  
 lstm_14479 (LSTM)              (None, 5)            320         ['bidirectional_9976[0][0]']     
                                                                                                  
 lstm_14481 (LSTM)              (None, 5)            320         ['bidirectional_9977[0][0]']     
                                                                                                  
 lstm_14483 (LSTM)              (None, 5)            320         ['bidirectional_9978[0][0]']     
                                                                                                  
 conv1d_3589 (Conv1D)           (None, 24, 5)        105         ['conv1d_3588[0][0]']            
                                                                                                  
 dense_8456 (Dense)             (None, 64)           384         ['lstm_14479[0][0]']             
                                                                                                  
 dense_8457 (Dense)             (None, 64)           384         ['lstm_14481[0][0]']             
                                                                                                  
 dense_8458 (Dense)             (None, 64)           384         ['lstm_14483[0][0]']             
                                                                                                  
 bidirectional_9979 (Bidirectio  (None, 64)          9728        ['conv1d_3589[0][0]']            
 nal)                                                                                             
                                                                                                  
 dropout_8136 (Dropout)         (None, 64)           0           ['dense_8456[0][0]']             
                                                                                                  
 dropout_8137 (Dropout)         (None, 64)           0           ['dense_8457[0][0]']             
                                                                                                  
 dropout_8138 (Dropout)         (None, 64)           0           ['dense_8458[0][0]']             
                                                                                                  
 dropout_8139 (Dropout)         (None, 64)           0           ['bidirectional_9979[0][0]']     
                                                                                                  
 concatenate_2114 (Concatenate)  (None, 256)         0           ['dropout_8136[0][0]',           
                                                                  'dropout_8137[0][0]',           
                                                                  'dropout_8138[0][0]',           
                                                                  'dropout_8139[0][0]']           
                                                                                                  
 dense_8459 (Dense)             (None, 1)            257         ['concatenate_2114[0][0]']       
                                                                                                  
==================================================================================================
Total params: 13,107
Trainable params: 13,107
Non-trainable params: 0
__________________________________________________________________________________________________
…
 bidirectional_9997 (Bidirectio  (None, None, 10)    280         ['masking_9997[0][0]']           
 nal)                                                                                             
                                                                                                  
 bidirectional_9998 (Bidirectio  (None, None, 10)    280         ['masking_9998[0][0]']           
 nal)                                                                                             
                                                                                                  
 conv1d_3598 (Conv1D)           (None, 24, 5)        95          ['masking_9999[0][0]']           
                                                                                                  
 lstm_14514 (LSTM)              (None, 5)            320         ['bidirectional_9996[0][0]']     
                                                                                                  
 lstm_14516 (LSTM)              (None, 5)            320         ['bidirectional_9997[0][0]']     
                                                                                                  
 lstm_14518 (LSTM)              (None, 5)            320         ['bidirectional_9998[0][0]']     
                                                                                                  
 conv1d_3599 (Conv1D)           (None, 24, 5)        155         ['conv1d_3598[0][0]']            
                                                                                                  
 dense_8476 (Dense)             (None, 64)           384         ['lstm_14514[0][0]']             
                                                                                                  
 dense_8477 (Dense)             (None, 64)           384         ['lstm_14516[0][0]']             
                                                                                                  
 dense_8478 (Dense)             (None, 64)           384         ['lstm_14518[0][0]']             
                                                                                                  
 bidirectional_9999 (Bidirectio  (None, 64)          9728        ['conv1d_3599[0][0]']            
 nal)                                                                                             
                                                                                                  
 dropout_8156 (Dropout)         (None, 64)           0           ['dense_8476[0][0]']             
                                                                                                  
 dropout_8157 (Dropout)         (None, 64)           0           ['dense_8477[0][0]']             
                                                                                                  
 dropout_8158 (Dropout)         (None, 64)           0           ['dense_8478[0][0]']             
                                                                                                  
 dropout_8159 (Dropout)         (None, 64)           0           ['bidirectional_9999[0][0]']     
                                                                                                  
 concatenate_2119 (Concatenate)  (None, 256)         0           ['dropout_8156[0][0]',           
                                                                  'dropout_8157[0][0]',           
                                                                  'dropout_8158[0][0]',           
                                                                  'dropout_8159[0][0]']           
                                                                                                  
 dense_8479 (Dense)             (None, 1)            257         ['concatenate_2119[0][0]']       
                                                                                                  
==================================================================================================
Total params: 13,187
Trainable params: 13,187
Non-trainable params: 0
__________________________________________________________________________________________________
…
 bidirectional_10017 (Bidirecti  (None, None, 10)    280         ['masking_10017[0][0]']          
 onal)                                                                                            
                                                                                                  
 bidirectional_10018 (Bidirecti  (None, None, 10)    280         ['masking_10018[0][0]']          
 onal)                                                                                            
                                                                                                  
 conv1d_3608 (Conv1D)           (None, 24, 5)        125         ['masking_10019[0][0]']          
                                                                                                  
 lstm_14549 (LSTM)              (None, 5)            320         ['bidirectional_10016[0][0]']    
                                                                                                  
 lstm_14551 (LSTM)              (None, 5)            320         ['bidirectional_10017[0][0]']    
                                                                                                  
 lstm_14553 (LSTM)              (None, 5)            320         ['bidirectional_10018[0][0]']    
                                                                                                  
 conv1d_3609 (Conv1D)           (None, 24, 5)        205         ['conv1d_3608[0][0]']            
                                                                                                  
 dense_8496 (Dense)             (None, 64)           384         ['lstm_14549[0][0]']             
                                                                                                  
 dense_8497 (Dense)             (None, 64)           384         ['lstm_14551[0][0]']             
                                                                                                  
 dense_8498 (Dense)             (None, 64)           384         ['lstm_14553[0][0]']             
                                                                                                  
 bidirectional_10019 (Bidirecti  (None, 64)          9728        ['conv1d_3609[0][0]']            
 onal)                                                                                            
                                                                                                  
 dropout_8176 (Dropout)         (None, 64)           0           ['dense_8496[0][0]']             
                                                                                                  
 dropout_8177 (Dropout)         (None, 64)           0           ['dense_8497[0][0]']             
                                                                                                  
 dropout_8178 (Dropout)         (None, 64)           0           ['dense_8498[0][0]']             
                                                                                                  
 dropout_8179 (Dropout)         (None, 64)           0           ['bidirectional_10019[0][0]']    
                                                                                                  
 concatenate_2124 (Concatenate)  (None, 256)         0           ['dropout_8176[0][0]',           
                                                                  'dropout_8177[0][0]',           
                                                                  'dropout_8178[0][0]',           
                                                                  'dropout_8179[0][0]']           
                                                                                                  
 dense_8499 (Dense)             (None, 1)            257         ['concatenate_2124[0][0]']       
                                                                                                  
==================================================================================================
Total params: 13,267
Trainable params: 13,267
Non-trainable params: 0
__________________________________________________________________________________________________
…
 bidirectional_10037 (Bidirecti  (None, None, 10)    280         ['masking_10037[0][0]']          
 onal)                                                                                            
                                                                                                  
 bidirectional_10038 (Bidirecti  (None, None, 10)    280         ['masking_10038[0][0]']          
 onal)                                                                                            
                                                                                                  
 conv1d_3618 (Conv1D)           (None, 24, 5)        65          ['masking_10039[0][0]']          
                                                                                                  
 lstm_14584 (LSTM)              (None, 5)            320         ['bidirectional_10036[0][0]']    
                                                                                                  
 lstm_14586 (LSTM)              (None, 5)            320         ['bidirectional_10037[0][0]']    
                                                                                                  
 lstm_14588 (LSTM)              (None, 5)            320         ['bidirectional_10038[0][0]']    
                                                                                                  
 conv1d_3619 (Conv1D)           (None, 24, 5)        105         ['conv1d_3618[0][0]']            
                                                                                                  
 dense_8516 (Dense)             (None, 96)           576         ['lstm_14584[0][0]']             
                                                                                                  
 dense_8517 (Dense)             (None, 96)           576         ['lstm_14586[0][0]']             
                                                                                                  
 dense_8518 (Dense)             (None, 96)           576         ['lstm_14588[0][0]']             
                                                                                                  
 bidirectional_10039 (Bidirecti  (None, 96)          20736       ['conv1d_3619[0][0]']            
 onal)                                                                                            
                                                                                                  
 dropout_8196 (Dropout)         (None, 96)           0           ['dense_8516[0][0]']             
                                                                                                  
 dropout_8197 (Dropout)         (None, 96)           0           ['dense_8517[0][0]']             
                                                                                                  
 dropout_8198 (Dropout)         (None, 96)           0           ['dense_8518[0][0]']             
                                                                                                  
 dropout_8199 (Dropout)         (None, 96)           0           ['bidirectional_10039[0][0]']    
                                                                                                  
 concatenate_2129 (Concatenate)  (None, 384)         0           ['dropout_8196[0][0]',           
                                                                  'dropout_8197[0][0]',           
                                                                  'dropout_8198[0][0]',           
                                                                  'dropout_8199[0][0]']           
                                                                                                  
 dense_8519 (Dense)             (None, 1)            385         ['concatenate_2129[0][0]']       
                                                                                                  
==================================================================================================
Total params: 24,819
Trainable params: 24,819
Non-trainable params: 0
__________________________________________________________________________________________________
…
 bidirectional_10057 (Bidirecti  (None, None, 10)    280         ['masking_10057[0][0]']          
 onal)                                                                                            
                                                                                                  
 bidirectional_10058 (Bidirecti  (None, None, 10)    280         ['masking_10058[0][0]']          
 onal)                                                                                            
                                                                                                  
 conv1d_3628 (Conv1D)           (None, 24, 5)        95          ['masking_10059[0][0]']          
                                                                                                  
 lstm_14619 (LSTM)              (None, 5)            320         ['bidirectional_10056[0][0]']    
                                                                                                  
 lstm_14621 (LSTM)              (None, 5)            320         ['bidirectional_10057[0][0]']    
                                                                                                  
 lstm_14623 (LSTM)              (None, 5)            320         ['bidirectional_10058[0][0]']    
                                                                                                  
 conv1d_3629 (Conv1D)           (None, 24, 5)        155         ['conv1d_3628[0][0]']            
                                                                                                  
 dense_8536 (Dense)             (None, 96)           576         ['lstm_14619[0][0]']             
                                                                                                  
 dense_8537 (Dense)             (None, 96)           576         ['lstm_14621[0][0]']             
                                                                                                  
 dense_8538 (Dense)             (None, 96)           576         ['lstm_14623[0][0]']             
                                                                                                  
 bidirectional_10059 (Bidirecti  (None, 96)          20736       ['conv1d_3629[0][0]']            
 onal)                                                                                            
                                                                                                  
 dropout_8216 (Dropout)         (None, 96)           0           ['dense_8536[0][0]']             
                                                                                                  
 dropout_8217 (Dropout)         (None, 96)           0           ['dense_8537[0][0]']             
                                                                                                  
 dropout_8218 (Dropout)         (None, 96)           0           ['dense_8538[0][0]']             
                                                                                                  
 dropout_8219 (Dropout)         (None, 96)           0           ['bidirectional_10059[0][0]']    
                                                                                                  
 concatenate_2134 (Concatenate)  (None, 384)         0           ['dropout_8216[0][0]',           
                                                                  'dropout_8217[0][0]',           
                                                                  'dropout_8218[0][0]',           
                                                                  'dropout_8219[0][0]']           
                                                                                                  
 dense_8539 (Dense)             (None, 1)            385         ['concatenate_2134[0][0]']       
                                                                                                  
==================================================================================================
Total params: 24,899
Trainable params: 24,899
Non-trainable params: 0
__________________________________________________________________________________________________
…
 bidirectional_10077 (Bidirecti  (None, None, 10)    280         ['masking_10077[0][0]']          
 onal)                                                                                            
                                                                                                  
 bidirectional_10078 (Bidirecti  (None, None, 10)    280         ['masking_10078[0][0]']          
 onal)                                                                                            
                                                                                                  
 conv1d_3638 (Conv1D)           (None, 24, 5)        125         ['masking_10079[0][0]']          
                                                                                                  
 lstm_14654 (LSTM)              (None, 5)            320         ['bidirectional_10076[0][0]']    
                                                                                                  
 lstm_14656 (LSTM)              (None, 5)            320         ['bidirectional_10077[0][0]']    
                                                                                                  
 lstm_14658 (LSTM)              (None, 5)            320         ['bidirectional_10078[0][0]']    
                                                                                                  
 conv1d_3639 (Conv1D)           (None, 24, 5)        205         ['conv1d_3638[0][0]']            
                                                                                                  
 dense_8556 (Dense)             (None, 96)           576         ['lstm_14654[0][0]']             
                                                                                                  
 dense_8557 (Dense)             (None, 96)           576         ['lstm_14656[0][0]']             
                                                                                                  
 dense_8558 (Dense)             (None, 96)           576         ['lstm_14658[0][0]']             
                                                                                                  
 bidirectional_10079 (Bidirecti  (None, 96)          20736       ['conv1d_3639[0][0]']            
 onal)                                                                                            
                                                                                                  
 dropout_8236 (Dropout)         (None, 96)           0           ['dense_8556[0][0]']             
                                                                                                  
 dropout_8237 (Dropout)         (None, 96)           0           ['dense_8557[0][0]']             
                                                                                                  
 dropout_8238 (Dropout)         (None, 96)           0           ['dense_8558[0][0]']             
                                                                                                  
 dropout_8239 (Dropout)         (None, 96)           0           ['bidirectional_10079[0][0]']    
                                                                                                  
 concatenate_2139 (Concatenate)  (None, 384)         0           ['dropout_8236[0][0]',           
                                                                  'dropout_8237[0][0]',           
                                                                  'dropout_8238[0][0]',           
                                                                  'dropout_8239[0][0]']           
                                                                                                  
 dense_8559 (Dense)             (None, 1)            385         ['concatenate_2139[0][0]']       
                                                                                                  
==================================================================================================
Total params: 24,979
Trainable params: 24,979
Non-trainable params: 0
__________________________________________________________________________________________________
…
 bidirectional_10097 (Bidirecti  (None, None, 10)    280         ['masking_10097[0][0]']          
 onal)                                                                                            
                                                                                                  
 bidirectional_10098 (Bidirecti  (None, None, 10)    280         ['masking_10098[0][0]']          
 onal)                                                                                            
                                                                                                  
 conv1d_3648 (Conv1D)           (None, 24, 5)        65          ['masking_10099[0][0]']          
                                                                                                  
 lstm_14689 (LSTM)              (None, 5)            320         ['bidirectional_10096[0][0]']    
                                                                                                  
 lstm_14691 (LSTM)              (None, 5)            320         ['bidirectional_10097[0][0]']    
                                                                                                  
 lstm_14693 (LSTM)              (None, 5)            320         ['bidirectional_10098[0][0]']    
                                                                                                  
 conv1d_3649 (Conv1D)           (None, 24, 5)        105         ['conv1d_3648[0][0]']            
                                                                                                  
 dense_8576 (Dense)             (None, 128)          768         ['lstm_14689[0][0]']             
                                                                                                  
 dense_8577 (Dense)             (None, 128)          768         ['lstm_14691[0][0]']             
                                                                                                  
 dense_8578 (Dense)             (None, 128)          768         ['lstm_14693[0][0]']             
                                                                                                  
 bidirectional_10099 (Bidirecti  (None, 128)         35840       ['conv1d_3649[0][0]']            
 onal)                                                                                            
                                                                                                  
 dropout_8256 (Dropout)         (None, 128)          0           ['dense_8576[0][0]']             
                                                                                                  
 dropout_8257 (Dropout)         (None, 128)          0           ['dense_8577[0][0]']             
                                                                                                  
 dropout_8258 (Dropout)         (None, 128)          0           ['dense_8578[0][0]']             
                                                                                                  
 dropout_8259 (Dropout)         (None, 128)          0           ['bidirectional_10099[0][0]']    
                                                                                                  
 concatenate_2144 (Concatenate)  (None, 512)         0           ['dropout_8256[0][0]',           
                                                                  'dropout_8257[0][0]',           
                                                                  'dropout_8258[0][0]',           
                                                                  'dropout_8259[0][0]']           
                                                                                                  
 dense_8579 (Dense)             (None, 1)            513         ['concatenate_2144[0][0]']       
                                                                                                  
==================================================================================================
Total params: 40,627
Trainable params: 40,627
Non-trainable params: 0
__________________________________________________________________________________________________
…
 bidirectional_10117 (Bidirecti  (None, None, 10)    280         ['masking_10117[0][0]']          
 onal)                                                                                            
                                                                                                  
 bidirectional_10118 (Bidirecti  (None, None, 10)    280         ['masking_10118[0][0]']          
 onal)                                                                                            
                                                                                                  
 conv1d_3658 (Conv1D)           (None, 24, 5)        95          ['masking_10119[0][0]']          
                                                                                                  
 lstm_14724 (LSTM)              (None, 5)            320         ['bidirectional_10116[0][0]']    
                                                                                                  
 lstm_14726 (LSTM)              (None, 5)            320         ['bidirectional_10117[0][0]']    
                                                                                                  
 lstm_14728 (LSTM)              (None, 5)            320         ['bidirectional_10118[0][0]']    
                                                                                                  
 conv1d_3659 (Conv1D)           (None, 24, 5)        155         ['conv1d_3658[0][0]']            
                                                                                                  
 dense_8596 (Dense)             (None, 128)          768         ['lstm_14724[0][0]']             
                                                                                                  
 dense_8597 (Dense)             (None, 128)          768         ['lstm_14726[0][0]']             
                                                                                                  
 dense_8598 (Dense)             (None, 128)          768         ['lstm_14728[0][0]']             
                                                                                                  
 bidirectional_10119 (Bidirecti  (None, 128)         35840       ['conv1d_3659[0][0]']            
 onal)                                                                                            
                                                                                                  
 dropout_8276 (Dropout)         (None, 128)          0           ['dense_8596[0][0]']             
                                                                                                  
 dropout_8277 (Dropout)         (None, 128)          0           ['dense_8597[0][0]']             
                                                                                                  
 dropout_8278 (Dropout)         (None, 128)          0           ['dense_8598[0][0]']             
                                                                                                  
 dropout_8279 (Dropout)         (None, 128)          0           ['bidirectional_10119[0][0]']    
                                                                                                  
 concatenate_2149 (Concatenate)  (None, 512)         0           ['dropout_8276[0][0]',           
                                                                  'dropout_8277[0][0]',           
                                                                  'dropout_8278[0][0]',           
                                                                  'dropout_8279[0][0]']           
                                                                                                  
 dense_8599 (Dense)             (None, 1)            513         ['concatenate_2149[0][0]']       
                                                                                                  
==================================================================================================
Total params: 40,707
Trainable params: 40,707
Non-trainable params: 0
__________________________________________________________________________________________________
…
 bidirectional_10137 (Bidirecti  (None, None, 10)    280         ['masking_10137[0][0]']          
 onal)                                                                                            
                                                                                                  
 bidirectional_10138 (Bidirecti  (None, None, 10)    280         ['masking_10138[0][0]']          
 onal)                                                                                            
                                                                                                  
 conv1d_3668 (Conv1D)           (None, 24, 5)        125         ['masking_10139[0][0]']          
                                                                                                  
 lstm_14759 (LSTM)              (None, 5)            320         ['bidirectional_10136[0][0]']    
                                                                                                  
 lstm_14761 (LSTM)              (None, 5)            320         ['bidirectional_10137[0][0]']    
                                                                                                  
 lstm_14763 (LSTM)              (None, 5)            320         ['bidirectional_10138[0][0]']    
                                                                                                  
 conv1d_3669 (Conv1D)           (None, 24, 5)        205         ['conv1d_3668[0][0]']            
                                                                                                  
 dense_8616 (Dense)             (None, 128)          768         ['lstm_14759[0][0]']             
                                                                                                  
 dense_8617 (Dense)             (None, 128)          768         ['lstm_14761[0][0]']             
                                                                                                  
 dense_8618 (Dense)             (None, 128)          768         ['lstm_14763[0][0]']             
                                                                                                  
 bidirectional_10139 (Bidirecti  (None, 128)         35840       ['conv1d_3669[0][0]']            
 onal)                                                                                            
                                                                                                  
 dropout_8296 (Dropout)         (None, 128)          0           ['dense_8616[0][0]']             
                                                                                                  
 dropout_8297 (Dropout)         (None, 128)          0           ['dense_8617[0][0]']             
                                                                                                  
 dropout_8298 (Dropout)         (None, 128)          0           ['dense_8618[0][0]']             
                                                                                                  
 dropout_8299 (Dropout)         (None, 128)          0           ['bidirectional_10139[0][0]']    
                                                                                                  
 concatenate_2154 (Concatenate)  (None, 512)         0           ['dropout_8296[0][0]',           
                                                                  'dropout_8297[0][0]',           
                                                                  'dropout_8298[0][0]',           
                                                                  'dropout_8299[0][0]']           
                                                                                                  
 dense_8619 (Dense)             (None, 1)            513         ['concatenate_2154[0][0]']       
                                                                                                  
==================================================================================================
Total params: 40,787
Trainable params: 40,787
Non-trainable params: 0
__________________________________________________________________________________________________
…
