…
 bidirectional_11183 (Bidirecti  (None, None, 10)    280         ['masking_11183[0][0]']          
 onal)                                                                                            
                                                                                                  
 bidirectional_11184 (Bidirecti  (None, None, 10)    280         ['masking_11184[0][0]']          
 onal)                                                                                            
                                                                                                  
 conv1d_3956 (Conv1D)           (None, 25, 5)        1885        ['masking_11185[0][0]']          
                                                                                                  
 lstm_16247 (LSTM)              (None, 5)            320         ['bidirectional_11182[0][0]']    
                                                                                                  
 lstm_16249 (LSTM)              (None, 5)            320         ['bidirectional_11183[0][0]']    
                                                                                                  
 lstm_16251 (LSTM)              (None, 5)            320         ['bidirectional_11184[0][0]']    
                                                                                                  
 conv1d_3957 (Conv1D)           (None, 25, 5)        105         ['conv1d_3956[0][0]']            
                                                                                                  
 dense_9512 (Dense)             (None, 64)           384         ['lstm_16247[0][0]']             
                                                                                                  
 dense_9513 (Dense)             (None, 64)           384         ['lstm_16249[0][0]']             
                                                                                                  
 dense_9514 (Dense)             (None, 64)           384         ['lstm_16251[0][0]']             
                                                                                                  
 bidirectional_11185 (Bidirecti  (None, 64)          9728        ['conv1d_3957[0][0]']            
 onal)                                                                                            
                                                                                                  
 dropout_9112 (Dropout)         (None, 64)           0           ['dense_9512[0][0]']             
                                                                                                  
 dropout_9113 (Dropout)         (None, 64)           0           ['dense_9513[0][0]']             
                                                                                                  
 dropout_9114 (Dropout)         (None, 64)           0           ['dense_9514[0][0]']             
                                                                                                  
 dropout_9115 (Dropout)         (None, 64)           0           ['bidirectional_11185[0][0]']    
                                                                                                  
 concatenate_2378 (Concatenate)  (None, 256)         0           ['dropout_9112[0][0]',           
                                                                  'dropout_9113[0][0]',           
                                                                  'dropout_9114[0][0]',           
                                                                  'dropout_9115[0][0]']           
                                                                                                  
 dense_9515 (Dense)             (None, 1)            257         ['concatenate_2378[0][0]']       
                                                                                                  
==================================================================================================
Total params: 14,927
Trainable params: 14,927
Non-trainable params: 0
__________________________________________________________________________________________________
…
 bidirectional_11203 (Bidirecti  (None, None, 10)    280         ['masking_11203[0][0]']          
 onal)                                                                                            
                                                                                                  
 bidirectional_11204 (Bidirecti  (None, None, 10)    280         ['masking_11204[0][0]']          
 onal)                                                                                            
                                                                                                  
 conv1d_3966 (Conv1D)           (None, 25, 5)        2825        ['masking_11205[0][0]']          
                                                                                                  
 lstm_16282 (LSTM)              (None, 5)            320         ['bidirectional_11202[0][0]']    
                                                                                                  
 lstm_16284 (LSTM)              (None, 5)            320         ['bidirectional_11203[0][0]']    
                                                                                                  
 lstm_16286 (LSTM)              (None, 5)            320         ['bidirectional_11204[0][0]']    
                                                                                                  
 conv1d_3967 (Conv1D)           (None, 25, 5)        155         ['conv1d_3966[0][0]']            
                                                                                                  
 dense_9532 (Dense)             (None, 64)           384         ['lstm_16282[0][0]']             
                                                                                                  
 dense_9533 (Dense)             (None, 64)           384         ['lstm_16284[0][0]']             
                                                                                                  
 dense_9534 (Dense)             (None, 64)           384         ['lstm_16286[0][0]']             
                                                                                                  
 bidirectional_11205 (Bidirecti  (None, 64)          9728        ['conv1d_3967[0][0]']            
 onal)                                                                                            
                                                                                                  
 dropout_9132 (Dropout)         (None, 64)           0           ['dense_9532[0][0]']             
                                                                                                  
 dropout_9133 (Dropout)         (None, 64)           0           ['dense_9533[0][0]']             
                                                                                                  
 dropout_9134 (Dropout)         (None, 64)           0           ['dense_9534[0][0]']             
                                                                                                  
 dropout_9135 (Dropout)         (None, 64)           0           ['bidirectional_11205[0][0]']    
                                                                                                  
 concatenate_2383 (Concatenate)  (None, 256)         0           ['dropout_9132[0][0]',           
                                                                  'dropout_9133[0][0]',           
                                                                  'dropout_9134[0][0]',           
                                                                  'dropout_9135[0][0]']           
                                                                                                  
 dense_9535 (Dense)             (None, 1)            257         ['concatenate_2383[0][0]']       
                                                                                                  
==================================================================================================
Total params: 15,917
Trainable params: 15,917
Non-trainable params: 0
__________________________________________________________________________________________________
…
 bidirectional_11223 (Bidirecti  (None, None, 10)    280         ['masking_11223[0][0]']          
 onal)                                                                                            
                                                                                                  
 bidirectional_11224 (Bidirecti  (None, None, 10)    280         ['masking_11224[0][0]']          
 onal)                                                                                            
                                                                                                  
 conv1d_3976 (Conv1D)           (None, 25, 5)        3765        ['masking_11225[0][0]']          
                                                                                                  
 lstm_16317 (LSTM)              (None, 5)            320         ['bidirectional_11222[0][0]']    
                                                                                                  
 lstm_16319 (LSTM)              (None, 5)            320         ['bidirectional_11223[0][0]']    
                                                                                                  
 lstm_16321 (LSTM)              (None, 5)            320         ['bidirectional_11224[0][0]']    
                                                                                                  
 conv1d_3977 (Conv1D)           (None, 25, 5)        205         ['conv1d_3976[0][0]']            
                                                                                                  
 dense_9552 (Dense)             (None, 64)           384         ['lstm_16317[0][0]']             
                                                                                                  
 dense_9553 (Dense)             (None, 64)           384         ['lstm_16319[0][0]']             
                                                                                                  
 dense_9554 (Dense)             (None, 64)           384         ['lstm_16321[0][0]']             
                                                                                                  
 bidirectional_11225 (Bidirecti  (None, 64)          9728        ['conv1d_3977[0][0]']            
 onal)                                                                                            
                                                                                                  
 dropout_9152 (Dropout)         (None, 64)           0           ['dense_9552[0][0]']             
                                                                                                  
 dropout_9153 (Dropout)         (None, 64)           0           ['dense_9553[0][0]']             
                                                                                                  
 dropout_9154 (Dropout)         (None, 64)           0           ['dense_9554[0][0]']             
                                                                                                  
 dropout_9155 (Dropout)         (None, 64)           0           ['bidirectional_11225[0][0]']    
                                                                                                  
 concatenate_2388 (Concatenate)  (None, 256)         0           ['dropout_9152[0][0]',           
                                                                  'dropout_9153[0][0]',           
                                                                  'dropout_9154[0][0]',           
                                                                  'dropout_9155[0][0]']           
                                                                                                  
 dense_9555 (Dense)             (None, 1)            257         ['concatenate_2388[0][0]']       
                                                                                                  
==================================================================================================
Total params: 16,907
Trainable params: 16,907
Non-trainable params: 0
__________________________________________________________________________________________________
…
 bidirectional_11243 (Bidirecti  (None, None, 10)    280         ['masking_11243[0][0]']          
 onal)                                                                                            
                                                                                                  
 bidirectional_11244 (Bidirecti  (None, None, 10)    280         ['masking_11244[0][0]']          
 onal)                                                                                            
                                                                                                  
 conv1d_3986 (Conv1D)           (None, 25, 5)        1885        ['masking_11245[0][0]']          
                                                                                                  
 lstm_16352 (LSTM)              (None, 5)            320         ['bidirectional_11242[0][0]']    
                                                                                                  
 lstm_16354 (LSTM)              (None, 5)            320         ['bidirectional_11243[0][0]']    
                                                                                                  
 lstm_16356 (LSTM)              (None, 5)            320         ['bidirectional_11244[0][0]']    
                                                                                                  
 conv1d_3987 (Conv1D)           (None, 25, 5)        105         ['conv1d_3986[0][0]']            
                                                                                                  
 dense_9572 (Dense)             (None, 96)           576         ['lstm_16352[0][0]']             
                                                                                                  
 dense_9573 (Dense)             (None, 96)           576         ['lstm_16354[0][0]']             
                                                                                                  
 dense_9574 (Dense)             (None, 96)           576         ['lstm_16356[0][0]']             
                                                                                                  
 bidirectional_11245 (Bidirecti  (None, 96)          20736       ['conv1d_3987[0][0]']            
 onal)                                                                                            
                                                                                                  
 dropout_9172 (Dropout)         (None, 96)           0           ['dense_9572[0][0]']             
                                                                                                  
 dropout_9173 (Dropout)         (None, 96)           0           ['dense_9573[0][0]']             
                                                                                                  
 dropout_9174 (Dropout)         (None, 96)           0           ['dense_9574[0][0]']             
                                                                                                  
 dropout_9175 (Dropout)         (None, 96)           0           ['bidirectional_11245[0][0]']    
                                                                                                  
 concatenate_2393 (Concatenate)  (None, 384)         0           ['dropout_9172[0][0]',           
                                                                  'dropout_9173[0][0]',           
                                                                  'dropout_9174[0][0]',           
                                                                  'dropout_9175[0][0]']           
                                                                                                  
 dense_9575 (Dense)             (None, 1)            385         ['concatenate_2393[0][0]']       
                                                                                                  
==================================================================================================
Total params: 26,639
Trainable params: 26,639
Non-trainable params: 0
__________________________________________________________________________________________________
…
 bidirectional_11263 (Bidirecti  (None, None, 10)    280         ['masking_11263[0][0]']          
 onal)                                                                                            
                                                                                                  
 bidirectional_11264 (Bidirecti  (None, None, 10)    280         ['masking_11264[0][0]']          
 onal)                                                                                            
                                                                                                  
 conv1d_3996 (Conv1D)           (None, 25, 5)        2825        ['masking_11265[0][0]']          
                                                                                                  
 lstm_16387 (LSTM)              (None, 5)            320         ['bidirectional_11262[0][0]']    
                                                                                                  
 lstm_16389 (LSTM)              (None, 5)            320         ['bidirectional_11263[0][0]']    
                                                                                                  
 lstm_16391 (LSTM)              (None, 5)            320         ['bidirectional_11264[0][0]']    
                                                                                                  
 conv1d_3997 (Conv1D)           (None, 25, 5)        155         ['conv1d_3996[0][0]']            
                                                                                                  
 dense_9592 (Dense)             (None, 96)           576         ['lstm_16387[0][0]']             
                                                                                                  
 dense_9593 (Dense)             (None, 96)           576         ['lstm_16389[0][0]']             
                                                                                                  
 dense_9594 (Dense)             (None, 96)           576         ['lstm_16391[0][0]']             
                                                                                                  
 bidirectional_11265 (Bidirecti  (None, 96)          20736       ['conv1d_3997[0][0]']            
 onal)                                                                                            
                                                                                                  
 dropout_9192 (Dropout)         (None, 96)           0           ['dense_9592[0][0]']             
                                                                                                  
 dropout_9193 (Dropout)         (None, 96)           0           ['dense_9593[0][0]']             
                                                                                                  
 dropout_9194 (Dropout)         (None, 96)           0           ['dense_9594[0][0]']             
                                                                                                  
 dropout_9195 (Dropout)         (None, 96)           0           ['bidirectional_11265[0][0]']    
                                                                                                  
 concatenate_2398 (Concatenate)  (None, 384)         0           ['dropout_9192[0][0]',           
                                                                  'dropout_9193[0][0]',           
                                                                  'dropout_9194[0][0]',           
                                                                  'dropout_9195[0][0]']           
                                                                                                  
 dense_9595 (Dense)             (None, 1)            385         ['concatenate_2398[0][0]']       
                                                                                                  
==================================================================================================
Total params: 27,629
Trainable params: 27,629
Non-trainable params: 0
__________________________________________________________________________________________________
…
 bidirectional_11283 (Bidirecti  (None, None, 10)    280         ['masking_11283[0][0]']          
 onal)                                                                                            
                                                                                                  
 bidirectional_11284 (Bidirecti  (None, None, 10)    280         ['masking_11284[0][0]']          
 onal)                                                                                            
                                                                                                  
 conv1d_4006 (Conv1D)           (None, 25, 5)        3765        ['masking_11285[0][0]']          
                                                                                                  
 lstm_16422 (LSTM)              (None, 5)            320         ['bidirectional_11282[0][0]']    
                                                                                                  
 lstm_16424 (LSTM)              (None, 5)            320         ['bidirectional_11283[0][0]']    
                                                                                                  
 lstm_16426 (LSTM)              (None, 5)            320         ['bidirectional_11284[0][0]']    
                                                                                                  
 conv1d_4007 (Conv1D)           (None, 25, 5)        205         ['conv1d_4006[0][0]']            
                                                                                                  
 dense_9612 (Dense)             (None, 96)           576         ['lstm_16422[0][0]']             
                                                                                                  
 dense_9613 (Dense)             (None, 96)           576         ['lstm_16424[0][0]']             
                                                                                                  
 dense_9614 (Dense)             (None, 96)           576         ['lstm_16426[0][0]']             
                                                                                                  
 bidirectional_11285 (Bidirecti  (None, 96)          20736       ['conv1d_4007[0][0]']            
 onal)                                                                                            
                                                                                                  
 dropout_9212 (Dropout)         (None, 96)           0           ['dense_9612[0][0]']             
                                                                                                  
 dropout_9213 (Dropout)         (None, 96)           0           ['dense_9613[0][0]']             
                                                                                                  
 dropout_9214 (Dropout)         (None, 96)           0           ['dense_9614[0][0]']             
                                                                                                  
 dropout_9215 (Dropout)         (None, 96)           0           ['bidirectional_11285[0][0]']    
                                                                                                  
 concatenate_2403 (Concatenate)  (None, 384)         0           ['dropout_9212[0][0]',           
                                                                  'dropout_9213[0][0]',           
                                                                  'dropout_9214[0][0]',           
                                                                  'dropout_9215[0][0]']           
                                                                                                  
 dense_9615 (Dense)             (None, 1)            385         ['concatenate_2403[0][0]']       
                                                                                                  
==================================================================================================
Total params: 28,619
Trainable params: 28,619
Non-trainable params: 0
__________________________________________________________________________________________________
…
 bidirectional_11303 (Bidirecti  (None, None, 10)    280         ['masking_11303[0][0]']          
 onal)                                                                                            
                                                                                                  
 bidirectional_11304 (Bidirecti  (None, None, 10)    280         ['masking_11304[0][0]']          
 onal)                                                                                            
                                                                                                  
 conv1d_4016 (Conv1D)           (None, 25, 5)        1885        ['masking_11305[0][0]']          
                                                                                                  
 lstm_16457 (LSTM)              (None, 5)            320         ['bidirectional_11302[0][0]']    
                                                                                                  
 lstm_16459 (LSTM)              (None, 5)            320         ['bidirectional_11303[0][0]']    
                                                                                                  
 lstm_16461 (LSTM)              (None, 5)            320         ['bidirectional_11304[0][0]']    
                                                                                                  
 conv1d_4017 (Conv1D)           (None, 25, 5)        105         ['conv1d_4016[0][0]']            
                                                                                                  
 dense_9632 (Dense)             (None, 128)          768         ['lstm_16457[0][0]']             
                                                                                                  
 dense_9633 (Dense)             (None, 128)          768         ['lstm_16459[0][0]']             
                                                                                                  
 dense_9634 (Dense)             (None, 128)          768         ['lstm_16461[0][0]']             
                                                                                                  
 bidirectional_11305 (Bidirecti  (None, 128)         35840       ['conv1d_4017[0][0]']            
 onal)                                                                                            
                                                                                                  
 dropout_9232 (Dropout)         (None, 128)          0           ['dense_9632[0][0]']             
                                                                                                  
 dropout_9233 (Dropout)         (None, 128)          0           ['dense_9633[0][0]']             
                                                                                                  
 dropout_9234 (Dropout)         (None, 128)          0           ['dense_9634[0][0]']             
                                                                                                  
 dropout_9235 (Dropout)         (None, 128)          0           ['bidirectional_11305[0][0]']    
                                                                                                  
 concatenate_2408 (Concatenate)  (None, 512)         0           ['dropout_9232[0][0]',           
                                                                  'dropout_9233[0][0]',           
                                                                  'dropout_9234[0][0]',           
                                                                  'dropout_9235[0][0]']           
                                                                                                  
 dense_9635 (Dense)             (None, 1)            513         ['concatenate_2408[0][0]']       
                                                                                                  
==================================================================================================
Total params: 42,447
Trainable params: 42,447
Non-trainable params: 0
__________________________________________________________________________________________________
…
 bidirectional_11323 (Bidirecti  (None, None, 10)    280         ['masking_11323[0][0]']          
 onal)                                                                                            
                                                                                                  
 bidirectional_11324 (Bidirecti  (None, None, 10)    280         ['masking_11324[0][0]']          
 onal)                                                                                            
                                                                                                  
 conv1d_4026 (Conv1D)           (None, 25, 5)        2825        ['masking_11325[0][0]']          
                                                                                                  
 lstm_16492 (LSTM)              (None, 5)            320         ['bidirectional_11322[0][0]']    
                                                                                                  
 lstm_16494 (LSTM)              (None, 5)            320         ['bidirectional_11323[0][0]']    
                                                                                                  
 lstm_16496 (LSTM)              (None, 5)            320         ['bidirectional_11324[0][0]']    
                                                                                                  
 conv1d_4027 (Conv1D)           (None, 25, 5)        155         ['conv1d_4026[0][0]']            
                                                                                                  
 dense_9652 (Dense)             (None, 128)          768         ['lstm_16492[0][0]']             
                                                                                                  
 dense_9653 (Dense)             (None, 128)          768         ['lstm_16494[0][0]']             
                                                                                                  
 dense_9654 (Dense)             (None, 128)          768         ['lstm_16496[0][0]']             
                                                                                                  
 bidirectional_11325 (Bidirecti  (None, 128)         35840       ['conv1d_4027[0][0]']            
 onal)                                                                                            
                                                                                                  
 dropout_9252 (Dropout)         (None, 128)          0           ['dense_9652[0][0]']             
                                                                                                  
 dropout_9253 (Dropout)         (None, 128)          0           ['dense_9653[0][0]']             
                                                                                                  
 dropout_9254 (Dropout)         (None, 128)          0           ['dense_9654[0][0]']             
                                                                                                  
 dropout_9255 (Dropout)         (None, 128)          0           ['bidirectional_11325[0][0]']    
                                                                                                  
 concatenate_2413 (Concatenate)  (None, 512)         0           ['dropout_9252[0][0]',           
                                                                  'dropout_9253[0][0]',           
                                                                  'dropout_9254[0][0]',           
                                                                  'dropout_9255[0][0]']           
                                                                                                  
 dense_9655 (Dense)             (None, 1)            513         ['concatenate_2413[0][0]']       
                                                                                                  
==================================================================================================
Total params: 43,437
Trainable params: 43,437
Non-trainable params: 0
__________________________________________________________________________________________________
…
 bidirectional_11343 (Bidirecti  (None, None, 10)    280         ['masking_11343[0][0]']          
 onal)                                                                                            
                                                                                                  
 bidirectional_11344 (Bidirecti  (None, None, 10)    280         ['masking_11344[0][0]']          
 onal)                                                                                            
                                                                                                  
 conv1d_4036 (Conv1D)           (None, 25, 5)        3765        ['masking_11345[0][0]']          
                                                                                                  
 lstm_16527 (LSTM)              (None, 5)            320         ['bidirectional_11342[0][0]']    
                                                                                                  
 lstm_16529 (LSTM)              (None, 5)            320         ['bidirectional_11343[0][0]']    
                                                                                                  
 lstm_16531 (LSTM)              (None, 5)            320         ['bidirectional_11344[0][0]']    
                                                                                                  
 conv1d_4037 (Conv1D)           (None, 25, 5)        205         ['conv1d_4036[0][0]']            
                                                                                                  
 dense_9672 (Dense)             (None, 128)          768         ['lstm_16527[0][0]']             
                                                                                                  
 dense_9673 (Dense)             (None, 128)          768         ['lstm_16529[0][0]']             
                                                                                                  
 dense_9674 (Dense)             (None, 128)          768         ['lstm_16531[0][0]']             
                                                                                                  
 bidirectional_11345 (Bidirecti  (None, 128)         35840       ['conv1d_4037[0][0]']            
 onal)                                                                                            
                                                                                                  
 dropout_9272 (Dropout)         (None, 128)          0           ['dense_9672[0][0]']             
                                                                                                  
 dropout_9273 (Dropout)         (None, 128)          0           ['dense_9673[0][0]']             
                                                                                                  
 dropout_9274 (Dropout)         (None, 128)          0           ['dense_9674[0][0]']             
                                                                                                  
 dropout_9275 (Dropout)         (None, 128)          0           ['bidirectional_11345[0][0]']    
                                                                                                  
 concatenate_2418 (Concatenate)  (None, 512)         0           ['dropout_9272[0][0]',           
                                                                  'dropout_9273[0][0]',           
                                                                  'dropout_9274[0][0]',           
                                                                  'dropout_9275[0][0]']           
                                                                                                  
 dense_9675 (Dense)             (None, 1)            513         ['concatenate_2418[0][0]']       
                                                                                                  
==================================================================================================
Total params: 44,427
Trainable params: 44,427
Non-trainable params: 0
__________________________________________________________________________________________________
…
